{
  "format": "graph-model",
  "generatedBy": "https://github.com/google/mediapipe",
  "convertedBy": "https://github.com/vladmandic",
  "signature":
  {
      "inputs":
      {
          "input_1:0": {"name":"input_1:0","dtype":"DT_FLOAT","tensorShape":{"dim":[{"size":"1"},{"size":"256"},{"size":"256"},{"size":"3"}]}}
      },
      "outputs":
      {
          "Identity_4:0": {"name":"Identity_4:0","dtype":"DT_FLOAT","tensorShape":{"dim":[{"size":"1"},{"size":"117"}]}},
          "Identity_1:0": {"name":"Identity_1:0","dtype":"DT_FLOAT","tensorShape":{"dim":[{"size":"1"},{"size":"1"}]}},
          "Identity:0": {"name":"Identity:0","dtype":"DT_FLOAT","tensorShape":{"dim":[{"size":"1"},{"size":"195"}]}},
          "Identity_3:0": {"name":"Identity_3:0","dtype":"DT_FLOAT","tensorShape":{"dim":[{"size":"1"},{"size":"64"},{"size":"64"},{"size":"39"}]}},
          "Identity_2:0": {"name":"Identity_2:0","dtype":"DT_FLOAT","tensorShape":{"dim":[{"size":"1"},{"size":"256"},{"size":"256"},{"size":"1"}]}}
      }
  },
  "modelTopology":
  {
      "node":
      [
          {"name":"Conv2D_44/filter","op":"Const","attr":{"dtype":{"type":"DT_FLOAT"},"value":{"tensor":{"dtype":"DT_FLOAT","tensorShape":{"dim":[{"size":"2"},{"size":"2"},{"size":"288"},{"size":"195"}]}}}}},
          {"name":"model_1/model/convld_3d/BiasAdd_model_1/model/convld_3d/Conv2D_model_1/model/convld_3d/BiasAdd/ReadVariableOp/resource1/y","op":"Const","attr":{"value":{"tensor":{"dtype":"DT_FLOAT","tensorShape":{"dim":[{"size":"195"}]}}},"dtype":{"type":"DT_FLOAT"}}},
          {"name":"Identity/shape","op":"Const","attr":{"value":{"tensor":{"dtype":"DT_INT32","tensorShape":{"dim":[{"size":"2"}]}}},"dtype":{"type":"DT_INT32"}}},
          {"name":"Conv2D_46/filter","op":"Const","attr":{"value":{"tensor":{"dtype":"DT_FLOAT","tensorShape":{"dim":[{"size":"2"},{"size":"2"},{"size":"288"},{"size":"1"}]}}},"dtype":{"type":"DT_FLOAT"}}},
          {"name":"model_1/model/conv_poseflag/BiasAdd_model_1/model/output_segmentation/Conv2D_model_1/model/conv_poseflag/Conv2D_model_1/model/conv_poseflag/BiasAdd/ReadVariableOp/resource1/y","op":"Const","attr":{"value":{"tensor":{"dtype":"DT_FLOAT","tensorShape":{"dim":[{"size":"1"}]}}},"dtype":{"type":"DT_FLOAT"}}},
          {"name":"Identity_1/shape","op":"Const","attr":{"value":{"tensor":{"dtype":"DT_INT32","tensorShape":{"dim":[{"size":"2"}]}}},"dtype":{"type":"DT_INT32"}}},
          {"name":"model_1/model/batch_normalization_68/FusedBatchNormV3_model_1/model/conv2d_52/Conv2D1/y","op":"Const","attr":{"dtype":{"type":"DT_FLOAT"},"value":{"tensor":{"dtype":"DT_FLOAT","tensorShape":{"dim":[{"size":"8"}]}}}}},
          {"name":"model_1/model/batch_normalization_67/FusedBatchNormV3_model_1/model/conv2d_52/Conv2D_model_1/model/conv2d_51/Conv2D1/y","op":"Const","attr":{"dtype":{"type":"DT_FLOAT"},"value":{"tensor":{"dtype":"DT_FLOAT","tensorShape":{"dim":[{"size":"8"}]}}}}},
          {"name":"model_1/model/batch_normalization_66/FusedBatchNormV3_model_1/model/conv2d_52/Conv2D_model_1/model/conv2d_50/Conv2D1/y","op":"Const","attr":{"dtype":{"type":"DT_FLOAT"},"value":{"tensor":{"dtype":"DT_FLOAT","tensorShape":{"dim":[{"size":"8"}]}}}}},
          {"name":"model_1/model/batch_normalization_65/FusedBatchNormV3_model_1/model/conv2d_52/Conv2D_model_1/model/conv2d_49/Conv2D1/y","op":"Const","attr":{"dtype":{"type":"DT_FLOAT"},"value":{"tensor":{"dtype":"DT_FLOAT","tensorShape":{"dim":[{"size":"8"}]}}}}},
          {"name":"depthwise_33/filter_in","op":"Const","attr":{"value":{"tensor":{"dtype":"DT_FLOAT","tensorShape":{"dim":[{"size":"3"},{"size":"3"},{"size":"48"},{"size":"1"}]}}},"dtype":{"type":"DT_FLOAT"}}},
          {"name":"Conv2D_51/filter","op":"Const","attr":{"dtype":{"type":"DT_FLOAT"},"value":{"tensor":{"dtype":"DT_FLOAT","tensorShape":{"dim":[{"size":"1"},{"size":"1"},{"size":"48"},{"size":"8"}]}}}}},
          {"name":"Add_49/y","op":"Const","attr":{"dtype":{"type":"DT_FLOAT"},"value":{"tensor":{"dtype":"DT_FLOAT","tensorShape":{"dim":[{"size":"8"}]}}}}},
          {"name":"model_1/model/up_sampling2d_3/resize/ResizeBilinear_lambda/resize/size","op":"Const","attr":{"value":{"tensor":{"dtype":"DT_INT32","tensorShape":{"dim":[{"size":"2"}]}}},"dtype":{"type":"DT_INT32"}}},
          {"name":"depthwise_32/filter_in","op":"Const","attr":{"dtype":{"type":"DT_FLOAT"},"value":{"tensor":{"dtype":"DT_FLOAT","tensorShape":{"dim":[{"size":"3"},{"size":"3"},{"size":"16"},{"size":"1"}]}}}}},
          {"name":"Conv2D_50/filter","op":"Const","attr":{"dtype":{"type":"DT_FLOAT"},"value":{"tensor":{"dtype":"DT_FLOAT","tensorShape":{"dim":[{"size":"1"},{"size":"1"},{"size":"16"},{"size":"8"}]}}}}},
          {"name":"Add_48/y","op":"Const","attr":{"dtype":{"type":"DT_FLOAT"},"value":{"tensor":{"dtype":"DT_FLOAT","tensorShape":{"dim":[{"size":"8"}]}}}}},
          {"name":"depthwise_34/filter_in","op":"Const","attr":{"dtype":{"type":"DT_FLOAT"},"value":{"tensor":{"dtype":"DT_FLOAT","tensorShape":{"dim":[{"size":"3"},{"size":"3"},{"size":"8"},{"size":"1"}]}}}}},
          {"name":"Conv2D_53/filter","op":"Const","attr":{"dtype":{"type":"DT_FLOAT"},"value":{"tensor":{"dtype":"DT_FLOAT","tensorShape":{"dim":[{"size":"1"},{"size":"1"},{"size":"8"},{"size":"8"}]}}}}},
          {"name":"depthwise_35/filter_in","op":"Const","attr":{"dtype":{"type":"DT_FLOAT"},"value":{"tensor":{"dtype":"DT_FLOAT","tensorShape":{"dim":[{"size":"3"},{"size":"3"},{"size":"8"},{"size":"1"}]}}}}},
          {"name":"Conv2D_54/filter","op":"Const","attr":{"value":{"tensor":{"dtype":"DT_FLOAT","tensorShape":{"dim":[{"size":"1"},{"size":"1"},{"size":"8"},{"size":"8"}]}}},"dtype":{"type":"DT_FLOAT"}}},
          {"name":"model_1/model/up_sampling2d_4/resize/ResizeBilinear_lambda/resize/size","op":"Const","attr":{"dtype":{"type":"DT_INT32"},"value":{"tensor":{"dtype":"DT_INT32","tensorShape":{"dim":[{"size":"2"}]}}}}},
          {"name":"depthwise_36/filter_in","op":"Const","attr":{"value":{"tensor":{"dtype":"DT_FLOAT","tensorShape":{"dim":[{"size":"3"},{"size":"3"},{"size":"8"},{"size":"1"}]}}},"dtype":{"type":"DT_FLOAT"}}},
          {"name":"Conv2D_55/filter","op":"Const","attr":{"value":{"tensor":{"dtype":"DT_FLOAT","tensorShape":{"dim":[{"size":"1"},{"size":"1"},{"size":"8"},{"size":"8"}]}}},"dtype":{"type":"DT_FLOAT"}}},
          {"name":"depthwise_37/filter_in","op":"Const","attr":{"value":{"tensor":{"dtype":"DT_FLOAT","tensorShape":{"dim":[{"size":"3"},{"size":"3"},{"size":"8"},{"size":"1"}]}}},"dtype":{"type":"DT_FLOAT"}}},
          {"name":"Conv2D_56/filter","op":"Const","attr":{"dtype":{"type":"DT_FLOAT"},"value":{"tensor":{"dtype":"DT_FLOAT","tensorShape":{"dim":[{"size":"1"},{"size":"1"},{"size":"8"},{"size":"8"}]}}}}},
          {"name":"Conv2D_57/filter","op":"Const","attr":{"dtype":{"type":"DT_FLOAT"},"value":{"tensor":{"dtype":"DT_FLOAT","tensorShape":{"dim":[{"size":"3"},{"size":"3"},{"size":"8"},{"size":"1"}]}}}}},
          {"name":"Identity_2/y","op":"Const","attr":{"value":{"tensor":{"dtype":"DT_FLOAT","tensorShape":{"dim":[{"size":"1"}]}}},"dtype":{"type":"DT_FLOAT"}}},
          {"name":"depthwise_16/filter_in","op":"Const","attr":{"dtype":{"type":"DT_FLOAT"},"value":{"tensor":{"dtype":"DT_FLOAT","tensorShape":{"dim":[{"size":"3"},{"size":"3"},{"size":"864"},{"size":"1"}]}}}}},
          {"name":"Conv2D_31/filter","op":"Const","attr":{"value":{"tensor":{"dtype":"DT_FLOAT","tensorShape":{"dim":[{"size":"1"},{"size":"1"},{"size":"864"},{"size":"48"}]}}},"dtype":{"type":"DT_FLOAT"}}},
          {"name":"Add_32/y","op":"Const","attr":{"value":{"tensor":{"dtype":"DT_FLOAT","tensorShape":{"dim":[{"size":"48"}]}}},"dtype":{"type":"DT_FLOAT"}}},
          {"name":"model_1/model/up_sampling2d/resize/ResizeBilinear_lambda/resize/size","op":"Const","attr":{"value":{"tensor":{"dtype":"DT_INT32","tensorShape":{"dim":[{"size":"2"}]}}},"dtype":{"type":"DT_INT32"}}},
          {"name":"depthwise_29/filter_in","op":"Const","attr":{"dtype":{"type":"DT_FLOAT"},"value":{"tensor":{"dtype":"DT_FLOAT","tensorShape":{"dim":[{"size":"3"},{"size":"3"},{"size":"88"},{"size":"1"}]}}}}},
          {"name":"Conv2D_47/filter","op":"Const","attr":{"value":{"tensor":{"dtype":"DT_FLOAT","tensorShape":{"dim":[{"size":"1"},{"size":"1"},{"size":"88"},{"size":"48"}]}}},"dtype":{"type":"DT_FLOAT"}}},
          {"name":"Add_45/y","op":"Const","attr":{"dtype":{"type":"DT_FLOAT"},"value":{"tensor":{"dtype":"DT_FLOAT","tensorShape":{"dim":[{"size":"48"}]}}}}},
          {"name":"model_1/model/up_sampling2d_1/resize/ResizeBilinear_lambda/resize/size","op":"Const","attr":{"dtype":{"type":"DT_INT32"},"value":{"tensor":{"dtype":"DT_INT32","tensorShape":{"dim":[{"size":"2"}]}}}}},
          {"name":"depthwise_30/filter_in","op":"Const","attr":{"dtype":{"type":"DT_FLOAT"},"value":{"tensor":{"dtype":"DT_FLOAT","tensorShape":{"dim":[{"size":"3"},{"size":"3"},{"size":"32"},{"size":"1"}]}}}}},
          {"name":"Conv2D_48/filter","op":"Const","attr":{"value":{"tensor":{"dtype":"DT_FLOAT","tensorShape":{"dim":[{"size":"1"},{"size":"1"},{"size":"32"},{"size":"48"}]}}},"dtype":{"type":"DT_FLOAT"}}},
          {"name":"Add_46/y","op":"Const","attr":{"value":{"tensor":{"dtype":"DT_FLOAT","tensorShape":{"dim":[{"size":"48"}]}}},"dtype":{"type":"DT_FLOAT"}}},
          {"name":"model_1/model/up_sampling2d_2/resize/ResizeBilinear_lambda/resize/size","op":"Const","attr":{"value":{"tensor":{"dtype":"DT_INT32","tensorShape":{"dim":[{"size":"2"}]}}},"dtype":{"type":"DT_INT32"}}},
          {"name":"depthwise_31/filter_in","op":"Const","attr":{"value":{"tensor":{"dtype":"DT_FLOAT","tensorShape":{"dim":[{"size":"3"},{"size":"3"},{"size":"24"},{"size":"1"}]}}},"dtype":{"type":"DT_FLOAT"}}},
          {"name":"Conv2D_49/filter","op":"Const","attr":{"dtype":{"type":"DT_FLOAT"},"value":{"tensor":{"dtype":"DT_FLOAT","tensorShape":{"dim":[{"size":"1"},{"size":"1"},{"size":"24"},{"size":"48"}]}}}}},
          {"name":"Add_47/y","op":"Const","attr":{"dtype":{"type":"DT_FLOAT"},"value":{"tensor":{"dtype":"DT_FLOAT","tensorShape":{"dim":[{"size":"48"}]}}}}},
          {"name":"Conv2D_52/filter","op":"Const","attr":{"value":{"tensor":{"dtype":"DT_FLOAT","tensorShape":{"dim":[{"size":"1"},{"size":"1"},{"size":"48"},{"size":"39"}]}}},"dtype":{"type":"DT_FLOAT"}}},
          {"name":"Identity_3/y","op":"Const","attr":{"dtype":{"type":"DT_FLOAT"},"value":{"tensor":{"dtype":"DT_FLOAT","tensorShape":{"dim":[{"size":"39"}]}}}}},
          {"name":"model_1/model/batch_normalization_44/FusedBatchNormV3_model_1/model/conv2d_29/Conv2D1/y","op":"Const","attr":{"value":{"tensor":{"dtype":"DT_FLOAT","tensorShape":{"dim":[{"size":"144"}]}}},"dtype":{"type":"DT_FLOAT"}}},
          {"name":"Conv2D_28/filter","op":"Const","attr":{"dtype":{"type":"DT_FLOAT"},"value":{"tensor":{"dtype":"DT_FLOAT","tensorShape":{"dim":[{"size":"1"},{"size":"1"},{"size":"144"},{"size":"864"}]}}}}},
          {"name":"Add_28/y","op":"Const","attr":{"dtype":{"type":"DT_FLOAT"},"value":{"tensor":{"dtype":"DT_FLOAT","tensorShape":{"dim":[{"size":"864"}]}}}}},
          {"name":"depthwise_14/filter_in","op":"Const","attr":{"value":{"tensor":{"dtype":"DT_FLOAT","tensorShape":{"dim":[{"size":"5"},{"size":"5"},{"size":"864"},{"size":"1"}]}}},"dtype":{"type":"DT_FLOAT"}}},
          {"name":"Add_29/y","op":"Const","attr":{"dtype":{"type":"DT_FLOAT"},"value":{"tensor":{"dtype":"DT_FLOAT","tensorShape":{"dim":[{"size":"864"}]}}}}},
          {"name":"Conv2D_29/filter","op":"Const","attr":{"dtype":{"type":"DT_FLOAT"},"value":{"tensor":{"dtype":"DT_FLOAT","tensorShape":{"dim":[{"size":"1"},{"size":"1"},{"size":"864"},{"size":"144"}]}}}}},
          {"name":"model_1/model/batch_normalization_41/FusedBatchNormV3_model_1/model/conv2d_29/Conv2D_model_1/model/conv2d_27/Conv2D1/y","op":"Const","attr":{"value":{"tensor":{"dtype":"DT_FLOAT","tensorShape":{"dim":[{"size":"144"}]}}},"dtype":{"type":"DT_FLOAT"}}},
          {"name":"Conv2D_26/filter","op":"Const","attr":{"dtype":{"type":"DT_FLOAT"},"value":{"tensor":{"dtype":"DT_FLOAT","tensorShape":{"dim":[{"size":"1"},{"size":"1"},{"size":"144"},{"size":"864"}]}}}}},
          {"name":"Add_26/y","op":"Const","attr":{"value":{"tensor":{"dtype":"DT_FLOAT","tensorShape":{"dim":[{"size":"864"}]}}},"dtype":{"type":"DT_FLOAT"}}},
          {"name":"depthwise_13/filter_in","op":"Const","attr":{"dtype":{"type":"DT_FLOAT"},"value":{"tensor":{"dtype":"DT_FLOAT","tensorShape":{"dim":[{"size":"5"},{"size":"5"},{"size":"864"},{"size":"1"}]}}}}},
          {"name":"Add_27/y","op":"Const","attr":{"dtype":{"type":"DT_FLOAT"},"value":{"tensor":{"dtype":"DT_FLOAT","tensorShape":{"dim":[{"size":"864"}]}}}}},
          {"name":"Conv2D_27/filter","op":"Const","attr":{"dtype":{"type":"DT_FLOAT"},"value":{"tensor":{"dtype":"DT_FLOAT","tensorShape":{"dim":[{"size":"1"},{"size":"1"},{"size":"864"},{"size":"144"}]}}}}},
          {"name":"model_1/model/batch_normalization_38/FusedBatchNormV3_model_1/model/conv2d_29/Conv2D_model_1/model/conv2d_25/Conv2D1/y","op":"Const","attr":{"dtype":{"type":"DT_FLOAT"},"value":{"tensor":{"dtype":"DT_FLOAT","tensorShape":{"dim":[{"size":"144"}]}}}}},
          {"name":"Conv2D_24/filter","op":"Const","attr":{"dtype":{"type":"DT_FLOAT"},"value":{"tensor":{"dtype":"DT_FLOAT","tensorShape":{"dim":[{"size":"1"},{"size":"1"},{"size":"144"},{"size":"864"}]}}}}},
          {"name":"Add_24/y","op":"Const","attr":{"value":{"tensor":{"dtype":"DT_FLOAT","tensorShape":{"dim":[{"size":"864"}]}}},"dtype":{"type":"DT_FLOAT"}}},
          {"name":"depthwise_12/filter_in","op":"Const","attr":{"dtype":{"type":"DT_FLOAT"},"value":{"tensor":{"dtype":"DT_FLOAT","tensorShape":{"dim":[{"size":"5"},{"size":"5"},{"size":"864"},{"size":"1"}]}}}}},
          {"name":"Add_25/y","op":"Const","attr":{"dtype":{"type":"DT_FLOAT"},"value":{"tensor":{"dtype":"DT_FLOAT","tensorShape":{"dim":[{"size":"864"}]}}}}},
          {"name":"Conv2D_25/filter","op":"Const","attr":{"dtype":{"type":"DT_FLOAT"},"value":{"tensor":{"dtype":"DT_FLOAT","tensorShape":{"dim":[{"size":"1"},{"size":"1"},{"size":"864"},{"size":"144"}]}}}}},
          {"name":"model_1/model/batch_normalization_32/FusedBatchNormV3_model_1/model/depthwise_conv2d_17/depthwise_model_1/model/conv2d_21/Conv2D1/y","op":"Const","attr":{"dtype":{"type":"DT_FLOAT"},"value":{"tensor":{"dtype":"DT_FLOAT","tensorShape":{"dim":[{"size":"88"}]}}}}},
          {"name":"Conv2D_20/filter","op":"Const","attr":{"dtype":{"type":"DT_FLOAT"},"value":{"tensor":{"dtype":"DT_FLOAT","tensorShape":{"dim":[{"size":"1"},{"size":"1"},{"size":"88"},{"size":"528"}]}}}}},
          {"name":"Add_20/y","op":"Const","attr":{"dtype":{"type":"DT_FLOAT"},"value":{"tensor":{"dtype":"DT_FLOAT","tensorShape":{"dim":[{"size":"528"}]}}}}},
          {"name":"depthwise_10/filter_in","op":"Const","attr":{"dtype":{"type":"DT_FLOAT"},"value":{"tensor":{"dtype":"DT_FLOAT","tensorShape":{"dim":[{"size":"5"},{"size":"5"},{"size":"528"},{"size":"1"}]}}}}},
          {"name":"Add_21/y","op":"Const","attr":{"dtype":{"type":"DT_FLOAT"},"value":{"tensor":{"dtype":"DT_FLOAT","tensorShape":{"dim":[{"size":"528"}]}}}}},
          {"name":"Conv2D_21/filter","op":"Const","attr":{"dtype":{"type":"DT_FLOAT"},"value":{"tensor":{"dtype":"DT_FLOAT","tensorShape":{"dim":[{"size":"1"},{"size":"1"},{"size":"528"},{"size":"88"}]}}}}},
          {"name":"model_1/model/batch_normalization_29/FusedBatchNormV3_model_1/model/depthwise_conv2d_17/depthwise_model_1/model/conv2d_19/Conv2D1/y","op":"Const","attr":{"dtype":{"type":"DT_FLOAT"},"value":{"tensor":{"dtype":"DT_FLOAT","tensorShape":{"dim":[{"size":"88"}]}}}}},
          {"name":"Conv2D_18/filter","op":"Const","attr":{"value":{"tensor":{"dtype":"DT_FLOAT","tensorShape":{"dim":[{"size":"1"},{"size":"1"},{"size":"88"},{"size":"528"}]}}},"dtype":{"type":"DT_FLOAT"}}},
          {"name":"Add_18/y","op":"Const","attr":{"dtype":{"type":"DT_FLOAT"},"value":{"tensor":{"dtype":"DT_FLOAT","tensorShape":{"dim":[{"size":"528"}]}}}}},
          {"name":"depthwise_9/filter_in","op":"Const","attr":{"dtype":{"type":"DT_FLOAT"},"value":{"tensor":{"dtype":"DT_FLOAT","tensorShape":{"dim":[{"size":"5"},{"size":"5"},{"size":"528"},{"size":"1"}]}}}}},
          {"name":"Add_19/y","op":"Const","attr":{"value":{"tensor":{"dtype":"DT_FLOAT","tensorShape":{"dim":[{"size":"528"}]}}},"dtype":{"type":"DT_FLOAT"}}},
          {"name":"Conv2D_19/filter","op":"Const","attr":{"dtype":{"type":"DT_FLOAT"},"value":{"tensor":{"dtype":"DT_FLOAT","tensorShape":{"dim":[{"size":"1"},{"size":"1"},{"size":"528"},{"size":"88"}]}}}}},
          {"name":"model_1/model/batch_normalization_23/FusedBatchNormV3_model_1/model/conv2d_15/Conv2D1/y","op":"Const","attr":{"dtype":{"type":"DT_FLOAT"},"value":{"tensor":{"dtype":"DT_FLOAT","tensorShape":{"dim":[{"size":"64"}]}}}}},
          {"name":"Conv2D_14/filter","op":"Const","attr":{"value":{"tensor":{"dtype":"DT_FLOAT","tensorShape":{"dim":[{"size":"1"},{"size":"1"},{"size":"64"},{"size":"384"}]}}},"dtype":{"type":"DT_FLOAT"}}},
          {"name":"Add_14/y","op":"Const","attr":{"value":{"tensor":{"dtype":"DT_FLOAT","tensorShape":{"dim":[{"size":"384"}]}}},"dtype":{"type":"DT_FLOAT"}}},
          {"name":"depthwise_7/filter_in","op":"Const","attr":{"dtype":{"type":"DT_FLOAT"},"value":{"tensor":{"dtype":"DT_FLOAT","tensorShape":{"dim":[{"size":"3"},{"size":"3"},{"size":"384"},{"size":"1"}]}}}}},
          {"name":"Add_15/y","op":"Const","attr":{"value":{"tensor":{"dtype":"DT_FLOAT","tensorShape":{"dim":[{"size":"384"}]}}},"dtype":{"type":"DT_FLOAT"}}},
          {"name":"Conv2D_15/filter","op":"Const","attr":{"dtype":{"type":"DT_FLOAT"},"value":{"tensor":{"dtype":"DT_FLOAT","tensorShape":{"dim":[{"size":"1"},{"size":"1"},{"size":"384"},{"size":"64"}]}}}}},
          {"name":"model_1/model/batch_normalization_20/FusedBatchNormV3_model_1/model/conv2d_15/Conv2D_model_1/model/conv2d_13/Conv2D1/y","op":"Const","attr":{"value":{"tensor":{"dtype":"DT_FLOAT","tensorShape":{"dim":[{"size":"64"}]}}},"dtype":{"type":"DT_FLOAT"}}},
          {"name":"Conv2D_12/filter","op":"Const","attr":{"value":{"tensor":{"dtype":"DT_FLOAT","tensorShape":{"dim":[{"size":"1"},{"size":"1"},{"size":"64"},{"size":"384"}]}}},"dtype":{"type":"DT_FLOAT"}}},
          {"name":"Add_12/y","op":"Const","attr":{"dtype":{"type":"DT_FLOAT"},"value":{"tensor":{"dtype":"DT_FLOAT","tensorShape":{"dim":[{"size":"384"}]}}}}},
          {"name":"depthwise_6/filter_in","op":"Const","attr":{"dtype":{"type":"DT_FLOAT"},"value":{"tensor":{"dtype":"DT_FLOAT","tensorShape":{"dim":[{"size":"3"},{"size":"3"},{"size":"384"},{"size":"1"}]}}}}},
          {"name":"Add_13/y","op":"Const","attr":{"value":{"tensor":{"dtype":"DT_FLOAT","tensorShape":{"dim":[{"size":"384"}]}}},"dtype":{"type":"DT_FLOAT"}}},
          {"name":"Conv2D_13/filter","op":"Const","attr":{"dtype":{"type":"DT_FLOAT"},"value":{"tensor":{"dtype":"DT_FLOAT","tensorShape":{"dim":[{"size":"1"},{"size":"1"},{"size":"384"},{"size":"64"}]}}}}},
          {"name":"model_1/model/batch_normalization_14/FusedBatchNormV3_model_1/model/depthwise_conv2d_18/depthwise_model_1/model/conv2d_9/Conv2D1/y","op":"Const","attr":{"dtype":{"type":"DT_FLOAT"},"value":{"tensor":{"dtype":"DT_FLOAT","tensorShape":{"dim":[{"size":"32"}]}}}}},
          {"name":"Conv2D_8/filter","op":"Const","attr":{"dtype":{"type":"DT_FLOAT"},"value":{"tensor":{"dtype":"DT_FLOAT","tensorShape":{"dim":[{"size":"1"},{"size":"1"},{"size":"32"},{"size":"192"}]}}}}},
          {"name":"Add_8/y","op":"Const","attr":{"dtype":{"type":"DT_FLOAT"},"value":{"tensor":{"dtype":"DT_FLOAT","tensorShape":{"dim":[{"size":"192"}]}}}}},
          {"name":"depthwise_4/filter_in","op":"Const","attr":{"value":{"tensor":{"dtype":"DT_FLOAT","tensorShape":{"dim":[{"size":"5"},{"size":"5"},{"size":"192"},{"size":"1"}]}}},"dtype":{"type":"DT_FLOAT"}}},
          {"name":"Add_9/y","op":"Const","attr":{"value":{"tensor":{"dtype":"DT_FLOAT","tensorShape":{"dim":[{"size":"192"}]}}},"dtype":{"type":"DT_FLOAT"}}},
          {"name":"Conv2D_9/filter","op":"Const","attr":{"value":{"tensor":{"dtype":"DT_FLOAT","tensorShape":{"dim":[{"size":"1"},{"size":"1"},{"size":"192"},{"size":"32"}]}}},"dtype":{"type":"DT_FLOAT"}}},
          {"name":"model_1/model/batch_normalization_8/FusedBatchNormV3_model_1/model/depthwise_conv2d_19/depthwise_model_1/model/conv2d_5/Conv2D1/y","op":"Const","attr":{"value":{"tensor":{"dtype":"DT_FLOAT","tensorShape":{"dim":[{"size":"24"}]}}},"dtype":{"type":"DT_FLOAT"}}},
          {"name":"Conv2D_4/filter","op":"Const","attr":{"value":{"tensor":{"dtype":"DT_FLOAT","tensorShape":{"dim":[{"size":"1"},{"size":"1"},{"size":"24"},{"size":"144"}]}}},"dtype":{"type":"DT_FLOAT"}}},
          {"name":"Add_4/y","op":"Const","attr":{"dtype":{"type":"DT_FLOAT"},"value":{"tensor":{"dtype":"DT_FLOAT","tensorShape":{"dim":[{"size":"144"}]}}}}},
          {"name":"depthwise_2/filter_in","op":"Const","attr":{"dtype":{"type":"DT_FLOAT"},"value":{"tensor":{"dtype":"DT_FLOAT","tensorShape":{"dim":[{"size":"3"},{"size":"3"},{"size":"144"},{"size":"1"}]}}}}},
          {"name":"Add_5/y","op":"Const","attr":{"value":{"tensor":{"dtype":"DT_FLOAT","tensorShape":{"dim":[{"size":"144"}]}}},"dtype":{"type":"DT_FLOAT"}}},
          {"name":"Conv2D_5/filter","op":"Const","attr":{"dtype":{"type":"DT_FLOAT"},"value":{"tensor":{"dtype":"DT_FLOAT","tensorShape":{"dim":[{"size":"1"},{"size":"1"},{"size":"144"},{"size":"24"}]}}}}},
          {"name":"model_1/model/tf_op_layer_stem/Pad/stem/Pad/paddings","op":"Const","attr":{"value":{"tensor":{"dtype":"DT_INT32","tensorShape":{"dim":[{"size":"4"},{"size":"2"}]}}},"dtype":{"type":"DT_INT32"}}},
          {"name":"Conv2D/filter","op":"Const","attr":{"dtype":{"type":"DT_FLOAT"},"value":{"tensor":{"dtype":"DT_FLOAT","tensorShape":{"dim":[{"size":"3"},{"size":"3"},{"size":"3"},{"size":"24"}]}}}}},
          {"name":"Add/y","op":"Const","attr":{"dtype":{"type":"DT_FLOAT"},"value":{"tensor":{"dtype":"DT_FLOAT","tensorShape":{"dim":[{"size":"24"}]}}}}},
          {"name":"depthwise/filter_in","op":"Const","attr":{"dtype":{"type":"DT_FLOAT"},"value":{"tensor":{"dtype":"DT_FLOAT","tensorShape":{"dim":[{"size":"3"},{"size":"3"},{"size":"24"},{"size":"1"}]}}}}},
          {"name":"Add_1/y","op":"Const","attr":{"dtype":{"type":"DT_FLOAT"},"value":{"tensor":{"dtype":"DT_FLOAT","tensorShape":{"dim":[{"size":"24"}]}}}}},
          {"name":"Conv2D_1/filter","op":"Const","attr":{"dtype":{"type":"DT_FLOAT"},"value":{"tensor":{"dtype":"DT_FLOAT","tensorShape":{"dim":[{"size":"1"},{"size":"1"},{"size":"24"},{"size":"16"}]}}}}},
          {"name":"model_1/model/batch_normalization_2/FusedBatchNormV3_model_1/model/depthwise_conv2d_32/depthwise_model_1/model/conv2d_1/Conv2D1/y","op":"Const","attr":{"value":{"tensor":{"dtype":"DT_FLOAT","tensorShape":{"dim":[{"size":"16"}]}}},"dtype":{"type":"DT_FLOAT"}}},
          {"name":"Conv2D_2/filter","op":"Const","attr":{"dtype":{"type":"DT_FLOAT"},"value":{"tensor":{"dtype":"DT_FLOAT","tensorShape":{"dim":[{"size":"1"},{"size":"1"},{"size":"16"},{"size":"64"}]}}}}},
          {"name":"Add_2/y","op":"Const","attr":{"dtype":{"type":"DT_FLOAT"},"value":{"tensor":{"dtype":"DT_FLOAT","tensorShape":{"dim":[{"size":"64"}]}}}}},
          {"name":"model_1/model/tf_op_layer_blocks_1/Pad/blocks_1/Pad/paddings","op":"Const","attr":{"value":{"tensor":{"dtype":"DT_INT32","tensorShape":{"dim":[{"size":"4"},{"size":"2"}]}}},"dtype":{"type":"DT_INT32"}}},
          {"name":"depthwise_1/filter_in","op":"Const","attr":{"dtype":{"type":"DT_FLOAT"},"value":{"tensor":{"dtype":"DT_FLOAT","tensorShape":{"dim":[{"size":"3"},{"size":"3"},{"size":"64"},{"size":"1"}]}}}}},
          {"name":"Add_3/y","op":"Const","attr":{"value":{"tensor":{"dtype":"DT_FLOAT","tensorShape":{"dim":[{"size":"64"}]}}},"dtype":{"type":"DT_FLOAT"}}},
          {"name":"Conv2D_3/filter","op":"Const","attr":{"value":{"tensor":{"dtype":"DT_FLOAT","tensorShape":{"dim":[{"size":"1"},{"size":"1"},{"size":"64"},{"size":"24"}]}}},"dtype":{"type":"DT_FLOAT"}}},
          {"name":"model_1/model/batch_normalization_5/FusedBatchNormV3_model_1/model/depthwise_conv2d_19/depthwise_model_1/model/conv2d_3/Conv2D1/y","op":"Const","attr":{"dtype":{"type":"DT_FLOAT"},"value":{"tensor":{"dtype":"DT_FLOAT","tensorShape":{"dim":[{"size":"24"}]}}}}},
          {"name":"Conv2D_6/filter","op":"Const","attr":{"dtype":{"type":"DT_FLOAT"},"value":{"tensor":{"dtype":"DT_FLOAT","tensorShape":{"dim":[{"size":"1"},{"size":"1"},{"size":"24"},{"size":"144"}]}}}}},
          {"name":"Add_6/y","op":"Const","attr":{"dtype":{"type":"DT_FLOAT"},"value":{"tensor":{"dtype":"DT_FLOAT","tensorShape":{"dim":[{"size":"144"}]}}}}},
          {"name":"model_1/model/tf_op_layer_blocks_3/Pad/blocks_3/Pad/paddings","op":"Const","attr":{"value":{"tensor":{"dtype":"DT_INT32","tensorShape":{"dim":[{"size":"4"},{"size":"2"}]}}},"dtype":{"type":"DT_INT32"}}},
          {"name":"depthwise_3/filter_in","op":"Const","attr":{"dtype":{"type":"DT_FLOAT"},"value":{"tensor":{"dtype":"DT_FLOAT","tensorShape":{"dim":[{"size":"5"},{"size":"5"},{"size":"144"},{"size":"1"}]}}}}},
          {"name":"Add_7/y","op":"Const","attr":{"dtype":{"type":"DT_FLOAT"},"value":{"tensor":{"dtype":"DT_FLOAT","tensorShape":{"dim":[{"size":"144"}]}}}}},
          {"name":"Conv2D_7/filter","op":"Const","attr":{"dtype":{"type":"DT_FLOAT"},"value":{"tensor":{"dtype":"DT_FLOAT","tensorShape":{"dim":[{"size":"1"},{"size":"1"},{"size":"144"},{"size":"32"}]}}}}},
          {"name":"model_1/model/batch_normalization_11/FusedBatchNormV3_model_1/model/depthwise_conv2d_18/depthwise_model_1/model/conv2d_7/Conv2D1/y","op":"Const","attr":{"dtype":{"type":"DT_FLOAT"},"value":{"tensor":{"dtype":"DT_FLOAT","tensorShape":{"dim":[{"size":"32"}]}}}}},
          {"name":"Conv2D_10/filter","op":"Const","attr":{"dtype":{"type":"DT_FLOAT"},"value":{"tensor":{"dtype":"DT_FLOAT","tensorShape":{"dim":[{"size":"1"},{"size":"1"},{"size":"32"},{"size":"192"}]}}}}},
          {"name":"Add_10/y","op":"Const","attr":{"value":{"tensor":{"dtype":"DT_FLOAT","tensorShape":{"dim":[{"size":"192"}]}}},"dtype":{"type":"DT_FLOAT"}}},
          {"name":"model_1/model/tf_op_layer_blocks_5/Pad/blocks_5/Pad/paddings","op":"Const","attr":{"value":{"tensor":{"dtype":"DT_INT32","tensorShape":{"dim":[{"size":"4"},{"size":"2"}]}}},"dtype":{"type":"DT_INT32"}}},
          {"name":"depthwise_5/filter_in","op":"Const","attr":{"dtype":{"type":"DT_FLOAT"},"value":{"tensor":{"dtype":"DT_FLOAT","tensorShape":{"dim":[{"size":"3"},{"size":"3"},{"size":"192"},{"size":"1"}]}}}}},
          {"name":"Add_11/y","op":"Const","attr":{"value":{"tensor":{"dtype":"DT_FLOAT","tensorShape":{"dim":[{"size":"192"}]}}},"dtype":{"type":"DT_FLOAT"}}},
          {"name":"Conv2D_11/filter","op":"Const","attr":{"value":{"tensor":{"dtype":"DT_FLOAT","tensorShape":{"dim":[{"size":"1"},{"size":"1"},{"size":"192"},{"size":"64"}]}}},"dtype":{"type":"DT_FLOAT"}}},
          {"name":"model_1/model/batch_normalization_17/FusedBatchNormV3_model_1/model/conv2d_15/Conv2D_model_1/model/conv2d_11/Conv2D1/y","op":"Const","attr":{"value":{"tensor":{"dtype":"DT_FLOAT","tensorShape":{"dim":[{"size":"64"}]}}},"dtype":{"type":"DT_FLOAT"}}},
          {"name":"Conv2D_16/filter","op":"Const","attr":{"dtype":{"type":"DT_FLOAT"},"value":{"tensor":{"dtype":"DT_FLOAT","tensorShape":{"dim":[{"size":"1"},{"size":"1"},{"size":"64"},{"size":"384"}]}}}}},
          {"name":"Add_16/y","op":"Const","attr":{"value":{"tensor":{"dtype":"DT_FLOAT","tensorShape":{"dim":[{"size":"384"}]}}},"dtype":{"type":"DT_FLOAT"}}},
          {"name":"depthwise_8/filter_in","op":"Const","attr":{"dtype":{"type":"DT_FLOAT"},"value":{"tensor":{"dtype":"DT_FLOAT","tensorShape":{"dim":[{"size":"5"},{"size":"5"},{"size":"384"},{"size":"1"}]}}}}},
          {"name":"Add_17/y","op":"Const","attr":{"value":{"tensor":{"dtype":"DT_FLOAT","tensorShape":{"dim":[{"size":"384"}]}}},"dtype":{"type":"DT_FLOAT"}}},
          {"name":"Conv2D_17/filter","op":"Const","attr":{"value":{"tensor":{"dtype":"DT_FLOAT","tensorShape":{"dim":[{"size":"1"},{"size":"1"},{"size":"384"},{"size":"88"}]}}},"dtype":{"type":"DT_FLOAT"}}},
          {"name":"model_1/model/batch_normalization_26/FusedBatchNormV3_model_1/model/depthwise_conv2d_17/depthwise_model_1/model/conv2d_17/Conv2D1/y","op":"Const","attr":{"dtype":{"type":"DT_FLOAT"},"value":{"tensor":{"dtype":"DT_FLOAT","tensorShape":{"dim":[{"size":"88"}]}}}}},
          {"name":"Conv2D_22/filter","op":"Const","attr":{"value":{"tensor":{"dtype":"DT_FLOAT","tensorShape":{"dim":[{"size":"1"},{"size":"1"},{"size":"88"},{"size":"528"}]}}},"dtype":{"type":"DT_FLOAT"}}},
          {"name":"Add_22/y","op":"Const","attr":{"dtype":{"type":"DT_FLOAT"},"value":{"tensor":{"dtype":"DT_FLOAT","tensorShape":{"dim":[{"size":"528"}]}}}}},
          {"name":"model_1/model/tf_op_layer_blocks_11/Pad/blocks_11/Pad/paddings","op":"Const","attr":{"dtype":{"type":"DT_INT32"},"value":{"tensor":{"dtype":"DT_INT32","tensorShape":{"dim":[{"size":"4"},{"size":"2"}]}}}}},
          {"name":"depthwise_11/filter_in","op":"Const","attr":{"value":{"tensor":{"dtype":"DT_FLOAT","tensorShape":{"dim":[{"size":"5"},{"size":"5"},{"size":"528"},{"size":"1"}]}}},"dtype":{"type":"DT_FLOAT"}}},
          {"name":"Add_23/y","op":"Const","attr":{"value":{"tensor":{"dtype":"DT_FLOAT","tensorShape":{"dim":[{"size":"528"}]}}},"dtype":{"type":"DT_FLOAT"}}},
          {"name":"Conv2D_23/filter","op":"Const","attr":{"dtype":{"type":"DT_FLOAT"},"value":{"tensor":{"dtype":"DT_FLOAT","tensorShape":{"dim":[{"size":"1"},{"size":"1"},{"size":"528"},{"size":"144"}]}}}}},
          {"name":"model_1/model/batch_normalization_35/FusedBatchNormV3_model_1/model/conv2d_29/Conv2D_model_1/model/conv2d_23/Conv2D1/y","op":"Const","attr":{"value":{"tensor":{"dtype":"DT_FLOAT","tensorShape":{"dim":[{"size":"144"}]}}},"dtype":{"type":"DT_FLOAT"}}},
          {"name":"Conv2D_30/filter","op":"Const","attr":{"dtype":{"type":"DT_FLOAT"},"value":{"tensor":{"dtype":"DT_FLOAT","tensorShape":{"dim":[{"size":"1"},{"size":"1"},{"size":"144"},{"size":"864"}]}}}}},
          {"name":"Add_30/y","op":"Const","attr":{"value":{"tensor":{"dtype":"DT_FLOAT","tensorShape":{"dim":[{"size":"864"}]}}},"dtype":{"type":"DT_FLOAT"}}},
          {"name":"depthwise_15/filter_in","op":"Const","attr":{"value":{"tensor":{"dtype":"DT_FLOAT","tensorShape":{"dim":[{"size":"3"},{"size":"3"},{"size":"864"},{"size":"1"}]}}},"dtype":{"type":"DT_FLOAT"}}},
          {"name":"Add_31/y","op":"Const","attr":{"dtype":{"type":"DT_FLOAT"},"value":{"tensor":{"dtype":"DT_FLOAT","tensorShape":{"dim":[{"size":"864"}]}}}}},
          {"name":"depthwise_17/filter_in","op":"Const","attr":{"value":{"tensor":{"dtype":"DT_FLOAT","tensorShape":{"dim":[{"size":"3"},{"size":"3"},{"size":"864"},{"size":"1"}]}}},"dtype":{"type":"DT_FLOAT"}}},
          {"name":"Conv2D_32/filter","op":"Const","attr":{"dtype":{"type":"DT_FLOAT"},"value":{"tensor":{"dtype":"DT_FLOAT","tensorShape":{"dim":[{"size":"1"},{"size":"1"},{"size":"864"},{"size":"288"}]}}}}},
          {"name":"Add_33/y","op":"Const","attr":{"value":{"tensor":{"dtype":"DT_FLOAT","tensorShape":{"dim":[{"size":"288"}]}}},"dtype":{"type":"DT_FLOAT"}}},
          {"name":"depthwise_18/filter_in","op":"Const","attr":{"value":{"tensor":{"dtype":"DT_FLOAT","tensorShape":{"dim":[{"size":"3"},{"size":"3"},{"size":"288"},{"size":"1"}]}}},"dtype":{"type":"DT_FLOAT"}}},
          {"name":"Conv2D_33/filter","op":"Const","attr":{"value":{"tensor":{"dtype":"DT_FLOAT","tensorShape":{"dim":[{"size":"1"},{"size":"1"},{"size":"288"},{"size":"288"}]}}},"dtype":{"type":"DT_FLOAT"}}},
          {"name":"model_1/model/batch_normalization_52/FusedBatchNormV3_model_1/model/conv2d_46/Conv2D_model_1/model/conv2d_36/Conv2D1/y","op":"Const","attr":{"dtype":{"type":"DT_FLOAT"},"value":{"tensor":{"dtype":"DT_FLOAT","tensorShape":{"dim":[{"size":"288"}]}}}}},
          {"name":"depthwise_19/filter_in","op":"Const","attr":{"value":{"tensor":{"dtype":"DT_FLOAT","tensorShape":{"dim":[{"size":"3"},{"size":"3"},{"size":"288"},{"size":"1"}]}}},"dtype":{"type":"DT_FLOAT"}}},
          {"name":"Conv2D_34/filter","op":"Const","attr":{"dtype":{"type":"DT_FLOAT"},"value":{"tensor":{"dtype":"DT_FLOAT","tensorShape":{"dim":[{"size":"1"},{"size":"1"},{"size":"288"},{"size":"288"}]}}}}},
          {"name":"model_1/model/batch_normalization_53/FusedBatchNormV3_model_1/model/conv2d_46/Conv2D_model_1/model/conv2d_37/Conv2D1/y","op":"Const","attr":{"value":{"tensor":{"dtype":"DT_FLOAT","tensorShape":{"dim":[{"size":"288"}]}}},"dtype":{"type":"DT_FLOAT"}}},
          {"name":"depthwise_20/filter_in","op":"Const","attr":{"dtype":{"type":"DT_FLOAT"},"value":{"tensor":{"dtype":"DT_FLOAT","tensorShape":{"dim":[{"size":"3"},{"size":"3"},{"size":"288"},{"size":"1"}]}}}}},
          {"name":"Conv2D_35/filter","op":"Const","attr":{"dtype":{"type":"DT_FLOAT"},"value":{"tensor":{"dtype":"DT_FLOAT","tensorShape":{"dim":[{"size":"1"},{"size":"1"},{"size":"288"},{"size":"288"}]}}}}},
          {"name":"model_1/model/batch_normalization_54/FusedBatchNormV3_model_1/model/conv2d_46/Conv2D_model_1/model/conv2d_38/Conv2D1/y","op":"Const","attr":{"dtype":{"type":"DT_FLOAT"},"value":{"tensor":{"dtype":"DT_FLOAT","tensorShape":{"dim":[{"size":"288"}]}}}}},
          {"name":"depthwise_21/filter_in","op":"Const","attr":{"value":{"tensor":{"dtype":"DT_FLOAT","tensorShape":{"dim":[{"size":"3"},{"size":"3"},{"size":"288"},{"size":"1"}]}}},"dtype":{"type":"DT_FLOAT"}}},
          {"name":"Conv2D_36/filter","op":"Const","attr":{"value":{"tensor":{"dtype":"DT_FLOAT","tensorShape":{"dim":[{"size":"1"},{"size":"1"},{"size":"288"},{"size":"288"}]}}},"dtype":{"type":"DT_FLOAT"}}},
          {"name":"model_1/model/batch_normalization_55/FusedBatchNormV3_model_1/model/conv2d_46/Conv2D_model_1/model/conv2d_39/Conv2D1/y","op":"Const","attr":{"value":{"tensor":{"dtype":"DT_FLOAT","tensorShape":{"dim":[{"size":"288"}]}}},"dtype":{"type":"DT_FLOAT"}}},
          {"name":"depthwise_22/filter_in","op":"Const","attr":{"value":{"tensor":{"dtype":"DT_FLOAT","tensorShape":{"dim":[{"size":"3"},{"size":"3"},{"size":"288"},{"size":"1"}]}}},"dtype":{"type":"DT_FLOAT"}}},
          {"name":"Conv2D_37/filter","op":"Const","attr":{"dtype":{"type":"DT_FLOAT"},"value":{"tensor":{"dtype":"DT_FLOAT","tensorShape":{"dim":[{"size":"1"},{"size":"1"},{"size":"288"},{"size":"288"}]}}}}},
          {"name":"model_1/model/batch_normalization_56/FusedBatchNormV3_model_1/model/conv2d_46/Conv2D_model_1/model/conv2d_40/Conv2D1/y","op":"Const","attr":{"dtype":{"type":"DT_FLOAT"},"value":{"tensor":{"dtype":"DT_FLOAT","tensorShape":{"dim":[{"size":"288"}]}}}}},
          {"name":"depthwise_23/filter_in","op":"Const","attr":{"dtype":{"type":"DT_FLOAT"},"value":{"tensor":{"dtype":"DT_FLOAT","tensorShape":{"dim":[{"size":"3"},{"size":"3"},{"size":"288"},{"size":"1"}]}}}}},
          {"name":"Conv2D_38/filter","op":"Const","attr":{"value":{"tensor":{"dtype":"DT_FLOAT","tensorShape":{"dim":[{"size":"1"},{"size":"1"},{"size":"288"},{"size":"288"}]}}},"dtype":{"type":"DT_FLOAT"}}},
          {"name":"model_1/model/batch_normalization_57/FusedBatchNormV3_model_1/model/conv2d_46/Conv2D_model_1/model/conv2d_41/Conv2D1/y","op":"Const","attr":{"dtype":{"type":"DT_FLOAT"},"value":{"tensor":{"dtype":"DT_FLOAT","tensorShape":{"dim":[{"size":"288"}]}}}}},
          {"name":"depthwise_24/filter_in","op":"Const","attr":{"value":{"tensor":{"dtype":"DT_FLOAT","tensorShape":{"dim":[{"size":"3"},{"size":"3"},{"size":"288"},{"size":"1"}]}}},"dtype":{"type":"DT_FLOAT"}}},
          {"name":"Conv2D_39/filter","op":"Const","attr":{"dtype":{"type":"DT_FLOAT"},"value":{"tensor":{"dtype":"DT_FLOAT","tensorShape":{"dim":[{"size":"1"},{"size":"1"},{"size":"288"},{"size":"288"}]}}}}},
          {"name":"model_1/model/batch_normalization_58/FusedBatchNormV3_model_1/model/conv2d_46/Conv2D_model_1/model/conv2d_42/Conv2D1/y","op":"Const","attr":{"value":{"tensor":{"dtype":"DT_FLOAT","tensorShape":{"dim":[{"size":"288"}]}}},"dtype":{"type":"DT_FLOAT"}}},
          {"name":"depthwise_25/filter_in","op":"Const","attr":{"dtype":{"type":"DT_FLOAT"},"value":{"tensor":{"dtype":"DT_FLOAT","tensorShape":{"dim":[{"size":"3"},{"size":"3"},{"size":"288"},{"size":"1"}]}}}}},
          {"name":"Conv2D_40/filter","op":"Const","attr":{"dtype":{"type":"DT_FLOAT"},"value":{"tensor":{"dtype":"DT_FLOAT","tensorShape":{"dim":[{"size":"1"},{"size":"1"},{"size":"288"},{"size":"288"}]}}}}},
          {"name":"model_1/model/batch_normalization_59/FusedBatchNormV3_model_1/model/conv2d_46/Conv2D_model_1/model/conv2d_43/Conv2D1/y","op":"Const","attr":{"value":{"tensor":{"dtype":"DT_FLOAT","tensorShape":{"dim":[{"size":"288"}]}}},"dtype":{"type":"DT_FLOAT"}}},
          {"name":"depthwise_26/filter_in","op":"Const","attr":{"dtype":{"type":"DT_FLOAT"},"value":{"tensor":{"dtype":"DT_FLOAT","tensorShape":{"dim":[{"size":"3"},{"size":"3"},{"size":"288"},{"size":"1"}]}}}}},
          {"name":"Conv2D_41/filter","op":"Const","attr":{"dtype":{"type":"DT_FLOAT"},"value":{"tensor":{"dtype":"DT_FLOAT","tensorShape":{"dim":[{"size":"1"},{"size":"1"},{"size":"288"},{"size":"288"}]}}}}},
          {"name":"model_1/model/batch_normalization_60/FusedBatchNormV3_model_1/model/conv2d_46/Conv2D_model_1/model/conv2d_44/Conv2D1/y","op":"Const","attr":{"dtype":{"type":"DT_FLOAT"},"value":{"tensor":{"dtype":"DT_FLOAT","tensorShape":{"dim":[{"size":"288"}]}}}}},
          {"name":"depthwise_27/filter_in","op":"Const","attr":{"value":{"tensor":{"dtype":"DT_FLOAT","tensorShape":{"dim":[{"size":"3"},{"size":"3"},{"size":"288"},{"size":"1"}]}}},"dtype":{"type":"DT_FLOAT"}}},
          {"name":"Conv2D_42/filter","op":"Const","attr":{"dtype":{"type":"DT_FLOAT"},"value":{"tensor":{"dtype":"DT_FLOAT","tensorShape":{"dim":[{"size":"1"},{"size":"1"},{"size":"288"},{"size":"288"}]}}}}},
          {"name":"model_1/model/batch_normalization_61/FusedBatchNormV3_model_1/model/conv2d_46/Conv2D_model_1/model/conv2d_45/Conv2D1/y","op":"Const","attr":{"value":{"tensor":{"dtype":"DT_FLOAT","tensorShape":{"dim":[{"size":"288"}]}}},"dtype":{"type":"DT_FLOAT"}}},
          {"name":"depthwise_28/filter_in","op":"Const","attr":{"value":{"tensor":{"dtype":"DT_FLOAT","tensorShape":{"dim":[{"size":"3"},{"size":"3"},{"size":"288"},{"size":"1"}]}}},"dtype":{"type":"DT_FLOAT"}}},
          {"name":"Conv2D_43/filter","op":"Const","attr":{"dtype":{"type":"DT_FLOAT"},"value":{"tensor":{"dtype":"DT_FLOAT","tensorShape":{"dim":[{"size":"1"},{"size":"1"},{"size":"288"},{"size":"288"}]}}}}},
          {"name":"model_1/model/batch_normalization_62/FusedBatchNormV3_model_1/model/conv2d_46/Conv2D1/y","op":"Const","attr":{"value":{"tensor":{"dtype":"DT_FLOAT","tensorShape":{"dim":[{"size":"288"}]}}},"dtype":{"type":"DT_FLOAT"}}},
          {"name":"Conv2D_45/filter","op":"Const","attr":{"dtype":{"type":"DT_FLOAT"},"value":{"tensor":{"dtype":"DT_FLOAT","tensorShape":{"dim":[{"size":"2"},{"size":"2"},{"size":"288"},{"size":"117"}]}}}}},
          {"name":"model_1/model/convworld_3d/BiasAdd_model_1/model/convworld_3d/Conv2D_model_1/model/convworld_3d/BiasAdd/ReadVariableOp/resource1/y","op":"Const","attr":{"value":{"tensor":{"dtype":"DT_FLOAT","tensorShape":{"dim":[{"size":"117"}]}}},"dtype":{"type":"DT_FLOAT"}}},
          {"name":"Identity_4/shape","op":"Const","attr":{"value":{"tensor":{"dtype":"DT_INT32","tensorShape":{"dim":[{"size":"2"}]}}},"dtype":{"type":"DT_INT32"}}},
          {"name":"input_1","op":"Placeholder","attr":{"dtype":{"type":"DT_FLOAT"},"shape":{"shape":{"dim":[{"size":"1"},{"size":"256"},{"size":"256"},{"size":"3"}]}}}},
          {"name":"model_1/model/tf_op_layer_stem/Pad/stem/Pad","op":"Pad","input":["input_1","model_1/model/tf_op_layer_stem/Pad/stem/Pad/paddings"],"attr":{"Tpaddings":{"type":"DT_INT32"},"T":{"type":"DT_FLOAT"}}},
          {"name":"Conv2D","op":"Conv2D","input":["model_1/model/tf_op_layer_stem/Pad/stem/Pad","Conv2D/filter"],"device":"/device:CPU:0","attr":{"padding":{"s":"VkFMSUQ="},"T":{"type":"DT_FLOAT"},"dilations":{"list":{"i":["1","1","1","1"]}},"use_cudnn_on_gpu":{"b":true},"explicit_paddings":{"list":{}},"data_format":{"s":"TkhXQw=="},"strides":{"list":{"i":["1","2","2","1"]}}}},
          {"name":"Add","op":"Add","input":["Conv2D","Add/y"],"attr":{"T":{"type":"DT_FLOAT"}}},
          {"name":"model_1/model/re_lu/Relu6_model_1/model/batch_normalization/FusedBatchNormV3_model_1/model/batch_normalization_1/FusedBatchNormV3_model_1/model/depthwise_conv2d/depthwise_model_1/model/depthwise_conv2d_19/depthwise_model_1/model/conv2d/Conv2D","op":"Relu6","input":["Add"],"attr":{"T":{"type":"DT_FLOAT"}}},
          {"name":"depthwise","op":"DepthwiseConv2dNative","input":["model_1/model/re_lu/Relu6_model_1/model/batch_normalization/FusedBatchNormV3_model_1/model/batch_normalization_1/FusedBatchNormV3_model_1/model/depthwise_conv2d/depthwise_model_1/model/depthwise_conv2d_19/depthwise_model_1/model/conv2d/Conv2D","depthwise/filter_in"],"attr":{"data_format":{"s":"TkhXQw=="},"padding":{"s":"U0FNRQ=="},"explicit_paddings":{"list":{}},"T":{"type":"DT_FLOAT"},"strides":{"list":{"i":["1","1","1","1"]}},"dilations":{"list":{"i":["1","1","1","1"]}}}},
          {"name":"Add_1","op":"Add","input":["depthwise","Add_1/y"],"attr":{"T":{"type":"DT_FLOAT"}}},
          {"name":"model_1/model/re_lu_1/Relu6_model_1/model/batch_normalization_1/FusedBatchNormV3_model_1/model/depthwise_conv2d/depthwise_model_1/model/depthwise_conv2d_19/depthwise","op":"Relu6","input":["Add_1"],"attr":{"T":{"type":"DT_FLOAT"}}},
          {"name":"Conv2D_1","op":"Conv2D","input":["model_1/model/re_lu_1/Relu6_model_1/model/batch_normalization_1/FusedBatchNormV3_model_1/model/depthwise_conv2d/depthwise_model_1/model/depthwise_conv2d_19/depthwise","Conv2D_1/filter"],"device":"/device:CPU:0","attr":{"T":{"type":"DT_FLOAT"},"data_format":{"s":"TkhXQw=="},"padding":{"s":"U0FNRQ=="},"use_cudnn_on_gpu":{"b":true},"explicit_paddings":{"list":{}},"strides":{"list":{"i":["1","1","1","1"]}},"dilations":{"list":{"i":["1","1","1","1"]}}}},
          {"name":"model_1/model/batch_normalization_2/FusedBatchNormV3_model_1/model/depthwise_conv2d_32/depthwise_model_1/model/conv2d_1/Conv2D1","op":"Add","input":["Conv2D_1","model_1/model/batch_normalization_2/FusedBatchNormV3_model_1/model/depthwise_conv2d_32/depthwise_model_1/model/conv2d_1/Conv2D1/y"],"attr":{"T":{"type":"DT_FLOAT"}}},
          {"name":"depthwise_32","op":"DepthwiseConv2dNative","input":["model_1/model/batch_normalization_2/FusedBatchNormV3_model_1/model/depthwise_conv2d_32/depthwise_model_1/model/conv2d_1/Conv2D1","depthwise_32/filter_in"],"attr":{"T":{"type":"DT_FLOAT"},"strides":{"list":{"i":["1","1","1","1"]}},"dilations":{"list":{"i":["1","1","1","1"]}},"explicit_paddings":{"list":{}},"padding":{"s":"U0FNRQ=="},"data_format":{"s":"TkhXQw=="}}},
          {"name":"Conv2D_2","op":"Conv2D","input":["model_1/model/batch_normalization_2/FusedBatchNormV3_model_1/model/depthwise_conv2d_32/depthwise_model_1/model/conv2d_1/Conv2D1","Conv2D_2/filter"],"device":"/device:CPU:0","attr":{"T":{"type":"DT_FLOAT"},"data_format":{"s":"TkhXQw=="},"use_cudnn_on_gpu":{"b":true},"explicit_paddings":{"list":{}},"dilations":{"list":{"i":["1","1","1","1"]}},"strides":{"list":{"i":["1","1","1","1"]}},"padding":{"s":"U0FNRQ=="}}},
          {"name":"Conv2D_50","op":"Conv2D","input":["depthwise_32","Conv2D_50/filter"],"device":"/device:CPU:0","attr":{"use_cudnn_on_gpu":{"b":true},"padding":{"s":"VkFMSUQ="},"explicit_paddings":{"list":{}},"T":{"type":"DT_FLOAT"},"strides":{"list":{"i":["1","1","1","1"]}},"data_format":{"s":"TkhXQw=="},"dilations":{"list":{"i":["1","1","1","1"]}}}},
          {"name":"Add_2","op":"Add","input":["Conv2D_2","Add_2/y"],"attr":{"T":{"type":"DT_FLOAT"}}},
          {"name":"Add_48","op":"Add","input":["Conv2D_50","Add_48/y"],"attr":{"T":{"type":"DT_FLOAT"}}},
          {"name":"model_1/model/re_lu_2/Relu6_model_1/model/batch_normalization_3/FusedBatchNormV3_model_1/model/batch_normalization_4/FusedBatchNormV3_model_1/model/depthwise_conv2d_1/depthwise_model_1/model/conv2d_15/Conv2D_model_1/model/conv2d_2/Conv2D","op":"Relu6","input":["Add_2"],"attr":{"T":{"type":"DT_FLOAT"}}},
          {"name":"model_1/model/activation_16/Relu_model_1/model/batch_normalization_63/FusedBatchNormV3_model_1/model/conv2d_52/Conv2D_model_1/model/conv2d_47/Conv2D","op":"Relu","input":["Add_48"],"attr":{"T":{"type":"DT_FLOAT"}}},
          {"name":"model_1/model/tf_op_layer_blocks_1/Pad/blocks_1/Pad","op":"Pad","input":["model_1/model/re_lu_2/Relu6_model_1/model/batch_normalization_3/FusedBatchNormV3_model_1/model/batch_normalization_4/FusedBatchNormV3_model_1/model/depthwise_conv2d_1/depthwise_model_1/model/conv2d_15/Conv2D_model_1/model/conv2d_2/Conv2D","model_1/model/tf_op_layer_blocks_1/Pad/blocks_1/Pad/paddings"],"attr":{"Tpaddings":{"type":"DT_INT32"},"T":{"type":"DT_FLOAT"}}},
          {"name":"depthwise_1","op":"DepthwiseConv2dNative","input":["model_1/model/tf_op_layer_blocks_1/Pad/blocks_1/Pad","depthwise_1/filter_in"],"attr":{"padding":{"s":"VkFMSUQ="},"dilations":{"list":{"i":["1","1","1","1"]}},"strides":{"list":{"i":["1","2","2","1"]}},"explicit_paddings":{"list":{}},"data_format":{"s":"TkhXQw=="},"T":{"type":"DT_FLOAT"}}},
          {"name":"Add_3","op":"Add","input":["depthwise_1","Add_3/y"],"attr":{"T":{"type":"DT_FLOAT"}}},
          {"name":"model_1/model/re_lu_3/Relu6_model_1/model/batch_normalization_4/FusedBatchNormV3_model_1/model/depthwise_conv2d_1/depthwise_model_1/model/conv2d_15/Conv2D","op":"Relu6","input":["Add_3"],"attr":{"T":{"type":"DT_FLOAT"}}},
          {"name":"Conv2D_3","op":"Conv2D","input":["model_1/model/re_lu_3/Relu6_model_1/model/batch_normalization_4/FusedBatchNormV3_model_1/model/depthwise_conv2d_1/depthwise_model_1/model/conv2d_15/Conv2D","Conv2D_3/filter"],"device":"/device:CPU:0","attr":{"use_cudnn_on_gpu":{"b":true},"T":{"type":"DT_FLOAT"},"dilations":{"list":{"i":["1","1","1","1"]}},"data_format":{"s":"TkhXQw=="},"padding":{"s":"U0FNRQ=="},"strides":{"list":{"i":["1","1","1","1"]}},"explicit_paddings":{"list":{}}}},
          {"name":"model_1/model/batch_normalization_5/FusedBatchNormV3_model_1/model/depthwise_conv2d_19/depthwise_model_1/model/conv2d_3/Conv2D1","op":"Add","input":["Conv2D_3","model_1/model/batch_normalization_5/FusedBatchNormV3_model_1/model/depthwise_conv2d_19/depthwise_model_1/model/conv2d_3/Conv2D1/y"],"attr":{"T":{"type":"DT_FLOAT"}}},
          {"name":"Conv2D_4","op":"Conv2D","input":["model_1/model/batch_normalization_5/FusedBatchNormV3_model_1/model/depthwise_conv2d_19/depthwise_model_1/model/conv2d_3/Conv2D1","Conv2D_4/filter"],"device":"/device:CPU:0","attr":{"data_format":{"s":"TkhXQw=="},"explicit_paddings":{"list":{}},"padding":{"s":"U0FNRQ=="},"dilations":{"list":{"i":["1","1","1","1"]}},"strides":{"list":{"i":["1","1","1","1"]}},"use_cudnn_on_gpu":{"b":true},"T":{"type":"DT_FLOAT"}}},
          {"name":"Add_4","op":"Add","input":["Conv2D_4","Add_4/y"],"attr":{"T":{"type":"DT_FLOAT"}}},
          {"name":"model_1/model/re_lu_4/Relu6_model_1/model/batch_normalization_6/FusedBatchNormV3_model_1/model/batch_normalization_10/FusedBatchNormV3_model_1/model/depthwise_conv2d_3/depthwise_model_1/model/conv2d_29/Conv2D_model_1/model/conv2d_4/Conv2D","op":"Relu6","input":["Add_4"],"attr":{"T":{"type":"DT_FLOAT"}}},
          {"name":"depthwise_2","op":"DepthwiseConv2dNative","input":["model_1/model/re_lu_4/Relu6_model_1/model/batch_normalization_6/FusedBatchNormV3_model_1/model/batch_normalization_10/FusedBatchNormV3_model_1/model/depthwise_conv2d_3/depthwise_model_1/model/conv2d_29/Conv2D_model_1/model/conv2d_4/Conv2D","depthwise_2/filter_in"],"attr":{"strides":{"list":{"i":["1","1","1","1"]}},"dilations":{"list":{"i":["1","1","1","1"]}},"padding":{"s":"U0FNRQ=="},"T":{"type":"DT_FLOAT"},"data_format":{"s":"TkhXQw=="},"explicit_paddings":{"list":{}}}},
          {"name":"Add_5","op":"Add","input":["depthwise_2","Add_5/y"],"attr":{"T":{"type":"DT_FLOAT"}}},
          {"name":"model_1/model/re_lu_5/Relu6_model_1/model/batch_normalization_7/FusedBatchNormV3_model_1/model/batch_normalization_10/FusedBatchNormV3_model_1/model/depthwise_conv2d_3/depthwise_model_1/model/conv2d_29/Conv2D_model_1/model/depthwise_conv2d_2/depthwise","op":"Relu6","input":["Add_5"],"attr":{"T":{"type":"DT_FLOAT"}}},
          {"name":"Conv2D_5","op":"Conv2D","input":["model_1/model/re_lu_5/Relu6_model_1/model/batch_normalization_7/FusedBatchNormV3_model_1/model/batch_normalization_10/FusedBatchNormV3_model_1/model/depthwise_conv2d_3/depthwise_model_1/model/conv2d_29/Conv2D_model_1/model/depthwise_conv2d_2/depthwise","Conv2D_5/filter"],"device":"/device:CPU:0","attr":{"T":{"type":"DT_FLOAT"},"strides":{"list":{"i":["1","1","1","1"]}},"explicit_paddings":{"list":{}},"use_cudnn_on_gpu":{"b":true},"dilations":{"list":{"i":["1","1","1","1"]}},"data_format":{"s":"TkhXQw=="},"padding":{"s":"U0FNRQ=="}}},
          {"name":"model_1/model/add/ArithmeticOptimizer/AddOpsRewrite_Leaf_1_add","op":"AddN","input":["Conv2D_5","model_1/model/batch_normalization_5/FusedBatchNormV3_model_1/model/depthwise_conv2d_19/depthwise_model_1/model/conv2d_3/Conv2D1"],"attr":{"_grappler_ArithmeticOptimizer_AddOpsRewriteStage":{"b":true},"N":{"i":"2"},"T":{"type":"DT_FLOAT"}}},
          {"name":"model_1/model/add/ArithmeticOptimizer/AddOpsRewrite_add","op":"AddV2","input":["model_1/model/batch_normalization_8/FusedBatchNormV3_model_1/model/depthwise_conv2d_19/depthwise_model_1/model/conv2d_5/Conv2D1/y","model_1/model/add/ArithmeticOptimizer/AddOpsRewrite_Leaf_1_add"],"attr":{"_grappler_ArithmeticOptimizer_AddOpsRewriteStage":{"b":true},"T":{"type":"DT_FLOAT"}}},
          {"name":"depthwise_31","op":"DepthwiseConv2dNative","input":["model_1/model/add/ArithmeticOptimizer/AddOpsRewrite_add","depthwise_31/filter_in"],"attr":{"dilations":{"list":{"i":["1","1","1","1"]}},"strides":{"list":{"i":["1","1","1","1"]}},"data_format":{"s":"TkhXQw=="},"explicit_paddings":{"list":{}},"padding":{"s":"U0FNRQ=="},"T":{"type":"DT_FLOAT"}}},
          {"name":"Conv2D_6","op":"Conv2D","input":["model_1/model/add/ArithmeticOptimizer/AddOpsRewrite_add","Conv2D_6/filter"],"device":"/device:CPU:0","attr":{"dilations":{"list":{"i":["1","1","1","1"]}},"padding":{"s":"U0FNRQ=="},"strides":{"list":{"i":["1","1","1","1"]}},"T":{"type":"DT_FLOAT"},"explicit_paddings":{"list":{}},"data_format":{"s":"TkhXQw=="},"use_cudnn_on_gpu":{"b":true}}},
          {"name":"Conv2D_49","op":"Conv2D","input":["depthwise_31","Conv2D_49/filter"],"device":"/device:CPU:0","attr":{"strides":{"list":{"i":["1","1","1","1"]}},"explicit_paddings":{"list":{}},"data_format":{"s":"TkhXQw=="},"T":{"type":"DT_FLOAT"},"dilations":{"list":{"i":["1","1","1","1"]}},"padding":{"s":"VkFMSUQ="},"use_cudnn_on_gpu":{"b":true}}},
          {"name":"Add_6","op":"Add","input":["Conv2D_6","Add_6/y"],"attr":{"T":{"type":"DT_FLOAT"}}},
          {"name":"Add_47","op":"Add","input":["Conv2D_49","Add_47/y"],"attr":{"T":{"type":"DT_FLOAT"}}},
          {"name":"model_1/model/re_lu_6/Relu6_model_1/model/batch_normalization_9/FusedBatchNormV3_model_1/model/batch_normalization_10/FusedBatchNormV3_model_1/model/depthwise_conv2d_3/depthwise_model_1/model/conv2d_29/Conv2D_model_1/model/conv2d_6/Conv2D","op":"Relu6","input":["Add_6"],"attr":{"T":{"type":"DT_FLOAT"}}},
          {"name":"model_1/model/activation_3/Relu_model_1/model/batch_normalization_50/FusedBatchNormV3_model_1/model/depthwise_conv2d_33/depthwise_model_1/model/conv2d_34/Conv2D","op":"Relu","input":["Add_47"],"attr":{"T":{"type":"DT_FLOAT"}}},
          {"name":"model_1/model/tf_op_layer_blocks_3/Pad/blocks_3/Pad","op":"Pad","input":["model_1/model/re_lu_6/Relu6_model_1/model/batch_normalization_9/FusedBatchNormV3_model_1/model/batch_normalization_10/FusedBatchNormV3_model_1/model/depthwise_conv2d_3/depthwise_model_1/model/conv2d_29/Conv2D_model_1/model/conv2d_6/Conv2D","model_1/model/tf_op_layer_blocks_3/Pad/blocks_3/Pad/paddings"],"attr":{"Tpaddings":{"type":"DT_INT32"},"T":{"type":"DT_FLOAT"}}},
          {"name":"depthwise_3","op":"DepthwiseConv2dNative","input":["model_1/model/tf_op_layer_blocks_3/Pad/blocks_3/Pad","depthwise_3/filter_in"],"attr":{"strides":{"list":{"i":["1","2","2","1"]}},"dilations":{"list":{"i":["1","1","1","1"]}},"explicit_paddings":{"list":{}},"data_format":{"s":"TkhXQw=="},"padding":{"s":"VkFMSUQ="},"T":{"type":"DT_FLOAT"}}},
          {"name":"Add_7","op":"Add","input":["depthwise_3","Add_7/y"],"attr":{"T":{"type":"DT_FLOAT"}}},
          {"name":"model_1/model/re_lu_7/Relu6_model_1/model/batch_normalization_10/FusedBatchNormV3_model_1/model/depthwise_conv2d_3/depthwise_model_1/model/conv2d_29/Conv2D","op":"Relu6","input":["Add_7"],"attr":{"T":{"type":"DT_FLOAT"}}},
          {"name":"Conv2D_7","op":"Conv2D","input":["model_1/model/re_lu_7/Relu6_model_1/model/batch_normalization_10/FusedBatchNormV3_model_1/model/depthwise_conv2d_3/depthwise_model_1/model/conv2d_29/Conv2D","Conv2D_7/filter"],"device":"/device:CPU:0","attr":{"data_format":{"s":"TkhXQw=="},"T":{"type":"DT_FLOAT"},"strides":{"list":{"i":["1","1","1","1"]}},"explicit_paddings":{"list":{}},"use_cudnn_on_gpu":{"b":true},"dilations":{"list":{"i":["1","1","1","1"]}},"padding":{"s":"U0FNRQ=="}}},
          {"name":"model_1/model/batch_normalization_11/FusedBatchNormV3_model_1/model/depthwise_conv2d_18/depthwise_model_1/model/conv2d_7/Conv2D1","op":"Add","input":["Conv2D_7","model_1/model/batch_normalization_11/FusedBatchNormV3_model_1/model/depthwise_conv2d_18/depthwise_model_1/model/conv2d_7/Conv2D1/y"],"attr":{"T":{"type":"DT_FLOAT"}}},
          {"name":"Conv2D_8","op":"Conv2D","input":["model_1/model/batch_normalization_11/FusedBatchNormV3_model_1/model/depthwise_conv2d_18/depthwise_model_1/model/conv2d_7/Conv2D1","Conv2D_8/filter"],"device":"/device:CPU:0","attr":{"strides":{"list":{"i":["1","1","1","1"]}},"use_cudnn_on_gpu":{"b":true},"padding":{"s":"U0FNRQ=="},"dilations":{"list":{"i":["1","1","1","1"]}},"data_format":{"s":"TkhXQw=="},"T":{"type":"DT_FLOAT"},"explicit_paddings":{"list":{}}}},
          {"name":"Add_8","op":"Add","input":["Conv2D_8","Add_8/y"],"attr":{"T":{"type":"DT_FLOAT"}}},
          {"name":"model_1/model/re_lu_8/Relu6_model_1/model/batch_normalization_12/FusedBatchNormV3_model_1/model/batch_normalization_16/FusedBatchNormV3_model_1/model/depthwise_conv2d_5/depthwise_model_1/model/conv2d_8/Conv2D","op":"Relu6","input":["Add_8"],"attr":{"T":{"type":"DT_FLOAT"}}},
          {"name":"depthwise_4","op":"DepthwiseConv2dNative","input":["model_1/model/re_lu_8/Relu6_model_1/model/batch_normalization_12/FusedBatchNormV3_model_1/model/batch_normalization_16/FusedBatchNormV3_model_1/model/depthwise_conv2d_5/depthwise_model_1/model/conv2d_8/Conv2D","depthwise_4/filter_in"],"attr":{"explicit_paddings":{"list":{}},"strides":{"list":{"i":["1","1","1","1"]}},"padding":{"s":"U0FNRQ=="},"T":{"type":"DT_FLOAT"},"data_format":{"s":"TkhXQw=="},"dilations":{"list":{"i":["1","1","1","1"]}}}},
          {"name":"Add_9","op":"Add","input":["depthwise_4","Add_9/y"],"attr":{"T":{"type":"DT_FLOAT"}}},
          {"name":"model_1/model/re_lu_9/Relu6_model_1/model/batch_normalization_13/FusedBatchNormV3_model_1/model/depthwise_conv2d_4/depthwise_model_1/model/depthwise_conv2d_5/depthwise","op":"Relu6","input":["Add_9"],"attr":{"T":{"type":"DT_FLOAT"}}},
          {"name":"Conv2D_9","op":"Conv2D","input":["model_1/model/re_lu_9/Relu6_model_1/model/batch_normalization_13/FusedBatchNormV3_model_1/model/depthwise_conv2d_4/depthwise_model_1/model/depthwise_conv2d_5/depthwise","Conv2D_9/filter"],"device":"/device:CPU:0","attr":{"use_cudnn_on_gpu":{"b":true},"explicit_paddings":{"list":{}},"dilations":{"list":{"i":["1","1","1","1"]}},"T":{"type":"DT_FLOAT"},"strides":{"list":{"i":["1","1","1","1"]}},"data_format":{"s":"TkhXQw=="},"padding":{"s":"U0FNRQ=="}}},
          {"name":"model_1/model/add_1/ArithmeticOptimizer/AddOpsRewrite_Leaf_1_add","op":"AddN","input":["Conv2D_9","model_1/model/batch_normalization_11/FusedBatchNormV3_model_1/model/depthwise_conv2d_18/depthwise_model_1/model/conv2d_7/Conv2D1"],"attr":{"_grappler_ArithmeticOptimizer_AddOpsRewriteStage":{"b":true},"N":{"i":"2"},"T":{"type":"DT_FLOAT"}}},
          {"name":"model_1/model/add_1/ArithmeticOptimizer/AddOpsRewrite_add","op":"AddV2","input":["model_1/model/batch_normalization_14/FusedBatchNormV3_model_1/model/depthwise_conv2d_18/depthwise_model_1/model/conv2d_9/Conv2D1/y","model_1/model/add_1/ArithmeticOptimizer/AddOpsRewrite_Leaf_1_add"],"attr":{"T":{"type":"DT_FLOAT"},"_grappler_ArithmeticOptimizer_AddOpsRewriteStage":{"b":true}}},
          {"name":"depthwise_30","op":"DepthwiseConv2dNative","input":["model_1/model/add_1/ArithmeticOptimizer/AddOpsRewrite_add","depthwise_30/filter_in"],"attr":{"explicit_paddings":{"list":{}},"dilations":{"list":{"i":["1","1","1","1"]}},"data_format":{"s":"TkhXQw=="},"strides":{"list":{"i":["1","1","1","1"]}},"padding":{"s":"U0FNRQ=="},"T":{"type":"DT_FLOAT"}}},
          {"name":"Conv2D_10","op":"Conv2D","input":["model_1/model/add_1/ArithmeticOptimizer/AddOpsRewrite_add","Conv2D_10/filter"],"device":"/device:CPU:0","attr":{"T":{"type":"DT_FLOAT"},"explicit_paddings":{"list":{}},"strides":{"list":{"i":["1","1","1","1"]}},"dilations":{"list":{"i":["1","1","1","1"]}},"data_format":{"s":"TkhXQw=="},"use_cudnn_on_gpu":{"b":true},"padding":{"s":"U0FNRQ=="}}},
          {"name":"Conv2D_48","op":"Conv2D","input":["depthwise_30","Conv2D_48/filter"],"device":"/device:CPU:0","attr":{"padding":{"s":"VkFMSUQ="},"explicit_paddings":{"list":{}},"T":{"type":"DT_FLOAT"},"data_format":{"s":"TkhXQw=="},"dilations":{"list":{"i":["1","1","1","1"]}},"strides":{"list":{"i":["1","1","1","1"]}},"use_cudnn_on_gpu":{"b":true}}},
          {"name":"Add_10","op":"Add","input":["Conv2D_10","Add_10/y"],"attr":{"T":{"type":"DT_FLOAT"}}},
          {"name":"Add_46","op":"Add","input":["Conv2D_48","Add_46/y"],"attr":{"T":{"type":"DT_FLOAT"}}},
          {"name":"model_1/model/re_lu_10/Relu6_model_1/model/batch_normalization_15/FusedBatchNormV3_model_1/model/batch_normalization_16/FusedBatchNormV3_model_1/model/depthwise_conv2d_5/depthwise_model_1/model/conv2d_10/Conv2D","op":"Relu6","input":["Add_10"],"attr":{"T":{"type":"DT_FLOAT"}}},
          {"name":"model_1/model/activation_2/Relu_model_1/model/batch_normalization_49/FusedBatchNormV3_model_1/model/depthwise_conv2d_33/depthwise_model_1/model/conv2d_33/Conv2D","op":"Relu","input":["Add_46"],"attr":{"T":{"type":"DT_FLOAT"}}},
          {"name":"model_1/model/tf_op_layer_blocks_5/Pad/blocks_5/Pad","op":"Pad","input":["model_1/model/re_lu_10/Relu6_model_1/model/batch_normalization_15/FusedBatchNormV3_model_1/model/batch_normalization_16/FusedBatchNormV3_model_1/model/depthwise_conv2d_5/depthwise_model_1/model/conv2d_10/Conv2D","model_1/model/tf_op_layer_blocks_5/Pad/blocks_5/Pad/paddings"],"attr":{"Tpaddings":{"type":"DT_INT32"},"T":{"type":"DT_FLOAT"}}},
          {"name":"depthwise_5","op":"DepthwiseConv2dNative","input":["model_1/model/tf_op_layer_blocks_5/Pad/blocks_5/Pad","depthwise_5/filter_in"],"attr":{"data_format":{"s":"TkhXQw=="},"dilations":{"list":{"i":["1","1","1","1"]}},"strides":{"list":{"i":["1","2","2","1"]}},"T":{"type":"DT_FLOAT"},"padding":{"s":"VkFMSUQ="},"explicit_paddings":{"list":{}}}},
          {"name":"Add_11","op":"Add","input":["depthwise_5","Add_11/y"],"attr":{"T":{"type":"DT_FLOAT"}}},
          {"name":"model_1/model/re_lu_11/Relu6_model_1/model/batch_normalization_16/FusedBatchNormV3_model_1/model/depthwise_conv2d_5/depthwise","op":"Relu6","input":["Add_11"],"attr":{"T":{"type":"DT_FLOAT"}}},
          {"name":"Conv2D_11","op":"Conv2D","input":["model_1/model/re_lu_11/Relu6_model_1/model/batch_normalization_16/FusedBatchNormV3_model_1/model/depthwise_conv2d_5/depthwise","Conv2D_11/filter"],"device":"/device:CPU:0","attr":{"explicit_paddings":{"list":{}},"T":{"type":"DT_FLOAT"},"strides":{"list":{"i":["1","1","1","1"]}},"use_cudnn_on_gpu":{"b":true},"data_format":{"s":"TkhXQw=="},"dilations":{"list":{"i":["1","1","1","1"]}},"padding":{"s":"U0FNRQ=="}}},
          {"name":"model_1/model/batch_normalization_17/FusedBatchNormV3_model_1/model/conv2d_15/Conv2D_model_1/model/conv2d_11/Conv2D1","op":"Add","input":["Conv2D_11","model_1/model/batch_normalization_17/FusedBatchNormV3_model_1/model/conv2d_15/Conv2D_model_1/model/conv2d_11/Conv2D1/y"],"attr":{"T":{"type":"DT_FLOAT"}}},
          {"name":"Conv2D_12","op":"Conv2D","input":["model_1/model/batch_normalization_17/FusedBatchNormV3_model_1/model/conv2d_15/Conv2D_model_1/model/conv2d_11/Conv2D1","Conv2D_12/filter"],"device":"/device:CPU:0","attr":{"padding":{"s":"U0FNRQ=="},"explicit_paddings":{"list":{}},"T":{"type":"DT_FLOAT"},"data_format":{"s":"TkhXQw=="},"dilations":{"list":{"i":["1","1","1","1"]}},"strides":{"list":{"i":["1","1","1","1"]}},"use_cudnn_on_gpu":{"b":true}}},
          {"name":"Add_12","op":"Add","input":["Conv2D_12","Add_12/y"],"attr":{"T":{"type":"DT_FLOAT"}}},
          {"name":"model_1/model/re_lu_12/Relu6_model_1/model/batch_normalization_18/FusedBatchNormV3_model_1/model/batch_normalization_25/FusedBatchNormV3_model_1/model/depthwise_conv2d_8/depthwise_model_1/model/conv2d_12/Conv2D","op":"Relu6","input":["Add_12"],"attr":{"T":{"type":"DT_FLOAT"}}},
          {"name":"depthwise_6","op":"DepthwiseConv2dNative","input":["model_1/model/re_lu_12/Relu6_model_1/model/batch_normalization_18/FusedBatchNormV3_model_1/model/batch_normalization_25/FusedBatchNormV3_model_1/model/depthwise_conv2d_8/depthwise_model_1/model/conv2d_12/Conv2D","depthwise_6/filter_in"],"attr":{"data_format":{"s":"TkhXQw=="},"strides":{"list":{"i":["1","1","1","1"]}},"T":{"type":"DT_FLOAT"},"dilations":{"list":{"i":["1","1","1","1"]}},"explicit_paddings":{"list":{}},"padding":{"s":"U0FNRQ=="}}},
          {"name":"Add_13","op":"Add","input":["depthwise_6","Add_13/y"],"attr":{"T":{"type":"DT_FLOAT"}}},
          {"name":"model_1/model/re_lu_13/Relu6_model_1/model/batch_normalization_19/FusedBatchNormV3_model_1/model/depthwise_conv2d_6/depthwise_model_1/model/depthwise_conv2d_8/depthwise","op":"Relu6","input":["Add_13"],"attr":{"T":{"type":"DT_FLOAT"}}},
          {"name":"Conv2D_13","op":"Conv2D","input":["model_1/model/re_lu_13/Relu6_model_1/model/batch_normalization_19/FusedBatchNormV3_model_1/model/depthwise_conv2d_6/depthwise_model_1/model/depthwise_conv2d_8/depthwise","Conv2D_13/filter"],"device":"/device:CPU:0","attr":{"T":{"type":"DT_FLOAT"},"data_format":{"s":"TkhXQw=="},"strides":{"list":{"i":["1","1","1","1"]}},"padding":{"s":"U0FNRQ=="},"dilations":{"list":{"i":["1","1","1","1"]}},"explicit_paddings":{"list":{}},"use_cudnn_on_gpu":{"b":true}}},
          {"name":"model_1/model/add_2/ArithmeticOptimizer/AddOpsRewrite_Leaf_1_add","op":"AddN","input":["Conv2D_13","model_1/model/batch_normalization_17/FusedBatchNormV3_model_1/model/conv2d_15/Conv2D_model_1/model/conv2d_11/Conv2D1"],"attr":{"N":{"i":"2"},"_grappler_ArithmeticOptimizer_AddOpsRewriteStage":{"b":true},"T":{"type":"DT_FLOAT"}}},
          {"name":"model_1/model/add_2/ArithmeticOptimizer/AddOpsRewrite_add","op":"AddV2","input":["model_1/model/batch_normalization_20/FusedBatchNormV3_model_1/model/conv2d_15/Conv2D_model_1/model/conv2d_13/Conv2D1/y","model_1/model/add_2/ArithmeticOptimizer/AddOpsRewrite_Leaf_1_add"],"attr":{"T":{"type":"DT_FLOAT"},"_grappler_ArithmeticOptimizer_AddOpsRewriteStage":{"b":true}}},
          {"name":"Conv2D_14","op":"Conv2D","input":["model_1/model/add_2/ArithmeticOptimizer/AddOpsRewrite_add","Conv2D_14/filter"],"device":"/device:CPU:0","attr":{"dilations":{"list":{"i":["1","1","1","1"]}},"strides":{"list":{"i":["1","1","1","1"]}},"data_format":{"s":"TkhXQw=="},"explicit_paddings":{"list":{}},"use_cudnn_on_gpu":{"b":true},"T":{"type":"DT_FLOAT"},"padding":{"s":"U0FNRQ=="}}},
          {"name":"Add_14","op":"Add","input":["Conv2D_14","Add_14/y"],"attr":{"T":{"type":"DT_FLOAT"}}},
          {"name":"model_1/model/re_lu_14/Relu6_model_1/model/batch_normalization_21/FusedBatchNormV3_model_1/model/batch_normalization_25/FusedBatchNormV3_model_1/model/depthwise_conv2d_8/depthwise_model_1/model/conv2d_14/Conv2D","op":"Relu6","input":["Add_14"],"attr":{"T":{"type":"DT_FLOAT"}}},
          {"name":"depthwise_7","op":"DepthwiseConv2dNative","input":["model_1/model/re_lu_14/Relu6_model_1/model/batch_normalization_21/FusedBatchNormV3_model_1/model/batch_normalization_25/FusedBatchNormV3_model_1/model/depthwise_conv2d_8/depthwise_model_1/model/conv2d_14/Conv2D","depthwise_7/filter_in"],"attr":{"T":{"type":"DT_FLOAT"},"data_format":{"s":"TkhXQw=="},"dilations":{"list":{"i":["1","1","1","1"]}},"explicit_paddings":{"list":{}},"padding":{"s":"U0FNRQ=="},"strides":{"list":{"i":["1","1","1","1"]}}}},
          {"name":"Add_15","op":"Add","input":["depthwise_7","Add_15/y"],"attr":{"T":{"type":"DT_FLOAT"}}},
          {"name":"model_1/model/re_lu_15/Relu6_model_1/model/batch_normalization_22/FusedBatchNormV3_model_1/model/depthwise_conv2d_7/depthwise_model_1/model/depthwise_conv2d_8/depthwise","op":"Relu6","input":["Add_15"],"attr":{"T":{"type":"DT_FLOAT"}}},
          {"name":"Conv2D_15","op":"Conv2D","input":["model_1/model/re_lu_15/Relu6_model_1/model/batch_normalization_22/FusedBatchNormV3_model_1/model/depthwise_conv2d_7/depthwise_model_1/model/depthwise_conv2d_8/depthwise","Conv2D_15/filter"],"device":"/device:CPU:0","attr":{"explicit_paddings":{"list":{}},"use_cudnn_on_gpu":{"b":true},"dilations":{"list":{"i":["1","1","1","1"]}},"strides":{"list":{"i":["1","1","1","1"]}},"T":{"type":"DT_FLOAT"},"data_format":{"s":"TkhXQw=="},"padding":{"s":"U0FNRQ=="}}},
          {"name":"model_1/model/add_3/ArithmeticOptimizer/AddOpsRewrite_Leaf_1_add","op":"AddN","input":["Conv2D_15","model_1/model/add_2/ArithmeticOptimizer/AddOpsRewrite_add"],"attr":{"_grappler_ArithmeticOptimizer_AddOpsRewriteStage":{"b":true},"T":{"type":"DT_FLOAT"},"N":{"i":"2"}}},
          {"name":"model_1/model/add_3/ArithmeticOptimizer/AddOpsRewrite_add","op":"AddV2","input":["model_1/model/batch_normalization_23/FusedBatchNormV3_model_1/model/conv2d_15/Conv2D1/y","model_1/model/add_3/ArithmeticOptimizer/AddOpsRewrite_Leaf_1_add"],"attr":{"T":{"type":"DT_FLOAT"},"_grappler_ArithmeticOptimizer_AddOpsRewriteStage":{"b":true}}},
          {"name":"Conv2D_16","op":"Conv2D","input":["model_1/model/add_3/ArithmeticOptimizer/AddOpsRewrite_add","Conv2D_16/filter"],"device":"/device:CPU:0","attr":{"data_format":{"s":"TkhXQw=="},"padding":{"s":"U0FNRQ=="},"dilations":{"list":{"i":["1","1","1","1"]}},"use_cudnn_on_gpu":{"b":true},"T":{"type":"DT_FLOAT"},"explicit_paddings":{"list":{}},"strides":{"list":{"i":["1","1","1","1"]}}}},
          {"name":"Add_16","op":"Add","input":["Conv2D_16","Add_16/y"],"attr":{"T":{"type":"DT_FLOAT"}}},
          {"name":"model_1/model/re_lu_16/Relu6_model_1/model/batch_normalization_24/FusedBatchNormV3_model_1/model/batch_normalization_25/FusedBatchNormV3_model_1/model/depthwise_conv2d_8/depthwise_model_1/model/conv2d_16/Conv2D","op":"Relu6","input":["Add_16"],"attr":{"T":{"type":"DT_FLOAT"}}},
          {"name":"depthwise_8","op":"DepthwiseConv2dNative","input":["model_1/model/re_lu_16/Relu6_model_1/model/batch_normalization_24/FusedBatchNormV3_model_1/model/batch_normalization_25/FusedBatchNormV3_model_1/model/depthwise_conv2d_8/depthwise_model_1/model/conv2d_16/Conv2D","depthwise_8/filter_in"],"attr":{"padding":{"s":"U0FNRQ=="},"dilations":{"list":{"i":["1","1","1","1"]}},"T":{"type":"DT_FLOAT"},"data_format":{"s":"TkhXQw=="},"strides":{"list":{"i":["1","1","1","1"]}},"explicit_paddings":{"list":{}}}},
          {"name":"Add_17","op":"Add","input":["depthwise_8","Add_17/y"],"attr":{"T":{"type":"DT_FLOAT"}}},
          {"name":"model_1/model/re_lu_17/Relu6_model_1/model/batch_normalization_25/FusedBatchNormV3_model_1/model/depthwise_conv2d_8/depthwise","op":"Relu6","input":["Add_17"],"attr":{"T":{"type":"DT_FLOAT"}}},
          {"name":"Conv2D_17","op":"Conv2D","input":["model_1/model/re_lu_17/Relu6_model_1/model/batch_normalization_25/FusedBatchNormV3_model_1/model/depthwise_conv2d_8/depthwise","Conv2D_17/filter"],"device":"/device:CPU:0","attr":{"padding":{"s":"U0FNRQ=="},"T":{"type":"DT_FLOAT"},"explicit_paddings":{"list":{}},"dilations":{"list":{"i":["1","1","1","1"]}},"use_cudnn_on_gpu":{"b":true},"data_format":{"s":"TkhXQw=="},"strides":{"list":{"i":["1","1","1","1"]}}}},
          {"name":"model_1/model/batch_normalization_26/FusedBatchNormV3_model_1/model/depthwise_conv2d_17/depthwise_model_1/model/conv2d_17/Conv2D1","op":"Add","input":["Conv2D_17","model_1/model/batch_normalization_26/FusedBatchNormV3_model_1/model/depthwise_conv2d_17/depthwise_model_1/model/conv2d_17/Conv2D1/y"],"attr":{"T":{"type":"DT_FLOAT"}}},
          {"name":"Conv2D_18","op":"Conv2D","input":["model_1/model/batch_normalization_26/FusedBatchNormV3_model_1/model/depthwise_conv2d_17/depthwise_model_1/model/conv2d_17/Conv2D1","Conv2D_18/filter"],"device":"/device:CPU:0","attr":{"dilations":{"list":{"i":["1","1","1","1"]}},"use_cudnn_on_gpu":{"b":true},"T":{"type":"DT_FLOAT"},"strides":{"list":{"i":["1","1","1","1"]}},"padding":{"s":"U0FNRQ=="},"data_format":{"s":"TkhXQw=="},"explicit_paddings":{"list":{}}}},
          {"name":"Add_18","op":"Add","input":["Conv2D_18","Add_18/y"],"attr":{"T":{"type":"DT_FLOAT"}}},
          {"name":"model_1/model/re_lu_18/Relu6_model_1/model/batch_normalization_27/FusedBatchNormV3_model_1/model/batch_normalization_31/FusedBatchNormV3_model_1/model/depthwise_conv2d_10/depthwise_model_1/model/depthwise_conv2d_11/depthwise_model_1/model/conv2d_18/Conv2D","op":"Relu6","input":["Add_18"],"attr":{"T":{"type":"DT_FLOAT"}}},
          {"name":"depthwise_9","op":"DepthwiseConv2dNative","input":["model_1/model/re_lu_18/Relu6_model_1/model/batch_normalization_27/FusedBatchNormV3_model_1/model/batch_normalization_31/FusedBatchNormV3_model_1/model/depthwise_conv2d_10/depthwise_model_1/model/depthwise_conv2d_11/depthwise_model_1/model/conv2d_18/Conv2D","depthwise_9/filter_in"],"attr":{"strides":{"list":{"i":["1","1","1","1"]}},"data_format":{"s":"TkhXQw=="},"dilations":{"list":{"i":["1","1","1","1"]}},"padding":{"s":"U0FNRQ=="},"explicit_paddings":{"list":{}},"T":{"type":"DT_FLOAT"}}},
          {"name":"Add_19","op":"Add","input":["depthwise_9","Add_19/y"],"attr":{"T":{"type":"DT_FLOAT"}}},
          {"name":"model_1/model/re_lu_19/Relu6_model_1/model/batch_normalization_28/FusedBatchNormV3_model_1/model/depthwise_conv2d_9/depthwise_model_1/model/depthwise_conv2d_11/depthwise","op":"Relu6","input":["Add_19"],"attr":{"T":{"type":"DT_FLOAT"}}},
          {"name":"Conv2D_19","op":"Conv2D","input":["model_1/model/re_lu_19/Relu6_model_1/model/batch_normalization_28/FusedBatchNormV3_model_1/model/depthwise_conv2d_9/depthwise_model_1/model/depthwise_conv2d_11/depthwise","Conv2D_19/filter"],"device":"/device:CPU:0","attr":{"dilations":{"list":{"i":["1","1","1","1"]}},"padding":{"s":"U0FNRQ=="},"use_cudnn_on_gpu":{"b":true},"explicit_paddings":{"list":{}},"data_format":{"s":"TkhXQw=="},"T":{"type":"DT_FLOAT"},"strides":{"list":{"i":["1","1","1","1"]}}}},
          {"name":"model_1/model/add_4/ArithmeticOptimizer/AddOpsRewrite_Leaf_1_add","op":"AddN","input":["Conv2D_19","model_1/model/batch_normalization_26/FusedBatchNormV3_model_1/model/depthwise_conv2d_17/depthwise_model_1/model/conv2d_17/Conv2D1"],"attr":{"N":{"i":"2"},"_grappler_ArithmeticOptimizer_AddOpsRewriteStage":{"b":true},"T":{"type":"DT_FLOAT"}}},
          {"name":"model_1/model/add_4/ArithmeticOptimizer/AddOpsRewrite_add","op":"AddV2","input":["model_1/model/batch_normalization_29/FusedBatchNormV3_model_1/model/depthwise_conv2d_17/depthwise_model_1/model/conv2d_19/Conv2D1/y","model_1/model/add_4/ArithmeticOptimizer/AddOpsRewrite_Leaf_1_add"],"attr":{"T":{"type":"DT_FLOAT"},"_grappler_ArithmeticOptimizer_AddOpsRewriteStage":{"b":true}}},
          {"name":"Conv2D_20","op":"Conv2D","input":["model_1/model/add_4/ArithmeticOptimizer/AddOpsRewrite_add","Conv2D_20/filter"],"device":"/device:CPU:0","attr":{"T":{"type":"DT_FLOAT"},"dilations":{"list":{"i":["1","1","1","1"]}},"strides":{"list":{"i":["1","1","1","1"]}},"data_format":{"s":"TkhXQw=="},"use_cudnn_on_gpu":{"b":true},"explicit_paddings":{"list":{}},"padding":{"s":"U0FNRQ=="}}},
          {"name":"Add_20","op":"Add","input":["Conv2D_20","Add_20/y"],"attr":{"T":{"type":"DT_FLOAT"}}},
          {"name":"model_1/model/re_lu_20/Relu6_model_1/model/batch_normalization_30/FusedBatchNormV3_model_1/model/batch_normalization_31/FusedBatchNormV3_model_1/model/depthwise_conv2d_10/depthwise_model_1/model/depthwise_conv2d_11/depthwise_model_1/model/conv2d_20/Conv2D","op":"Relu6","input":["Add_20"],"attr":{"T":{"type":"DT_FLOAT"}}},
          {"name":"depthwise_10","op":"DepthwiseConv2dNative","input":["model_1/model/re_lu_20/Relu6_model_1/model/batch_normalization_30/FusedBatchNormV3_model_1/model/batch_normalization_31/FusedBatchNormV3_model_1/model/depthwise_conv2d_10/depthwise_model_1/model/depthwise_conv2d_11/depthwise_model_1/model/conv2d_20/Conv2D","depthwise_10/filter_in"],"attr":{"data_format":{"s":"TkhXQw=="},"explicit_paddings":{"list":{}},"T":{"type":"DT_FLOAT"},"strides":{"list":{"i":["1","1","1","1"]}},"dilations":{"list":{"i":["1","1","1","1"]}},"padding":{"s":"U0FNRQ=="}}},
          {"name":"Add_21","op":"Add","input":["depthwise_10","Add_21/y"],"attr":{"T":{"type":"DT_FLOAT"}}},
          {"name":"model_1/model/re_lu_21/Relu6_model_1/model/batch_normalization_31/FusedBatchNormV3_model_1/model/depthwise_conv2d_10/depthwise_model_1/model/depthwise_conv2d_11/depthwise","op":"Relu6","input":["Add_21"],"attr":{"T":{"type":"DT_FLOAT"}}},
          {"name":"Conv2D_21","op":"Conv2D","input":["model_1/model/re_lu_21/Relu6_model_1/model/batch_normalization_31/FusedBatchNormV3_model_1/model/depthwise_conv2d_10/depthwise_model_1/model/depthwise_conv2d_11/depthwise","Conv2D_21/filter"],"device":"/device:CPU:0","attr":{"dilations":{"list":{"i":["1","1","1","1"]}},"use_cudnn_on_gpu":{"b":true},"explicit_paddings":{"list":{}},"T":{"type":"DT_FLOAT"},"strides":{"list":{"i":["1","1","1","1"]}},"data_format":{"s":"TkhXQw=="},"padding":{"s":"U0FNRQ=="}}},
          {"name":"model_1/model/add_5/ArithmeticOptimizer/AddOpsRewrite_Leaf_1_add","op":"AddN","input":["Conv2D_21","model_1/model/add_4/ArithmeticOptimizer/AddOpsRewrite_add"],"attr":{"T":{"type":"DT_FLOAT"},"N":{"i":"2"},"_grappler_ArithmeticOptimizer_AddOpsRewriteStage":{"b":true}}},
          {"name":"model_1/model/add_5/ArithmeticOptimizer/AddOpsRewrite_add","op":"AddV2","input":["model_1/model/batch_normalization_32/FusedBatchNormV3_model_1/model/depthwise_conv2d_17/depthwise_model_1/model/conv2d_21/Conv2D1/y","model_1/model/add_5/ArithmeticOptimizer/AddOpsRewrite_Leaf_1_add"],"attr":{"T":{"type":"DT_FLOAT"},"_grappler_ArithmeticOptimizer_AddOpsRewriteStage":{"b":true}}},
          {"name":"depthwise_29","op":"DepthwiseConv2dNative","input":["model_1/model/add_5/ArithmeticOptimizer/AddOpsRewrite_add","depthwise_29/filter_in"],"attr":{"padding":{"s":"U0FNRQ=="},"data_format":{"s":"TkhXQw=="},"strides":{"list":{"i":["1","1","1","1"]}},"explicit_paddings":{"list":{}},"dilations":{"list":{"i":["1","1","1","1"]}},"T":{"type":"DT_FLOAT"}}},
          {"name":"Conv2D_22","op":"Conv2D","input":["model_1/model/add_5/ArithmeticOptimizer/AddOpsRewrite_add","Conv2D_22/filter"],"device":"/device:CPU:0","attr":{"dilations":{"list":{"i":["1","1","1","1"]}},"strides":{"list":{"i":["1","1","1","1"]}},"use_cudnn_on_gpu":{"b":true},"padding":{"s":"U0FNRQ=="},"T":{"type":"DT_FLOAT"},"data_format":{"s":"TkhXQw=="},"explicit_paddings":{"list":{}}}},
          {"name":"Conv2D_47","op":"Conv2D","input":["depthwise_29","Conv2D_47/filter"],"device":"/device:CPU:0","attr":{"padding":{"s":"VkFMSUQ="},"use_cudnn_on_gpu":{"b":true},"explicit_paddings":{"list":{}},"T":{"type":"DT_FLOAT"},"dilations":{"list":{"i":["1","1","1","1"]}},"data_format":{"s":"TkhXQw=="},"strides":{"list":{"i":["1","1","1","1"]}}}},
          {"name":"Add_22","op":"Add","input":["Conv2D_22","Add_22/y"],"attr":{"T":{"type":"DT_FLOAT"}}},
          {"name":"Add_45","op":"Add","input":["Conv2D_47","Add_45/y"],"attr":{"T":{"type":"DT_FLOAT"}}},
          {"name":"model_1/model/re_lu_22/Relu6_model_1/model/batch_normalization_33/FusedBatchNormV3_model_1/model/batch_normalization_31/FusedBatchNormV3_model_1/model/depthwise_conv2d_10/depthwise_model_1/model/depthwise_conv2d_11/depthwise_model_1/model/conv2d_22/Conv2D","op":"Relu6","input":["Add_22"],"attr":{"T":{"type":"DT_FLOAT"}}},
          {"name":"model_1/model/activation_1/Relu_model_1/model/batch_normalization_48/FusedBatchNormV3_model_1/model/depthwise_conv2d_33/depthwise_model_1/model/conv2d_32/Conv2D","op":"Relu","input":["Add_45"],"attr":{"T":{"type":"DT_FLOAT"}}},
          {"name":"model_1/model/tf_op_layer_blocks_11/Pad/blocks_11/Pad","op":"Pad","input":["model_1/model/re_lu_22/Relu6_model_1/model/batch_normalization_33/FusedBatchNormV3_model_1/model/batch_normalization_31/FusedBatchNormV3_model_1/model/depthwise_conv2d_10/depthwise_model_1/model/depthwise_conv2d_11/depthwise_model_1/model/conv2d_22/Conv2D","model_1/model/tf_op_layer_blocks_11/Pad/blocks_11/Pad/paddings"],"attr":{"T":{"type":"DT_FLOAT"},"Tpaddings":{"type":"DT_INT32"}}},
          {"name":"depthwise_11","op":"DepthwiseConv2dNative","input":["model_1/model/tf_op_layer_blocks_11/Pad/blocks_11/Pad","depthwise_11/filter_in"],"attr":{"strides":{"list":{"i":["1","2","2","1"]}},"T":{"type":"DT_FLOAT"},"dilations":{"list":{"i":["1","1","1","1"]}},"explicit_paddings":{"list":{}},"padding":{"s":"VkFMSUQ="},"data_format":{"s":"TkhXQw=="}}},
          {"name":"Add_23","op":"Add","input":["depthwise_11","Add_23/y"],"attr":{"T":{"type":"DT_FLOAT"}}},
          {"name":"model_1/model/re_lu_23/Relu6_model_1/model/batch_normalization_34/FusedBatchNormV3_model_1/model/depthwise_conv2d_11/depthwise","op":"Relu6","input":["Add_23"],"attr":{"T":{"type":"DT_FLOAT"}}},
          {"name":"Conv2D_23","op":"Conv2D","input":["model_1/model/re_lu_23/Relu6_model_1/model/batch_normalization_34/FusedBatchNormV3_model_1/model/depthwise_conv2d_11/depthwise","Conv2D_23/filter"],"device":"/device:CPU:0","attr":{"explicit_paddings":{"list":{}},"use_cudnn_on_gpu":{"b":true},"strides":{"list":{"i":["1","1","1","1"]}},"padding":{"s":"U0FNRQ=="},"dilations":{"list":{"i":["1","1","1","1"]}},"data_format":{"s":"TkhXQw=="},"T":{"type":"DT_FLOAT"}}},
          {"name":"model_1/model/batch_normalization_35/FusedBatchNormV3_model_1/model/conv2d_29/Conv2D_model_1/model/conv2d_23/Conv2D1","op":"Add","input":["Conv2D_23","model_1/model/batch_normalization_35/FusedBatchNormV3_model_1/model/conv2d_29/Conv2D_model_1/model/conv2d_23/Conv2D1/y"],"attr":{"T":{"type":"DT_FLOAT"}}},
          {"name":"Conv2D_24","op":"Conv2D","input":["model_1/model/batch_normalization_35/FusedBatchNormV3_model_1/model/conv2d_29/Conv2D_model_1/model/conv2d_23/Conv2D1","Conv2D_24/filter"],"device":"/device:CPU:0","attr":{"strides":{"list":{"i":["1","1","1","1"]}},"dilations":{"list":{"i":["1","1","1","1"]}},"padding":{"s":"U0FNRQ=="},"T":{"type":"DT_FLOAT"},"data_format":{"s":"TkhXQw=="},"use_cudnn_on_gpu":{"b":true},"explicit_paddings":{"list":{}}}},
          {"name":"Add_24","op":"Add","input":["Conv2D_24","Add_24/y"],"attr":{"T":{"type":"DT_FLOAT"}}},
          {"name":"model_1/model/re_lu_24/Relu6_model_1/model/batch_normalization_36/FusedBatchNormV3_model_1/model/batch_normalization_40/FusedBatchNormV3_model_1/model/depthwise_conv2d_13/depthwise_model_1/model/depthwise_conv2d_20/depthwise_model_1/model/conv2d_24/Conv2D","op":"Relu6","input":["Add_24"],"attr":{"T":{"type":"DT_FLOAT"}}},
          {"name":"depthwise_12","op":"DepthwiseConv2dNative","input":["model_1/model/re_lu_24/Relu6_model_1/model/batch_normalization_36/FusedBatchNormV3_model_1/model/batch_normalization_40/FusedBatchNormV3_model_1/model/depthwise_conv2d_13/depthwise_model_1/model/depthwise_conv2d_20/depthwise_model_1/model/conv2d_24/Conv2D","depthwise_12/filter_in"],"attr":{"data_format":{"s":"TkhXQw=="},"strides":{"list":{"i":["1","1","1","1"]}},"dilations":{"list":{"i":["1","1","1","1"]}},"T":{"type":"DT_FLOAT"},"explicit_paddings":{"list":{}},"padding":{"s":"U0FNRQ=="}}},
          {"name":"Add_25","op":"Add","input":["depthwise_12","Add_25/y"],"attr":{"T":{"type":"DT_FLOAT"}}},
          {"name":"model_1/model/re_lu_25/Relu6_model_1/model/batch_normalization_37/FusedBatchNormV3_model_1/model/depthwise_conv2d_12/depthwise_model_1/model/depthwise_conv2d_20/depthwise","op":"Relu6","input":["Add_25"],"attr":{"T":{"type":"DT_FLOAT"}}},
          {"name":"Conv2D_25","op":"Conv2D","input":["model_1/model/re_lu_25/Relu6_model_1/model/batch_normalization_37/FusedBatchNormV3_model_1/model/depthwise_conv2d_12/depthwise_model_1/model/depthwise_conv2d_20/depthwise","Conv2D_25/filter"],"device":"/device:CPU:0","attr":{"padding":{"s":"U0FNRQ=="},"dilations":{"list":{"i":["1","1","1","1"]}},"use_cudnn_on_gpu":{"b":true},"explicit_paddings":{"list":{}},"T":{"type":"DT_FLOAT"},"data_format":{"s":"TkhXQw=="},"strides":{"list":{"i":["1","1","1","1"]}}}},
          {"name":"model_1/model/add_6/ArithmeticOptimizer/AddOpsRewrite_Leaf_1_add","op":"AddN","input":["Conv2D_25","model_1/model/batch_normalization_35/FusedBatchNormV3_model_1/model/conv2d_29/Conv2D_model_1/model/conv2d_23/Conv2D1"],"attr":{"_grappler_ArithmeticOptimizer_AddOpsRewriteStage":{"b":true},"T":{"type":"DT_FLOAT"},"N":{"i":"2"}}},
          {"name":"model_1/model/add_6/ArithmeticOptimizer/AddOpsRewrite_add","op":"AddV2","input":["model_1/model/batch_normalization_38/FusedBatchNormV3_model_1/model/conv2d_29/Conv2D_model_1/model/conv2d_25/Conv2D1/y","model_1/model/add_6/ArithmeticOptimizer/AddOpsRewrite_Leaf_1_add"],"attr":{"_grappler_ArithmeticOptimizer_AddOpsRewriteStage":{"b":true},"T":{"type":"DT_FLOAT"}}},
          {"name":"Conv2D_26","op":"Conv2D","input":["model_1/model/add_6/ArithmeticOptimizer/AddOpsRewrite_add","Conv2D_26/filter"],"device":"/device:CPU:0","attr":{"padding":{"s":"U0FNRQ=="},"data_format":{"s":"TkhXQw=="},"use_cudnn_on_gpu":{"b":true},"explicit_paddings":{"list":{}},"dilations":{"list":{"i":["1","1","1","1"]}},"strides":{"list":{"i":["1","1","1","1"]}},"T":{"type":"DT_FLOAT"}}},
          {"name":"Add_26","op":"Add","input":["Conv2D_26","Add_26/y"],"attr":{"T":{"type":"DT_FLOAT"}}},
          {"name":"model_1/model/re_lu_26/Relu6_model_1/model/batch_normalization_39/FusedBatchNormV3_model_1/model/batch_normalization_40/FusedBatchNormV3_model_1/model/depthwise_conv2d_13/depthwise_model_1/model/depthwise_conv2d_20/depthwise_model_1/model/conv2d_26/Conv2D","op":"Relu6","input":["Add_26"],"attr":{"T":{"type":"DT_FLOAT"}}},
          {"name":"depthwise_13","op":"DepthwiseConv2dNative","input":["model_1/model/re_lu_26/Relu6_model_1/model/batch_normalization_39/FusedBatchNormV3_model_1/model/batch_normalization_40/FusedBatchNormV3_model_1/model/depthwise_conv2d_13/depthwise_model_1/model/depthwise_conv2d_20/depthwise_model_1/model/conv2d_26/Conv2D","depthwise_13/filter_in"],"attr":{"dilations":{"list":{"i":["1","1","1","1"]}},"T":{"type":"DT_FLOAT"},"padding":{"s":"U0FNRQ=="},"explicit_paddings":{"list":{}},"data_format":{"s":"TkhXQw=="},"strides":{"list":{"i":["1","1","1","1"]}}}},
          {"name":"Add_27","op":"Add","input":["depthwise_13","Add_27/y"],"attr":{"T":{"type":"DT_FLOAT"}}},
          {"name":"model_1/model/re_lu_27/Relu6_model_1/model/batch_normalization_40/FusedBatchNormV3_model_1/model/depthwise_conv2d_13/depthwise_model_1/model/depthwise_conv2d_20/depthwise","op":"Relu6","input":["Add_27"],"attr":{"T":{"type":"DT_FLOAT"}}},
          {"name":"Conv2D_27","op":"Conv2D","input":["model_1/model/re_lu_27/Relu6_model_1/model/batch_normalization_40/FusedBatchNormV3_model_1/model/depthwise_conv2d_13/depthwise_model_1/model/depthwise_conv2d_20/depthwise","Conv2D_27/filter"],"device":"/device:CPU:0","attr":{"strides":{"list":{"i":["1","1","1","1"]}},"data_format":{"s":"TkhXQw=="},"explicit_paddings":{"list":{}},"T":{"type":"DT_FLOAT"},"padding":{"s":"U0FNRQ=="},"use_cudnn_on_gpu":{"b":true},"dilations":{"list":{"i":["1","1","1","1"]}}}},
          {"name":"model_1/model/add_7/ArithmeticOptimizer/AddOpsRewrite_Leaf_1_add","op":"AddN","input":["Conv2D_27","model_1/model/add_6/ArithmeticOptimizer/AddOpsRewrite_add"],"attr":{"_grappler_ArithmeticOptimizer_AddOpsRewriteStage":{"b":true},"T":{"type":"DT_FLOAT"},"N":{"i":"2"}}},
          {"name":"model_1/model/add_7/ArithmeticOptimizer/AddOpsRewrite_add","op":"AddV2","input":["model_1/model/batch_normalization_41/FusedBatchNormV3_model_1/model/conv2d_29/Conv2D_model_1/model/conv2d_27/Conv2D1/y","model_1/model/add_7/ArithmeticOptimizer/AddOpsRewrite_Leaf_1_add"],"attr":{"T":{"type":"DT_FLOAT"},"_grappler_ArithmeticOptimizer_AddOpsRewriteStage":{"b":true}}},
          {"name":"Conv2D_28","op":"Conv2D","input":["model_1/model/add_7/ArithmeticOptimizer/AddOpsRewrite_add","Conv2D_28/filter"],"device":"/device:CPU:0","attr":{"strides":{"list":{"i":["1","1","1","1"]}},"use_cudnn_on_gpu":{"b":true},"padding":{"s":"U0FNRQ=="},"T":{"type":"DT_FLOAT"},"data_format":{"s":"TkhXQw=="},"explicit_paddings":{"list":{}},"dilations":{"list":{"i":["1","1","1","1"]}}}},
          {"name":"Add_28","op":"Add","input":["Conv2D_28","Add_28/y"],"attr":{"T":{"type":"DT_FLOAT"}}},
          {"name":"model_1/model/re_lu_28/Relu6_model_1/model/batch_normalization_42/FusedBatchNormV3_model_1/model/batch_normalization_40/FusedBatchNormV3_model_1/model/depthwise_conv2d_13/depthwise_model_1/model/depthwise_conv2d_20/depthwise_model_1/model/conv2d_28/Conv2D","op":"Relu6","input":["Add_28"],"attr":{"T":{"type":"DT_FLOAT"}}},
          {"name":"depthwise_14","op":"DepthwiseConv2dNative","input":["model_1/model/re_lu_28/Relu6_model_1/model/batch_normalization_42/FusedBatchNormV3_model_1/model/batch_normalization_40/FusedBatchNormV3_model_1/model/depthwise_conv2d_13/depthwise_model_1/model/depthwise_conv2d_20/depthwise_model_1/model/conv2d_28/Conv2D","depthwise_14/filter_in"],"attr":{"strides":{"list":{"i":["1","1","1","1"]}},"explicit_paddings":{"list":{}},"data_format":{"s":"TkhXQw=="},"dilations":{"list":{"i":["1","1","1","1"]}},"T":{"type":"DT_FLOAT"},"padding":{"s":"U0FNRQ=="}}},
          {"name":"Add_29","op":"Add","input":["depthwise_14","Add_29/y"],"attr":{"T":{"type":"DT_FLOAT"}}},
          {"name":"model_1/model/re_lu_29/Relu6_model_1/model/batch_normalization_43/FusedBatchNormV3_model_1/model/depthwise_conv2d_14/depthwise_model_1/model/depthwise_conv2d_20/depthwise","op":"Relu6","input":["Add_29"],"attr":{"T":{"type":"DT_FLOAT"}}},
          {"name":"Conv2D_29","op":"Conv2D","input":["model_1/model/re_lu_29/Relu6_model_1/model/batch_normalization_43/FusedBatchNormV3_model_1/model/depthwise_conv2d_14/depthwise_model_1/model/depthwise_conv2d_20/depthwise","Conv2D_29/filter"],"device":"/device:CPU:0","attr":{"data_format":{"s":"TkhXQw=="},"padding":{"s":"U0FNRQ=="},"dilations":{"list":{"i":["1","1","1","1"]}},"explicit_paddings":{"list":{}},"T":{"type":"DT_FLOAT"},"use_cudnn_on_gpu":{"b":true},"strides":{"list":{"i":["1","1","1","1"]}}}},
          {"name":"model_1/model/add_8/ArithmeticOptimizer/AddOpsRewrite_Leaf_1_add","op":"AddN","input":["Conv2D_29","model_1/model/add_7/ArithmeticOptimizer/AddOpsRewrite_add"],"attr":{"N":{"i":"2"},"_grappler_ArithmeticOptimizer_AddOpsRewriteStage":{"b":true},"T":{"type":"DT_FLOAT"}}},
          {"name":"model_1/model/add_8/ArithmeticOptimizer/AddOpsRewrite_add","op":"AddV2","input":["model_1/model/batch_normalization_44/FusedBatchNormV3_model_1/model/conv2d_29/Conv2D1/y","model_1/model/add_8/ArithmeticOptimizer/AddOpsRewrite_Leaf_1_add"],"attr":{"_grappler_ArithmeticOptimizer_AddOpsRewriteStage":{"b":true},"T":{"type":"DT_FLOAT"}}},
          {"name":"Conv2D_30","op":"Conv2D","input":["model_1/model/add_8/ArithmeticOptimizer/AddOpsRewrite_add","Conv2D_30/filter"],"device":"/device:CPU:0","attr":{"T":{"type":"DT_FLOAT"},"explicit_paddings":{"list":{}},"use_cudnn_on_gpu":{"b":true},"strides":{"list":{"i":["1","1","1","1"]}},"data_format":{"s":"TkhXQw=="},"padding":{"s":"U0FNRQ=="},"dilations":{"list":{"i":["1","1","1","1"]}}}},
          {"name":"Add_30","op":"Add","input":["Conv2D_30","Add_30/y"],"attr":{"T":{"type":"DT_FLOAT"}}},
          {"name":"model_1/model/re_lu_30/Relu6_model_1/model/batch_normalization_45/FusedBatchNormV3_model_1/model/batch_normalization_40/FusedBatchNormV3_model_1/model/depthwise_conv2d_13/depthwise_model_1/model/depthwise_conv2d_20/depthwise_model_1/model/conv2d_30/Conv2D","op":"Relu6","input":["Add_30"],"attr":{"T":{"type":"DT_FLOAT"}}},
          {"name":"depthwise_15","op":"DepthwiseConv2dNative","input":["model_1/model/re_lu_30/Relu6_model_1/model/batch_normalization_45/FusedBatchNormV3_model_1/model/batch_normalization_40/FusedBatchNormV3_model_1/model/depthwise_conv2d_13/depthwise_model_1/model/depthwise_conv2d_20/depthwise_model_1/model/conv2d_30/Conv2D","depthwise_15/filter_in"],"attr":{"padding":{"s":"U0FNRQ=="},"dilations":{"list":{"i":["1","1","1","1"]}},"T":{"type":"DT_FLOAT"},"explicit_paddings":{"list":{}},"strides":{"list":{"i":["1","1","1","1"]}},"data_format":{"s":"TkhXQw=="}}},
          {"name":"Add_31","op":"Add","input":["depthwise_15","Add_31/y"],"attr":{"T":{"type":"DT_FLOAT"}}},
          {"name":"model_1/model/re_lu_31/Relu6_model_1/model/batch_normalization_46/FusedBatchNormV3_model_1/model/depthwise_conv2d_15/depthwise_model_1/model/depthwise_conv2d_20/depthwise","op":"Relu6","input":["Add_31"],"attr":{"T":{"type":"DT_FLOAT"}}},
          {"name":"depthwise_16","op":"DepthwiseConv2dNative","input":["model_1/model/re_lu_31/Relu6_model_1/model/batch_normalization_46/FusedBatchNormV3_model_1/model/depthwise_conv2d_15/depthwise_model_1/model/depthwise_conv2d_20/depthwise","depthwise_16/filter_in"],"attr":{"T":{"type":"DT_FLOAT"},"strides":{"list":{"i":["1","1","1","1"]}},"explicit_paddings":{"list":{}},"data_format":{"s":"TkhXQw=="},"dilations":{"list":{"i":["1","1","1","1"]}},"padding":{"s":"U0FNRQ=="}}},
          {"name":"depthwise_17","op":"DepthwiseConv2dNative","input":["model_1/model/re_lu_31/Relu6_model_1/model/batch_normalization_46/FusedBatchNormV3_model_1/model/depthwise_conv2d_15/depthwise_model_1/model/depthwise_conv2d_20/depthwise","depthwise_17/filter_in"],"attr":{"T":{"type":"DT_FLOAT"},"strides":{"list":{"i":["1","1","1","1"]}},"data_format":{"s":"TkhXQw=="},"padding":{"s":"U0FNRQ=="},"dilations":{"list":{"i":["1","1","1","1"]}},"explicit_paddings":{"list":{}}}},
          {"name":"Conv2D_31","op":"Conv2D","input":["depthwise_16","Conv2D_31/filter"],"device":"/device:CPU:0","attr":{"strides":{"list":{"i":["1","1","1","1"]}},"padding":{"s":"VkFMSUQ="},"use_cudnn_on_gpu":{"b":true},"T":{"type":"DT_FLOAT"},"dilations":{"list":{"i":["1","1","1","1"]}},"data_format":{"s":"TkhXQw=="},"explicit_paddings":{"list":{}}}},
          {"name":"Conv2D_32","op":"Conv2D","input":["depthwise_17","Conv2D_32/filter"],"device":"/device:CPU:0","attr":{"dilations":{"list":{"i":["1","1","1","1"]}},"explicit_paddings":{"list":{}},"T":{"type":"DT_FLOAT"},"data_format":{"s":"TkhXQw=="},"strides":{"list":{"i":["1","1","1","1"]}},"use_cudnn_on_gpu":{"b":true},"padding":{"s":"VkFMSUQ="}}},
          {"name":"Add_32","op":"Add","input":["Conv2D_31","Add_32/y"],"attr":{"T":{"type":"DT_FLOAT"}}},
          {"name":"Add_33","op":"Add","input":["Conv2D_32","Add_33/y"],"attr":{"T":{"type":"DT_FLOAT"}}},
          {"name":"model_1/model/activation/Relu_model_1/model/batch_normalization_47/FusedBatchNormV3_model_1/model/depthwise_conv2d_33/depthwise_model_1/model/conv2d_31/Conv2D","op":"Relu","input":["Add_32"],"attr":{"T":{"type":"DT_FLOAT"}}},
          {"name":"model_1/model/activation_4/Relu_model_1/model/batch_normalization_51/FusedBatchNormV3_model_1/model/conv2d_46/Conv2D_model_1/model/conv2d_35/Conv2D","op":"Relu","input":["Add_33"],"attr":{"T":{"type":"DT_FLOAT"}}},
          {"name":"model_1/model/up_sampling2d/resize/ResizeBilinear_lambda/resize/ResizeBilinear","op":"ResizeBilinear","input":["model_1/model/activation/Relu_model_1/model/batch_normalization_47/FusedBatchNormV3_model_1/model/depthwise_conv2d_33/depthwise_model_1/model/conv2d_31/Conv2D","model_1/model/up_sampling2d/resize/ResizeBilinear_lambda/resize/size"],"attr":{"align_corners":{"b":false},"half_pixel_centers":{"b":true},"T":{"type":"DT_FLOAT"}}},
          {"name":"model_1/model/max_pooling2d/MaxPool","op":"MaxPool","input":["model_1/model/activation_4/Relu_model_1/model/batch_normalization_51/FusedBatchNormV3_model_1/model/conv2d_46/Conv2D_model_1/model/conv2d_35/Conv2D"],"attr":{"ksize":{"list":{"i":["1","2","2","1"]}},"padding":{"s":"VkFMSUQ="},"data_format":{"s":"TkhXQw=="},"strides":{"list":{"i":["1","2","2","1"]}},"T":{"type":"DT_FLOAT"},"explicit_paddings":{"list":{}}}},
          {"name":"depthwise_18","op":"DepthwiseConv2dNative","input":["model_1/model/activation_4/Relu_model_1/model/batch_normalization_51/FusedBatchNormV3_model_1/model/conv2d_46/Conv2D_model_1/model/conv2d_35/Conv2D","depthwise_18/filter_in"],"attr":{"dilations":{"list":{"i":["1","1","1","1"]}},"T":{"type":"DT_FLOAT"},"data_format":{"s":"TkhXQw=="},"padding":{"s":"U0FNRQ=="},"strides":{"list":{"i":["1","2","2","1"]}},"explicit_paddings":{"list":{}}}},
          {"name":"model_1/model/add_9/add","op":"Add","input":["model_1/model/up_sampling2d/resize/ResizeBilinear_lambda/resize/ResizeBilinear","model_1/model/activation_1/Relu_model_1/model/batch_normalization_48/FusedBatchNormV3_model_1/model/depthwise_conv2d_33/depthwise_model_1/model/conv2d_32/Conv2D"],"attr":{"T":{"type":"DT_FLOAT"}}},
          {"name":"Conv2D_33","op":"Conv2D","input":["depthwise_18","Conv2D_33/filter"],"device":"/device:CPU:0","attr":{"padding":{"s":"VkFMSUQ="},"data_format":{"s":"TkhXQw=="},"strides":{"list":{"i":["1","1","1","1"]}},"explicit_paddings":{"list":{}},"dilations":{"list":{"i":["1","1","1","1"]}},"use_cudnn_on_gpu":{"b":true},"T":{"type":"DT_FLOAT"}}},
          {"name":"model_1/model/up_sampling2d_1/resize/ResizeBilinear_lambda/resize/ResizeBilinear","op":"ResizeBilinear","input":["model_1/model/add_9/add","model_1/model/up_sampling2d_1/resize/ResizeBilinear_lambda/resize/size"],"attr":{"align_corners":{"b":false},"half_pixel_centers":{"b":true},"T":{"type":"DT_FLOAT"}}},
          {"name":"model_1/model/batch_normalization_52/FusedBatchNormV3_model_1/model/conv2d_46/Conv2D_model_1/model/conv2d_36/Conv2D1","op":"Add","input":["Conv2D_33","model_1/model/batch_normalization_52/FusedBatchNormV3_model_1/model/conv2d_46/Conv2D_model_1/model/conv2d_36/Conv2D1/y"],"attr":{"T":{"type":"DT_FLOAT"}}},
          {"name":"model_1/model/add_10/add","op":"Add","input":["model_1/model/up_sampling2d_1/resize/ResizeBilinear_lambda/resize/ResizeBilinear","model_1/model/activation_2/Relu_model_1/model/batch_normalization_49/FusedBatchNormV3_model_1/model/depthwise_conv2d_33/depthwise_model_1/model/conv2d_33/Conv2D"],"attr":{"T":{"type":"DT_FLOAT"}}},
          {"name":"Add_34","op":"Add","input":["model_1/model/max_pooling2d/MaxPool","model_1/model/batch_normalization_52/FusedBatchNormV3_model_1/model/conv2d_46/Conv2D_model_1/model/conv2d_36/Conv2D1"],"attr":{"T":{"type":"DT_FLOAT"}}},
          {"name":"model_1/model/up_sampling2d_2/resize/ResizeBilinear_lambda/resize/ResizeBilinear","op":"ResizeBilinear","input":["model_1/model/add_10/add","model_1/model/up_sampling2d_2/resize/ResizeBilinear_lambda/resize/size"],"attr":{"half_pixel_centers":{"b":true},"T":{"type":"DT_FLOAT"},"align_corners":{"b":false}}},
          {"name":"model_1/model/activation_5/Relu_model_1/model/add_12/add","op":"Relu","input":["Add_34"],"attr":{"T":{"type":"DT_FLOAT"}}},
          {"name":"model_1/model/add_11/add","op":"Add","input":["model_1/model/up_sampling2d_2/resize/ResizeBilinear_lambda/resize/ResizeBilinear","model_1/model/activation_3/Relu_model_1/model/batch_normalization_50/FusedBatchNormV3_model_1/model/depthwise_conv2d_33/depthwise_model_1/model/conv2d_34/Conv2D"],"attr":{"T":{"type":"DT_FLOAT"}}},
          {"name":"depthwise_19","op":"DepthwiseConv2dNative","input":["model_1/model/activation_5/Relu_model_1/model/add_12/add","depthwise_19/filter_in"],"attr":{"data_format":{"s":"TkhXQw=="},"explicit_paddings":{"list":{}},"padding":{"s":"U0FNRQ=="},"strides":{"list":{"i":["1","1","1","1"]}},"dilations":{"list":{"i":["1","1","1","1"]}},"T":{"type":"DT_FLOAT"}}},
          {"name":"depthwise_33","op":"DepthwiseConv2dNative","input":["model_1/model/add_11/add","depthwise_33/filter_in"],"attr":{"padding":{"s":"U0FNRQ=="},"explicit_paddings":{"list":{}},"T":{"type":"DT_FLOAT"},"strides":{"list":{"i":["1","1","1","1"]}},"data_format":{"s":"TkhXQw=="},"dilations":{"list":{"i":["1","1","1","1"]}}}},
          {"name":"Conv2D_52","op":"Conv2D","input":["model_1/model/add_11/add","Conv2D_52/filter"],"device":"/device:CPU:0","attr":{"data_format":{"s":"TkhXQw=="},"explicit_paddings":{"list":{}},"padding":{"s":"U0FNRQ=="},"use_cudnn_on_gpu":{"b":true},"T":{"type":"DT_FLOAT"},"dilations":{"list":{"i":["1","1","1","1"]}},"strides":{"list":{"i":["1","1","1","1"]}}}},
          {"name":"Conv2D_34","op":"Conv2D","input":["depthwise_19","Conv2D_34/filter"],"device":"/device:CPU:0","attr":{"data_format":{"s":"TkhXQw=="},"explicit_paddings":{"list":{}},"dilations":{"list":{"i":["1","1","1","1"]}},"use_cudnn_on_gpu":{"b":true},"strides":{"list":{"i":["1","1","1","1"]}},"padding":{"s":"VkFMSUQ="},"T":{"type":"DT_FLOAT"}}},
          {"name":"Conv2D_51","op":"Conv2D","input":["depthwise_33","Conv2D_51/filter"],"device":"/device:CPU:0","attr":{"data_format":{"s":"TkhXQw=="},"dilations":{"list":{"i":["1","1","1","1"]}},"strides":{"list":{"i":["1","1","1","1"]}},"explicit_paddings":{"list":{}},"padding":{"s":"VkFMSUQ="},"T":{"type":"DT_FLOAT"},"use_cudnn_on_gpu":{"b":true}}},
          {"name":"Identity_3","op":"Add","input":["Conv2D_52","Identity_3/y"],"attr":{"T":{"type":"DT_FLOAT"}}},
          {"name":"model_1/model/batch_normalization_53/FusedBatchNormV3_model_1/model/conv2d_46/Conv2D_model_1/model/conv2d_37/Conv2D1","op":"Add","input":["Conv2D_34","model_1/model/batch_normalization_53/FusedBatchNormV3_model_1/model/conv2d_46/Conv2D_model_1/model/conv2d_37/Conv2D1/y"],"attr":{"T":{"type":"DT_FLOAT"}}},
          {"name":"Add_49","op":"Add","input":["Conv2D_51","Add_49/y"],"attr":{"T":{"type":"DT_FLOAT"}}},
          {"name":"Add_35","op":"Add","input":["model_1/model/activation_5/Relu_model_1/model/add_12/add","model_1/model/batch_normalization_53/FusedBatchNormV3_model_1/model/conv2d_46/Conv2D_model_1/model/conv2d_37/Conv2D1"],"attr":{"T":{"type":"DT_FLOAT"}}},
          {"name":"model_1/model/activation_17/Relu_model_1/model/batch_normalization_64/FusedBatchNormV3_model_1/model/conv2d_52/Conv2D_model_1/model/conv2d_48/Conv2D","op":"Relu","input":["Add_49"],"attr":{"T":{"type":"DT_FLOAT"}}},
          {"name":"model_1/model/activation_6/Relu_model_1/model/add_13/add","op":"Relu","input":["Add_35"],"attr":{"T":{"type":"DT_FLOAT"}}},
          {"name":"model_1/model/up_sampling2d_3/resize/ResizeBilinear_lambda/resize/ResizeBilinear","op":"ResizeBilinear","input":["model_1/model/activation_17/Relu_model_1/model/batch_normalization_64/FusedBatchNormV3_model_1/model/conv2d_52/Conv2D_model_1/model/conv2d_48/Conv2D","model_1/model/up_sampling2d_3/resize/ResizeBilinear_lambda/resize/size"],"attr":{"T":{"type":"DT_FLOAT"},"align_corners":{"b":false},"half_pixel_centers":{"b":true}}},
          {"name":"depthwise_20","op":"DepthwiseConv2dNative","input":["model_1/model/activation_6/Relu_model_1/model/add_13/add","depthwise_20/filter_in"],"attr":{"explicit_paddings":{"list":{}},"dilations":{"list":{"i":["1","1","1","1"]}},"data_format":{"s":"TkhXQw=="},"strides":{"list":{"i":["1","1","1","1"]}},"T":{"type":"DT_FLOAT"},"padding":{"s":"U0FNRQ=="}}},
          {"name":"model_1/model/add_23/add","op":"Add","input":["model_1/model/up_sampling2d_3/resize/ResizeBilinear_lambda/resize/ResizeBilinear","model_1/model/activation_16/Relu_model_1/model/batch_normalization_63/FusedBatchNormV3_model_1/model/conv2d_52/Conv2D_model_1/model/conv2d_47/Conv2D"],"attr":{"T":{"type":"DT_FLOAT"}}},
          {"name":"Conv2D_35","op":"Conv2D","input":["depthwise_20","Conv2D_35/filter"],"device":"/device:CPU:0","attr":{"use_cudnn_on_gpu":{"b":true},"dilations":{"list":{"i":["1","1","1","1"]}},"padding":{"s":"VkFMSUQ="},"data_format":{"s":"TkhXQw=="},"explicit_paddings":{"list":{}},"T":{"type":"DT_FLOAT"},"strides":{"list":{"i":["1","1","1","1"]}}}},
          {"name":"depthwise_34","op":"DepthwiseConv2dNative","input":["model_1/model/add_23/add","depthwise_34/filter_in"],"attr":{"dilations":{"list":{"i":["1","1","1","1"]}},"data_format":{"s":"TkhXQw=="},"explicit_paddings":{"list":{}},"strides":{"list":{"i":["1","1","1","1"]}},"padding":{"s":"U0FNRQ=="},"T":{"type":"DT_FLOAT"}}},
          {"name":"model_1/model/batch_normalization_54/FusedBatchNormV3_model_1/model/conv2d_46/Conv2D_model_1/model/conv2d_38/Conv2D1","op":"Add","input":["Conv2D_35","model_1/model/batch_normalization_54/FusedBatchNormV3_model_1/model/conv2d_46/Conv2D_model_1/model/conv2d_38/Conv2D1/y"],"attr":{"T":{"type":"DT_FLOAT"}}},
          {"name":"Conv2D_53","op":"Conv2D","input":["depthwise_34","Conv2D_53/filter"],"device":"/device:CPU:0","attr":{"use_cudnn_on_gpu":{"b":true},"T":{"type":"DT_FLOAT"},"explicit_paddings":{"list":{}},"data_format":{"s":"TkhXQw=="},"padding":{"s":"VkFMSUQ="},"dilations":{"list":{"i":["1","1","1","1"]}},"strides":{"list":{"i":["1","1","1","1"]}}}},
          {"name":"Add_36","op":"Add","input":["model_1/model/activation_6/Relu_model_1/model/add_13/add","model_1/model/batch_normalization_54/FusedBatchNormV3_model_1/model/conv2d_46/Conv2D_model_1/model/conv2d_38/Conv2D1"],"attr":{"T":{"type":"DT_FLOAT"}}},
          {"name":"ArithmeticOptimizer/AddOpsRewrite_Leaf_1_Add_50","op":"AddN","input":["model_1/model/add_23/add","Conv2D_53"],"attr":{"T":{"type":"DT_FLOAT"},"_grappler_ArithmeticOptimizer_AddOpsRewriteStage":{"b":true},"N":{"i":"2"}}},
          {"name":"model_1/model/activation_7/Relu_model_1/model/add_14/add","op":"Relu","input":["Add_36"],"attr":{"T":{"type":"DT_FLOAT"}}},
          {"name":"ArithmeticOptimizer/AddOpsRewrite_Add_50","op":"AddV2","input":["model_1/model/batch_normalization_65/FusedBatchNormV3_model_1/model/conv2d_52/Conv2D_model_1/model/conv2d_49/Conv2D1/y","ArithmeticOptimizer/AddOpsRewrite_Leaf_1_Add_50"],"attr":{"_grappler_ArithmeticOptimizer_AddOpsRewriteStage":{"b":true},"T":{"type":"DT_FLOAT"}}},
          {"name":"depthwise_21","op":"DepthwiseConv2dNative","input":["model_1/model/activation_7/Relu_model_1/model/add_14/add","depthwise_21/filter_in"],"attr":{"T":{"type":"DT_FLOAT"},"padding":{"s":"U0FNRQ=="},"data_format":{"s":"TkhXQw=="},"explicit_paddings":{"list":{}},"strides":{"list":{"i":["1","1","1","1"]}},"dilations":{"list":{"i":["1","1","1","1"]}}}},
          {"name":"model_1/model/activation_18/Relu_model_1/model/add_24/add","op":"Relu","input":["ArithmeticOptimizer/AddOpsRewrite_Add_50"],"attr":{"T":{"type":"DT_FLOAT"}}},
          {"name":"Conv2D_36","op":"Conv2D","input":["depthwise_21","Conv2D_36/filter"],"device":"/device:CPU:0","attr":{"explicit_paddings":{"list":{}},"T":{"type":"DT_FLOAT"},"padding":{"s":"VkFMSUQ="},"data_format":{"s":"TkhXQw=="},"use_cudnn_on_gpu":{"b":true},"strides":{"list":{"i":["1","1","1","1"]}},"dilations":{"list":{"i":["1","1","1","1"]}}}},
          {"name":"depthwise_35","op":"DepthwiseConv2dNative","input":["model_1/model/activation_18/Relu_model_1/model/add_24/add","depthwise_35/filter_in"],"attr":{"padding":{"s":"U0FNRQ=="},"explicit_paddings":{"list":{}},"strides":{"list":{"i":["1","1","1","1"]}},"dilations":{"list":{"i":["1","1","1","1"]}},"T":{"type":"DT_FLOAT"},"data_format":{"s":"TkhXQw=="}}},
          {"name":"model_1/model/batch_normalization_55/FusedBatchNormV3_model_1/model/conv2d_46/Conv2D_model_1/model/conv2d_39/Conv2D1","op":"Add","input":["Conv2D_36","model_1/model/batch_normalization_55/FusedBatchNormV3_model_1/model/conv2d_46/Conv2D_model_1/model/conv2d_39/Conv2D1/y"],"attr":{"T":{"type":"DT_FLOAT"}}},
          {"name":"Conv2D_54","op":"Conv2D","input":["depthwise_35","Conv2D_54/filter"],"device":"/device:CPU:0","attr":{"padding":{"s":"VkFMSUQ="},"use_cudnn_on_gpu":{"b":true},"data_format":{"s":"TkhXQw=="},"strides":{"list":{"i":["1","1","1","1"]}},"explicit_paddings":{"list":{}},"dilations":{"list":{"i":["1","1","1","1"]}},"T":{"type":"DT_FLOAT"}}},
          {"name":"Add_37","op":"Add","input":["model_1/model/activation_7/Relu_model_1/model/add_14/add","model_1/model/batch_normalization_55/FusedBatchNormV3_model_1/model/conv2d_46/Conv2D_model_1/model/conv2d_39/Conv2D1"],"attr":{"T":{"type":"DT_FLOAT"}}},
          {"name":"ArithmeticOptimizer/AddOpsRewrite_Leaf_1_Add_51","op":"AddN","input":["model_1/model/activation_18/Relu_model_1/model/add_24/add","Conv2D_54"],"attr":{"N":{"i":"2"},"T":{"type":"DT_FLOAT"},"_grappler_ArithmeticOptimizer_AddOpsRewriteStage":{"b":true}}},
          {"name":"model_1/model/activation_8/Relu_model_1/model/add_15/add","op":"Relu","input":["Add_37"],"attr":{"T":{"type":"DT_FLOAT"}}},
          {"name":"ArithmeticOptimizer/AddOpsRewrite_Add_51","op":"AddV2","input":["model_1/model/batch_normalization_66/FusedBatchNormV3_model_1/model/conv2d_52/Conv2D_model_1/model/conv2d_50/Conv2D1/y","ArithmeticOptimizer/AddOpsRewrite_Leaf_1_Add_51"],"attr":{"_grappler_ArithmeticOptimizer_AddOpsRewriteStage":{"b":true},"T":{"type":"DT_FLOAT"}}},
          {"name":"depthwise_22","op":"DepthwiseConv2dNative","input":["model_1/model/activation_8/Relu_model_1/model/add_15/add","depthwise_22/filter_in"],"attr":{"T":{"type":"DT_FLOAT"},"padding":{"s":"U0FNRQ=="},"explicit_paddings":{"list":{}},"strides":{"list":{"i":["1","1","1","1"]}},"dilations":{"list":{"i":["1","1","1","1"]}},"data_format":{"s":"TkhXQw=="}}},
          {"name":"model_1/model/activation_19/Relu_model_1/model/add_25/add","op":"Relu","input":["ArithmeticOptimizer/AddOpsRewrite_Add_51"],"attr":{"T":{"type":"DT_FLOAT"}}},
          {"name":"Conv2D_37","op":"Conv2D","input":["depthwise_22","Conv2D_37/filter"],"device":"/device:CPU:0","attr":{"strides":{"list":{"i":["1","1","1","1"]}},"use_cudnn_on_gpu":{"b":true},"dilations":{"list":{"i":["1","1","1","1"]}},"T":{"type":"DT_FLOAT"},"data_format":{"s":"TkhXQw=="},"padding":{"s":"VkFMSUQ="},"explicit_paddings":{"list":{}}}},
          {"name":"model_1/model/up_sampling2d_4/resize/ResizeBilinear_lambda/resize/ResizeBilinear","op":"ResizeBilinear","input":["model_1/model/activation_19/Relu_model_1/model/add_25/add","model_1/model/up_sampling2d_4/resize/ResizeBilinear_lambda/resize/size"],"attr":{"T":{"type":"DT_FLOAT"},"half_pixel_centers":{"b":true},"align_corners":{"b":false}}},
          {"name":"model_1/model/batch_normalization_56/FusedBatchNormV3_model_1/model/conv2d_46/Conv2D_model_1/model/conv2d_40/Conv2D1","op":"Add","input":["Conv2D_37","model_1/model/batch_normalization_56/FusedBatchNormV3_model_1/model/conv2d_46/Conv2D_model_1/model/conv2d_40/Conv2D1/y"],"attr":{"T":{"type":"DT_FLOAT"}}},
          {"name":"depthwise_36","op":"DepthwiseConv2dNative","input":["model_1/model/up_sampling2d_4/resize/ResizeBilinear_lambda/resize/ResizeBilinear","depthwise_36/filter_in"],"attr":{"padding":{"s":"U0FNRQ=="},"T":{"type":"DT_FLOAT"},"dilations":{"list":{"i":["1","1","1","1"]}},"explicit_paddings":{"list":{}},"data_format":{"s":"TkhXQw=="},"strides":{"list":{"i":["1","1","1","1"]}}}},
          {"name":"Add_38","op":"Add","input":["model_1/model/activation_8/Relu_model_1/model/add_15/add","model_1/model/batch_normalization_56/FusedBatchNormV3_model_1/model/conv2d_46/Conv2D_model_1/model/conv2d_40/Conv2D1"],"attr":{"T":{"type":"DT_FLOAT"}}},
          {"name":"Conv2D_55","op":"Conv2D","input":["depthwise_36","Conv2D_55/filter"],"device":"/device:CPU:0","attr":{"explicit_paddings":{"list":{}},"use_cudnn_on_gpu":{"b":true},"T":{"type":"DT_FLOAT"},"padding":{"s":"VkFMSUQ="},"dilations":{"list":{"i":["1","1","1","1"]}},"strides":{"list":{"i":["1","1","1","1"]}},"data_format":{"s":"TkhXQw=="}}},
          {"name":"model_1/model/activation_9/Relu_model_1/model/add_16/add","op":"Relu","input":["Add_38"],"attr":{"T":{"type":"DT_FLOAT"}}},
          {"name":"ArithmeticOptimizer/AddOpsRewrite_Leaf_1_Add_52","op":"AddN","input":["model_1/model/up_sampling2d_4/resize/ResizeBilinear_lambda/resize/ResizeBilinear","Conv2D_55"],"attr":{"N":{"i":"2"},"T":{"type":"DT_FLOAT"},"_grappler_ArithmeticOptimizer_AddOpsRewriteStage":{"b":true}}},
          {"name":"model_1/model/max_pooling2d_1/MaxPool","op":"MaxPool","input":["model_1/model/activation_9/Relu_model_1/model/add_16/add"],"attr":{"strides":{"list":{"i":["1","2","2","1"]}},"explicit_paddings":{"list":{}},"data_format":{"s":"TkhXQw=="},"T":{"type":"DT_FLOAT"},"ksize":{"list":{"i":["1","2","2","1"]}},"padding":{"s":"VkFMSUQ="}}},
          {"name":"depthwise_23","op":"DepthwiseConv2dNative","input":["model_1/model/activation_9/Relu_model_1/model/add_16/add","depthwise_23/filter_in"],"attr":{"data_format":{"s":"TkhXQw=="},"strides":{"list":{"i":["1","2","2","1"]}},"explicit_paddings":{"list":{}},"padding":{"s":"U0FNRQ=="},"dilations":{"list":{"i":["1","1","1","1"]}},"T":{"type":"DT_FLOAT"}}},
          {"name":"ArithmeticOptimizer/AddOpsRewrite_Add_52","op":"AddV2","input":["model_1/model/batch_normalization_67/FusedBatchNormV3_model_1/model/conv2d_52/Conv2D_model_1/model/conv2d_51/Conv2D1/y","ArithmeticOptimizer/AddOpsRewrite_Leaf_1_Add_52"],"attr":{"_grappler_ArithmeticOptimizer_AddOpsRewriteStage":{"b":true},"T":{"type":"DT_FLOAT"}}},
          {"name":"Conv2D_38","op":"Conv2D","input":["depthwise_23","Conv2D_38/filter"],"device":"/device:CPU:0","attr":{"use_cudnn_on_gpu":{"b":true},"explicit_paddings":{"list":{}},"padding":{"s":"VkFMSUQ="},"dilations":{"list":{"i":["1","1","1","1"]}},"data_format":{"s":"TkhXQw=="},"T":{"type":"DT_FLOAT"},"strides":{"list":{"i":["1","1","1","1"]}}}},
          {"name":"model_1/model/activation_20/Relu_model_1/model/add_26/add","op":"Relu","input":["ArithmeticOptimizer/AddOpsRewrite_Add_52"],"attr":{"T":{"type":"DT_FLOAT"}}},
          {"name":"model_1/model/batch_normalization_57/FusedBatchNormV3_model_1/model/conv2d_46/Conv2D_model_1/model/conv2d_41/Conv2D1","op":"Add","input":["Conv2D_38","model_1/model/batch_normalization_57/FusedBatchNormV3_model_1/model/conv2d_46/Conv2D_model_1/model/conv2d_41/Conv2D1/y"],"attr":{"T":{"type":"DT_FLOAT"}}},
          {"name":"depthwise_37","op":"DepthwiseConv2dNative","input":["model_1/model/activation_20/Relu_model_1/model/add_26/add","depthwise_37/filter_in"],"attr":{"strides":{"list":{"i":["1","1","1","1"]}},"explicit_paddings":{"list":{}},"dilations":{"list":{"i":["1","1","1","1"]}},"data_format":{"s":"TkhXQw=="},"padding":{"s":"U0FNRQ=="},"T":{"type":"DT_FLOAT"}}},
          {"name":"Add_39","op":"Add","input":["model_1/model/max_pooling2d_1/MaxPool","model_1/model/batch_normalization_57/FusedBatchNormV3_model_1/model/conv2d_46/Conv2D_model_1/model/conv2d_41/Conv2D1"],"attr":{"T":{"type":"DT_FLOAT"}}},
          {"name":"Conv2D_56","op":"Conv2D","input":["depthwise_37","Conv2D_56/filter"],"device":"/device:CPU:0","attr":{"use_cudnn_on_gpu":{"b":true},"strides":{"list":{"i":["1","1","1","1"]}},"dilations":{"list":{"i":["1","1","1","1"]}},"padding":{"s":"VkFMSUQ="},"explicit_paddings":{"list":{}},"data_format":{"s":"TkhXQw=="},"T":{"type":"DT_FLOAT"}}},
          {"name":"model_1/model/activation_10/Relu_model_1/model/add_17/add","op":"Relu","input":["Add_39"],"attr":{"T":{"type":"DT_FLOAT"}}},
          {"name":"ArithmeticOptimizer/AddOpsRewrite_Leaf_1_Add_53","op":"AddN","input":["model_1/model/activation_20/Relu_model_1/model/add_26/add","Conv2D_56"],"attr":{"N":{"i":"2"},"_grappler_ArithmeticOptimizer_AddOpsRewriteStage":{"b":true},"T":{"type":"DT_FLOAT"}}},
          {"name":"depthwise_24","op":"DepthwiseConv2dNative","input":["model_1/model/activation_10/Relu_model_1/model/add_17/add","depthwise_24/filter_in"],"attr":{"data_format":{"s":"TkhXQw=="},"padding":{"s":"U0FNRQ=="},"dilations":{"list":{"i":["1","1","1","1"]}},"explicit_paddings":{"list":{}},"T":{"type":"DT_FLOAT"},"strides":{"list":{"i":["1","1","1","1"]}}}},
          {"name":"ArithmeticOptimizer/AddOpsRewrite_Add_53","op":"AddV2","input":["model_1/model/batch_normalization_68/FusedBatchNormV3_model_1/model/conv2d_52/Conv2D1/y","ArithmeticOptimizer/AddOpsRewrite_Leaf_1_Add_53"],"attr":{"_grappler_ArithmeticOptimizer_AddOpsRewriteStage":{"b":true},"T":{"type":"DT_FLOAT"}}},
          {"name":"Conv2D_39","op":"Conv2D","input":["depthwise_24","Conv2D_39/filter"],"device":"/device:CPU:0","attr":{"padding":{"s":"VkFMSUQ="},"use_cudnn_on_gpu":{"b":true},"data_format":{"s":"TkhXQw=="},"strides":{"list":{"i":["1","1","1","1"]}},"explicit_paddings":{"list":{}},"dilations":{"list":{"i":["1","1","1","1"]}},"T":{"type":"DT_FLOAT"}}},
          {"name":"model_1/model/activation_21/Relu_model_1/model/add_27/add","op":"Relu","input":["ArithmeticOptimizer/AddOpsRewrite_Add_53"],"attr":{"T":{"type":"DT_FLOAT"}}},
          {"name":"model_1/model/batch_normalization_58/FusedBatchNormV3_model_1/model/conv2d_46/Conv2D_model_1/model/conv2d_42/Conv2D1","op":"Add","input":["Conv2D_39","model_1/model/batch_normalization_58/FusedBatchNormV3_model_1/model/conv2d_46/Conv2D_model_1/model/conv2d_42/Conv2D1/y"],"attr":{"T":{"type":"DT_FLOAT"}}},
          {"name":"Conv2D_57","op":"Conv2D","input":["model_1/model/activation_21/Relu_model_1/model/add_27/add","Conv2D_57/filter"],"device":"/device:CPU:0","attr":{"use_cudnn_on_gpu":{"b":true},"T":{"type":"DT_FLOAT"},"strides":{"list":{"i":["1","1","1","1"]}},"padding":{"s":"U0FNRQ=="},"dilations":{"list":{"i":["1","1","1","1"]}},"explicit_paddings":{"list":{}},"data_format":{"s":"TkhXQw=="}}},
          {"name":"Add_40","op":"Add","input":["model_1/model/activation_10/Relu_model_1/model/add_17/add","model_1/model/batch_normalization_58/FusedBatchNormV3_model_1/model/conv2d_46/Conv2D_model_1/model/conv2d_42/Conv2D1"],"attr":{"T":{"type":"DT_FLOAT"}}},
          {"name":"Identity_2","op":"Add","input":["Conv2D_57","Identity_2/y"],"attr":{"T":{"type":"DT_FLOAT"}}},
          {"name":"model_1/model/activation_11/Relu_model_1/model/add_18/add","op":"Relu","input":["Add_40"],"attr":{"T":{"type":"DT_FLOAT"}}},
          {"name":"depthwise_25","op":"DepthwiseConv2dNative","input":["model_1/model/activation_11/Relu_model_1/model/add_18/add","depthwise_25/filter_in"],"attr":{"dilations":{"list":{"i":["1","1","1","1"]}},"data_format":{"s":"TkhXQw=="},"explicit_paddings":{"list":{}},"T":{"type":"DT_FLOAT"},"strides":{"list":{"i":["1","1","1","1"]}},"padding":{"s":"U0FNRQ=="}}},
          {"name":"Conv2D_40","op":"Conv2D","input":["depthwise_25","Conv2D_40/filter"],"device":"/device:CPU:0","attr":{"explicit_paddings":{"list":{}},"dilations":{"list":{"i":["1","1","1","1"]}},"padding":{"s":"VkFMSUQ="},"strides":{"list":{"i":["1","1","1","1"]}},"use_cudnn_on_gpu":{"b":true},"data_format":{"s":"TkhXQw=="},"T":{"type":"DT_FLOAT"}}},
          {"name":"model_1/model/batch_normalization_59/FusedBatchNormV3_model_1/model/conv2d_46/Conv2D_model_1/model/conv2d_43/Conv2D1","op":"Add","input":["Conv2D_40","model_1/model/batch_normalization_59/FusedBatchNormV3_model_1/model/conv2d_46/Conv2D_model_1/model/conv2d_43/Conv2D1/y"],"attr":{"T":{"type":"DT_FLOAT"}}},
          {"name":"Add_41","op":"Add","input":["model_1/model/activation_11/Relu_model_1/model/add_18/add","model_1/model/batch_normalization_59/FusedBatchNormV3_model_1/model/conv2d_46/Conv2D_model_1/model/conv2d_43/Conv2D1"],"attr":{"T":{"type":"DT_FLOAT"}}},
          {"name":"model_1/model/activation_12/Relu_model_1/model/add_19/add","op":"Relu","input":["Add_41"],"attr":{"T":{"type":"DT_FLOAT"}}},
          {"name":"depthwise_26","op":"DepthwiseConv2dNative","input":["model_1/model/activation_12/Relu_model_1/model/add_19/add","depthwise_26/filter_in"],"attr":{"padding":{"s":"U0FNRQ=="},"explicit_paddings":{"list":{}},"data_format":{"s":"TkhXQw=="},"dilations":{"list":{"i":["1","1","1","1"]}},"T":{"type":"DT_FLOAT"},"strides":{"list":{"i":["1","1","1","1"]}}}},
          {"name":"Conv2D_41","op":"Conv2D","input":["depthwise_26","Conv2D_41/filter"],"device":"/device:CPU:0","attr":{"explicit_paddings":{"list":{}},"use_cudnn_on_gpu":{"b":true},"strides":{"list":{"i":["1","1","1","1"]}},"dilations":{"list":{"i":["1","1","1","1"]}},"T":{"type":"DT_FLOAT"},"data_format":{"s":"TkhXQw=="},"padding":{"s":"VkFMSUQ="}}},
          {"name":"model_1/model/batch_normalization_60/FusedBatchNormV3_model_1/model/conv2d_46/Conv2D_model_1/model/conv2d_44/Conv2D1","op":"Add","input":["Conv2D_41","model_1/model/batch_normalization_60/FusedBatchNormV3_model_1/model/conv2d_46/Conv2D_model_1/model/conv2d_44/Conv2D1/y"],"attr":{"T":{"type":"DT_FLOAT"}}},
          {"name":"Add_42","op":"Add","input":["model_1/model/activation_12/Relu_model_1/model/add_19/add","model_1/model/batch_normalization_60/FusedBatchNormV3_model_1/model/conv2d_46/Conv2D_model_1/model/conv2d_44/Conv2D1"],"attr":{"T":{"type":"DT_FLOAT"}}},
          {"name":"model_1/model/activation_13/Relu_model_1/model/add_20/add","op":"Relu","input":["Add_42"],"attr":{"T":{"type":"DT_FLOAT"}}},
          {"name":"depthwise_27","op":"DepthwiseConv2dNative","input":["model_1/model/activation_13/Relu_model_1/model/add_20/add","depthwise_27/filter_in"],"attr":{"dilations":{"list":{"i":["1","1","1","1"]}},"explicit_paddings":{"list":{}},"strides":{"list":{"i":["1","1","1","1"]}},"padding":{"s":"U0FNRQ=="},"T":{"type":"DT_FLOAT"},"data_format":{"s":"TkhXQw=="}}},
          {"name":"Conv2D_42","op":"Conv2D","input":["depthwise_27","Conv2D_42/filter"],"device":"/device:CPU:0","attr":{"dilations":{"list":{"i":["1","1","1","1"]}},"T":{"type":"DT_FLOAT"},"data_format":{"s":"TkhXQw=="},"strides":{"list":{"i":["1","1","1","1"]}},"explicit_paddings":{"list":{}},"use_cudnn_on_gpu":{"b":true},"padding":{"s":"VkFMSUQ="}}},
          {"name":"model_1/model/batch_normalization_61/FusedBatchNormV3_model_1/model/conv2d_46/Conv2D_model_1/model/conv2d_45/Conv2D1","op":"Add","input":["Conv2D_42","model_1/model/batch_normalization_61/FusedBatchNormV3_model_1/model/conv2d_46/Conv2D_model_1/model/conv2d_45/Conv2D1/y"],"attr":{"T":{"type":"DT_FLOAT"}}},
          {"name":"Add_43","op":"Add","input":["model_1/model/activation_13/Relu_model_1/model/add_20/add","model_1/model/batch_normalization_61/FusedBatchNormV3_model_1/model/conv2d_46/Conv2D_model_1/model/conv2d_45/Conv2D1"],"attr":{"T":{"type":"DT_FLOAT"}}},
          {"name":"model_1/model/activation_14/Relu_model_1/model/add_21/add","op":"Relu","input":["Add_43"],"attr":{"T":{"type":"DT_FLOAT"}}},
          {"name":"depthwise_28","op":"DepthwiseConv2dNative","input":["model_1/model/activation_14/Relu_model_1/model/add_21/add","depthwise_28/filter_in"],"attr":{"explicit_paddings":{"list":{}},"data_format":{"s":"TkhXQw=="},"dilations":{"list":{"i":["1","1","1","1"]}},"T":{"type":"DT_FLOAT"},"strides":{"list":{"i":["1","1","1","1"]}},"padding":{"s":"U0FNRQ=="}}},
          {"name":"Conv2D_43","op":"Conv2D","input":["depthwise_28","Conv2D_43/filter"],"device":"/device:CPU:0","attr":{"use_cudnn_on_gpu":{"b":true},"padding":{"s":"VkFMSUQ="},"explicit_paddings":{"list":{}},"dilations":{"list":{"i":["1","1","1","1"]}},"data_format":{"s":"TkhXQw=="},"strides":{"list":{"i":["1","1","1","1"]}},"T":{"type":"DT_FLOAT"}}},
          {"name":"model_1/model/batch_normalization_62/FusedBatchNormV3_model_1/model/conv2d_46/Conv2D1","op":"Add","input":["Conv2D_43","model_1/model/batch_normalization_62/FusedBatchNormV3_model_1/model/conv2d_46/Conv2D1/y"],"attr":{"T":{"type":"DT_FLOAT"}}},
          {"name":"Add_44","op":"Add","input":["model_1/model/activation_14/Relu_model_1/model/add_21/add","model_1/model/batch_normalization_62/FusedBatchNormV3_model_1/model/conv2d_46/Conv2D1"],"attr":{"T":{"type":"DT_FLOAT"}}},
          {"name":"model_1/model/activation_15/Relu_model_1/model/add_22/add","op":"Relu","input":["Add_44"],"attr":{"T":{"type":"DT_FLOAT"}}},
          {"name":"Conv2D_44","op":"Conv2D","input":["model_1/model/activation_15/Relu_model_1/model/add_22/add","Conv2D_44/filter"],"device":"/device:CPU:0","attr":{"dilations":{"list":{"i":["1","1","1","1"]}},"explicit_paddings":{"list":{}},"T":{"type":"DT_FLOAT"},"data_format":{"s":"TkhXQw=="},"use_cudnn_on_gpu":{"b":true},"strides":{"list":{"i":["1","1","1","1"]}},"padding":{"s":"VkFMSUQ="}}},
          {"name":"Conv2D_46","op":"Conv2D","input":["model_1/model/activation_15/Relu_model_1/model/add_22/add","Conv2D_46/filter"],"device":"/device:CPU:0","attr":{"T":{"type":"DT_FLOAT"},"strides":{"list":{"i":["1","1","1","1"]}},"use_cudnn_on_gpu":{"b":true},"explicit_paddings":{"list":{}},"padding":{"s":"VkFMSUQ="},"data_format":{"s":"TkhXQw=="},"dilations":{"list":{"i":["1","1","1","1"]}}}},
          {"name":"Conv2D_45","op":"Conv2D","input":["model_1/model/activation_15/Relu_model_1/model/add_22/add","Conv2D_45/filter"],"device":"/device:CPU:0","attr":{"use_cudnn_on_gpu":{"b":true},"T":{"type":"DT_FLOAT"},"strides":{"list":{"i":["1","1","1","1"]}},"data_format":{"s":"TkhXQw=="},"dilations":{"list":{"i":["1","1","1","1"]}},"padding":{"s":"VkFMSUQ="},"explicit_paddings":{"list":{}}}},
          {"name":"model_1/model/convld_3d/BiasAdd_model_1/model/convld_3d/Conv2D_model_1/model/convld_3d/BiasAdd/ReadVariableOp/resource1","op":"Add","input":["Conv2D_44","model_1/model/convld_3d/BiasAdd_model_1/model/convld_3d/Conv2D_model_1/model/convld_3d/BiasAdd/ReadVariableOp/resource1/y"],"attr":{"T":{"type":"DT_FLOAT"}}},
          {"name":"model_1/model/conv_poseflag/BiasAdd_model_1/model/output_segmentation/Conv2D_model_1/model/conv_poseflag/Conv2D_model_1/model/conv_poseflag/BiasAdd/ReadVariableOp/resource1","op":"Add","input":["Conv2D_46","model_1/model/conv_poseflag/BiasAdd_model_1/model/output_segmentation/Conv2D_model_1/model/conv_poseflag/Conv2D_model_1/model/conv_poseflag/BiasAdd/ReadVariableOp/resource1/y"],"attr":{"T":{"type":"DT_FLOAT"}}},
          {"name":"model_1/model/convworld_3d/BiasAdd_model_1/model/convworld_3d/Conv2D_model_1/model/convworld_3d/BiasAdd/ReadVariableOp/resource1","op":"Add","input":["Conv2D_45","model_1/model/convworld_3d/BiasAdd_model_1/model/convworld_3d/Conv2D_model_1/model/convworld_3d/BiasAdd/ReadVariableOp/resource1/y"],"attr":{"T":{"type":"DT_FLOAT"}}},
          {"name":"Identity","op":"Reshape","input":["model_1/model/convld_3d/BiasAdd_model_1/model/convld_3d/Conv2D_model_1/model/convld_3d/BiasAdd/ReadVariableOp/resource1","Identity/shape"],"attr":{"T":{"type":"DT_FLOAT"},"Tshape":{"type":"DT_INT32"}}},
          {"name":"model_1/model/activation_poseflag/Sigmoid","op":"Sigmoid","input":["model_1/model/conv_poseflag/BiasAdd_model_1/model/output_segmentation/Conv2D_model_1/model/conv_poseflag/Conv2D_model_1/model/conv_poseflag/BiasAdd/ReadVariableOp/resource1"],"attr":{"T":{"type":"DT_FLOAT"}}},
          {"name":"Identity_4","op":"Reshape","input":["model_1/model/convworld_3d/BiasAdd_model_1/model/convworld_3d/Conv2D_model_1/model/convworld_3d/BiasAdd/ReadVariableOp/resource1","Identity_4/shape"],"attr":{"Tshape":{"type":"DT_INT32"},"T":{"type":"DT_FLOAT"}}},
          {"name":"Identity_1","op":"Reshape","input":["model_1/model/activation_poseflag/Sigmoid","Identity_1/shape"],"attr":{"Tshape":{"type":"DT_INT32"},"T":{"type":"DT_FLOAT"}}}
      ],
      "library": {},
      "versions":
      {
          "producer": 716
      }
  },
  "weightsManifest":
  [
      {
          "paths": ["blazepose-full.bin"],
          "weights": [{"name":"Conv2D_44/filter","shape":[2,2,288,195],"dtype":"float32","quantization":{"dtype":"float16","original_dtype":"float32"}},{"name":"model_1/model/convld_3d/BiasAdd_model_1/model/convld_3d/Conv2D_model_1/model/convld_3d/BiasAdd/ReadVariableOp/resource1/y","shape":[195],"dtype":"float32","quantization":{"dtype":"float16","original_dtype":"float32"}},{"name":"Identity/shape","shape":[2],"dtype":"int32"},{"name":"Conv2D_46/filter","shape":[2,2,288,1],"dtype":"float32","quantization":{"dtype":"float16","original_dtype":"float32"}},{"name":"model_1/model/conv_poseflag/BiasAdd_model_1/model/output_segmentation/Conv2D_model_1/model/conv_poseflag/Conv2D_model_1/model/conv_poseflag/BiasAdd/ReadVariableOp/resource1/y","shape":[1],"dtype":"float32","quantization":{"dtype":"float16","original_dtype":"float32"}},{"name":"Identity_1/shape","shape":[2],"dtype":"int32"},{"name":"model_1/model/batch_normalization_68/FusedBatchNormV3_model_1/model/conv2d_52/Conv2D1/y","shape":[8],"dtype":"float32","quantization":{"dtype":"float16","original_dtype":"float32"}},{"name":"model_1/model/batch_normalization_67/FusedBatchNormV3_model_1/model/conv2d_52/Conv2D_model_1/model/conv2d_51/Conv2D1/y","shape":[8],"dtype":"float32","quantization":{"dtype":"float16","original_dtype":"float32"}},{"name":"model_1/model/batch_normalization_66/FusedBatchNormV3_model_1/model/conv2d_52/Conv2D_model_1/model/conv2d_50/Conv2D1/y","shape":[8],"dtype":"float32","quantization":{"dtype":"float16","original_dtype":"float32"}},{"name":"model_1/model/batch_normalization_65/FusedBatchNormV3_model_1/model/conv2d_52/Conv2D_model_1/model/conv2d_49/Conv2D1/y","shape":[8],"dtype":"float32","quantization":{"dtype":"float16","original_dtype":"float32"}},{"name":"depthwise_33/filter_in","shape":[3,3,48,1],"dtype":"float32","quantization":{"dtype":"float16","original_dtype":"float32"}},{"name":"Conv2D_51/filter","shape":[1,1,48,8],"dtype":"float32","quantization":{"dtype":"float16","original_dtype":"float32"}},{"name":"Add_49/y","shape":[8],"dtype":"float32","quantization":{"dtype":"float16","original_dtype":"float32"}},{"name":"model_1/model/up_sampling2d_3/resize/ResizeBilinear_lambda/resize/size","shape":[2],"dtype":"int32"},{"name":"depthwise_32/filter_in","shape":[3,3,16,1],"dtype":"float32","quantization":{"dtype":"float16","original_dtype":"float32"}},{"name":"Conv2D_50/filter","shape":[1,1,16,8],"dtype":"float32","quantization":{"dtype":"float16","original_dtype":"float32"}},{"name":"Add_48/y","shape":[8],"dtype":"float32","quantization":{"dtype":"float16","original_dtype":"float32"}},{"name":"depthwise_34/filter_in","shape":[3,3,8,1],"dtype":"float32","quantization":{"dtype":"float16","original_dtype":"float32"}},{"name":"Conv2D_53/filter","shape":[1,1,8,8],"dtype":"float32","quantization":{"dtype":"float16","original_dtype":"float32"}},{"name":"depthwise_35/filter_in","shape":[3,3,8,1],"dtype":"float32","quantization":{"dtype":"float16","original_dtype":"float32"}},{"name":"Conv2D_54/filter","shape":[1,1,8,8],"dtype":"float32","quantization":{"dtype":"float16","original_dtype":"float32"}},{"name":"model_1/model/up_sampling2d_4/resize/ResizeBilinear_lambda/resize/size","shape":[2],"dtype":"int32"},{"name":"depthwise_36/filter_in","shape":[3,3,8,1],"dtype":"float32","quantization":{"dtype":"float16","original_dtype":"float32"}},{"name":"Conv2D_55/filter","shape":[1,1,8,8],"dtype":"float32","quantization":{"dtype":"float16","original_dtype":"float32"}},{"name":"depthwise_37/filter_in","shape":[3,3,8,1],"dtype":"float32","quantization":{"dtype":"float16","original_dtype":"float32"}},{"name":"Conv2D_56/filter","shape":[1,1,8,8],"dtype":"float32","quantization":{"dtype":"float16","original_dtype":"float32"}},{"name":"Conv2D_57/filter","shape":[3,3,8,1],"dtype":"float32","quantization":{"dtype":"float16","original_dtype":"float32"}},{"name":"Identity_2/y","shape":[1],"dtype":"float32","quantization":{"dtype":"float16","original_dtype":"float32"}},{"name":"depthwise_16/filter_in","shape":[3,3,864,1],"dtype":"float32","quantization":{"dtype":"float16","original_dtype":"float32"}},{"name":"Conv2D_31/filter","shape":[1,1,864,48],"dtype":"float32","quantization":{"dtype":"float16","original_dtype":"float32"}},{"name":"Add_32/y","shape":[48],"dtype":"float32","quantization":{"dtype":"float16","original_dtype":"float32"}},{"name":"model_1/model/up_sampling2d/resize/ResizeBilinear_lambda/resize/size","shape":[2],"dtype":"int32"},{"name":"depthwise_29/filter_in","shape":[3,3,88,1],"dtype":"float32","quantization":{"dtype":"float16","original_dtype":"float32"}},{"name":"Conv2D_47/filter","shape":[1,1,88,48],"dtype":"float32","quantization":{"dtype":"float16","original_dtype":"float32"}},{"name":"Add_45/y","shape":[48],"dtype":"float32","quantization":{"dtype":"float16","original_dtype":"float32"}},{"name":"model_1/model/up_sampling2d_1/resize/ResizeBilinear_lambda/resize/size","shape":[2],"dtype":"int32"},{"name":"depthwise_30/filter_in","shape":[3,3,32,1],"dtype":"float32","quantization":{"dtype":"float16","original_dtype":"float32"}},{"name":"Conv2D_48/filter","shape":[1,1,32,48],"dtype":"float32","quantization":{"dtype":"float16","original_dtype":"float32"}},{"name":"Add_46/y","shape":[48],"dtype":"float32","quantization":{"dtype":"float16","original_dtype":"float32"}},{"name":"model_1/model/up_sampling2d_2/resize/ResizeBilinear_lambda/resize/size","shape":[2],"dtype":"int32"},{"name":"depthwise_31/filter_in","shape":[3,3,24,1],"dtype":"float32","quantization":{"dtype":"float16","original_dtype":"float32"}},{"name":"Conv2D_49/filter","shape":[1,1,24,48],"dtype":"float32","quantization":{"dtype":"float16","original_dtype":"float32"}},{"name":"Add_47/y","shape":[48],"dtype":"float32","quantization":{"dtype":"float16","original_dtype":"float32"}},{"name":"Conv2D_52/filter","shape":[1,1,48,39],"dtype":"float32","quantization":{"dtype":"float16","original_dtype":"float32"}},{"name":"Identity_3/y","shape":[39],"dtype":"float32","quantization":{"dtype":"float16","original_dtype":"float32"}},{"name":"model_1/model/batch_normalization_44/FusedBatchNormV3_model_1/model/conv2d_29/Conv2D1/y","shape":[144],"dtype":"float32","quantization":{"dtype":"float16","original_dtype":"float32"}},{"name":"Conv2D_28/filter","shape":[1,1,144,864],"dtype":"float32","quantization":{"dtype":"float16","original_dtype":"float32"}},{"name":"Add_28/y","shape":[864],"dtype":"float32","quantization":{"dtype":"float16","original_dtype":"float32"}},{"name":"depthwise_14/filter_in","shape":[5,5,864,1],"dtype":"float32","quantization":{"dtype":"float16","original_dtype":"float32"}},{"name":"Add_29/y","shape":[864],"dtype":"float32","quantization":{"dtype":"float16","original_dtype":"float32"}},{"name":"Conv2D_29/filter","shape":[1,1,864,144],"dtype":"float32","quantization":{"dtype":"float16","original_dtype":"float32"}},{"name":"model_1/model/batch_normalization_41/FusedBatchNormV3_model_1/model/conv2d_29/Conv2D_model_1/model/conv2d_27/Conv2D1/y","shape":[144],"dtype":"float32","quantization":{"dtype":"float16","original_dtype":"float32"}},{"name":"Conv2D_26/filter","shape":[1,1,144,864],"dtype":"float32","quantization":{"dtype":"float16","original_dtype":"float32"}},{"name":"Add_26/y","shape":[864],"dtype":"float32","quantization":{"dtype":"float16","original_dtype":"float32"}},{"name":"depthwise_13/filter_in","shape":[5,5,864,1],"dtype":"float32","quantization":{"dtype":"float16","original_dtype":"float32"}},{"name":"Add_27/y","shape":[864],"dtype":"float32","quantization":{"dtype":"float16","original_dtype":"float32"}},{"name":"Conv2D_27/filter","shape":[1,1,864,144],"dtype":"float32","quantization":{"dtype":"float16","original_dtype":"float32"}},{"name":"model_1/model/batch_normalization_38/FusedBatchNormV3_model_1/model/conv2d_29/Conv2D_model_1/model/conv2d_25/Conv2D1/y","shape":[144],"dtype":"float32","quantization":{"dtype":"float16","original_dtype":"float32"}},{"name":"Conv2D_24/filter","shape":[1,1,144,864],"dtype":"float32","quantization":{"dtype":"float16","original_dtype":"float32"}},{"name":"Add_24/y","shape":[864],"dtype":"float32","quantization":{"dtype":"float16","original_dtype":"float32"}},{"name":"depthwise_12/filter_in","shape":[5,5,864,1],"dtype":"float32","quantization":{"dtype":"float16","original_dtype":"float32"}},{"name":"Add_25/y","shape":[864],"dtype":"float32","quantization":{"dtype":"float16","original_dtype":"float32"}},{"name":"Conv2D_25/filter","shape":[1,1,864,144],"dtype":"float32","quantization":{"dtype":"float16","original_dtype":"float32"}},{"name":"model_1/model/batch_normalization_32/FusedBatchNormV3_model_1/model/depthwise_conv2d_17/depthwise_model_1/model/conv2d_21/Conv2D1/y","shape":[88],"dtype":"float32","quantization":{"dtype":"float16","original_dtype":"float32"}},{"name":"Conv2D_20/filter","shape":[1,1,88,528],"dtype":"float32","quantization":{"dtype":"float16","original_dtype":"float32"}},{"name":"Add_20/y","shape":[528],"dtype":"float32","quantization":{"dtype":"float16","original_dtype":"float32"}},{"name":"depthwise_10/filter_in","shape":[5,5,528,1],"dtype":"float32","quantization":{"dtype":"float16","original_dtype":"float32"}},{"name":"Add_21/y","shape":[528],"dtype":"float32","quantization":{"dtype":"float16","original_dtype":"float32"}},{"name":"Conv2D_21/filter","shape":[1,1,528,88],"dtype":"float32","quantization":{"dtype":"float16","original_dtype":"float32"}},{"name":"model_1/model/batch_normalization_29/FusedBatchNormV3_model_1/model/depthwise_conv2d_17/depthwise_model_1/model/conv2d_19/Conv2D1/y","shape":[88],"dtype":"float32","quantization":{"dtype":"float16","original_dtype":"float32"}},{"name":"Conv2D_18/filter","shape":[1,1,88,528],"dtype":"float32","quantization":{"dtype":"float16","original_dtype":"float32"}},{"name":"Add_18/y","shape":[528],"dtype":"float32","quantization":{"dtype":"float16","original_dtype":"float32"}},{"name":"depthwise_9/filter_in","shape":[5,5,528,1],"dtype":"float32","quantization":{"dtype":"float16","original_dtype":"float32"}},{"name":"Add_19/y","shape":[528],"dtype":"float32","quantization":{"dtype":"float16","original_dtype":"float32"}},{"name":"Conv2D_19/filter","shape":[1,1,528,88],"dtype":"float32","quantization":{"dtype":"float16","original_dtype":"float32"}},{"name":"model_1/model/batch_normalization_23/FusedBatchNormV3_model_1/model/conv2d_15/Conv2D1/y","shape":[64],"dtype":"float32","quantization":{"dtype":"float16","original_dtype":"float32"}},{"name":"Conv2D_14/filter","shape":[1,1,64,384],"dtype":"float32","quantization":{"dtype":"float16","original_dtype":"float32"}},{"name":"Add_14/y","shape":[384],"dtype":"float32","quantization":{"dtype":"float16","original_dtype":"float32"}},{"name":"depthwise_7/filter_in","shape":[3,3,384,1],"dtype":"float32","quantization":{"dtype":"float16","original_dtype":"float32"}},{"name":"Add_15/y","shape":[384],"dtype":"float32","quantization":{"dtype":"float16","original_dtype":"float32"}},{"name":"Conv2D_15/filter","shape":[1,1,384,64],"dtype":"float32","quantization":{"dtype":"float16","original_dtype":"float32"}},{"name":"model_1/model/batch_normalization_20/FusedBatchNormV3_model_1/model/conv2d_15/Conv2D_model_1/model/conv2d_13/Conv2D1/y","shape":[64],"dtype":"float32","quantization":{"dtype":"float16","original_dtype":"float32"}},{"name":"Conv2D_12/filter","shape":[1,1,64,384],"dtype":"float32","quantization":{"dtype":"float16","original_dtype":"float32"}},{"name":"Add_12/y","shape":[384],"dtype":"float32","quantization":{"dtype":"float16","original_dtype":"float32"}},{"name":"depthwise_6/filter_in","shape":[3,3,384,1],"dtype":"float32","quantization":{"dtype":"float16","original_dtype":"float32"}},{"name":"Add_13/y","shape":[384],"dtype":"float32","quantization":{"dtype":"float16","original_dtype":"float32"}},{"name":"Conv2D_13/filter","shape":[1,1,384,64],"dtype":"float32","quantization":{"dtype":"float16","original_dtype":"float32"}},{"name":"model_1/model/batch_normalization_14/FusedBatchNormV3_model_1/model/depthwise_conv2d_18/depthwise_model_1/model/conv2d_9/Conv2D1/y","shape":[32],"dtype":"float32","quantization":{"dtype":"float16","original_dtype":"float32"}},{"name":"Conv2D_8/filter","shape":[1,1,32,192],"dtype":"float32","quantization":{"dtype":"float16","original_dtype":"float32"}},{"name":"Add_8/y","shape":[192],"dtype":"float32","quantization":{"dtype":"float16","original_dtype":"float32"}},{"name":"depthwise_4/filter_in","shape":[5,5,192,1],"dtype":"float32","quantization":{"dtype":"float16","original_dtype":"float32"}},{"name":"Add_9/y","shape":[192],"dtype":"float32","quantization":{"dtype":"float16","original_dtype":"float32"}},{"name":"Conv2D_9/filter","shape":[1,1,192,32],"dtype":"float32","quantization":{"dtype":"float16","original_dtype":"float32"}},{"name":"model_1/model/batch_normalization_8/FusedBatchNormV3_model_1/model/depthwise_conv2d_19/depthwise_model_1/model/conv2d_5/Conv2D1/y","shape":[24],"dtype":"float32","quantization":{"dtype":"float16","original_dtype":"float32"}},{"name":"Conv2D_4/filter","shape":[1,1,24,144],"dtype":"float32","quantization":{"dtype":"float16","original_dtype":"float32"}},{"name":"Add_4/y","shape":[144],"dtype":"float32","quantization":{"dtype":"float16","original_dtype":"float32"}},{"name":"depthwise_2/filter_in","shape":[3,3,144,1],"dtype":"float32","quantization":{"dtype":"float16","original_dtype":"float32"}},{"name":"Add_5/y","shape":[144],"dtype":"float32","quantization":{"dtype":"float16","original_dtype":"float32"}},{"name":"Conv2D_5/filter","shape":[1,1,144,24],"dtype":"float32","quantization":{"dtype":"float16","original_dtype":"float32"}},{"name":"model_1/model/tf_op_layer_stem/Pad/stem/Pad/paddings","shape":[4,2],"dtype":"int32"},{"name":"Conv2D/filter","shape":[3,3,3,24],"dtype":"float32","quantization":{"dtype":"float16","original_dtype":"float32"}},{"name":"Add/y","shape":[24],"dtype":"float32","quantization":{"dtype":"float16","original_dtype":"float32"}},{"name":"depthwise/filter_in","shape":[3,3,24,1],"dtype":"float32","quantization":{"dtype":"float16","original_dtype":"float32"}},{"name":"Add_1/y","shape":[24],"dtype":"float32","quantization":{"dtype":"float16","original_dtype":"float32"}},{"name":"Conv2D_1/filter","shape":[1,1,24,16],"dtype":"float32","quantization":{"dtype":"float16","original_dtype":"float32"}},{"name":"model_1/model/batch_normalization_2/FusedBatchNormV3_model_1/model/depthwise_conv2d_32/depthwise_model_1/model/conv2d_1/Conv2D1/y","shape":[16],"dtype":"float32","quantization":{"dtype":"float16","original_dtype":"float32"}},{"name":"Conv2D_2/filter","shape":[1,1,16,64],"dtype":"float32","quantization":{"dtype":"float16","original_dtype":"float32"}},{"name":"Add_2/y","shape":[64],"dtype":"float32","quantization":{"dtype":"float16","original_dtype":"float32"}},{"name":"model_1/model/tf_op_layer_blocks_1/Pad/blocks_1/Pad/paddings","shape":[4,2],"dtype":"int32"},{"name":"depthwise_1/filter_in","shape":[3,3,64,1],"dtype":"float32","quantization":{"dtype":"float16","original_dtype":"float32"}},{"name":"Add_3/y","shape":[64],"dtype":"float32","quantization":{"dtype":"float16","original_dtype":"float32"}},{"name":"Conv2D_3/filter","shape":[1,1,64,24],"dtype":"float32","quantization":{"dtype":"float16","original_dtype":"float32"}},{"name":"model_1/model/batch_normalization_5/FusedBatchNormV3_model_1/model/depthwise_conv2d_19/depthwise_model_1/model/conv2d_3/Conv2D1/y","shape":[24],"dtype":"float32","quantization":{"dtype":"float16","original_dtype":"float32"}},{"name":"Conv2D_6/filter","shape":[1,1,24,144],"dtype":"float32","quantization":{"dtype":"float16","original_dtype":"float32"}},{"name":"Add_6/y","shape":[144],"dtype":"float32","quantization":{"dtype":"float16","original_dtype":"float32"}},{"name":"model_1/model/tf_op_layer_blocks_3/Pad/blocks_3/Pad/paddings","shape":[4,2],"dtype":"int32"},{"name":"depthwise_3/filter_in","shape":[5,5,144,1],"dtype":"float32","quantization":{"dtype":"float16","original_dtype":"float32"}},{"name":"Add_7/y","shape":[144],"dtype":"float32","quantization":{"dtype":"float16","original_dtype":"float32"}},{"name":"Conv2D_7/filter","shape":[1,1,144,32],"dtype":"float32","quantization":{"dtype":"float16","original_dtype":"float32"}},{"name":"model_1/model/batch_normalization_11/FusedBatchNormV3_model_1/model/depthwise_conv2d_18/depthwise_model_1/model/conv2d_7/Conv2D1/y","shape":[32],"dtype":"float32","quantization":{"dtype":"float16","original_dtype":"float32"}},{"name":"Conv2D_10/filter","shape":[1,1,32,192],"dtype":"float32","quantization":{"dtype":"float16","original_dtype":"float32"}},{"name":"Add_10/y","shape":[192],"dtype":"float32","quantization":{"dtype":"float16","original_dtype":"float32"}},{"name":"model_1/model/tf_op_layer_blocks_5/Pad/blocks_5/Pad/paddings","shape":[4,2],"dtype":"int32"},{"name":"depthwise_5/filter_in","shape":[3,3,192,1],"dtype":"float32","quantization":{"dtype":"float16","original_dtype":"float32"}},{"name":"Add_11/y","shape":[192],"dtype":"float32","quantization":{"dtype":"float16","original_dtype":"float32"}},{"name":"Conv2D_11/filter","shape":[1,1,192,64],"dtype":"float32","quantization":{"dtype":"float16","original_dtype":"float32"}},{"name":"model_1/model/batch_normalization_17/FusedBatchNormV3_model_1/model/conv2d_15/Conv2D_model_1/model/conv2d_11/Conv2D1/y","shape":[64],"dtype":"float32","quantization":{"dtype":"float16","original_dtype":"float32"}},{"name":"Conv2D_16/filter","shape":[1,1,64,384],"dtype":"float32","quantization":{"dtype":"float16","original_dtype":"float32"}},{"name":"Add_16/y","shape":[384],"dtype":"float32","quantization":{"dtype":"float16","original_dtype":"float32"}},{"name":"depthwise_8/filter_in","shape":[5,5,384,1],"dtype":"float32","quantization":{"dtype":"float16","original_dtype":"float32"}},{"name":"Add_17/y","shape":[384],"dtype":"float32","quantization":{"dtype":"float16","original_dtype":"float32"}},{"name":"Conv2D_17/filter","shape":[1,1,384,88],"dtype":"float32","quantization":{"dtype":"float16","original_dtype":"float32"}},{"name":"model_1/model/batch_normalization_26/FusedBatchNormV3_model_1/model/depthwise_conv2d_17/depthwise_model_1/model/conv2d_17/Conv2D1/y","shape":[88],"dtype":"float32","quantization":{"dtype":"float16","original_dtype":"float32"}},{"name":"Conv2D_22/filter","shape":[1,1,88,528],"dtype":"float32","quantization":{"dtype":"float16","original_dtype":"float32"}},{"name":"Add_22/y","shape":[528],"dtype":"float32","quantization":{"dtype":"float16","original_dtype":"float32"}},{"name":"model_1/model/tf_op_layer_blocks_11/Pad/blocks_11/Pad/paddings","shape":[4,2],"dtype":"int32"},{"name":"depthwise_11/filter_in","shape":[5,5,528,1],"dtype":"float32","quantization":{"dtype":"float16","original_dtype":"float32"}},{"name":"Add_23/y","shape":[528],"dtype":"float32","quantization":{"dtype":"float16","original_dtype":"float32"}},{"name":"Conv2D_23/filter","shape":[1,1,528,144],"dtype":"float32","quantization":{"dtype":"float16","original_dtype":"float32"}},{"name":"model_1/model/batch_normalization_35/FusedBatchNormV3_model_1/model/conv2d_29/Conv2D_model_1/model/conv2d_23/Conv2D1/y","shape":[144],"dtype":"float32","quantization":{"dtype":"float16","original_dtype":"float32"}},{"name":"Conv2D_30/filter","shape":[1,1,144,864],"dtype":"float32","quantization":{"dtype":"float16","original_dtype":"float32"}},{"name":"Add_30/y","shape":[864],"dtype":"float32","quantization":{"dtype":"float16","original_dtype":"float32"}},{"name":"depthwise_15/filter_in","shape":[3,3,864,1],"dtype":"float32","quantization":{"dtype":"float16","original_dtype":"float32"}},{"name":"Add_31/y","shape":[864],"dtype":"float32","quantization":{"dtype":"float16","original_dtype":"float32"}},{"name":"depthwise_17/filter_in","shape":[3,3,864,1],"dtype":"float32","quantization":{"dtype":"float16","original_dtype":"float32"}},{"name":"Conv2D_32/filter","shape":[1,1,864,288],"dtype":"float32","quantization":{"dtype":"float16","original_dtype":"float32"}},{"name":"Add_33/y","shape":[288],"dtype":"float32","quantization":{"dtype":"float16","original_dtype":"float32"}},{"name":"depthwise_18/filter_in","shape":[3,3,288,1],"dtype":"float32","quantization":{"dtype":"float16","original_dtype":"float32"}},{"name":"Conv2D_33/filter","shape":[1,1,288,288],"dtype":"float32","quantization":{"dtype":"float16","original_dtype":"float32"}},{"name":"model_1/model/batch_normalization_52/FusedBatchNormV3_model_1/model/conv2d_46/Conv2D_model_1/model/conv2d_36/Conv2D1/y","shape":[288],"dtype":"float32","quantization":{"dtype":"float16","original_dtype":"float32"}},{"name":"depthwise_19/filter_in","shape":[3,3,288,1],"dtype":"float32","quantization":{"dtype":"float16","original_dtype":"float32"}},{"name":"Conv2D_34/filter","shape":[1,1,288,288],"dtype":"float32","quantization":{"dtype":"float16","original_dtype":"float32"}},{"name":"model_1/model/batch_normalization_53/FusedBatchNormV3_model_1/model/conv2d_46/Conv2D_model_1/model/conv2d_37/Conv2D1/y","shape":[288],"dtype":"float32","quantization":{"dtype":"float16","original_dtype":"float32"}},{"name":"depthwise_20/filter_in","shape":[3,3,288,1],"dtype":"float32","quantization":{"dtype":"float16","original_dtype":"float32"}},{"name":"Conv2D_35/filter","shape":[1,1,288,288],"dtype":"float32","quantization":{"dtype":"float16","original_dtype":"float32"}},{"name":"model_1/model/batch_normalization_54/FusedBatchNormV3_model_1/model/conv2d_46/Conv2D_model_1/model/conv2d_38/Conv2D1/y","shape":[288],"dtype":"float32","quantization":{"dtype":"float16","original_dtype":"float32"}},{"name":"depthwise_21/filter_in","shape":[3,3,288,1],"dtype":"float32","quantization":{"dtype":"float16","original_dtype":"float32"}},{"name":"Conv2D_36/filter","shape":[1,1,288,288],"dtype":"float32","quantization":{"dtype":"float16","original_dtype":"float32"}},{"name":"model_1/model/batch_normalization_55/FusedBatchNormV3_model_1/model/conv2d_46/Conv2D_model_1/model/conv2d_39/Conv2D1/y","shape":[288],"dtype":"float32","quantization":{"dtype":"float16","original_dtype":"float32"}},{"name":"depthwise_22/filter_in","shape":[3,3,288,1],"dtype":"float32","quantization":{"dtype":"float16","original_dtype":"float32"}},{"name":"Conv2D_37/filter","shape":[1,1,288,288],"dtype":"float32","quantization":{"dtype":"float16","original_dtype":"float32"}},{"name":"model_1/model/batch_normalization_56/FusedBatchNormV3_model_1/model/conv2d_46/Conv2D_model_1/model/conv2d_40/Conv2D1/y","shape":[288],"dtype":"float32","quantization":{"dtype":"float16","original_dtype":"float32"}},{"name":"depthwise_23/filter_in","shape":[3,3,288,1],"dtype":"float32","quantization":{"dtype":"float16","original_dtype":"float32"}},{"name":"Conv2D_38/filter","shape":[1,1,288,288],"dtype":"float32","quantization":{"dtype":"float16","original_dtype":"float32"}},{"name":"model_1/model/batch_normalization_57/FusedBatchNormV3_model_1/model/conv2d_46/Conv2D_model_1/model/conv2d_41/Conv2D1/y","shape":[288],"dtype":"float32","quantization":{"dtype":"float16","original_dtype":"float32"}},{"name":"depthwise_24/filter_in","shape":[3,3,288,1],"dtype":"float32","quantization":{"dtype":"float16","original_dtype":"float32"}},{"name":"Conv2D_39/filter","shape":[1,1,288,288],"dtype":"float32","quantization":{"dtype":"float16","original_dtype":"float32"}},{"name":"model_1/model/batch_normalization_58/FusedBatchNormV3_model_1/model/conv2d_46/Conv2D_model_1/model/conv2d_42/Conv2D1/y","shape":[288],"dtype":"float32","quantization":{"dtype":"float16","original_dtype":"float32"}},{"name":"depthwise_25/filter_in","shape":[3,3,288,1],"dtype":"float32","quantization":{"dtype":"float16","original_dtype":"float32"}},{"name":"Conv2D_40/filter","shape":[1,1,288,288],"dtype":"float32","quantization":{"dtype":"float16","original_dtype":"float32"}},{"name":"model_1/model/batch_normalization_59/FusedBatchNormV3_model_1/model/conv2d_46/Conv2D_model_1/model/conv2d_43/Conv2D1/y","shape":[288],"dtype":"float32","quantization":{"dtype":"float16","original_dtype":"float32"}},{"name":"depthwise_26/filter_in","shape":[3,3,288,1],"dtype":"float32","quantization":{"dtype":"float16","original_dtype":"float32"}},{"name":"Conv2D_41/filter","shape":[1,1,288,288],"dtype":"float32","quantization":{"dtype":"float16","original_dtype":"float32"}},{"name":"model_1/model/batch_normalization_60/FusedBatchNormV3_model_1/model/conv2d_46/Conv2D_model_1/model/conv2d_44/Conv2D1/y","shape":[288],"dtype":"float32","quantization":{"dtype":"float16","original_dtype":"float32"}},{"name":"depthwise_27/filter_in","shape":[3,3,288,1],"dtype":"float32","quantization":{"dtype":"float16","original_dtype":"float32"}},{"name":"Conv2D_42/filter","shape":[1,1,288,288],"dtype":"float32","quantization":{"dtype":"float16","original_dtype":"float32"}},{"name":"model_1/model/batch_normalization_61/FusedBatchNormV3_model_1/model/conv2d_46/Conv2D_model_1/model/conv2d_45/Conv2D1/y","shape":[288],"dtype":"float32","quantization":{"dtype":"float16","original_dtype":"float32"}},{"name":"depthwise_28/filter_in","shape":[3,3,288,1],"dtype":"float32","quantization":{"dtype":"float16","original_dtype":"float32"}},{"name":"Conv2D_43/filter","shape":[1,1,288,288],"dtype":"float32","quantization":{"dtype":"float16","original_dtype":"float32"}},{"name":"model_1/model/batch_normalization_62/FusedBatchNormV3_model_1/model/conv2d_46/Conv2D1/y","shape":[288],"dtype":"float32","quantization":{"dtype":"float16","original_dtype":"float32"}},{"name":"Conv2D_45/filter","shape":[2,2,288,117],"dtype":"float32","quantization":{"dtype":"float16","original_dtype":"float32"}},{"name":"model_1/model/convworld_3d/BiasAdd_model_1/model/convworld_3d/Conv2D_model_1/model/convworld_3d/BiasAdd/ReadVariableOp/resource1/y","shape":[117],"dtype":"float32","quantization":{"dtype":"float16","original_dtype":"float32"}},{"name":"Identity_4/shape","shape":[2],"dtype":"int32"}]
      }
  ]
}