{
  "format": "graph-model",
  "generatedBy": "https://github.com/google/mediapipe",
  "convertedBy": "https://github.com/vladmandic",
  "signature":
  {
      "inputs":
      {
          "input_1:0": {"name":"input_1:0","dtype":"DT_FLOAT","tensorShape":{"dim":[{"size":"1"},{"size":"256"},{"size":"256"},{"size":"3"}]}}
      },
      "outputs":
      {
          "Identity_1:0": {"name":"Identity_1:0","dtype":"DT_FLOAT","tensorShape":{"dim":[{"size":"1"},{"size":"1"}]}},
          "Identity_3:0": {"name":"Identity_3:0","dtype":"DT_FLOAT","tensorShape":{"dim":[{"size":"1"},{"size":"64"},{"size":"64"},{"size":"39"}]}},
          "Identity:0": {"name":"Identity:0","dtype":"DT_FLOAT","tensorShape":{"dim":[{"size":"1"},{"size":"195"}]}},
          "Identity_4:0": {"name":"Identity_4:0","dtype":"DT_FLOAT","tensorShape":{"dim":[{"size":"1"},{"size":"117"}]}},
          "Identity_2:0": {"name":"Identity_2:0","dtype":"DT_FLOAT","tensorShape":{"dim":[{"size":"1"},{"size":"128"},{"size":"128"},{"size":"1"}]}}
      }
  },
  "modelTopology":
  {
      "node":
      [
          {"name":"Conv2D_102/filter","op":"Const","attr":{"dtype":{"type":"DT_FLOAT"},"value":{"tensor":{"dtype":"DT_FLOAT","tensorShape":{"dim":[{"size":"2"},{"size":"2"},{"size":"288"},{"size":"195"}]}}}}},
          {"name":"model_1/model/convld_3d/BiasAdd_model_1/model/convld_3d/Conv2D_model_1/model/convld_3d/BiasAdd/ReadVariableOp/resource1/y","op":"Const","attr":{"value":{"tensor":{"dtype":"DT_FLOAT","tensorShape":{"dim":[{"size":"195"}]}}},"dtype":{"type":"DT_FLOAT"}}},
          {"name":"Identity/shape","op":"Const","attr":{"dtype":{"type":"DT_INT32"},"value":{"tensor":{"dtype":"DT_INT32","tensorShape":{"dim":[{"size":"2"}]}}}}},
          {"name":"Conv2D_104/filter","op":"Const","attr":{"dtype":{"type":"DT_FLOAT"},"value":{"tensor":{"dtype":"DT_FLOAT","tensorShape":{"dim":[{"size":"2"},{"size":"2"},{"size":"288"},{"size":"1"}]}}}}},
          {"name":"model_1/model/conv_poseflag/BiasAdd_model_1/model/output_segmentation/Conv2D_model_1/model/conv_poseflag/Conv2D_model_1/model/conv_poseflag/BiasAdd/ReadVariableOp/resource1/y","op":"Const","attr":{"dtype":{"type":"DT_FLOAT"},"value":{"tensor":{"dtype":"DT_FLOAT","tensorShape":{"dim":[{"size":"1"}]}}}}},
          {"name":"Identity_1/shape","op":"Const","attr":{"dtype":{"type":"DT_INT32"},"value":{"tensor":{"dtype":"DT_INT32","tensorShape":{"dim":[{"size":"2"}]}}}}},
          {"name":"depthwise_39/filter_in","op":"Const","attr":{"value":{"tensor":{"dtype":"DT_FLOAT","tensorShape":{"dim":[{"size":"3"},{"size":"3"},{"size":"48"},{"size":"1"}]}}},"dtype":{"type":"DT_FLOAT"}}},
          {"name":"Conv2D_68/filter","op":"Const","attr":{"value":{"tensor":{"dtype":"DT_FLOAT","tensorShape":{"dim":[{"size":"1"},{"size":"1"},{"size":"48"},{"size":"8"}]}}},"dtype":{"type":"DT_FLOAT"}}},
          {"name":"Add_68/y","op":"Const","attr":{"value":{"tensor":{"dtype":"DT_FLOAT","tensorShape":{"dim":[{"size":"8"}]}}},"dtype":{"type":"DT_FLOAT"}}},
          {"name":"model_1/model/up_sampling2d_3/resize/ResizeBilinear_lambda/resize/size","op":"Const","attr":{"value":{"tensor":{"dtype":"DT_INT32","tensorShape":{"dim":[{"size":"2"}]}}},"dtype":{"type":"DT_INT32"}}},
          {"name":"depthwise_37/filter_in","op":"Const","attr":{"value":{"tensor":{"dtype":"DT_FLOAT","tensorShape":{"dim":[{"size":"3"},{"size":"3"},{"size":"24"},{"size":"1"}]}}},"dtype":{"type":"DT_FLOAT"}}},
          {"name":"Conv2D_66/filter","op":"Const","attr":{"value":{"tensor":{"dtype":"DT_FLOAT","tensorShape":{"dim":[{"size":"1"},{"size":"1"},{"size":"24"},{"size":"8"}]}}},"dtype":{"type":"DT_FLOAT"}}},
          {"name":"Add_67/y","op":"Const","attr":{"dtype":{"type":"DT_FLOAT"},"value":{"tensor":{"dtype":"DT_FLOAT","tensorShape":{"dim":[{"size":"8"}]}}}}},
          {"name":"depthwise_73/filter_in","op":"Const","attr":{"dtype":{"type":"DT_FLOAT"},"value":{"tensor":{"dtype":"DT_FLOAT","tensorShape":{"dim":[{"size":"3"},{"size":"3"},{"size":"8"},{"size":"1"}]}}}}},
          {"name":"Conv2D_106/filter","op":"Const","attr":{"dtype":{"type":"DT_FLOAT"},"value":{"tensor":{"dtype":"DT_FLOAT","tensorShape":{"dim":[{"size":"1"},{"size":"1"},{"size":"8"},{"size":"8"}]}}}}},
          {"name":"Add_103/y","op":"Const","attr":{"dtype":{"type":"DT_FLOAT"},"value":{"tensor":{"dtype":"DT_FLOAT","tensorShape":{"dim":[{"size":"8"}]}}}}},
          {"name":"Conv2D_107/filter","op":"Const","attr":{"dtype":{"type":"DT_FLOAT"},"value":{"tensor":{"dtype":"DT_FLOAT","tensorShape":{"dim":[{"size":"3"},{"size":"3"},{"size":"8"},{"size":"1"}]}}}}},
          {"name":"Identity_2/y","op":"Const","attr":{"value":{"tensor":{"dtype":"DT_FLOAT","tensorShape":{"dim":[{"size":"1"}]}}},"dtype":{"type":"DT_FLOAT"}}},
          {"name":"Conv2D_105/filter","op":"Const","attr":{"value":{"tensor":{"dtype":"DT_FLOAT","tensorShape":{"dim":[{"size":"3"},{"size":"3"},{"size":"48"},{"size":"39"}]}}},"dtype":{"type":"DT_FLOAT"}}},
          {"name":"Identity_3/y","op":"Const","attr":{"dtype":{"type":"DT_FLOAT"},"value":{"tensor":{"dtype":"DT_FLOAT","tensorShape":{"dim":[{"size":"39"}]}}}}},
          {"name":"model_1/model/batch_normalization_129/FusedBatchNormV3_model_1/model/conv2d_99/Conv2D1/y","op":"Const","attr":{"value":{"tensor":{"dtype":"DT_FLOAT","tensorShape":{"dim":[{"size":"288"}]}}},"dtype":{"type":"DT_FLOAT"}}},
          {"name":"model_1/model/batch_normalization_128/FusedBatchNormV3_model_1/model/conv2d_99/Conv2D_model_1/model/conv2d_98/Conv2D1/y","op":"Const","attr":{"value":{"tensor":{"dtype":"DT_FLOAT","tensorShape":{"dim":[{"size":"288"}]}}},"dtype":{"type":"DT_FLOAT"}}},
          {"name":"model_1/model/batch_normalization_127/FusedBatchNormV3_model_1/model/conv2d_99/Conv2D_model_1/model/conv2d_97/Conv2D1/y","op":"Const","attr":{"value":{"tensor":{"dtype":"DT_FLOAT","tensorShape":{"dim":[{"size":"288"}]}}},"dtype":{"type":"DT_FLOAT"}}},
          {"name":"model_1/model/batch_normalization_126/FusedBatchNormV3_model_1/model/conv2d_99/Conv2D_model_1/model/conv2d_96/Conv2D1/y","op":"Const","attr":{"dtype":{"type":"DT_FLOAT"},"value":{"tensor":{"dtype":"DT_FLOAT","tensorShape":{"dim":[{"size":"288"}]}}}}},
          {"name":"model_1/model/batch_normalization_125/FusedBatchNormV3_model_1/model/conv2d_99/Conv2D_model_1/model/conv2d_95/Conv2D1/y","op":"Const","attr":{"value":{"tensor":{"dtype":"DT_FLOAT","tensorShape":{"dim":[{"size":"288"}]}}},"dtype":{"type":"DT_FLOAT"}}},
          {"name":"model_1/model/batch_normalization_124/FusedBatchNormV3_model_1/model/conv2d_99/Conv2D_model_1/model/conv2d_94/Conv2D1/y","op":"Const","attr":{"dtype":{"type":"DT_FLOAT"},"value":{"tensor":{"dtype":"DT_FLOAT","tensorShape":{"dim":[{"size":"288"}]}}}}},
          {"name":"model_1/model/batch_normalization_123/FusedBatchNormV3_model_1/model/conv2d_99/Conv2D_model_1/model/conv2d_93/Conv2D1/y","op":"Const","attr":{"dtype":{"type":"DT_FLOAT"},"value":{"tensor":{"dtype":"DT_FLOAT","tensorShape":{"dim":[{"size":"288"}]}}}}},
          {"name":"model_1/model/batch_normalization_122/FusedBatchNormV3_model_1/model/conv2d_99/Conv2D_model_1/model/conv2d_92/Conv2D1/y","op":"Const","attr":{"dtype":{"type":"DT_FLOAT"},"value":{"tensor":{"dtype":"DT_FLOAT","tensorShape":{"dim":[{"size":"288"}]}}}}},
          {"name":"model_1/model/batch_normalization_121/FusedBatchNormV3_model_1/model/conv2d_99/Conv2D_model_1/model/conv2d_91/Conv2D1/y","op":"Const","attr":{"dtype":{"type":"DT_FLOAT"},"value":{"tensor":{"dtype":"DT_FLOAT","tensorShape":{"dim":[{"size":"288"}]}}}}},
          {"name":"model_1/model/batch_normalization_120/FusedBatchNormV3_model_1/model/conv2d_99/Conv2D_model_1/model/conv2d_90/Conv2D1/y","op":"Const","attr":{"dtype":{"type":"DT_FLOAT"},"value":{"tensor":{"dtype":"DT_FLOAT","tensorShape":{"dim":[{"size":"288"}]}}}}},
          {"name":"model_1/model/batch_normalization_119/FusedBatchNormV3_model_1/model/conv2d_99/Conv2D_model_1/model/conv2d_89/Conv2D1/y","op":"Const","attr":{"value":{"tensor":{"dtype":"DT_FLOAT","tensorShape":{"dim":[{"size":"288"}]}}},"dtype":{"type":"DT_FLOAT"}}},
          {"name":"model_1/model/batch_normalization_118/FusedBatchNormV3_model_1/model/conv2d_99/Conv2D_model_1/model/conv2d_88/Conv2D1/y","op":"Const","attr":{"value":{"tensor":{"dtype":"DT_FLOAT","tensorShape":{"dim":[{"size":"288"}]}}},"dtype":{"type":"DT_FLOAT"}}},
          {"name":"model_1/model/batch_normalization_117/FusedBatchNormV3_model_1/model/conv2d_99/Conv2D_model_1/model/conv2d_87/Conv2D1/y","op":"Const","attr":{"value":{"tensor":{"dtype":"DT_FLOAT","tensorShape":{"dim":[{"size":"288"}]}}},"dtype":{"type":"DT_FLOAT"}}},
          {"name":"model_1/model/batch_normalization_116/FusedBatchNormV3_model_1/model/conv2d_99/Conv2D_model_1/model/conv2d_86/Conv2D1/y","op":"Const","attr":{"value":{"tensor":{"dtype":"DT_FLOAT","tensorShape":{"dim":[{"size":"288"}]}}},"dtype":{"type":"DT_FLOAT"}}},
          {"name":"model_1/model/batch_normalization_115/FusedBatchNormV3_model_1/model/conv2d_99/Conv2D_model_1/model/conv2d_85/Conv2D1/y","op":"Const","attr":{"value":{"tensor":{"dtype":"DT_FLOAT","tensorShape":{"dim":[{"size":"288"}]}}},"dtype":{"type":"DT_FLOAT"}}},
          {"name":"model_1/model/batch_normalization_114/FusedBatchNormV3_model_1/model/conv2d_99/Conv2D_model_1/model/conv2d_84/Conv2D1/y","op":"Const","attr":{"dtype":{"type":"DT_FLOAT"},"value":{"tensor":{"dtype":"DT_FLOAT","tensorShape":{"dim":[{"size":"288"}]}}}}},
          {"name":"model_1/model/batch_normalization_112/FusedBatchNormV3_model_1/model/conv2d_99/Conv2D_model_1/model/conv2d_82/Conv2D1/y","op":"Const","attr":{"value":{"tensor":{"dtype":"DT_FLOAT","tensorShape":{"dim":[{"size":"288"}]}}},"dtype":{"type":"DT_FLOAT"}}},
          {"name":"model_1/model/batch_normalization_111/FusedBatchNormV3_model_1/model/conv2d_99/Conv2D_model_1/model/conv2d_81/Conv2D1/y","op":"Const","attr":{"value":{"tensor":{"dtype":"DT_FLOAT","tensorShape":{"dim":[{"size":"288"}]}}},"dtype":{"type":"DT_FLOAT"}}},
          {"name":"model_1/model/batch_normalization_110/FusedBatchNormV3_model_1/model/conv2d_99/Conv2D_model_1/model/conv2d_80/Conv2D1/y","op":"Const","attr":{"dtype":{"type":"DT_FLOAT"},"value":{"tensor":{"dtype":"DT_FLOAT","tensorShape":{"dim":[{"size":"288"}]}}}}},
          {"name":"model_1/model/batch_normalization_109/FusedBatchNormV3_model_1/model/conv2d_99/Conv2D_model_1/model/conv2d_79/Conv2D1/y","op":"Const","attr":{"value":{"tensor":{"dtype":"DT_FLOAT","tensorShape":{"dim":[{"size":"288"}]}}},"dtype":{"type":"DT_FLOAT"}}},
          {"name":"model_1/model/batch_normalization_108/FusedBatchNormV3_model_1/model/conv2d_99/Conv2D_model_1/model/conv2d_78/Conv2D1/y","op":"Const","attr":{"dtype":{"type":"DT_FLOAT"},"value":{"tensor":{"dtype":"DT_FLOAT","tensorShape":{"dim":[{"size":"288"}]}}}}},
          {"name":"model_1/model/batch_normalization_107/FusedBatchNormV3_model_1/model/conv2d_99/Conv2D_model_1/model/conv2d_77/Conv2D1/y","op":"Const","attr":{"value":{"tensor":{"dtype":"DT_FLOAT","tensorShape":{"dim":[{"size":"288"}]}}},"dtype":{"type":"DT_FLOAT"}}},
          {"name":"model_1/model/batch_normalization_106/FusedBatchNormV3_model_1/model/conv2d_99/Conv2D_model_1/model/conv2d_76/Conv2D1/y","op":"Const","attr":{"dtype":{"type":"DT_FLOAT"},"value":{"tensor":{"dtype":"DT_FLOAT","tensorShape":{"dim":[{"size":"288"}]}}}}},
          {"name":"model_1/model/channel_padding_2/Pad/paddings","op":"Const","attr":{"dtype":{"type":"DT_INT32"},"value":{"tensor":{"dtype":"DT_INT32","tensorShape":{"dim":[{"size":"4"},{"size":"2"}]}}}}},
          {"name":"model_1/model/batch_normalization_104/FusedBatchNormV3_model_1/model/depthwise_conv2d_47/depthwise_model_1/model/conv2d_74/Conv2D1/y","op":"Const","attr":{"value":{"tensor":{"dtype":"DT_FLOAT","tensorShape":{"dim":[{"size":"192"}]}}},"dtype":{"type":"DT_FLOAT"}}},
          {"name":"model_1/model/batch_normalization_103/FusedBatchNormV3_model_1/model/depthwise_conv2d_47/depthwise_model_1/model/conv2d_73/Conv2D1/y","op":"Const","attr":{"dtype":{"type":"DT_FLOAT"},"value":{"tensor":{"dtype":"DT_FLOAT","tensorShape":{"dim":[{"size":"192"}]}}}}},
          {"name":"model_1/model/batch_normalization_102/FusedBatchNormV3_model_1/model/depthwise_conv2d_47/depthwise_model_1/model/conv2d_72/Conv2D1/y","op":"Const","attr":{"value":{"tensor":{"dtype":"DT_FLOAT","tensorShape":{"dim":[{"size":"192"}]}}},"dtype":{"type":"DT_FLOAT"}}},
          {"name":"model_1/model/batch_normalization_101/FusedBatchNormV3_model_1/model/depthwise_conv2d_47/depthwise_model_1/model/conv2d_71/Conv2D1/y","op":"Const","attr":{"dtype":{"type":"DT_FLOAT"},"value":{"tensor":{"dtype":"DT_FLOAT","tensorShape":{"dim":[{"size":"192"}]}}}}},
          {"name":"model_1/model/batch_normalization_100/FusedBatchNormV3_model_1/model/depthwise_conv2d_47/depthwise_model_1/model/conv2d_70/Conv2D1/y","op":"Const","attr":{"dtype":{"type":"DT_FLOAT"},"value":{"tensor":{"dtype":"DT_FLOAT","tensorShape":{"dim":[{"size":"192"}]}}}}},
          {"name":"model_1/model/batch_normalization_99/FusedBatchNormV3_model_1/model/depthwise_conv2d_47/depthwise_model_1/model/conv2d_69/Conv2D1/y","op":"Const","attr":{"value":{"tensor":{"dtype":"DT_FLOAT","tensorShape":{"dim":[{"size":"192"}]}}},"dtype":{"type":"DT_FLOAT"}}},
          {"name":"model_1/model/channel_padding_1/Pad/paddings","op":"Const","attr":{"value":{"tensor":{"dtype":"DT_INT32","tensorShape":{"dim":[{"size":"4"},{"size":"2"}]}}},"dtype":{"type":"DT_INT32"}}},
          {"name":"model_1/model/batch_normalization_97/FusedBatchNormV3_model_1/model/depthwise_conv2d_40/depthwise_model_1/model/conv2d_67/Conv2D1/y","op":"Const","attr":{"dtype":{"type":"DT_FLOAT"},"value":{"tensor":{"dtype":"DT_FLOAT","tensorShape":{"dim":[{"size":"96"}]}}}}},
          {"name":"model_1/model/batch_normalization_96/FusedBatchNormV3_model_1/model/depthwise_conv2d_40/depthwise_model_1/model/conv2d_66/Conv2D1/y","op":"Const","attr":{"value":{"tensor":{"dtype":"DT_FLOAT","tensorShape":{"dim":[{"size":"96"}]}}},"dtype":{"type":"DT_FLOAT"}}},
          {"name":"model_1/model/batch_normalization_95/FusedBatchNormV3_model_1/model/depthwise_conv2d_40/depthwise_model_1/model/conv2d_65/Conv2D1/y","op":"Const","attr":{"dtype":{"type":"DT_FLOAT"},"value":{"tensor":{"dtype":"DT_FLOAT","tensorShape":{"dim":[{"size":"96"}]}}}}},
          {"name":"model_1/model/batch_normalization_94/FusedBatchNormV3_model_1/model/depthwise_conv2d_40/depthwise_model_1/model/conv2d_64/Conv2D1/y","op":"Const","attr":{"dtype":{"type":"DT_FLOAT"},"value":{"tensor":{"dtype":"DT_FLOAT","tensorShape":{"dim":[{"size":"96"}]}}}}},
          {"name":"model_1/model/batch_normalization_93/FusedBatchNormV3_model_1/model/depthwise_conv2d_40/depthwise_model_1/model/conv2d_63/Conv2D1/y","op":"Const","attr":{"value":{"tensor":{"dtype":"DT_FLOAT","tensorShape":{"dim":[{"size":"96"}]}}},"dtype":{"type":"DT_FLOAT"}}},
          {"name":"model_1/model/channel_padding/Pad/paddings","op":"Const","attr":{"dtype":{"type":"DT_INT32"},"value":{"tensor":{"dtype":"DT_INT32","tensorShape":{"dim":[{"size":"4"},{"size":"2"}]}}}}},
          {"name":"depthwise_30/filter_in","op":"Const","attr":{"value":{"tensor":{"dtype":"DT_FLOAT","tensorShape":{"dim":[{"size":"3"},{"size":"3"},{"size":"1632"},{"size":"1"}]}}},"dtype":{"type":"DT_FLOAT"}}},
          {"name":"Conv2D_59/filter","op":"Const","attr":{"dtype":{"type":"DT_FLOAT"},"value":{"tensor":{"dtype":"DT_FLOAT","tensorShape":{"dim":[{"size":"1"},{"size":"1"},{"size":"1632"},{"size":"48"}]}}}}},
          {"name":"Add_60/y","op":"Const","attr":{"dtype":{"type":"DT_FLOAT"},"value":{"tensor":{"dtype":"DT_FLOAT","tensorShape":{"dim":[{"size":"48"}]}}}}},
          {"name":"model_1/model/up_sampling2d/resize/ResizeBilinear_lambda/resize/size","op":"Const","attr":{"dtype":{"type":"DT_INT32"},"value":{"tensor":{"dtype":"DT_INT32","tensorShape":{"dim":[{"size":"2"}]}}}}},
          {"name":"depthwise_32/filter_in","op":"Const","attr":{"value":{"tensor":{"dtype":"DT_FLOAT","tensorShape":{"dim":[{"size":"3"},{"size":"3"},{"size":"160"},{"size":"1"}]}}},"dtype":{"type":"DT_FLOAT"}}},
          {"name":"Conv2D_61/filter","op":"Const","attr":{"value":{"tensor":{"dtype":"DT_FLOAT","tensorShape":{"dim":[{"size":"1"},{"size":"1"},{"size":"160"},{"size":"48"}]}}},"dtype":{"type":"DT_FLOAT"}}},
          {"name":"Add_62/y","op":"Const","attr":{"value":{"tensor":{"dtype":"DT_FLOAT","tensorShape":{"dim":[{"size":"48"}]}}},"dtype":{"type":"DT_FLOAT"}}},
          {"name":"model_1/model/up_sampling2d_1/resize/ResizeBilinear_lambda/resize/size","op":"Const","attr":{"dtype":{"type":"DT_INT32"},"value":{"tensor":{"dtype":"DT_INT32","tensorShape":{"dim":[{"size":"2"}]}}}}},
          {"name":"depthwise_34/filter_in","op":"Const","attr":{"value":{"tensor":{"dtype":"DT_FLOAT","tensorShape":{"dim":[{"size":"3"},{"size":"3"},{"size":"56"},{"size":"1"}]}}},"dtype":{"type":"DT_FLOAT"}}},
          {"name":"Conv2D_63/filter","op":"Const","attr":{"dtype":{"type":"DT_FLOAT"},"value":{"tensor":{"dtype":"DT_FLOAT","tensorShape":{"dim":[{"size":"1"},{"size":"1"},{"size":"56"},{"size":"48"}]}}}}},
          {"name":"Add_64/y","op":"Const","attr":{"dtype":{"type":"DT_FLOAT"},"value":{"tensor":{"dtype":"DT_FLOAT","tensorShape":{"dim":[{"size":"48"}]}}}}},
          {"name":"model_1/model/up_sampling2d_2/resize/ResizeBilinear_lambda/resize/size","op":"Const","attr":{"dtype":{"type":"DT_INT32"},"value":{"tensor":{"dtype":"DT_INT32","tensorShape":{"dim":[{"size":"2"}]}}}}},
          {"name":"depthwise_36/filter_in","op":"Const","attr":{"value":{"tensor":{"dtype":"DT_FLOAT","tensorShape":{"dim":[{"size":"3"},{"size":"3"},{"size":"32"},{"size":"1"}]}}},"dtype":{"type":"DT_FLOAT"}}},
          {"name":"Conv2D_65/filter","op":"Const","attr":{"value":{"tensor":{"dtype":"DT_FLOAT","tensorShape":{"dim":[{"size":"1"},{"size":"1"},{"size":"32"},{"size":"48"}]}}},"dtype":{"type":"DT_FLOAT"}}},
          {"name":"Add_66/y","op":"Const","attr":{"dtype":{"type":"DT_FLOAT"},"value":{"tensor":{"dtype":"DT_FLOAT","tensorShape":{"dim":[{"size":"48"}]}}}}},
          {"name":"depthwise_38/filter_in","op":"Const","attr":{"dtype":{"type":"DT_FLOAT"},"value":{"tensor":{"dtype":"DT_FLOAT","tensorShape":{"dim":[{"size":"3"},{"size":"3"},{"size":"48"},{"size":"1"}]}}}}},
          {"name":"Conv2D_67/filter","op":"Const","attr":{"dtype":{"type":"DT_FLOAT"},"value":{"tensor":{"dtype":"DT_FLOAT","tensorShape":{"dim":[{"size":"1"},{"size":"1"},{"size":"48"},{"size":"96"}]}}}}},
          {"name":"depthwise_40/filter_in","op":"Const","attr":{"dtype":{"type":"DT_FLOAT"},"value":{"tensor":{"dtype":"DT_FLOAT","tensorShape":{"dim":[{"size":"3"},{"size":"3"},{"size":"96"},{"size":"1"}]}}}}},
          {"name":"Conv2D_69/filter","op":"Const","attr":{"value":{"tensor":{"dtype":"DT_FLOAT","tensorShape":{"dim":[{"size":"1"},{"size":"1"},{"size":"96"},{"size":"96"}]}}},"dtype":{"type":"DT_FLOAT"}}},
          {"name":"depthwise_41/filter_in","op":"Const","attr":{"value":{"tensor":{"dtype":"DT_FLOAT","tensorShape":{"dim":[{"size":"3"},{"size":"3"},{"size":"96"},{"size":"1"}]}}},"dtype":{"type":"DT_FLOAT"}}},
          {"name":"Conv2D_70/filter","op":"Const","attr":{"dtype":{"type":"DT_FLOAT"},"value":{"tensor":{"dtype":"DT_FLOAT","tensorShape":{"dim":[{"size":"1"},{"size":"1"},{"size":"96"},{"size":"96"}]}}}}},
          {"name":"depthwise_42/filter_in","op":"Const","attr":{"dtype":{"type":"DT_FLOAT"},"value":{"tensor":{"dtype":"DT_FLOAT","tensorShape":{"dim":[{"size":"3"},{"size":"3"},{"size":"96"},{"size":"1"}]}}}}},
          {"name":"Conv2D_71/filter","op":"Const","attr":{"dtype":{"type":"DT_FLOAT"},"value":{"tensor":{"dtype":"DT_FLOAT","tensorShape":{"dim":[{"size":"1"},{"size":"1"},{"size":"96"},{"size":"96"}]}}}}},
          {"name":"depthwise_43/filter_in","op":"Const","attr":{"dtype":{"type":"DT_FLOAT"},"value":{"tensor":{"dtype":"DT_FLOAT","tensorShape":{"dim":[{"size":"3"},{"size":"3"},{"size":"96"},{"size":"1"}]}}}}},
          {"name":"Conv2D_72/filter","op":"Const","attr":{"value":{"tensor":{"dtype":"DT_FLOAT","tensorShape":{"dim":[{"size":"1"},{"size":"1"},{"size":"96"},{"size":"96"}]}}},"dtype":{"type":"DT_FLOAT"}}},
          {"name":"depthwise_35/filter_in","op":"Const","attr":{"dtype":{"type":"DT_FLOAT"},"value":{"tensor":{"dtype":"DT_FLOAT","tensorShape":{"dim":[{"size":"3"},{"size":"3"},{"size":"56"},{"size":"1"}]}}}}},
          {"name":"Conv2D_64/filter","op":"Const","attr":{"dtype":{"type":"DT_FLOAT"},"value":{"tensor":{"dtype":"DT_FLOAT","tensorShape":{"dim":[{"size":"1"},{"size":"1"},{"size":"56"},{"size":"96"}]}}}}},
          {"name":"Add_65/y","op":"Const","attr":{"value":{"tensor":{"dtype":"DT_FLOAT","tensorShape":{"dim":[{"size":"96"}]}}},"dtype":{"type":"DT_FLOAT"}}},
          {"name":"depthwise_44/filter_in","op":"Const","attr":{"dtype":{"type":"DT_FLOAT"},"value":{"tensor":{"dtype":"DT_FLOAT","tensorShape":{"dim":[{"size":"3"},{"size":"3"},{"size":"96"},{"size":"1"}]}}}}},
          {"name":"Conv2D_73/filter","op":"Const","attr":{"value":{"tensor":{"dtype":"DT_FLOAT","tensorShape":{"dim":[{"size":"1"},{"size":"1"},{"size":"96"},{"size":"192"}]}}},"dtype":{"type":"DT_FLOAT"}}},
          {"name":"depthwise_45/filter_in","op":"Const","attr":{"value":{"tensor":{"dtype":"DT_FLOAT","tensorShape":{"dim":[{"size":"3"},{"size":"3"},{"size":"192"},{"size":"1"}]}}},"dtype":{"type":"DT_FLOAT"}}},
          {"name":"Conv2D_74/filter","op":"Const","attr":{"value":{"tensor":{"dtype":"DT_FLOAT","tensorShape":{"dim":[{"size":"1"},{"size":"1"},{"size":"192"},{"size":"192"}]}}},"dtype":{"type":"DT_FLOAT"}}},
          {"name":"depthwise_46/filter_in","op":"Const","attr":{"value":{"tensor":{"dtype":"DT_FLOAT","tensorShape":{"dim":[{"size":"3"},{"size":"3"},{"size":"192"},{"size":"1"}]}}},"dtype":{"type":"DT_FLOAT"}}},
          {"name":"Conv2D_75/filter","op":"Const","attr":{"dtype":{"type":"DT_FLOAT"},"value":{"tensor":{"dtype":"DT_FLOAT","tensorShape":{"dim":[{"size":"1"},{"size":"1"},{"size":"192"},{"size":"192"}]}}}}},
          {"name":"depthwise_47/filter_in","op":"Const","attr":{"value":{"tensor":{"dtype":"DT_FLOAT","tensorShape":{"dim":[{"size":"3"},{"size":"3"},{"size":"192"},{"size":"1"}]}}},"dtype":{"type":"DT_FLOAT"}}},
          {"name":"Conv2D_76/filter","op":"Const","attr":{"value":{"tensor":{"dtype":"DT_FLOAT","tensorShape":{"dim":[{"size":"1"},{"size":"1"},{"size":"192"},{"size":"192"}]}}},"dtype":{"type":"DT_FLOAT"}}},
          {"name":"depthwise_48/filter_in","op":"Const","attr":{"dtype":{"type":"DT_FLOAT"},"value":{"tensor":{"dtype":"DT_FLOAT","tensorShape":{"dim":[{"size":"3"},{"size":"3"},{"size":"192"},{"size":"1"}]}}}}},
          {"name":"Conv2D_77/filter","op":"Const","attr":{"value":{"tensor":{"dtype":"DT_FLOAT","tensorShape":{"dim":[{"size":"1"},{"size":"1"},{"size":"192"},{"size":"192"}]}}},"dtype":{"type":"DT_FLOAT"}}},
          {"name":"depthwise_49/filter_in","op":"Const","attr":{"value":{"tensor":{"dtype":"DT_FLOAT","tensorShape":{"dim":[{"size":"3"},{"size":"3"},{"size":"192"},{"size":"1"}]}}},"dtype":{"type":"DT_FLOAT"}}},
          {"name":"Conv2D_78/filter","op":"Const","attr":{"value":{"tensor":{"dtype":"DT_FLOAT","tensorShape":{"dim":[{"size":"1"},{"size":"1"},{"size":"192"},{"size":"192"}]}}},"dtype":{"type":"DT_FLOAT"}}},
          {"name":"depthwise_33/filter_in","op":"Const","attr":{"dtype":{"type":"DT_FLOAT"},"value":{"tensor":{"dtype":"DT_FLOAT","tensorShape":{"dim":[{"size":"3"},{"size":"3"},{"size":"160"},{"size":"1"}]}}}}},
          {"name":"Conv2D_62/filter","op":"Const","attr":{"value":{"tensor":{"dtype":"DT_FLOAT","tensorShape":{"dim":[{"size":"1"},{"size":"1"},{"size":"160"},{"size":"192"}]}}},"dtype":{"type":"DT_FLOAT"}}},
          {"name":"Add_63/y","op":"Const","attr":{"value":{"tensor":{"dtype":"DT_FLOAT","tensorShape":{"dim":[{"size":"192"}]}}},"dtype":{"type":"DT_FLOAT"}}},
          {"name":"depthwise_50/filter_in","op":"Const","attr":{"dtype":{"type":"DT_FLOAT"},"value":{"tensor":{"dtype":"DT_FLOAT","tensorShape":{"dim":[{"size":"3"},{"size":"3"},{"size":"192"},{"size":"1"}]}}}}},
          {"name":"Conv2D_79/filter","op":"Const","attr":{"dtype":{"type":"DT_FLOAT"},"value":{"tensor":{"dtype":"DT_FLOAT","tensorShape":{"dim":[{"size":"1"},{"size":"1"},{"size":"192"},{"size":"288"}]}}}}},
          {"name":"depthwise_51/filter_in","op":"Const","attr":{"dtype":{"type":"DT_FLOAT"},"value":{"tensor":{"dtype":"DT_FLOAT","tensorShape":{"dim":[{"size":"3"},{"size":"3"},{"size":"288"},{"size":"1"}]}}}}},
          {"name":"Conv2D_80/filter","op":"Const","attr":{"value":{"tensor":{"dtype":"DT_FLOAT","tensorShape":{"dim":[{"size":"1"},{"size":"1"},{"size":"288"},{"size":"288"}]}}},"dtype":{"type":"DT_FLOAT"}}},
          {"name":"depthwise_52/filter_in","op":"Const","attr":{"value":{"tensor":{"dtype":"DT_FLOAT","tensorShape":{"dim":[{"size":"3"},{"size":"3"},{"size":"288"},{"size":"1"}]}}},"dtype":{"type":"DT_FLOAT"}}},
          {"name":"Conv2D_81/filter","op":"Const","attr":{"value":{"tensor":{"dtype":"DT_FLOAT","tensorShape":{"dim":[{"size":"1"},{"size":"1"},{"size":"288"},{"size":"288"}]}}},"dtype":{"type":"DT_FLOAT"}}},
          {"name":"depthwise_53/filter_in","op":"Const","attr":{"dtype":{"type":"DT_FLOAT"},"value":{"tensor":{"dtype":"DT_FLOAT","tensorShape":{"dim":[{"size":"3"},{"size":"3"},{"size":"288"},{"size":"1"}]}}}}},
          {"name":"Conv2D_82/filter","op":"Const","attr":{"value":{"tensor":{"dtype":"DT_FLOAT","tensorShape":{"dim":[{"size":"1"},{"size":"1"},{"size":"288"},{"size":"288"}]}}},"dtype":{"type":"DT_FLOAT"}}},
          {"name":"depthwise_54/filter_in","op":"Const","attr":{"value":{"tensor":{"dtype":"DT_FLOAT","tensorShape":{"dim":[{"size":"3"},{"size":"3"},{"size":"288"},{"size":"1"}]}}},"dtype":{"type":"DT_FLOAT"}}},
          {"name":"Conv2D_83/filter","op":"Const","attr":{"value":{"tensor":{"dtype":"DT_FLOAT","tensorShape":{"dim":[{"size":"1"},{"size":"1"},{"size":"288"},{"size":"288"}]}}},"dtype":{"type":"DT_FLOAT"}}},
          {"name":"depthwise_55/filter_in","op":"Const","attr":{"dtype":{"type":"DT_FLOAT"},"value":{"tensor":{"dtype":"DT_FLOAT","tensorShape":{"dim":[{"size":"3"},{"size":"3"},{"size":"288"},{"size":"1"}]}}}}},
          {"name":"Conv2D_84/filter","op":"Const","attr":{"dtype":{"type":"DT_FLOAT"},"value":{"tensor":{"dtype":"DT_FLOAT","tensorShape":{"dim":[{"size":"1"},{"size":"1"},{"size":"288"},{"size":"288"}]}}}}},
          {"name":"depthwise_56/filter_in","op":"Const","attr":{"value":{"tensor":{"dtype":"DT_FLOAT","tensorShape":{"dim":[{"size":"3"},{"size":"3"},{"size":"288"},{"size":"1"}]}}},"dtype":{"type":"DT_FLOAT"}}},
          {"name":"Conv2D_85/filter","op":"Const","attr":{"value":{"tensor":{"dtype":"DT_FLOAT","tensorShape":{"dim":[{"size":"1"},{"size":"1"},{"size":"288"},{"size":"288"}]}}},"dtype":{"type":"DT_FLOAT"}}},
          {"name":"model_1/model/batch_normalization_86/FusedBatchNormV3_model_1/model/conv2d_57/Conv2D1/y","op":"Const","attr":{"dtype":{"type":"DT_FLOAT"},"value":{"tensor":{"dtype":"DT_FLOAT","tensorShape":{"dim":[{"size":"272"}]}}}}},
          {"name":"Conv2D_56/filter","op":"Const","attr":{"value":{"tensor":{"dtype":"DT_FLOAT","tensorShape":{"dim":[{"size":"1"},{"size":"1"},{"size":"272"},{"size":"1632"}]}}},"dtype":{"type":"DT_FLOAT"}}},
          {"name":"Add_56/y","op":"Const","attr":{"dtype":{"type":"DT_FLOAT"},"value":{"tensor":{"dtype":"DT_FLOAT","tensorShape":{"dim":[{"size":"1632"}]}}}}},
          {"name":"depthwise_28/filter_in","op":"Const","attr":{"value":{"tensor":{"dtype":"DT_FLOAT","tensorShape":{"dim":[{"size":"5"},{"size":"5"},{"size":"1632"},{"size":"1"}]}}},"dtype":{"type":"DT_FLOAT"}}},
          {"name":"Add_57/y","op":"Const","attr":{"value":{"tensor":{"dtype":"DT_FLOAT","tensorShape":{"dim":[{"size":"1632"}]}}},"dtype":{"type":"DT_FLOAT"}}},
          {"name":"Conv2D_57/filter","op":"Const","attr":{"value":{"tensor":{"dtype":"DT_FLOAT","tensorShape":{"dim":[{"size":"1"},{"size":"1"},{"size":"1632"},{"size":"272"}]}}},"dtype":{"type":"DT_FLOAT"}}},
          {"name":"model_1/model/batch_normalization_83/FusedBatchNormV3_model_1/model/conv2d_57/Conv2D_model_1/model/conv2d_55/Conv2D1/y","op":"Const","attr":{"dtype":{"type":"DT_FLOAT"},"value":{"tensor":{"dtype":"DT_FLOAT","tensorShape":{"dim":[{"size":"272"}]}}}}},
          {"name":"Conv2D_54/filter","op":"Const","attr":{"dtype":{"type":"DT_FLOAT"},"value":{"tensor":{"dtype":"DT_FLOAT","tensorShape":{"dim":[{"size":"1"},{"size":"1"},{"size":"272"},{"size":"1632"}]}}}}},
          {"name":"Add_54/y","op":"Const","attr":{"dtype":{"type":"DT_FLOAT"},"value":{"tensor":{"dtype":"DT_FLOAT","tensorShape":{"dim":[{"size":"1632"}]}}}}},
          {"name":"depthwise_27/filter_in","op":"Const","attr":{"dtype":{"type":"DT_FLOAT"},"value":{"tensor":{"dtype":"DT_FLOAT","tensorShape":{"dim":[{"size":"5"},{"size":"5"},{"size":"1632"},{"size":"1"}]}}}}},
          {"name":"Add_55/y","op":"Const","attr":{"value":{"tensor":{"dtype":"DT_FLOAT","tensorShape":{"dim":[{"size":"1632"}]}}},"dtype":{"type":"DT_FLOAT"}}},
          {"name":"Conv2D_55/filter","op":"Const","attr":{"value":{"tensor":{"dtype":"DT_FLOAT","tensorShape":{"dim":[{"size":"1"},{"size":"1"},{"size":"1632"},{"size":"272"}]}}},"dtype":{"type":"DT_FLOAT"}}},
          {"name":"model_1/model/batch_normalization_80/FusedBatchNormV3_model_1/model/conv2d_57/Conv2D_model_1/model/conv2d_53/Conv2D1/y","op":"Const","attr":{"dtype":{"type":"DT_FLOAT"},"value":{"tensor":{"dtype":"DT_FLOAT","tensorShape":{"dim":[{"size":"272"}]}}}}},
          {"name":"Conv2D_52/filter","op":"Const","attr":{"value":{"tensor":{"dtype":"DT_FLOAT","tensorShape":{"dim":[{"size":"1"},{"size":"1"},{"size":"272"},{"size":"1632"}]}}},"dtype":{"type":"DT_FLOAT"}}},
          {"name":"Add_52/y","op":"Const","attr":{"value":{"tensor":{"dtype":"DT_FLOAT","tensorShape":{"dim":[{"size":"1632"}]}}},"dtype":{"type":"DT_FLOAT"}}},
          {"name":"depthwise_26/filter_in","op":"Const","attr":{"dtype":{"type":"DT_FLOAT"},"value":{"tensor":{"dtype":"DT_FLOAT","tensorShape":{"dim":[{"size":"5"},{"size":"5"},{"size":"1632"},{"size":"1"}]}}}}},
          {"name":"Add_53/y","op":"Const","attr":{"dtype":{"type":"DT_FLOAT"},"value":{"tensor":{"dtype":"DT_FLOAT","tensorShape":{"dim":[{"size":"1632"}]}}}}},
          {"name":"Conv2D_53/filter","op":"Const","attr":{"value":{"tensor":{"dtype":"DT_FLOAT","tensorShape":{"dim":[{"size":"1"},{"size":"1"},{"size":"1632"},{"size":"272"}]}}},"dtype":{"type":"DT_FLOAT"}}},
          {"name":"model_1/model/batch_normalization_77/FusedBatchNormV3_model_1/model/conv2d_57/Conv2D_model_1/model/conv2d_51/Conv2D1/y","op":"Const","attr":{"dtype":{"type":"DT_FLOAT"},"value":{"tensor":{"dtype":"DT_FLOAT","tensorShape":{"dim":[{"size":"272"}]}}}}},
          {"name":"Conv2D_50/filter","op":"Const","attr":{"value":{"tensor":{"dtype":"DT_FLOAT","tensorShape":{"dim":[{"size":"1"},{"size":"1"},{"size":"272"},{"size":"1632"}]}}},"dtype":{"type":"DT_FLOAT"}}},
          {"name":"Add_50/y","op":"Const","attr":{"value":{"tensor":{"dtype":"DT_FLOAT","tensorShape":{"dim":[{"size":"1632"}]}}},"dtype":{"type":"DT_FLOAT"}}},
          {"name":"depthwise_25/filter_in","op":"Const","attr":{"value":{"tensor":{"dtype":"DT_FLOAT","tensorShape":{"dim":[{"size":"5"},{"size":"5"},{"size":"1632"},{"size":"1"}]}}},"dtype":{"type":"DT_FLOAT"}}},
          {"name":"Add_51/y","op":"Const","attr":{"dtype":{"type":"DT_FLOAT"},"value":{"tensor":{"dtype":"DT_FLOAT","tensorShape":{"dim":[{"size":"1632"}]}}}}},
          {"name":"Conv2D_51/filter","op":"Const","attr":{"dtype":{"type":"DT_FLOAT"},"value":{"tensor":{"dtype":"DT_FLOAT","tensorShape":{"dim":[{"size":"1"},{"size":"1"},{"size":"1632"},{"size":"272"}]}}}}},
          {"name":"model_1/model/batch_normalization_74/FusedBatchNormV3_model_1/model/conv2d_57/Conv2D_model_1/model/conv2d_49/Conv2D1/y","op":"Const","attr":{"dtype":{"type":"DT_FLOAT"},"value":{"tensor":{"dtype":"DT_FLOAT","tensorShape":{"dim":[{"size":"272"}]}}}}},
          {"name":"Conv2D_48/filter","op":"Const","attr":{"value":{"tensor":{"dtype":"DT_FLOAT","tensorShape":{"dim":[{"size":"1"},{"size":"1"},{"size":"272"},{"size":"1632"}]}}},"dtype":{"type":"DT_FLOAT"}}},
          {"name":"Add_48/y","op":"Const","attr":{"dtype":{"type":"DT_FLOAT"},"value":{"tensor":{"dtype":"DT_FLOAT","tensorShape":{"dim":[{"size":"1632"}]}}}}},
          {"name":"depthwise_24/filter_in","op":"Const","attr":{"dtype":{"type":"DT_FLOAT"},"value":{"tensor":{"dtype":"DT_FLOAT","tensorShape":{"dim":[{"size":"5"},{"size":"5"},{"size":"1632"},{"size":"1"}]}}}}},
          {"name":"Add_49/y","op":"Const","attr":{"dtype":{"type":"DT_FLOAT"},"value":{"tensor":{"dtype":"DT_FLOAT","tensorShape":{"dim":[{"size":"1632"}]}}}}},
          {"name":"Conv2D_49/filter","op":"Const","attr":{"dtype":{"type":"DT_FLOAT"},"value":{"tensor":{"dtype":"DT_FLOAT","tensorShape":{"dim":[{"size":"1"},{"size":"1"},{"size":"1632"},{"size":"272"}]}}}}},
          {"name":"model_1/model/batch_normalization_71/FusedBatchNormV3_model_1/model/conv2d_57/Conv2D_model_1/model/conv2d_47/Conv2D1/y","op":"Const","attr":{"value":{"tensor":{"dtype":"DT_FLOAT","tensorShape":{"dim":[{"size":"272"}]}}},"dtype":{"type":"DT_FLOAT"}}},
          {"name":"Conv2D_46/filter","op":"Const","attr":{"dtype":{"type":"DT_FLOAT"},"value":{"tensor":{"dtype":"DT_FLOAT","tensorShape":{"dim":[{"size":"1"},{"size":"1"},{"size":"272"},{"size":"1632"}]}}}}},
          {"name":"Add_46/y","op":"Const","attr":{"dtype":{"type":"DT_FLOAT"},"value":{"tensor":{"dtype":"DT_FLOAT","tensorShape":{"dim":[{"size":"1632"}]}}}}},
          {"name":"depthwise_23/filter_in","op":"Const","attr":{"dtype":{"type":"DT_FLOAT"},"value":{"tensor":{"dtype":"DT_FLOAT","tensorShape":{"dim":[{"size":"5"},{"size":"5"},{"size":"1632"},{"size":"1"}]}}}}},
          {"name":"Add_47/y","op":"Const","attr":{"dtype":{"type":"DT_FLOAT"},"value":{"tensor":{"dtype":"DT_FLOAT","tensorShape":{"dim":[{"size":"1632"}]}}}}},
          {"name":"Conv2D_47/filter","op":"Const","attr":{"value":{"tensor":{"dtype":"DT_FLOAT","tensorShape":{"dim":[{"size":"1"},{"size":"1"},{"size":"1632"},{"size":"272"}]}}},"dtype":{"type":"DT_FLOAT"}}},
          {"name":"model_1/model/batch_normalization_68/FusedBatchNormV3_model_1/model/conv2d_57/Conv2D_model_1/model/conv2d_45/Conv2D1/y","op":"Const","attr":{"dtype":{"type":"DT_FLOAT"},"value":{"tensor":{"dtype":"DT_FLOAT","tensorShape":{"dim":[{"size":"272"}]}}}}},
          {"name":"Conv2D_44/filter","op":"Const","attr":{"value":{"tensor":{"dtype":"DT_FLOAT","tensorShape":{"dim":[{"size":"1"},{"size":"1"},{"size":"272"},{"size":"1632"}]}}},"dtype":{"type":"DT_FLOAT"}}},
          {"name":"Add_44/y","op":"Const","attr":{"dtype":{"type":"DT_FLOAT"},"value":{"tensor":{"dtype":"DT_FLOAT","tensorShape":{"dim":[{"size":"1632"}]}}}}},
          {"name":"depthwise_22/filter_in","op":"Const","attr":{"dtype":{"type":"DT_FLOAT"},"value":{"tensor":{"dtype":"DT_FLOAT","tensorShape":{"dim":[{"size":"5"},{"size":"5"},{"size":"1632"},{"size":"1"}]}}}}},
          {"name":"Add_45/y","op":"Const","attr":{"dtype":{"type":"DT_FLOAT"},"value":{"tensor":{"dtype":"DT_FLOAT","tensorShape":{"dim":[{"size":"1632"}]}}}}},
          {"name":"Conv2D_45/filter","op":"Const","attr":{"dtype":{"type":"DT_FLOAT"},"value":{"tensor":{"dtype":"DT_FLOAT","tensorShape":{"dim":[{"size":"1"},{"size":"1"},{"size":"1632"},{"size":"272"}]}}}}},
          {"name":"model_1/model/batch_normalization_62/FusedBatchNormV3_model_1/model/depthwise_conv2d_46/depthwise_model_1/model/conv2d_41/Conv2D1/y","op":"Const","attr":{"value":{"tensor":{"dtype":"DT_FLOAT","tensorShape":{"dim":[{"size":"160"}]}}},"dtype":{"type":"DT_FLOAT"}}},
          {"name":"Conv2D_40/filter","op":"Const","attr":{"value":{"tensor":{"dtype":"DT_FLOAT","tensorShape":{"dim":[{"size":"1"},{"size":"1"},{"size":"160"},{"size":"960"}]}}},"dtype":{"type":"DT_FLOAT"}}},
          {"name":"Add_40/y","op":"Const","attr":{"value":{"tensor":{"dtype":"DT_FLOAT","tensorShape":{"dim":[{"size":"960"}]}}},"dtype":{"type":"DT_FLOAT"}}},
          {"name":"depthwise_20/filter_in","op":"Const","attr":{"dtype":{"type":"DT_FLOAT"},"value":{"tensor":{"dtype":"DT_FLOAT","tensorShape":{"dim":[{"size":"5"},{"size":"5"},{"size":"960"},{"size":"1"}]}}}}},
          {"name":"Add_41/y","op":"Const","attr":{"value":{"tensor":{"dtype":"DT_FLOAT","tensorShape":{"dim":[{"size":"960"}]}}},"dtype":{"type":"DT_FLOAT"}}},
          {"name":"Conv2D_41/filter","op":"Const","attr":{"value":{"tensor":{"dtype":"DT_FLOAT","tensorShape":{"dim":[{"size":"1"},{"size":"1"},{"size":"960"},{"size":"160"}]}}},"dtype":{"type":"DT_FLOAT"}}},
          {"name":"model_1/model/batch_normalization_59/FusedBatchNormV3_model_1/model/depthwise_conv2d_46/depthwise_model_1/model/conv2d_39/Conv2D1/y","op":"Const","attr":{"dtype":{"type":"DT_FLOAT"},"value":{"tensor":{"dtype":"DT_FLOAT","tensorShape":{"dim":[{"size":"160"}]}}}}},
          {"name":"Conv2D_38/filter","op":"Const","attr":{"value":{"tensor":{"dtype":"DT_FLOAT","tensorShape":{"dim":[{"size":"1"},{"size":"1"},{"size":"160"},{"size":"960"}]}}},"dtype":{"type":"DT_FLOAT"}}},
          {"name":"Add_38/y","op":"Const","attr":{"dtype":{"type":"DT_FLOAT"},"value":{"tensor":{"dtype":"DT_FLOAT","tensorShape":{"dim":[{"size":"960"}]}}}}},
          {"name":"depthwise_19/filter_in","op":"Const","attr":{"dtype":{"type":"DT_FLOAT"},"value":{"tensor":{"dtype":"DT_FLOAT","tensorShape":{"dim":[{"size":"5"},{"size":"5"},{"size":"960"},{"size":"1"}]}}}}},
          {"name":"Add_39/y","op":"Const","attr":{"value":{"tensor":{"dtype":"DT_FLOAT","tensorShape":{"dim":[{"size":"960"}]}}},"dtype":{"type":"DT_FLOAT"}}},
          {"name":"Conv2D_39/filter","op":"Const","attr":{"dtype":{"type":"DT_FLOAT"},"value":{"tensor":{"dtype":"DT_FLOAT","tensorShape":{"dim":[{"size":"1"},{"size":"1"},{"size":"960"},{"size":"160"}]}}}}},
          {"name":"model_1/model/batch_normalization_56/FusedBatchNormV3_model_1/model/depthwise_conv2d_46/depthwise_model_1/model/conv2d_37/Conv2D1/y","op":"Const","attr":{"dtype":{"type":"DT_FLOAT"},"value":{"tensor":{"dtype":"DT_FLOAT","tensorShape":{"dim":[{"size":"160"}]}}}}},
          {"name":"Conv2D_36/filter","op":"Const","attr":{"value":{"tensor":{"dtype":"DT_FLOAT","tensorShape":{"dim":[{"size":"1"},{"size":"1"},{"size":"160"},{"size":"960"}]}}},"dtype":{"type":"DT_FLOAT"}}},
          {"name":"Add_36/y","op":"Const","attr":{"dtype":{"type":"DT_FLOAT"},"value":{"tensor":{"dtype":"DT_FLOAT","tensorShape":{"dim":[{"size":"960"}]}}}}},
          {"name":"depthwise_18/filter_in","op":"Const","attr":{"value":{"tensor":{"dtype":"DT_FLOAT","tensorShape":{"dim":[{"size":"5"},{"size":"5"},{"size":"960"},{"size":"1"}]}}},"dtype":{"type":"DT_FLOAT"}}},
          {"name":"Add_37/y","op":"Const","attr":{"value":{"tensor":{"dtype":"DT_FLOAT","tensorShape":{"dim":[{"size":"960"}]}}},"dtype":{"type":"DT_FLOAT"}}},
          {"name":"Conv2D_37/filter","op":"Const","attr":{"value":{"tensor":{"dtype":"DT_FLOAT","tensorShape":{"dim":[{"size":"1"},{"size":"1"},{"size":"960"},{"size":"160"}]}}},"dtype":{"type":"DT_FLOAT"}}},
          {"name":"model_1/model/batch_normalization_53/FusedBatchNormV3_model_1/model/depthwise_conv2d_46/depthwise_model_1/model/conv2d_35/Conv2D1/y","op":"Const","attr":{"value":{"tensor":{"dtype":"DT_FLOAT","tensorShape":{"dim":[{"size":"160"}]}}},"dtype":{"type":"DT_FLOAT"}}},
          {"name":"Conv2D_34/filter","op":"Const","attr":{"value":{"tensor":{"dtype":"DT_FLOAT","tensorShape":{"dim":[{"size":"1"},{"size":"1"},{"size":"160"},{"size":"960"}]}}},"dtype":{"type":"DT_FLOAT"}}},
          {"name":"Add_34/y","op":"Const","attr":{"value":{"tensor":{"dtype":"DT_FLOAT","tensorShape":{"dim":[{"size":"960"}]}}},"dtype":{"type":"DT_FLOAT"}}},
          {"name":"depthwise_17/filter_in","op":"Const","attr":{"value":{"tensor":{"dtype":"DT_FLOAT","tensorShape":{"dim":[{"size":"5"},{"size":"5"},{"size":"960"},{"size":"1"}]}}},"dtype":{"type":"DT_FLOAT"}}},
          {"name":"Add_35/y","op":"Const","attr":{"dtype":{"type":"DT_FLOAT"},"value":{"tensor":{"dtype":"DT_FLOAT","tensorShape":{"dim":[{"size":"960"}]}}}}},
          {"name":"Conv2D_35/filter","op":"Const","attr":{"value":{"tensor":{"dtype":"DT_FLOAT","tensorShape":{"dim":[{"size":"1"},{"size":"1"},{"size":"960"},{"size":"160"}]}}},"dtype":{"type":"DT_FLOAT"}}},
          {"name":"model_1/model/batch_normalization_50/FusedBatchNormV3_model_1/model/depthwise_conv2d_46/depthwise_model_1/model/conv2d_33/Conv2D1/y","op":"Const","attr":{"dtype":{"type":"DT_FLOAT"},"value":{"tensor":{"dtype":"DT_FLOAT","tensorShape":{"dim":[{"size":"160"}]}}}}},
          {"name":"Conv2D_32/filter","op":"Const","attr":{"dtype":{"type":"DT_FLOAT"},"value":{"tensor":{"dtype":"DT_FLOAT","tensorShape":{"dim":[{"size":"1"},{"size":"1"},{"size":"160"},{"size":"960"}]}}}}},
          {"name":"Add_32/y","op":"Const","attr":{"value":{"tensor":{"dtype":"DT_FLOAT","tensorShape":{"dim":[{"size":"960"}]}}},"dtype":{"type":"DT_FLOAT"}}},
          {"name":"depthwise_16/filter_in","op":"Const","attr":{"value":{"tensor":{"dtype":"DT_FLOAT","tensorShape":{"dim":[{"size":"5"},{"size":"5"},{"size":"960"},{"size":"1"}]}}},"dtype":{"type":"DT_FLOAT"}}},
          {"name":"Add_33/y","op":"Const","attr":{"dtype":{"type":"DT_FLOAT"},"value":{"tensor":{"dtype":"DT_FLOAT","tensorShape":{"dim":[{"size":"960"}]}}}}},
          {"name":"Conv2D_33/filter","op":"Const","attr":{"dtype":{"type":"DT_FLOAT"},"value":{"tensor":{"dtype":"DT_FLOAT","tensorShape":{"dim":[{"size":"1"},{"size":"1"},{"size":"960"},{"size":"160"}]}}}}},
          {"name":"model_1/model/batch_normalization_44/FusedBatchNormV3_model_1/model/conv2d_29/Conv2D1/y","op":"Const","attr":{"value":{"tensor":{"dtype":"DT_FLOAT","tensorShape":{"dim":[{"size":"112"}]}}},"dtype":{"type":"DT_FLOAT"}}},
          {"name":"Conv2D_28/filter","op":"Const","attr":{"dtype":{"type":"DT_FLOAT"},"value":{"tensor":{"dtype":"DT_FLOAT","tensorShape":{"dim":[{"size":"1"},{"size":"1"},{"size":"112"},{"size":"672"}]}}}}},
          {"name":"Add_28/y","op":"Const","attr":{"value":{"tensor":{"dtype":"DT_FLOAT","tensorShape":{"dim":[{"size":"672"}]}}},"dtype":{"type":"DT_FLOAT"}}},
          {"name":"depthwise_14/filter_in","op":"Const","attr":{"dtype":{"type":"DT_FLOAT"},"value":{"tensor":{"dtype":"DT_FLOAT","tensorShape":{"dim":[{"size":"3"},{"size":"3"},{"size":"672"},{"size":"1"}]}}}}},
          {"name":"Add_29/y","op":"Const","attr":{"dtype":{"type":"DT_FLOAT"},"value":{"tensor":{"dtype":"DT_FLOAT","tensorShape":{"dim":[{"size":"672"}]}}}}},
          {"name":"Conv2D_29/filter","op":"Const","attr":{"value":{"tensor":{"dtype":"DT_FLOAT","tensorShape":{"dim":[{"size":"1"},{"size":"1"},{"size":"672"},{"size":"112"}]}}},"dtype":{"type":"DT_FLOAT"}}},
          {"name":"model_1/model/batch_normalization_41/FusedBatchNormV3_model_1/model/conv2d_29/Conv2D_model_1/model/conv2d_27/Conv2D1/y","op":"Const","attr":{"dtype":{"type":"DT_FLOAT"},"value":{"tensor":{"dtype":"DT_FLOAT","tensorShape":{"dim":[{"size":"112"}]}}}}},
          {"name":"Conv2D_26/filter","op":"Const","attr":{"value":{"tensor":{"dtype":"DT_FLOAT","tensorShape":{"dim":[{"size":"1"},{"size":"1"},{"size":"112"},{"size":"672"}]}}},"dtype":{"type":"DT_FLOAT"}}},
          {"name":"Add_26/y","op":"Const","attr":{"value":{"tensor":{"dtype":"DT_FLOAT","tensorShape":{"dim":[{"size":"672"}]}}},"dtype":{"type":"DT_FLOAT"}}},
          {"name":"depthwise_13/filter_in","op":"Const","attr":{"dtype":{"type":"DT_FLOAT"},"value":{"tensor":{"dtype":"DT_FLOAT","tensorShape":{"dim":[{"size":"3"},{"size":"3"},{"size":"672"},{"size":"1"}]}}}}},
          {"name":"Add_27/y","op":"Const","attr":{"dtype":{"type":"DT_FLOAT"},"value":{"tensor":{"dtype":"DT_FLOAT","tensorShape":{"dim":[{"size":"672"}]}}}}},
          {"name":"Conv2D_27/filter","op":"Const","attr":{"value":{"tensor":{"dtype":"DT_FLOAT","tensorShape":{"dim":[{"size":"1"},{"size":"1"},{"size":"672"},{"size":"112"}]}}},"dtype":{"type":"DT_FLOAT"}}},
          {"name":"model_1/model/batch_normalization_38/FusedBatchNormV3_model_1/model/conv2d_29/Conv2D_model_1/model/conv2d_25/Conv2D1/y","op":"Const","attr":{"dtype":{"type":"DT_FLOAT"},"value":{"tensor":{"dtype":"DT_FLOAT","tensorShape":{"dim":[{"size":"112"}]}}}}},
          {"name":"Conv2D_24/filter","op":"Const","attr":{"value":{"tensor":{"dtype":"DT_FLOAT","tensorShape":{"dim":[{"size":"1"},{"size":"1"},{"size":"112"},{"size":"672"}]}}},"dtype":{"type":"DT_FLOAT"}}},
          {"name":"Add_24/y","op":"Const","attr":{"value":{"tensor":{"dtype":"DT_FLOAT","tensorShape":{"dim":[{"size":"672"}]}}},"dtype":{"type":"DT_FLOAT"}}},
          {"name":"depthwise_12/filter_in","op":"Const","attr":{"value":{"tensor":{"dtype":"DT_FLOAT","tensorShape":{"dim":[{"size":"3"},{"size":"3"},{"size":"672"},{"size":"1"}]}}},"dtype":{"type":"DT_FLOAT"}}},
          {"name":"Add_25/y","op":"Const","attr":{"dtype":{"type":"DT_FLOAT"},"value":{"tensor":{"dtype":"DT_FLOAT","tensorShape":{"dim":[{"size":"672"}]}}}}},
          {"name":"Conv2D_25/filter","op":"Const","attr":{"value":{"tensor":{"dtype":"DT_FLOAT","tensorShape":{"dim":[{"size":"1"},{"size":"1"},{"size":"672"},{"size":"112"}]}}},"dtype":{"type":"DT_FLOAT"}}},
          {"name":"model_1/model/batch_normalization_35/FusedBatchNormV3_model_1/model/conv2d_29/Conv2D_model_1/model/conv2d_23/Conv2D1/y","op":"Const","attr":{"dtype":{"type":"DT_FLOAT"},"value":{"tensor":{"dtype":"DT_FLOAT","tensorShape":{"dim":[{"size":"112"}]}}}}},
          {"name":"Conv2D_22/filter","op":"Const","attr":{"dtype":{"type":"DT_FLOAT"},"value":{"tensor":{"dtype":"DT_FLOAT","tensorShape":{"dim":[{"size":"1"},{"size":"1"},{"size":"112"},{"size":"672"}]}}}}},
          {"name":"Add_22/y","op":"Const","attr":{"dtype":{"type":"DT_FLOAT"},"value":{"tensor":{"dtype":"DT_FLOAT","tensorShape":{"dim":[{"size":"672"}]}}}}},
          {"name":"depthwise_11/filter_in","op":"Const","attr":{"dtype":{"type":"DT_FLOAT"},"value":{"tensor":{"dtype":"DT_FLOAT","tensorShape":{"dim":[{"size":"3"},{"size":"3"},{"size":"672"},{"size":"1"}]}}}}},
          {"name":"Add_23/y","op":"Const","attr":{"value":{"tensor":{"dtype":"DT_FLOAT","tensorShape":{"dim":[{"size":"672"}]}}},"dtype":{"type":"DT_FLOAT"}}},
          {"name":"Conv2D_23/filter","op":"Const","attr":{"value":{"tensor":{"dtype":"DT_FLOAT","tensorShape":{"dim":[{"size":"1"},{"size":"1"},{"size":"672"},{"size":"112"}]}}},"dtype":{"type":"DT_FLOAT"}}},
          {"name":"model_1/model/batch_normalization_32/FusedBatchNormV3_model_1/model/conv2d_29/Conv2D_model_1/model/conv2d_21/Conv2D1/y","op":"Const","attr":{"value":{"tensor":{"dtype":"DT_FLOAT","tensorShape":{"dim":[{"size":"112"}]}}},"dtype":{"type":"DT_FLOAT"}}},
          {"name":"Conv2D_20/filter","op":"Const","attr":{"dtype":{"type":"DT_FLOAT"},"value":{"tensor":{"dtype":"DT_FLOAT","tensorShape":{"dim":[{"size":"1"},{"size":"1"},{"size":"112"},{"size":"672"}]}}}}},
          {"name":"Add_20/y","op":"Const","attr":{"value":{"tensor":{"dtype":"DT_FLOAT","tensorShape":{"dim":[{"size":"672"}]}}},"dtype":{"type":"DT_FLOAT"}}},
          {"name":"depthwise_10/filter_in","op":"Const","attr":{"dtype":{"type":"DT_FLOAT"},"value":{"tensor":{"dtype":"DT_FLOAT","tensorShape":{"dim":[{"size":"3"},{"size":"3"},{"size":"672"},{"size":"1"}]}}}}},
          {"name":"Add_21/y","op":"Const","attr":{"dtype":{"type":"DT_FLOAT"},"value":{"tensor":{"dtype":"DT_FLOAT","tensorShape":{"dim":[{"size":"672"}]}}}}},
          {"name":"Conv2D_21/filter","op":"Const","attr":{"dtype":{"type":"DT_FLOAT"},"value":{"tensor":{"dtype":"DT_FLOAT","tensorShape":{"dim":[{"size":"1"},{"size":"1"},{"size":"672"},{"size":"112"}]}}}}},
          {"name":"model_1/model/batch_normalization_26/FusedBatchNormV3_model_1/model/depthwise_conv2d_39/depthwise_model_1/model/conv2d_17/Conv2D1/y","op":"Const","attr":{"dtype":{"type":"DT_FLOAT"},"value":{"tensor":{"dtype":"DT_FLOAT","tensorShape":{"dim":[{"size":"56"}]}}}}},
          {"name":"Conv2D_16/filter","op":"Const","attr":{"value":{"tensor":{"dtype":"DT_FLOAT","tensorShape":{"dim":[{"size":"1"},{"size":"1"},{"size":"56"},{"size":"336"}]}}},"dtype":{"type":"DT_FLOAT"}}},
          {"name":"Add_16/y","op":"Const","attr":{"dtype":{"type":"DT_FLOAT"},"value":{"tensor":{"dtype":"DT_FLOAT","tensorShape":{"dim":[{"size":"336"}]}}}}},
          {"name":"depthwise_8/filter_in","op":"Const","attr":{"value":{"tensor":{"dtype":"DT_FLOAT","tensorShape":{"dim":[{"size":"5"},{"size":"5"},{"size":"336"},{"size":"1"}]}}},"dtype":{"type":"DT_FLOAT"}}},
          {"name":"Add_17/y","op":"Const","attr":{"dtype":{"type":"DT_FLOAT"},"value":{"tensor":{"dtype":"DT_FLOAT","tensorShape":{"dim":[{"size":"336"}]}}}}},
          {"name":"Conv2D_17/filter","op":"Const","attr":{"value":{"tensor":{"dtype":"DT_FLOAT","tensorShape":{"dim":[{"size":"1"},{"size":"1"},{"size":"336"},{"size":"56"}]}}},"dtype":{"type":"DT_FLOAT"}}},
          {"name":"model_1/model/batch_normalization_23/FusedBatchNormV3_model_1/model/depthwise_conv2d_39/depthwise_model_1/model/conv2d_15/Conv2D1/y","op":"Const","attr":{"value":{"tensor":{"dtype":"DT_FLOAT","tensorShape":{"dim":[{"size":"56"}]}}},"dtype":{"type":"DT_FLOAT"}}},
          {"name":"Conv2D_14/filter","op":"Const","attr":{"value":{"tensor":{"dtype":"DT_FLOAT","tensorShape":{"dim":[{"size":"1"},{"size":"1"},{"size":"56"},{"size":"336"}]}}},"dtype":{"type":"DT_FLOAT"}}},
          {"name":"Add_14/y","op":"Const","attr":{"value":{"tensor":{"dtype":"DT_FLOAT","tensorShape":{"dim":[{"size":"336"}]}}},"dtype":{"type":"DT_FLOAT"}}},
          {"name":"depthwise_7/filter_in","op":"Const","attr":{"value":{"tensor":{"dtype":"DT_FLOAT","tensorShape":{"dim":[{"size":"5"},{"size":"5"},{"size":"336"},{"size":"1"}]}}},"dtype":{"type":"DT_FLOAT"}}},
          {"name":"Add_15/y","op":"Const","attr":{"value":{"tensor":{"dtype":"DT_FLOAT","tensorShape":{"dim":[{"size":"336"}]}}},"dtype":{"type":"DT_FLOAT"}}},
          {"name":"Conv2D_15/filter","op":"Const","attr":{"dtype":{"type":"DT_FLOAT"},"value":{"tensor":{"dtype":"DT_FLOAT","tensorShape":{"dim":[{"size":"1"},{"size":"1"},{"size":"336"},{"size":"56"}]}}}}},
          {"name":"model_1/model/batch_normalization_20/FusedBatchNormV3_model_1/model/depthwise_conv2d_39/depthwise_model_1/model/conv2d_13/Conv2D1/y","op":"Const","attr":{"dtype":{"type":"DT_FLOAT"},"value":{"tensor":{"dtype":"DT_FLOAT","tensorShape":{"dim":[{"size":"56"}]}}}}},
          {"name":"Conv2D_12/filter","op":"Const","attr":{"value":{"tensor":{"dtype":"DT_FLOAT","tensorShape":{"dim":[{"size":"1"},{"size":"1"},{"size":"56"},{"size":"336"}]}}},"dtype":{"type":"DT_FLOAT"}}},
          {"name":"Add_12/y","op":"Const","attr":{"dtype":{"type":"DT_FLOAT"},"value":{"tensor":{"dtype":"DT_FLOAT","tensorShape":{"dim":[{"size":"336"}]}}}}},
          {"name":"depthwise_6/filter_in","op":"Const","attr":{"dtype":{"type":"DT_FLOAT"},"value":{"tensor":{"dtype":"DT_FLOAT","tensorShape":{"dim":[{"size":"5"},{"size":"5"},{"size":"336"},{"size":"1"}]}}}}},
          {"name":"Add_13/y","op":"Const","attr":{"dtype":{"type":"DT_FLOAT"},"value":{"tensor":{"dtype":"DT_FLOAT","tensorShape":{"dim":[{"size":"336"}]}}}}},
          {"name":"Conv2D_13/filter","op":"Const","attr":{"dtype":{"type":"DT_FLOAT"},"value":{"tensor":{"dtype":"DT_FLOAT","tensorShape":{"dim":[{"size":"1"},{"size":"1"},{"size":"336"},{"size":"56"}]}}}}},
          {"name":"model_1/model/batch_normalization_14/FusedBatchNormV3_model_1/model/depthwise_conv2d_33/depthwise_model_1/model/conv2d_9/Conv2D1/y","op":"Const","attr":{"dtype":{"type":"DT_FLOAT"},"value":{"tensor":{"dtype":"DT_FLOAT","tensorShape":{"dim":[{"size":"32"}]}}}}},
          {"name":"Conv2D_8/filter","op":"Const","attr":{"dtype":{"type":"DT_FLOAT"},"value":{"tensor":{"dtype":"DT_FLOAT","tensorShape":{"dim":[{"size":"1"},{"size":"1"},{"size":"32"},{"size":"192"}]}}}}},
          {"name":"Add_8/y","op":"Const","attr":{"value":{"tensor":{"dtype":"DT_FLOAT","tensorShape":{"dim":[{"size":"192"}]}}},"dtype":{"type":"DT_FLOAT"}}},
          {"name":"depthwise_4/filter_in","op":"Const","attr":{"dtype":{"type":"DT_FLOAT"},"value":{"tensor":{"dtype":"DT_FLOAT","tensorShape":{"dim":[{"size":"3"},{"size":"3"},{"size":"192"},{"size":"1"}]}}}}},
          {"name":"Add_9/y","op":"Const","attr":{"value":{"tensor":{"dtype":"DT_FLOAT","tensorShape":{"dim":[{"size":"192"}]}}},"dtype":{"type":"DT_FLOAT"}}},
          {"name":"Conv2D_9/filter","op":"Const","attr":{"value":{"tensor":{"dtype":"DT_FLOAT","tensorShape":{"dim":[{"size":"1"},{"size":"1"},{"size":"192"},{"size":"32"}]}}},"dtype":{"type":"DT_FLOAT"}}},
          {"name":"model_1/model/batch_normalization_11/FusedBatchNormV3_model_1/model/depthwise_conv2d_33/depthwise_model_1/model/conv2d_7/Conv2D1/y","op":"Const","attr":{"dtype":{"type":"DT_FLOAT"},"value":{"tensor":{"dtype":"DT_FLOAT","tensorShape":{"dim":[{"size":"32"}]}}}}},
          {"name":"Conv2D_6/filter","op":"Const","attr":{"value":{"tensor":{"dtype":"DT_FLOAT","tensorShape":{"dim":[{"size":"1"},{"size":"1"},{"size":"32"},{"size":"192"}]}}},"dtype":{"type":"DT_FLOAT"}}},
          {"name":"Add_6/y","op":"Const","attr":{"value":{"tensor":{"dtype":"DT_FLOAT","tensorShape":{"dim":[{"size":"192"}]}}},"dtype":{"type":"DT_FLOAT"}}},
          {"name":"depthwise_3/filter_in","op":"Const","attr":{"value":{"tensor":{"dtype":"DT_FLOAT","tensorShape":{"dim":[{"size":"3"},{"size":"3"},{"size":"192"},{"size":"1"}]}}},"dtype":{"type":"DT_FLOAT"}}},
          {"name":"Add_7/y","op":"Const","attr":{"value":{"tensor":{"dtype":"DT_FLOAT","tensorShape":{"dim":[{"size":"192"}]}}},"dtype":{"type":"DT_FLOAT"}}},
          {"name":"Conv2D_7/filter","op":"Const","attr":{"dtype":{"type":"DT_FLOAT"},"value":{"tensor":{"dtype":"DT_FLOAT","tensorShape":{"dim":[{"size":"1"},{"size":"1"},{"size":"192"},{"size":"32"}]}}}}},
          {"name":"model_1/model/batch_normalization_8/FusedBatchNormV3_model_1/model/depthwise_conv2d_33/depthwise_model_1/model/conv2d_5/Conv2D1/y","op":"Const","attr":{"value":{"tensor":{"dtype":"DT_FLOAT","tensorShape":{"dim":[{"size":"32"}]}}},"dtype":{"type":"DT_FLOAT"}}},
          {"name":"Conv2D_4/filter","op":"Const","attr":{"dtype":{"type":"DT_FLOAT"},"value":{"tensor":{"dtype":"DT_FLOAT","tensorShape":{"dim":[{"size":"1"},{"size":"1"},{"size":"32"},{"size":"128"}]}}}}},
          {"name":"Add_4/y","op":"Const","attr":{"value":{"tensor":{"dtype":"DT_FLOAT","tensorShape":{"dim":[{"size":"128"}]}}},"dtype":{"type":"DT_FLOAT"}}},
          {"name":"depthwise_2/filter_in","op":"Const","attr":{"value":{"tensor":{"dtype":"DT_FLOAT","tensorShape":{"dim":[{"size":"3"},{"size":"3"},{"size":"128"},{"size":"1"}]}}},"dtype":{"type":"DT_FLOAT"}}},
          {"name":"Add_5/y","op":"Const","attr":{"value":{"tensor":{"dtype":"DT_FLOAT","tensorShape":{"dim":[{"size":"128"}]}}},"dtype":{"type":"DT_FLOAT"}}},
          {"name":"Conv2D_5/filter","op":"Const","attr":{"dtype":{"type":"DT_FLOAT"},"value":{"tensor":{"dtype":"DT_FLOAT","tensorShape":{"dim":[{"size":"1"},{"size":"1"},{"size":"128"},{"size":"32"}]}}}}},
          {"name":"model_1/model/tf_op_layer_stem/Pad/stem/Pad/paddings","op":"Const","attr":{"dtype":{"type":"DT_INT32"},"value":{"tensor":{"dtype":"DT_INT32","tensorShape":{"dim":[{"size":"4"},{"size":"2"}]}}}}},
          {"name":"Conv2D/filter","op":"Const","attr":{"value":{"tensor":{"dtype":"DT_FLOAT","tensorShape":{"dim":[{"size":"3"},{"size":"3"},{"size":"3"},{"size":"24"}]}}},"dtype":{"type":"DT_FLOAT"}}},
          {"name":"Add/y","op":"Const","attr":{"value":{"tensor":{"dtype":"DT_FLOAT","tensorShape":{"dim":[{"size":"24"}]}}},"dtype":{"type":"DT_FLOAT"}}},
          {"name":"depthwise/filter_in","op":"Const","attr":{"value":{"tensor":{"dtype":"DT_FLOAT","tensorShape":{"dim":[{"size":"3"},{"size":"3"},{"size":"24"},{"size":"1"}]}}},"dtype":{"type":"DT_FLOAT"}}},
          {"name":"Add_1/y","op":"Const","attr":{"dtype":{"type":"DT_FLOAT"},"value":{"tensor":{"dtype":"DT_FLOAT","tensorShape":{"dim":[{"size":"24"}]}}}}},
          {"name":"Conv2D_1/filter","op":"Const","attr":{"dtype":{"type":"DT_FLOAT"},"value":{"tensor":{"dtype":"DT_FLOAT","tensorShape":{"dim":[{"size":"1"},{"size":"1"},{"size":"24"},{"size":"24"}]}}}}},
          {"name":"model_1/model/batch_normalization_2/FusedBatchNormV3_model_1/model/depthwise_conv2d_71/depthwise_model_1/model/conv2d_1/Conv2D1/y","op":"Const","attr":{"value":{"tensor":{"dtype":"DT_FLOAT","tensorShape":{"dim":[{"size":"24"}]}}},"dtype":{"type":"DT_FLOAT"}}},
          {"name":"Conv2D_2/filter","op":"Const","attr":{"value":{"tensor":{"dtype":"DT_FLOAT","tensorShape":{"dim":[{"size":"1"},{"size":"1"},{"size":"24"},{"size":"96"}]}}},"dtype":{"type":"DT_FLOAT"}}},
          {"name":"Add_2/y","op":"Const","attr":{"value":{"tensor":{"dtype":"DT_FLOAT","tensorShape":{"dim":[{"size":"96"}]}}},"dtype":{"type":"DT_FLOAT"}}},
          {"name":"model_1/model/tf_op_layer_blocks_1/Pad/blocks_1/Pad/paddings","op":"Const","attr":{"dtype":{"type":"DT_INT32"},"value":{"tensor":{"dtype":"DT_INT32","tensorShape":{"dim":[{"size":"4"},{"size":"2"}]}}}}},
          {"name":"depthwise_1/filter_in","op":"Const","attr":{"dtype":{"type":"DT_FLOAT"},"value":{"tensor":{"dtype":"DT_FLOAT","tensorShape":{"dim":[{"size":"3"},{"size":"3"},{"size":"96"},{"size":"1"}]}}}}},
          {"name":"Add_3/y","op":"Const","attr":{"value":{"tensor":{"dtype":"DT_FLOAT","tensorShape":{"dim":[{"size":"96"}]}}},"dtype":{"type":"DT_FLOAT"}}},
          {"name":"Conv2D_3/filter","op":"Const","attr":{"value":{"tensor":{"dtype":"DT_FLOAT","tensorShape":{"dim":[{"size":"1"},{"size":"1"},{"size":"96"},{"size":"32"}]}}},"dtype":{"type":"DT_FLOAT"}}},
          {"name":"model_1/model/batch_normalization_5/FusedBatchNormV3_model_1/model/depthwise_conv2d_33/depthwise_model_1/model/conv2d_3/Conv2D1/y","op":"Const","attr":{"dtype":{"type":"DT_FLOAT"},"value":{"tensor":{"dtype":"DT_FLOAT","tensorShape":{"dim":[{"size":"32"}]}}}}},
          {"name":"Conv2D_10/filter","op":"Const","attr":{"value":{"tensor":{"dtype":"DT_FLOAT","tensorShape":{"dim":[{"size":"1"},{"size":"1"},{"size":"32"},{"size":"192"}]}}},"dtype":{"type":"DT_FLOAT"}}},
          {"name":"Add_10/y","op":"Const","attr":{"dtype":{"type":"DT_FLOAT"},"value":{"tensor":{"dtype":"DT_FLOAT","tensorShape":{"dim":[{"size":"192"}]}}}}},
          {"name":"model_1/model/tf_op_layer_blocks_5/Pad/blocks_5/Pad/paddings","op":"Const","attr":{"dtype":{"type":"DT_INT32"},"value":{"tensor":{"dtype":"DT_INT32","tensorShape":{"dim":[{"size":"4"},{"size":"2"}]}}}}},
          {"name":"depthwise_5/filter_in","op":"Const","attr":{"value":{"tensor":{"dtype":"DT_FLOAT","tensorShape":{"dim":[{"size":"5"},{"size":"5"},{"size":"192"},{"size":"1"}]}}},"dtype":{"type":"DT_FLOAT"}}},
          {"name":"Add_11/y","op":"Const","attr":{"dtype":{"type":"DT_FLOAT"},"value":{"tensor":{"dtype":"DT_FLOAT","tensorShape":{"dim":[{"size":"192"}]}}}}},
          {"name":"Conv2D_11/filter","op":"Const","attr":{"value":{"tensor":{"dtype":"DT_FLOAT","tensorShape":{"dim":[{"size":"1"},{"size":"1"},{"size":"192"},{"size":"56"}]}}},"dtype":{"type":"DT_FLOAT"}}},
          {"name":"model_1/model/batch_normalization_17/FusedBatchNormV3_model_1/model/depthwise_conv2d_39/depthwise_model_1/model/conv2d_11/Conv2D1/y","op":"Const","attr":{"dtype":{"type":"DT_FLOAT"},"value":{"tensor":{"dtype":"DT_FLOAT","tensorShape":{"dim":[{"size":"56"}]}}}}},
          {"name":"Conv2D_18/filter","op":"Const","attr":{"dtype":{"type":"DT_FLOAT"},"value":{"tensor":{"dtype":"DT_FLOAT","tensorShape":{"dim":[{"size":"1"},{"size":"1"},{"size":"56"},{"size":"336"}]}}}}},
          {"name":"Add_18/y","op":"Const","attr":{"dtype":{"type":"DT_FLOAT"},"value":{"tensor":{"dtype":"DT_FLOAT","tensorShape":{"dim":[{"size":"336"}]}}}}},
          {"name":"model_1/model/tf_op_layer_blocks_9/Pad/blocks_9/Pad/paddings","op":"Const","attr":{"value":{"tensor":{"dtype":"DT_INT32","tensorShape":{"dim":[{"size":"4"},{"size":"2"}]}}},"dtype":{"type":"DT_INT32"}}},
          {"name":"depthwise_9/filter_in","op":"Const","attr":{"value":{"tensor":{"dtype":"DT_FLOAT","tensorShape":{"dim":[{"size":"3"},{"size":"3"},{"size":"336"},{"size":"1"}]}}},"dtype":{"type":"DT_FLOAT"}}},
          {"name":"Add_19/y","op":"Const","attr":{"value":{"tensor":{"dtype":"DT_FLOAT","tensorShape":{"dim":[{"size":"336"}]}}},"dtype":{"type":"DT_FLOAT"}}},
          {"name":"Conv2D_19/filter","op":"Const","attr":{"value":{"tensor":{"dtype":"DT_FLOAT","tensorShape":{"dim":[{"size":"1"},{"size":"1"},{"size":"336"},{"size":"112"}]}}},"dtype":{"type":"DT_FLOAT"}}},
          {"name":"model_1/model/batch_normalization_29/FusedBatchNormV3_model_1/model/conv2d_29/Conv2D_model_1/model/conv2d_19/Conv2D1/y","op":"Const","attr":{"dtype":{"type":"DT_FLOAT"},"value":{"tensor":{"dtype":"DT_FLOAT","tensorShape":{"dim":[{"size":"112"}]}}}}},
          {"name":"Conv2D_30/filter","op":"Const","attr":{"dtype":{"type":"DT_FLOAT"},"value":{"tensor":{"dtype":"DT_FLOAT","tensorShape":{"dim":[{"size":"1"},{"size":"1"},{"size":"112"},{"size":"672"}]}}}}},
          {"name":"Add_30/y","op":"Const","attr":{"dtype":{"type":"DT_FLOAT"},"value":{"tensor":{"dtype":"DT_FLOAT","tensorShape":{"dim":[{"size":"672"}]}}}}},
          {"name":"depthwise_15/filter_in","op":"Const","attr":{"dtype":{"type":"DT_FLOAT"},"value":{"tensor":{"dtype":"DT_FLOAT","tensorShape":{"dim":[{"size":"5"},{"size":"5"},{"size":"672"},{"size":"1"}]}}}}},
          {"name":"Add_31/y","op":"Const","attr":{"dtype":{"type":"DT_FLOAT"},"value":{"tensor":{"dtype":"DT_FLOAT","tensorShape":{"dim":[{"size":"672"}]}}}}},
          {"name":"Conv2D_31/filter","op":"Const","attr":{"value":{"tensor":{"dtype":"DT_FLOAT","tensorShape":{"dim":[{"size":"1"},{"size":"1"},{"size":"672"},{"size":"160"}]}}},"dtype":{"type":"DT_FLOAT"}}},
          {"name":"model_1/model/batch_normalization_47/FusedBatchNormV3_model_1/model/depthwise_conv2d_46/depthwise_model_1/model/conv2d_31/Conv2D1/y","op":"Const","attr":{"dtype":{"type":"DT_FLOAT"},"value":{"tensor":{"dtype":"DT_FLOAT","tensorShape":{"dim":[{"size":"160"}]}}}}},
          {"name":"Conv2D_42/filter","op":"Const","attr":{"value":{"tensor":{"dtype":"DT_FLOAT","tensorShape":{"dim":[{"size":"1"},{"size":"1"},{"size":"160"},{"size":"960"}]}}},"dtype":{"type":"DT_FLOAT"}}},
          {"name":"Add_42/y","op":"Const","attr":{"dtype":{"type":"DT_FLOAT"},"value":{"tensor":{"dtype":"DT_FLOAT","tensorShape":{"dim":[{"size":"960"}]}}}}},
          {"name":"model_1/model/tf_op_layer_blocks_21/Pad/blocks_21/Pad/paddings","op":"Const","attr":{"value":{"tensor":{"dtype":"DT_INT32","tensorShape":{"dim":[{"size":"4"},{"size":"2"}]}}},"dtype":{"type":"DT_INT32"}}},
          {"name":"depthwise_21/filter_in","op":"Const","attr":{"value":{"tensor":{"dtype":"DT_FLOAT","tensorShape":{"dim":[{"size":"5"},{"size":"5"},{"size":"960"},{"size":"1"}]}}},"dtype":{"type":"DT_FLOAT"}}},
          {"name":"Add_43/y","op":"Const","attr":{"dtype":{"type":"DT_FLOAT"},"value":{"tensor":{"dtype":"DT_FLOAT","tensorShape":{"dim":[{"size":"960"}]}}}}},
          {"name":"Conv2D_43/filter","op":"Const","attr":{"dtype":{"type":"DT_FLOAT"},"value":{"tensor":{"dtype":"DT_FLOAT","tensorShape":{"dim":[{"size":"1"},{"size":"1"},{"size":"960"},{"size":"272"}]}}}}},
          {"name":"model_1/model/batch_normalization_65/FusedBatchNormV3_model_1/model/conv2d_57/Conv2D_model_1/model/conv2d_43/Conv2D1/y","op":"Const","attr":{"value":{"tensor":{"dtype":"DT_FLOAT","tensorShape":{"dim":[{"size":"272"}]}}},"dtype":{"type":"DT_FLOAT"}}},
          {"name":"Conv2D_58/filter","op":"Const","attr":{"value":{"tensor":{"dtype":"DT_FLOAT","tensorShape":{"dim":[{"size":"1"},{"size":"1"},{"size":"272"},{"size":"1632"}]}}},"dtype":{"type":"DT_FLOAT"}}},
          {"name":"Add_58/y","op":"Const","attr":{"value":{"tensor":{"dtype":"DT_FLOAT","tensorShape":{"dim":[{"size":"1632"}]}}},"dtype":{"type":"DT_FLOAT"}}},
          {"name":"depthwise_29/filter_in","op":"Const","attr":{"value":{"tensor":{"dtype":"DT_FLOAT","tensorShape":{"dim":[{"size":"3"},{"size":"3"},{"size":"1632"},{"size":"1"}]}}},"dtype":{"type":"DT_FLOAT"}}},
          {"name":"Add_59/y","op":"Const","attr":{"dtype":{"type":"DT_FLOAT"},"value":{"tensor":{"dtype":"DT_FLOAT","tensorShape":{"dim":[{"size":"1632"}]}}}}},
          {"name":"depthwise_31/filter_in","op":"Const","attr":{"value":{"tensor":{"dtype":"DT_FLOAT","tensorShape":{"dim":[{"size":"3"},{"size":"3"},{"size":"1632"},{"size":"1"}]}}},"dtype":{"type":"DT_FLOAT"}}},
          {"name":"Conv2D_60/filter","op":"Const","attr":{"dtype":{"type":"DT_FLOAT"},"value":{"tensor":{"dtype":"DT_FLOAT","tensorShape":{"dim":[{"size":"1"},{"size":"1"},{"size":"1632"},{"size":"288"}]}}}}},
          {"name":"Add_61/y","op":"Const","attr":{"dtype":{"type":"DT_FLOAT"},"value":{"tensor":{"dtype":"DT_FLOAT","tensorShape":{"dim":[{"size":"288"}]}}}}},
          {"name":"depthwise_57/filter_in","op":"Const","attr":{"dtype":{"type":"DT_FLOAT"},"value":{"tensor":{"dtype":"DT_FLOAT","tensorShape":{"dim":[{"size":"3"},{"size":"3"},{"size":"288"},{"size":"1"}]}}}}},
          {"name":"Conv2D_86/filter","op":"Const","attr":{"dtype":{"type":"DT_FLOAT"},"value":{"tensor":{"dtype":"DT_FLOAT","tensorShape":{"dim":[{"size":"1"},{"size":"1"},{"size":"288"},{"size":"288"}]}}}}},
          {"name":"depthwise_58/filter_in","op":"Const","attr":{"value":{"tensor":{"dtype":"DT_FLOAT","tensorShape":{"dim":[{"size":"3"},{"size":"3"},{"size":"288"},{"size":"1"}]}}},"dtype":{"type":"DT_FLOAT"}}},
          {"name":"Conv2D_87/filter","op":"Const","attr":{"dtype":{"type":"DT_FLOAT"},"value":{"tensor":{"dtype":"DT_FLOAT","tensorShape":{"dim":[{"size":"1"},{"size":"1"},{"size":"288"},{"size":"288"}]}}}}},
          {"name":"depthwise_59/filter_in","op":"Const","attr":{"value":{"tensor":{"dtype":"DT_FLOAT","tensorShape":{"dim":[{"size":"3"},{"size":"3"},{"size":"288"},{"size":"1"}]}}},"dtype":{"type":"DT_FLOAT"}}},
          {"name":"Conv2D_88/filter","op":"Const","attr":{"dtype":{"type":"DT_FLOAT"},"value":{"tensor":{"dtype":"DT_FLOAT","tensorShape":{"dim":[{"size":"1"},{"size":"1"},{"size":"288"},{"size":"288"}]}}}}},
          {"name":"depthwise_60/filter_in","op":"Const","attr":{"dtype":{"type":"DT_FLOAT"},"value":{"tensor":{"dtype":"DT_FLOAT","tensorShape":{"dim":[{"size":"3"},{"size":"3"},{"size":"288"},{"size":"1"}]}}}}},
          {"name":"Conv2D_89/filter","op":"Const","attr":{"dtype":{"type":"DT_FLOAT"},"value":{"tensor":{"dtype":"DT_FLOAT","tensorShape":{"dim":[{"size":"1"},{"size":"1"},{"size":"288"},{"size":"288"}]}}}}},
          {"name":"depthwise_61/filter_in","op":"Const","attr":{"dtype":{"type":"DT_FLOAT"},"value":{"tensor":{"dtype":"DT_FLOAT","tensorShape":{"dim":[{"size":"3"},{"size":"3"},{"size":"288"},{"size":"1"}]}}}}},
          {"name":"Conv2D_90/filter","op":"Const","attr":{"value":{"tensor":{"dtype":"DT_FLOAT","tensorShape":{"dim":[{"size":"1"},{"size":"1"},{"size":"288"},{"size":"288"}]}}},"dtype":{"type":"DT_FLOAT"}}},
          {"name":"depthwise_62/filter_in","op":"Const","attr":{"value":{"tensor":{"dtype":"DT_FLOAT","tensorShape":{"dim":[{"size":"3"},{"size":"3"},{"size":"288"},{"size":"1"}]}}},"dtype":{"type":"DT_FLOAT"}}},
          {"name":"Conv2D_91/filter","op":"Const","attr":{"value":{"tensor":{"dtype":"DT_FLOAT","tensorShape":{"dim":[{"size":"1"},{"size":"1"},{"size":"288"},{"size":"288"}]}}},"dtype":{"type":"DT_FLOAT"}}},
          {"name":"depthwise_63/filter_in","op":"Const","attr":{"value":{"tensor":{"dtype":"DT_FLOAT","tensorShape":{"dim":[{"size":"3"},{"size":"3"},{"size":"288"},{"size":"1"}]}}},"dtype":{"type":"DT_FLOAT"}}},
          {"name":"Conv2D_92/filter","op":"Const","attr":{"value":{"tensor":{"dtype":"DT_FLOAT","tensorShape":{"dim":[{"size":"1"},{"size":"1"},{"size":"288"},{"size":"288"}]}}},"dtype":{"type":"DT_FLOAT"}}},
          {"name":"depthwise_64/filter_in","op":"Const","attr":{"value":{"tensor":{"dtype":"DT_FLOAT","tensorShape":{"dim":[{"size":"3"},{"size":"3"},{"size":"288"},{"size":"1"}]}}},"dtype":{"type":"DT_FLOAT"}}},
          {"name":"Conv2D_93/filter","op":"Const","attr":{"value":{"tensor":{"dtype":"DT_FLOAT","tensorShape":{"dim":[{"size":"1"},{"size":"1"},{"size":"288"},{"size":"288"}]}}},"dtype":{"type":"DT_FLOAT"}}},
          {"name":"depthwise_65/filter_in","op":"Const","attr":{"value":{"tensor":{"dtype":"DT_FLOAT","tensorShape":{"dim":[{"size":"3"},{"size":"3"},{"size":"288"},{"size":"1"}]}}},"dtype":{"type":"DT_FLOAT"}}},
          {"name":"Conv2D_94/filter","op":"Const","attr":{"value":{"tensor":{"dtype":"DT_FLOAT","tensorShape":{"dim":[{"size":"1"},{"size":"1"},{"size":"288"},{"size":"288"}]}}},"dtype":{"type":"DT_FLOAT"}}},
          {"name":"depthwise_66/filter_in","op":"Const","attr":{"value":{"tensor":{"dtype":"DT_FLOAT","tensorShape":{"dim":[{"size":"3"},{"size":"3"},{"size":"288"},{"size":"1"}]}}},"dtype":{"type":"DT_FLOAT"}}},
          {"name":"Conv2D_95/filter","op":"Const","attr":{"dtype":{"type":"DT_FLOAT"},"value":{"tensor":{"dtype":"DT_FLOAT","tensorShape":{"dim":[{"size":"1"},{"size":"1"},{"size":"288"},{"size":"288"}]}}}}},
          {"name":"depthwise_67/filter_in","op":"Const","attr":{"value":{"tensor":{"dtype":"DT_FLOAT","tensorShape":{"dim":[{"size":"3"},{"size":"3"},{"size":"288"},{"size":"1"}]}}},"dtype":{"type":"DT_FLOAT"}}},
          {"name":"Conv2D_96/filter","op":"Const","attr":{"value":{"tensor":{"dtype":"DT_FLOAT","tensorShape":{"dim":[{"size":"1"},{"size":"1"},{"size":"288"},{"size":"288"}]}}},"dtype":{"type":"DT_FLOAT"}}},
          {"name":"depthwise_68/filter_in","op":"Const","attr":{"value":{"tensor":{"dtype":"DT_FLOAT","tensorShape":{"dim":[{"size":"3"},{"size":"3"},{"size":"288"},{"size":"1"}]}}},"dtype":{"type":"DT_FLOAT"}}},
          {"name":"Conv2D_97/filter","op":"Const","attr":{"dtype":{"type":"DT_FLOAT"},"value":{"tensor":{"dtype":"DT_FLOAT","tensorShape":{"dim":[{"size":"1"},{"size":"1"},{"size":"288"},{"size":"288"}]}}}}},
          {"name":"depthwise_69/filter_in","op":"Const","attr":{"dtype":{"type":"DT_FLOAT"},"value":{"tensor":{"dtype":"DT_FLOAT","tensorShape":{"dim":[{"size":"3"},{"size":"3"},{"size":"288"},{"size":"1"}]}}}}},
          {"name":"Conv2D_98/filter","op":"Const","attr":{"dtype":{"type":"DT_FLOAT"},"value":{"tensor":{"dtype":"DT_FLOAT","tensorShape":{"dim":[{"size":"1"},{"size":"1"},{"size":"288"},{"size":"288"}]}}}}},
          {"name":"depthwise_70/filter_in","op":"Const","attr":{"dtype":{"type":"DT_FLOAT"},"value":{"tensor":{"dtype":"DT_FLOAT","tensorShape":{"dim":[{"size":"3"},{"size":"3"},{"size":"288"},{"size":"1"}]}}}}},
          {"name":"Conv2D_99/filter","op":"Const","attr":{"dtype":{"type":"DT_FLOAT"},"value":{"tensor":{"dtype":"DT_FLOAT","tensorShape":{"dim":[{"size":"1"},{"size":"1"},{"size":"288"},{"size":"288"}]}}}}},
          {"name":"depthwise_71/filter_in","op":"Const","attr":{"dtype":{"type":"DT_FLOAT"},"value":{"tensor":{"dtype":"DT_FLOAT","tensorShape":{"dim":[{"size":"3"},{"size":"3"},{"size":"288"},{"size":"1"}]}}}}},
          {"name":"Conv2D_100/filter","op":"Const","attr":{"value":{"tensor":{"dtype":"DT_FLOAT","tensorShape":{"dim":[{"size":"1"},{"size":"1"},{"size":"288"},{"size":"288"}]}}},"dtype":{"type":"DT_FLOAT"}}},
          {"name":"depthwise_72/filter_in","op":"Const","attr":{"value":{"tensor":{"dtype":"DT_FLOAT","tensorShape":{"dim":[{"size":"3"},{"size":"3"},{"size":"288"},{"size":"1"}]}}},"dtype":{"type":"DT_FLOAT"}}},
          {"name":"Conv2D_101/filter","op":"Const","attr":{"value":{"tensor":{"dtype":"DT_FLOAT","tensorShape":{"dim":[{"size":"1"},{"size":"1"},{"size":"288"},{"size":"288"}]}}},"dtype":{"type":"DT_FLOAT"}}},
          {"name":"Conv2D_103/filter","op":"Const","attr":{"dtype":{"type":"DT_FLOAT"},"value":{"tensor":{"dtype":"DT_FLOAT","tensorShape":{"dim":[{"size":"2"},{"size":"2"},{"size":"288"},{"size":"117"}]}}}}},
          {"name":"model_1/model/convworld_3d/BiasAdd_model_1/model/convworld_3d/Conv2D_model_1/model/convworld_3d/BiasAdd/ReadVariableOp/resource1/y","op":"Const","attr":{"value":{"tensor":{"dtype":"DT_FLOAT","tensorShape":{"dim":[{"size":"117"}]}}},"dtype":{"type":"DT_FLOAT"}}},
          {"name":"Identity_4/shape","op":"Const","attr":{"dtype":{"type":"DT_INT32"},"value":{"tensor":{"dtype":"DT_INT32","tensorShape":{"dim":[{"size":"2"}]}}}}},
          {"name":"input_1","op":"Placeholder","attr":{"shape":{"shape":{"dim":[{"size":"1"},{"size":"256"},{"size":"256"},{"size":"3"}]}},"dtype":{"type":"DT_FLOAT"}}},
          {"name":"model_1/model/tf_op_layer_stem/Pad/stem/Pad","op":"Pad","input":["input_1","model_1/model/tf_op_layer_stem/Pad/stem/Pad/paddings"],"attr":{"Tpaddings":{"type":"DT_INT32"},"T":{"type":"DT_FLOAT"}}},
          {"name":"Conv2D","op":"Conv2D","input":["model_1/model/tf_op_layer_stem/Pad/stem/Pad","Conv2D/filter"],"device":"/device:CPU:0","attr":{"explicit_paddings":{"list":{}},"strides":{"list":{"i":["1","2","2","1"]}},"use_cudnn_on_gpu":{"b":true},"padding":{"s":"VkFMSUQ="},"T":{"type":"DT_FLOAT"},"data_format":{"s":"TkhXQw=="},"dilations":{"list":{"i":["1","1","1","1"]}}}},
          {"name":"Add","op":"Add","input":["Conv2D","Add/y"],"attr":{"T":{"type":"DT_FLOAT"}}},
          {"name":"model_1/model/re_lu/Relu6_model_1/model/batch_normalization/FusedBatchNormV3_model_1/model/batch_normalization_1/FusedBatchNormV3_model_1/model/depthwise_conv2d/depthwise_model_1/model/depthwise_conv2d_71/depthwise_model_1/model/conv2d/Conv2D","op":"Relu6","input":["Add"],"attr":{"T":{"type":"DT_FLOAT"}}},
          {"name":"depthwise","op":"DepthwiseConv2dNative","input":["model_1/model/re_lu/Relu6_model_1/model/batch_normalization/FusedBatchNormV3_model_1/model/batch_normalization_1/FusedBatchNormV3_model_1/model/depthwise_conv2d/depthwise_model_1/model/depthwise_conv2d_71/depthwise_model_1/model/conv2d/Conv2D","depthwise/filter_in"],"attr":{"T":{"type":"DT_FLOAT"},"strides":{"list":{"i":["1","1","1","1"]}},"padding":{"s":"U0FNRQ=="},"dilations":{"list":{"i":["1","1","1","1"]}},"explicit_paddings":{"list":{}},"data_format":{"s":"TkhXQw=="}}},
          {"name":"Add_1","op":"Add","input":["depthwise","Add_1/y"],"attr":{"T":{"type":"DT_FLOAT"}}},
          {"name":"model_1/model/re_lu_1/Relu6_model_1/model/batch_normalization_1/FusedBatchNormV3_model_1/model/depthwise_conv2d/depthwise_model_1/model/depthwise_conv2d_71/depthwise","op":"Relu6","input":["Add_1"],"attr":{"T":{"type":"DT_FLOAT"}}},
          {"name":"Conv2D_1","op":"Conv2D","input":["model_1/model/re_lu_1/Relu6_model_1/model/batch_normalization_1/FusedBatchNormV3_model_1/model/depthwise_conv2d/depthwise_model_1/model/depthwise_conv2d_71/depthwise","Conv2D_1/filter"],"device":"/device:CPU:0","attr":{"explicit_paddings":{"list":{}},"use_cudnn_on_gpu":{"b":true},"padding":{"s":"U0FNRQ=="},"data_format":{"s":"TkhXQw=="},"T":{"type":"DT_FLOAT"},"strides":{"list":{"i":["1","1","1","1"]}},"dilations":{"list":{"i":["1","1","1","1"]}}}},
          {"name":"model_1/model/batch_normalization_2/FusedBatchNormV3_model_1/model/depthwise_conv2d_71/depthwise_model_1/model/conv2d_1/Conv2D1","op":"Add","input":["Conv2D_1","model_1/model/batch_normalization_2/FusedBatchNormV3_model_1/model/depthwise_conv2d_71/depthwise_model_1/model/conv2d_1/Conv2D1/y"],"attr":{"T":{"type":"DT_FLOAT"}}},
          {"name":"depthwise_37","op":"DepthwiseConv2dNative","input":["model_1/model/batch_normalization_2/FusedBatchNormV3_model_1/model/depthwise_conv2d_71/depthwise_model_1/model/conv2d_1/Conv2D1","depthwise_37/filter_in"],"attr":{"dilations":{"list":{"i":["1","1","1","1"]}},"data_format":{"s":"TkhXQw=="},"strides":{"list":{"i":["1","1","1","1"]}},"T":{"type":"DT_FLOAT"},"padding":{"s":"U0FNRQ=="},"explicit_paddings":{"list":{}}}},
          {"name":"Conv2D_2","op":"Conv2D","input":["model_1/model/batch_normalization_2/FusedBatchNormV3_model_1/model/depthwise_conv2d_71/depthwise_model_1/model/conv2d_1/Conv2D1","Conv2D_2/filter"],"device":"/device:CPU:0","attr":{"use_cudnn_on_gpu":{"b":true},"T":{"type":"DT_FLOAT"},"padding":{"s":"U0FNRQ=="},"strides":{"list":{"i":["1","1","1","1"]}},"data_format":{"s":"TkhXQw=="},"dilations":{"list":{"i":["1","1","1","1"]}},"explicit_paddings":{"list":{}}}},
          {"name":"Conv2D_66","op":"Conv2D","input":["depthwise_37","Conv2D_66/filter"],"device":"/device:CPU:0","attr":{"T":{"type":"DT_FLOAT"},"padding":{"s":"VkFMSUQ="},"dilations":{"list":{"i":["1","1","1","1"]}},"strides":{"list":{"i":["1","1","1","1"]}},"use_cudnn_on_gpu":{"b":true},"explicit_paddings":{"list":{}},"data_format":{"s":"TkhXQw=="}}},
          {"name":"Add_2","op":"Add","input":["Conv2D_2","Add_2/y"],"attr":{"T":{"type":"DT_FLOAT"}}},
          {"name":"Add_67","op":"Add","input":["Conv2D_66","Add_67/y"],"attr":{"T":{"type":"DT_FLOAT"}}},
          {"name":"model_1/model/re_lu_2/Relu6_model_1/model/batch_normalization_3/FusedBatchNormV3_model_1/model/batch_normalization_4/FusedBatchNormV3_model_1/model/depthwise_conv2d_1/depthwise_model_1/model/depthwise_conv2d_40/depthwise_model_1/model/conv2d_2/Conv2D","op":"Relu6","input":["Add_2"],"attr":{"T":{"type":"DT_FLOAT"}}},
          {"name":"model_1/model/activation_41/Relu_model_1/model/batch_normalization_130/FusedBatchNormV3_model_1/model/conv2d_100/BiasAdd/ReadVariableOp/resource_model_1/model/conv2d_100/BiasAdd_model_1/model/conv2d_102/Conv2D_model_1/model/conv2d_100/Conv2D1","op":"Relu","input":["Add_67"],"attr":{"T":{"type":"DT_FLOAT"}}},
          {"name":"model_1/model/tf_op_layer_blocks_1/Pad/blocks_1/Pad","op":"Pad","input":["model_1/model/re_lu_2/Relu6_model_1/model/batch_normalization_3/FusedBatchNormV3_model_1/model/batch_normalization_4/FusedBatchNormV3_model_1/model/depthwise_conv2d_1/depthwise_model_1/model/depthwise_conv2d_40/depthwise_model_1/model/conv2d_2/Conv2D","model_1/model/tf_op_layer_blocks_1/Pad/blocks_1/Pad/paddings"],"attr":{"Tpaddings":{"type":"DT_INT32"},"T":{"type":"DT_FLOAT"}}},
          {"name":"depthwise_1","op":"DepthwiseConv2dNative","input":["model_1/model/tf_op_layer_blocks_1/Pad/blocks_1/Pad","depthwise_1/filter_in"],"attr":{"explicit_paddings":{"list":{}},"data_format":{"s":"TkhXQw=="},"strides":{"list":{"i":["1","2","2","1"]}},"padding":{"s":"VkFMSUQ="},"T":{"type":"DT_FLOAT"},"dilations":{"list":{"i":["1","1","1","1"]}}}},
          {"name":"Add_3","op":"Add","input":["depthwise_1","Add_3/y"],"attr":{"T":{"type":"DT_FLOAT"}}},
          {"name":"model_1/model/re_lu_3/Relu6_model_1/model/batch_normalization_4/FusedBatchNormV3_model_1/model/depthwise_conv2d_1/depthwise_model_1/model/depthwise_conv2d_40/depthwise","op":"Relu6","input":["Add_3"],"attr":{"T":{"type":"DT_FLOAT"}}},
          {"name":"Conv2D_3","op":"Conv2D","input":["model_1/model/re_lu_3/Relu6_model_1/model/batch_normalization_4/FusedBatchNormV3_model_1/model/depthwise_conv2d_1/depthwise_model_1/model/depthwise_conv2d_40/depthwise","Conv2D_3/filter"],"device":"/device:CPU:0","attr":{"dilations":{"list":{"i":["1","1","1","1"]}},"data_format":{"s":"TkhXQw=="},"padding":{"s":"U0FNRQ=="},"strides":{"list":{"i":["1","1","1","1"]}},"use_cudnn_on_gpu":{"b":true},"T":{"type":"DT_FLOAT"},"explicit_paddings":{"list":{}}}},
          {"name":"model_1/model/batch_normalization_5/FusedBatchNormV3_model_1/model/depthwise_conv2d_33/depthwise_model_1/model/conv2d_3/Conv2D1","op":"Add","input":["Conv2D_3","model_1/model/batch_normalization_5/FusedBatchNormV3_model_1/model/depthwise_conv2d_33/depthwise_model_1/model/conv2d_3/Conv2D1/y"],"attr":{"T":{"type":"DT_FLOAT"}}},
          {"name":"Conv2D_4","op":"Conv2D","input":["model_1/model/batch_normalization_5/FusedBatchNormV3_model_1/model/depthwise_conv2d_33/depthwise_model_1/model/conv2d_3/Conv2D1","Conv2D_4/filter"],"device":"/device:CPU:0","attr":{"dilations":{"list":{"i":["1","1","1","1"]}},"data_format":{"s":"TkhXQw=="},"use_cudnn_on_gpu":{"b":true},"strides":{"list":{"i":["1","1","1","1"]}},"explicit_paddings":{"list":{}},"padding":{"s":"U0FNRQ=="},"T":{"type":"DT_FLOAT"}}},
          {"name":"Add_4","op":"Add","input":["Conv2D_4","Add_4/y"],"attr":{"T":{"type":"DT_FLOAT"}}},
          {"name":"model_1/model/re_lu_4/Relu6_model_1/model/batch_normalization_6/FusedBatchNormV3_model_1/model/batch_normalization_7/FusedBatchNormV3_model_1/model/depthwise_conv2d_2/depthwise_model_1/model/conv2d_4/Conv2D","op":"Relu6","input":["Add_4"],"attr":{"T":{"type":"DT_FLOAT"}}},
          {"name":"depthwise_2","op":"DepthwiseConv2dNative","input":["model_1/model/re_lu_4/Relu6_model_1/model/batch_normalization_6/FusedBatchNormV3_model_1/model/batch_normalization_7/FusedBatchNormV3_model_1/model/depthwise_conv2d_2/depthwise_model_1/model/conv2d_4/Conv2D","depthwise_2/filter_in"],"attr":{"explicit_paddings":{"list":{}},"dilations":{"list":{"i":["1","1","1","1"]}},"data_format":{"s":"TkhXQw=="},"strides":{"list":{"i":["1","1","1","1"]}},"T":{"type":"DT_FLOAT"},"padding":{"s":"U0FNRQ=="}}},
          {"name":"Add_5","op":"Add","input":["depthwise_2","Add_5/y"],"attr":{"T":{"type":"DT_FLOAT"}}},
          {"name":"model_1/model/re_lu_5/Relu6_model_1/model/batch_normalization_7/FusedBatchNormV3_model_1/model/depthwise_conv2d_2/depthwise","op":"Relu6","input":["Add_5"],"attr":{"T":{"type":"DT_FLOAT"}}},
          {"name":"Conv2D_5","op":"Conv2D","input":["model_1/model/re_lu_5/Relu6_model_1/model/batch_normalization_7/FusedBatchNormV3_model_1/model/depthwise_conv2d_2/depthwise","Conv2D_5/filter"],"device":"/device:CPU:0","attr":{"dilations":{"list":{"i":["1","1","1","1"]}},"data_format":{"s":"TkhXQw=="},"padding":{"s":"U0FNRQ=="},"strides":{"list":{"i":["1","1","1","1"]}},"T":{"type":"DT_FLOAT"},"explicit_paddings":{"list":{}},"use_cudnn_on_gpu":{"b":true}}},
          {"name":"model_1/model/add/ArithmeticOptimizer/AddOpsRewrite_Leaf_1_add","op":"AddN","input":["Conv2D_5","model_1/model/batch_normalization_5/FusedBatchNormV3_model_1/model/depthwise_conv2d_33/depthwise_model_1/model/conv2d_3/Conv2D1"],"attr":{"T":{"type":"DT_FLOAT"},"N":{"i":"2"},"_grappler_ArithmeticOptimizer_AddOpsRewriteStage":{"b":true}}},
          {"name":"model_1/model/add/ArithmeticOptimizer/AddOpsRewrite_add","op":"AddV2","input":["model_1/model/batch_normalization_8/FusedBatchNormV3_model_1/model/depthwise_conv2d_33/depthwise_model_1/model/conv2d_5/Conv2D1/y","model_1/model/add/ArithmeticOptimizer/AddOpsRewrite_Leaf_1_add"],"attr":{"T":{"type":"DT_FLOAT"},"_grappler_ArithmeticOptimizer_AddOpsRewriteStage":{"b":true}}},
          {"name":"Conv2D_6","op":"Conv2D","input":["model_1/model/add/ArithmeticOptimizer/AddOpsRewrite_add","Conv2D_6/filter"],"device":"/device:CPU:0","attr":{"data_format":{"s":"TkhXQw=="},"dilations":{"list":{"i":["1","1","1","1"]}},"T":{"type":"DT_FLOAT"},"explicit_paddings":{"list":{}},"padding":{"s":"U0FNRQ=="},"strides":{"list":{"i":["1","1","1","1"]}},"use_cudnn_on_gpu":{"b":true}}},
          {"name":"Add_6","op":"Add","input":["Conv2D_6","Add_6/y"],"attr":{"T":{"type":"DT_FLOAT"}}},
          {"name":"model_1/model/re_lu_6/Relu6_model_1/model/batch_normalization_9/FusedBatchNormV3_model_1/model/batch_normalization_16/FusedBatchNormV3_model_1/model/depthwise_conv2d_5/depthwise_model_1/model/depthwise_conv2d_47/depthwise_model_1/model/conv2d_6/Conv2D","op":"Relu6","input":["Add_6"],"attr":{"T":{"type":"DT_FLOAT"}}},
          {"name":"depthwise_3","op":"DepthwiseConv2dNative","input":["model_1/model/re_lu_6/Relu6_model_1/model/batch_normalization_9/FusedBatchNormV3_model_1/model/batch_normalization_16/FusedBatchNormV3_model_1/model/depthwise_conv2d_5/depthwise_model_1/model/depthwise_conv2d_47/depthwise_model_1/model/conv2d_6/Conv2D","depthwise_3/filter_in"],"attr":{"explicit_paddings":{"list":{}},"T":{"type":"DT_FLOAT"},"strides":{"list":{"i":["1","1","1","1"]}},"data_format":{"s":"TkhXQw=="},"dilations":{"list":{"i":["1","1","1","1"]}},"padding":{"s":"U0FNRQ=="}}},
          {"name":"Add_7","op":"Add","input":["depthwise_3","Add_7/y"],"attr":{"T":{"type":"DT_FLOAT"}}},
          {"name":"model_1/model/re_lu_7/Relu6_model_1/model/batch_normalization_10/FusedBatchNormV3_model_1/model/depthwise_conv2d_3/depthwise_model_1/model/depthwise_conv2d_47/depthwise","op":"Relu6","input":["Add_7"],"attr":{"T":{"type":"DT_FLOAT"}}},
          {"name":"Conv2D_7","op":"Conv2D","input":["model_1/model/re_lu_7/Relu6_model_1/model/batch_normalization_10/FusedBatchNormV3_model_1/model/depthwise_conv2d_3/depthwise_model_1/model/depthwise_conv2d_47/depthwise","Conv2D_7/filter"],"device":"/device:CPU:0","attr":{"strides":{"list":{"i":["1","1","1","1"]}},"use_cudnn_on_gpu":{"b":true},"dilations":{"list":{"i":["1","1","1","1"]}},"explicit_paddings":{"list":{}},"data_format":{"s":"TkhXQw=="},"padding":{"s":"U0FNRQ=="},"T":{"type":"DT_FLOAT"}}},
          {"name":"model_1/model/add_1/ArithmeticOptimizer/AddOpsRewrite_Leaf_1_add","op":"AddN","input":["Conv2D_7","model_1/model/add/ArithmeticOptimizer/AddOpsRewrite_add"],"attr":{"T":{"type":"DT_FLOAT"},"_grappler_ArithmeticOptimizer_AddOpsRewriteStage":{"b":true},"N":{"i":"2"}}},
          {"name":"model_1/model/add_1/ArithmeticOptimizer/AddOpsRewrite_add","op":"AddV2","input":["model_1/model/batch_normalization_11/FusedBatchNormV3_model_1/model/depthwise_conv2d_33/depthwise_model_1/model/conv2d_7/Conv2D1/y","model_1/model/add_1/ArithmeticOptimizer/AddOpsRewrite_Leaf_1_add"],"attr":{"T":{"type":"DT_FLOAT"},"_grappler_ArithmeticOptimizer_AddOpsRewriteStage":{"b":true}}},
          {"name":"Conv2D_8","op":"Conv2D","input":["model_1/model/add_1/ArithmeticOptimizer/AddOpsRewrite_add","Conv2D_8/filter"],"device":"/device:CPU:0","attr":{"T":{"type":"DT_FLOAT"},"data_format":{"s":"TkhXQw=="},"explicit_paddings":{"list":{}},"dilations":{"list":{"i":["1","1","1","1"]}},"padding":{"s":"U0FNRQ=="},"use_cudnn_on_gpu":{"b":true},"strides":{"list":{"i":["1","1","1","1"]}}}},
          {"name":"Add_8","op":"Add","input":["Conv2D_8","Add_8/y"],"attr":{"T":{"type":"DT_FLOAT"}}},
          {"name":"model_1/model/re_lu_8/Relu6_model_1/model/batch_normalization_12/FusedBatchNormV3_model_1/model/batch_normalization_16/FusedBatchNormV3_model_1/model/depthwise_conv2d_5/depthwise_model_1/model/depthwise_conv2d_47/depthwise_model_1/model/conv2d_8/Conv2D","op":"Relu6","input":["Add_8"],"attr":{"T":{"type":"DT_FLOAT"}}},
          {"name":"depthwise_4","op":"DepthwiseConv2dNative","input":["model_1/model/re_lu_8/Relu6_model_1/model/batch_normalization_12/FusedBatchNormV3_model_1/model/batch_normalization_16/FusedBatchNormV3_model_1/model/depthwise_conv2d_5/depthwise_model_1/model/depthwise_conv2d_47/depthwise_model_1/model/conv2d_8/Conv2D","depthwise_4/filter_in"],"attr":{"dilations":{"list":{"i":["1","1","1","1"]}},"explicit_paddings":{"list":{}},"strides":{"list":{"i":["1","1","1","1"]}},"data_format":{"s":"TkhXQw=="},"padding":{"s":"U0FNRQ=="},"T":{"type":"DT_FLOAT"}}},
          {"name":"Add_9","op":"Add","input":["depthwise_4","Add_9/y"],"attr":{"T":{"type":"DT_FLOAT"}}},
          {"name":"model_1/model/re_lu_9/Relu6_model_1/model/batch_normalization_13/FusedBatchNormV3_model_1/model/batch_normalization_16/FusedBatchNormV3_model_1/model/depthwise_conv2d_5/depthwise_model_1/model/depthwise_conv2d_47/depthwise_model_1/model/depthwise_conv2d_4/depthwise","op":"Relu6","input":["Add_9"],"attr":{"T":{"type":"DT_FLOAT"}}},
          {"name":"Conv2D_9","op":"Conv2D","input":["model_1/model/re_lu_9/Relu6_model_1/model/batch_normalization_13/FusedBatchNormV3_model_1/model/batch_normalization_16/FusedBatchNormV3_model_1/model/depthwise_conv2d_5/depthwise_model_1/model/depthwise_conv2d_47/depthwise_model_1/model/depthwise_conv2d_4/depthwise","Conv2D_9/filter"],"device":"/device:CPU:0","attr":{"data_format":{"s":"TkhXQw=="},"explicit_paddings":{"list":{}},"T":{"type":"DT_FLOAT"},"padding":{"s":"U0FNRQ=="},"dilations":{"list":{"i":["1","1","1","1"]}},"use_cudnn_on_gpu":{"b":true},"strides":{"list":{"i":["1","1","1","1"]}}}},
          {"name":"model_1/model/add_2/ArithmeticOptimizer/AddOpsRewrite_Leaf_1_add","op":"AddN","input":["Conv2D_9","model_1/model/add_1/ArithmeticOptimizer/AddOpsRewrite_add"],"attr":{"_grappler_ArithmeticOptimizer_AddOpsRewriteStage":{"b":true},"T":{"type":"DT_FLOAT"},"N":{"i":"2"}}},
          {"name":"model_1/model/add_2/ArithmeticOptimizer/AddOpsRewrite_add","op":"AddV2","input":["model_1/model/batch_normalization_14/FusedBatchNormV3_model_1/model/depthwise_conv2d_33/depthwise_model_1/model/conv2d_9/Conv2D1/y","model_1/model/add_2/ArithmeticOptimizer/AddOpsRewrite_Leaf_1_add"],"attr":{"_grappler_ArithmeticOptimizer_AddOpsRewriteStage":{"b":true},"T":{"type":"DT_FLOAT"}}},
          {"name":"depthwise_36","op":"DepthwiseConv2dNative","input":["model_1/model/add_2/ArithmeticOptimizer/AddOpsRewrite_add","depthwise_36/filter_in"],"attr":{"explicit_paddings":{"list":{}},"dilations":{"list":{"i":["1","1","1","1"]}},"strides":{"list":{"i":["1","1","1","1"]}},"T":{"type":"DT_FLOAT"},"padding":{"s":"U0FNRQ=="},"data_format":{"s":"TkhXQw=="}}},
          {"name":"Conv2D_10","op":"Conv2D","input":["model_1/model/add_2/ArithmeticOptimizer/AddOpsRewrite_add","Conv2D_10/filter"],"device":"/device:CPU:0","attr":{"explicit_paddings":{"list":{}},"data_format":{"s":"TkhXQw=="},"use_cudnn_on_gpu":{"b":true},"padding":{"s":"U0FNRQ=="},"strides":{"list":{"i":["1","1","1","1"]}},"dilations":{"list":{"i":["1","1","1","1"]}},"T":{"type":"DT_FLOAT"}}},
          {"name":"Conv2D_65","op":"Conv2D","input":["depthwise_36","Conv2D_65/filter"],"device":"/device:CPU:0","attr":{"dilations":{"list":{"i":["1","1","1","1"]}},"T":{"type":"DT_FLOAT"},"use_cudnn_on_gpu":{"b":true},"strides":{"list":{"i":["1","1","1","1"]}},"data_format":{"s":"TkhXQw=="},"explicit_paddings":{"list":{}},"padding":{"s":"VkFMSUQ="}}},
          {"name":"Add_10","op":"Add","input":["Conv2D_10","Add_10/y"],"attr":{"T":{"type":"DT_FLOAT"}}},
          {"name":"Add_66","op":"Add","input":["Conv2D_65","Add_66/y"],"attr":{"T":{"type":"DT_FLOAT"}}},
          {"name":"model_1/model/re_lu_10/Relu6_model_1/model/batch_normalization_15/FusedBatchNormV3_model_1/model/batch_normalization_16/FusedBatchNormV3_model_1/model/depthwise_conv2d_5/depthwise_model_1/model/depthwise_conv2d_47/depthwise_model_1/model/conv2d_10/Conv2D","op":"Relu6","input":["Add_10"],"attr":{"T":{"type":"DT_FLOAT"}}},
          {"name":"model_1/model/activation_3/Relu_model_1/model/batch_normalization_92/FusedBatchNormV3_model_1/model/conv2d_62/BiasAdd/ReadVariableOp/resource_model_1/model/conv2d_62/BiasAdd_model_1/model/depthwise_conv2d_72/depthwise_model_1/model/conv2d_62/Conv2D1","op":"Relu","input":["Add_66"],"attr":{"T":{"type":"DT_FLOAT"}}},
          {"name":"model_1/model/tf_op_layer_blocks_5/Pad/blocks_5/Pad","op":"Pad","input":["model_1/model/re_lu_10/Relu6_model_1/model/batch_normalization_15/FusedBatchNormV3_model_1/model/batch_normalization_16/FusedBatchNormV3_model_1/model/depthwise_conv2d_5/depthwise_model_1/model/depthwise_conv2d_47/depthwise_model_1/model/conv2d_10/Conv2D","model_1/model/tf_op_layer_blocks_5/Pad/blocks_5/Pad/paddings"],"attr":{"Tpaddings":{"type":"DT_INT32"},"T":{"type":"DT_FLOAT"}}},
          {"name":"depthwise_5","op":"DepthwiseConv2dNative","input":["model_1/model/tf_op_layer_blocks_5/Pad/blocks_5/Pad","depthwise_5/filter_in"],"attr":{"strides":{"list":{"i":["1","2","2","1"]}},"T":{"type":"DT_FLOAT"},"explicit_paddings":{"list":{}},"dilations":{"list":{"i":["1","1","1","1"]}},"padding":{"s":"VkFMSUQ="},"data_format":{"s":"TkhXQw=="}}},
          {"name":"Add_11","op":"Add","input":["depthwise_5","Add_11/y"],"attr":{"T":{"type":"DT_FLOAT"}}},
          {"name":"model_1/model/re_lu_11/Relu6_model_1/model/batch_normalization_16/FusedBatchNormV3_model_1/model/depthwise_conv2d_5/depthwise_model_1/model/depthwise_conv2d_47/depthwise","op":"Relu6","input":["Add_11"],"attr":{"T":{"type":"DT_FLOAT"}}},
          {"name":"Conv2D_11","op":"Conv2D","input":["model_1/model/re_lu_11/Relu6_model_1/model/batch_normalization_16/FusedBatchNormV3_model_1/model/depthwise_conv2d_5/depthwise_model_1/model/depthwise_conv2d_47/depthwise","Conv2D_11/filter"],"device":"/device:CPU:0","attr":{"T":{"type":"DT_FLOAT"},"data_format":{"s":"TkhXQw=="},"explicit_paddings":{"list":{}},"use_cudnn_on_gpu":{"b":true},"dilations":{"list":{"i":["1","1","1","1"]}},"strides":{"list":{"i":["1","1","1","1"]}},"padding":{"s":"U0FNRQ=="}}},
          {"name":"model_1/model/batch_normalization_17/FusedBatchNormV3_model_1/model/depthwise_conv2d_39/depthwise_model_1/model/conv2d_11/Conv2D1","op":"Add","input":["Conv2D_11","model_1/model/batch_normalization_17/FusedBatchNormV3_model_1/model/depthwise_conv2d_39/depthwise_model_1/model/conv2d_11/Conv2D1/y"],"attr":{"T":{"type":"DT_FLOAT"}}},
          {"name":"Conv2D_12","op":"Conv2D","input":["model_1/model/batch_normalization_17/FusedBatchNormV3_model_1/model/depthwise_conv2d_39/depthwise_model_1/model/conv2d_11/Conv2D1","Conv2D_12/filter"],"device":"/device:CPU:0","attr":{"data_format":{"s":"TkhXQw=="},"use_cudnn_on_gpu":{"b":true},"strides":{"list":{"i":["1","1","1","1"]}},"T":{"type":"DT_FLOAT"},"dilations":{"list":{"i":["1","1","1","1"]}},"explicit_paddings":{"list":{}},"padding":{"s":"U0FNRQ=="}}},
          {"name":"Add_12","op":"Add","input":["Conv2D_12","Add_12/y"],"attr":{"T":{"type":"DT_FLOAT"}}},
          {"name":"model_1/model/re_lu_12/Relu6_model_1/model/batch_normalization_18/FusedBatchNormV3_model_1/model/batch_normalization_25/FusedBatchNormV3_model_1/model/depthwise_conv2d_8/depthwise_model_1/model/depthwise_conv2d_9/depthwise_model_1/model/conv2d_12/Conv2D","op":"Relu6","input":["Add_12"],"attr":{"T":{"type":"DT_FLOAT"}}},
          {"name":"depthwise_6","op":"DepthwiseConv2dNative","input":["model_1/model/re_lu_12/Relu6_model_1/model/batch_normalization_18/FusedBatchNormV3_model_1/model/batch_normalization_25/FusedBatchNormV3_model_1/model/depthwise_conv2d_8/depthwise_model_1/model/depthwise_conv2d_9/depthwise_model_1/model/conv2d_12/Conv2D","depthwise_6/filter_in"],"attr":{"explicit_paddings":{"list":{}},"T":{"type":"DT_FLOAT"},"dilations":{"list":{"i":["1","1","1","1"]}},"strides":{"list":{"i":["1","1","1","1"]}},"data_format":{"s":"TkhXQw=="},"padding":{"s":"U0FNRQ=="}}},
          {"name":"Add_13","op":"Add","input":["depthwise_6","Add_13/y"],"attr":{"T":{"type":"DT_FLOAT"}}},
          {"name":"model_1/model/re_lu_13/Relu6_model_1/model/batch_normalization_19/FusedBatchNormV3_model_1/model/batch_normalization_25/FusedBatchNormV3_model_1/model/depthwise_conv2d_8/depthwise_model_1/model/depthwise_conv2d_9/depthwise_model_1/model/depthwise_conv2d_6/depthwise","op":"Relu6","input":["Add_13"],"attr":{"T":{"type":"DT_FLOAT"}}},
          {"name":"Conv2D_13","op":"Conv2D","input":["model_1/model/re_lu_13/Relu6_model_1/model/batch_normalization_19/FusedBatchNormV3_model_1/model/batch_normalization_25/FusedBatchNormV3_model_1/model/depthwise_conv2d_8/depthwise_model_1/model/depthwise_conv2d_9/depthwise_model_1/model/depthwise_conv2d_6/depthwise","Conv2D_13/filter"],"device":"/device:CPU:0","attr":{"explicit_paddings":{"list":{}},"strides":{"list":{"i":["1","1","1","1"]}},"data_format":{"s":"TkhXQw=="},"dilations":{"list":{"i":["1","1","1","1"]}},"T":{"type":"DT_FLOAT"},"padding":{"s":"U0FNRQ=="},"use_cudnn_on_gpu":{"b":true}}},
          {"name":"model_1/model/add_3/ArithmeticOptimizer/AddOpsRewrite_Leaf_1_add","op":"AddN","input":["Conv2D_13","model_1/model/batch_normalization_17/FusedBatchNormV3_model_1/model/depthwise_conv2d_39/depthwise_model_1/model/conv2d_11/Conv2D1"],"attr":{"T":{"type":"DT_FLOAT"},"_grappler_ArithmeticOptimizer_AddOpsRewriteStage":{"b":true},"N":{"i":"2"}}},
          {"name":"model_1/model/add_3/ArithmeticOptimizer/AddOpsRewrite_add","op":"AddV2","input":["model_1/model/batch_normalization_20/FusedBatchNormV3_model_1/model/depthwise_conv2d_39/depthwise_model_1/model/conv2d_13/Conv2D1/y","model_1/model/add_3/ArithmeticOptimizer/AddOpsRewrite_Leaf_1_add"],"attr":{"T":{"type":"DT_FLOAT"},"_grappler_ArithmeticOptimizer_AddOpsRewriteStage":{"b":true}}},
          {"name":"Conv2D_14","op":"Conv2D","input":["model_1/model/add_3/ArithmeticOptimizer/AddOpsRewrite_add","Conv2D_14/filter"],"device":"/device:CPU:0","attr":{"data_format":{"s":"TkhXQw=="},"use_cudnn_on_gpu":{"b":true},"dilations":{"list":{"i":["1","1","1","1"]}},"strides":{"list":{"i":["1","1","1","1"]}},"padding":{"s":"U0FNRQ=="},"T":{"type":"DT_FLOAT"},"explicit_paddings":{"list":{}}}},
          {"name":"Add_14","op":"Add","input":["Conv2D_14","Add_14/y"],"attr":{"T":{"type":"DT_FLOAT"}}},
          {"name":"model_1/model/re_lu_14/Relu6_model_1/model/batch_normalization_21/FusedBatchNormV3_model_1/model/batch_normalization_25/FusedBatchNormV3_model_1/model/depthwise_conv2d_8/depthwise_model_1/model/depthwise_conv2d_9/depthwise_model_1/model/conv2d_14/Conv2D","op":"Relu6","input":["Add_14"],"attr":{"T":{"type":"DT_FLOAT"}}},
          {"name":"depthwise_7","op":"DepthwiseConv2dNative","input":["model_1/model/re_lu_14/Relu6_model_1/model/batch_normalization_21/FusedBatchNormV3_model_1/model/batch_normalization_25/FusedBatchNormV3_model_1/model/depthwise_conv2d_8/depthwise_model_1/model/depthwise_conv2d_9/depthwise_model_1/model/conv2d_14/Conv2D","depthwise_7/filter_in"],"attr":{"padding":{"s":"U0FNRQ=="},"explicit_paddings":{"list":{}},"dilations":{"list":{"i":["1","1","1","1"]}},"strides":{"list":{"i":["1","1","1","1"]}},"T":{"type":"DT_FLOAT"},"data_format":{"s":"TkhXQw=="}}},
          {"name":"Add_15","op":"Add","input":["depthwise_7","Add_15/y"],"attr":{"T":{"type":"DT_FLOAT"}}},
          {"name":"model_1/model/re_lu_15/Relu6_model_1/model/batch_normalization_22/FusedBatchNormV3_model_1/model/batch_normalization_25/FusedBatchNormV3_model_1/model/depthwise_conv2d_8/depthwise_model_1/model/depthwise_conv2d_9/depthwise_model_1/model/depthwise_conv2d_7/depthwise","op":"Relu6","input":["Add_15"],"attr":{"T":{"type":"DT_FLOAT"}}},
          {"name":"Conv2D_15","op":"Conv2D","input":["model_1/model/re_lu_15/Relu6_model_1/model/batch_normalization_22/FusedBatchNormV3_model_1/model/batch_normalization_25/FusedBatchNormV3_model_1/model/depthwise_conv2d_8/depthwise_model_1/model/depthwise_conv2d_9/depthwise_model_1/model/depthwise_conv2d_7/depthwise","Conv2D_15/filter"],"device":"/device:CPU:0","attr":{"dilations":{"list":{"i":["1","1","1","1"]}},"T":{"type":"DT_FLOAT"},"strides":{"list":{"i":["1","1","1","1"]}},"use_cudnn_on_gpu":{"b":true},"padding":{"s":"U0FNRQ=="},"explicit_paddings":{"list":{}},"data_format":{"s":"TkhXQw=="}}},
          {"name":"model_1/model/add_4/ArithmeticOptimizer/AddOpsRewrite_Leaf_1_add","op":"AddN","input":["Conv2D_15","model_1/model/add_3/ArithmeticOptimizer/AddOpsRewrite_add"],"attr":{"N":{"i":"2"},"T":{"type":"DT_FLOAT"},"_grappler_ArithmeticOptimizer_AddOpsRewriteStage":{"b":true}}},
          {"name":"model_1/model/add_4/ArithmeticOptimizer/AddOpsRewrite_add","op":"AddV2","input":["model_1/model/batch_normalization_23/FusedBatchNormV3_model_1/model/depthwise_conv2d_39/depthwise_model_1/model/conv2d_15/Conv2D1/y","model_1/model/add_4/ArithmeticOptimizer/AddOpsRewrite_Leaf_1_add"],"attr":{"_grappler_ArithmeticOptimizer_AddOpsRewriteStage":{"b":true},"T":{"type":"DT_FLOAT"}}},
          {"name":"Conv2D_16","op":"Conv2D","input":["model_1/model/add_4/ArithmeticOptimizer/AddOpsRewrite_add","Conv2D_16/filter"],"device":"/device:CPU:0","attr":{"dilations":{"list":{"i":["1","1","1","1"]}},"explicit_paddings":{"list":{}},"padding":{"s":"U0FNRQ=="},"strides":{"list":{"i":["1","1","1","1"]}},"use_cudnn_on_gpu":{"b":true},"data_format":{"s":"TkhXQw=="},"T":{"type":"DT_FLOAT"}}},
          {"name":"Add_16","op":"Add","input":["Conv2D_16","Add_16/y"],"attr":{"T":{"type":"DT_FLOAT"}}},
          {"name":"model_1/model/re_lu_16/Relu6_model_1/model/batch_normalization_24/FusedBatchNormV3_model_1/model/batch_normalization_25/FusedBatchNormV3_model_1/model/depthwise_conv2d_8/depthwise_model_1/model/depthwise_conv2d_9/depthwise_model_1/model/conv2d_16/Conv2D","op":"Relu6","input":["Add_16"],"attr":{"T":{"type":"DT_FLOAT"}}},
          {"name":"depthwise_8","op":"DepthwiseConv2dNative","input":["model_1/model/re_lu_16/Relu6_model_1/model/batch_normalization_24/FusedBatchNormV3_model_1/model/batch_normalization_25/FusedBatchNormV3_model_1/model/depthwise_conv2d_8/depthwise_model_1/model/depthwise_conv2d_9/depthwise_model_1/model/conv2d_16/Conv2D","depthwise_8/filter_in"],"attr":{"data_format":{"s":"TkhXQw=="},"T":{"type":"DT_FLOAT"},"padding":{"s":"U0FNRQ=="},"explicit_paddings":{"list":{}},"dilations":{"list":{"i":["1","1","1","1"]}},"strides":{"list":{"i":["1","1","1","1"]}}}},
          {"name":"Add_17","op":"Add","input":["depthwise_8","Add_17/y"],"attr":{"T":{"type":"DT_FLOAT"}}},
          {"name":"model_1/model/re_lu_17/Relu6_model_1/model/batch_normalization_25/FusedBatchNormV3_model_1/model/depthwise_conv2d_8/depthwise_model_1/model/depthwise_conv2d_9/depthwise","op":"Relu6","input":["Add_17"],"attr":{"T":{"type":"DT_FLOAT"}}},
          {"name":"Conv2D_17","op":"Conv2D","input":["model_1/model/re_lu_17/Relu6_model_1/model/batch_normalization_25/FusedBatchNormV3_model_1/model/depthwise_conv2d_8/depthwise_model_1/model/depthwise_conv2d_9/depthwise","Conv2D_17/filter"],"device":"/device:CPU:0","attr":{"padding":{"s":"U0FNRQ=="},"T":{"type":"DT_FLOAT"},"data_format":{"s":"TkhXQw=="},"explicit_paddings":{"list":{}},"use_cudnn_on_gpu":{"b":true},"dilations":{"list":{"i":["1","1","1","1"]}},"strides":{"list":{"i":["1","1","1","1"]}}}},
          {"name":"model_1/model/add_5/ArithmeticOptimizer/AddOpsRewrite_Leaf_1_add","op":"AddN","input":["Conv2D_17","model_1/model/add_4/ArithmeticOptimizer/AddOpsRewrite_add"],"attr":{"_grappler_ArithmeticOptimizer_AddOpsRewriteStage":{"b":true},"T":{"type":"DT_FLOAT"},"N":{"i":"2"}}},
          {"name":"model_1/model/add_5/ArithmeticOptimizer/AddOpsRewrite_add","op":"AddV2","input":["model_1/model/batch_normalization_26/FusedBatchNormV3_model_1/model/depthwise_conv2d_39/depthwise_model_1/model/conv2d_17/Conv2D1/y","model_1/model/add_5/ArithmeticOptimizer/AddOpsRewrite_Leaf_1_add"],"attr":{"_grappler_ArithmeticOptimizer_AddOpsRewriteStage":{"b":true},"T":{"type":"DT_FLOAT"}}},
          {"name":"depthwise_34","op":"DepthwiseConv2dNative","input":["model_1/model/add_5/ArithmeticOptimizer/AddOpsRewrite_add","depthwise_34/filter_in"],"attr":{"data_format":{"s":"TkhXQw=="},"explicit_paddings":{"list":{}},"padding":{"s":"U0FNRQ=="},"strides":{"list":{"i":["1","1","1","1"]}},"T":{"type":"DT_FLOAT"},"dilations":{"list":{"i":["1","1","1","1"]}}}},
          {"name":"depthwise_35","op":"DepthwiseConv2dNative","input":["model_1/model/add_5/ArithmeticOptimizer/AddOpsRewrite_add","depthwise_35/filter_in"],"attr":{"data_format":{"s":"TkhXQw=="},"explicit_paddings":{"list":{}},"strides":{"list":{"i":["1","1","1","1"]}},"padding":{"s":"U0FNRQ=="},"T":{"type":"DT_FLOAT"},"dilations":{"list":{"i":["1","1","1","1"]}}}},
          {"name":"Conv2D_18","op":"Conv2D","input":["model_1/model/add_5/ArithmeticOptimizer/AddOpsRewrite_add","Conv2D_18/filter"],"device":"/device:CPU:0","attr":{"T":{"type":"DT_FLOAT"},"data_format":{"s":"TkhXQw=="},"strides":{"list":{"i":["1","1","1","1"]}},"use_cudnn_on_gpu":{"b":true},"padding":{"s":"U0FNRQ=="},"dilations":{"list":{"i":["1","1","1","1"]}},"explicit_paddings":{"list":{}}}},
          {"name":"Conv2D_63","op":"Conv2D","input":["depthwise_34","Conv2D_63/filter"],"device":"/device:CPU:0","attr":{"use_cudnn_on_gpu":{"b":true},"dilations":{"list":{"i":["1","1","1","1"]}},"T":{"type":"DT_FLOAT"},"strides":{"list":{"i":["1","1","1","1"]}},"padding":{"s":"VkFMSUQ="},"data_format":{"s":"TkhXQw=="},"explicit_paddings":{"list":{}}}},
          {"name":"Conv2D_64","op":"Conv2D","input":["depthwise_35","Conv2D_64/filter"],"device":"/device:CPU:0","attr":{"use_cudnn_on_gpu":{"b":true},"T":{"type":"DT_FLOAT"},"data_format":{"s":"TkhXQw=="},"strides":{"list":{"i":["1","1","1","1"]}},"dilations":{"list":{"i":["1","1","1","1"]}},"explicit_paddings":{"list":{}},"padding":{"s":"VkFMSUQ="}}},
          {"name":"Add_18","op":"Add","input":["Conv2D_18","Add_18/y"],"attr":{"T":{"type":"DT_FLOAT"}}},
          {"name":"Add_64","op":"Add","input":["Conv2D_63","Add_64/y"],"attr":{"T":{"type":"DT_FLOAT"}}},
          {"name":"Add_65","op":"Add","input":["Conv2D_64","Add_65/y"],"attr":{"T":{"type":"DT_FLOAT"}}},
          {"name":"model_1/model/re_lu_18/Relu6_model_1/model/batch_normalization_27/FusedBatchNormV3_model_1/model/batch_normalization_25/FusedBatchNormV3_model_1/model/depthwise_conv2d_8/depthwise_model_1/model/depthwise_conv2d_9/depthwise_model_1/model/conv2d_18/Conv2D","op":"Relu6","input":["Add_18"],"attr":{"T":{"type":"DT_FLOAT"}}},
          {"name":"model_1/model/activation_2/Relu_model_1/model/batch_normalization_91/FusedBatchNormV3_model_1/model/conv2d_61/BiasAdd/ReadVariableOp/resource_model_1/model/conv2d_61/BiasAdd_model_1/model/depthwise_conv2d_72/depthwise_model_1/model/conv2d_61/Conv2D1","op":"Relu","input":["Add_64"],"attr":{"T":{"type":"DT_FLOAT"}}},
          {"name":"model_1/model/activation_9/Relu_model_1/model/batch_normalization_98/FusedBatchNormV3_model_1/model/conv2d_68/BiasAdd/ReadVariableOp/resource_model_1/model/conv2d_68/BiasAdd_model_1/model/depthwise_conv2d_40/depthwise_model_1/model/conv2d_68/Conv2D1","op":"Relu","input":["Add_65"],"attr":{"T":{"type":"DT_FLOAT"}}},
          {"name":"model_1/model/tf_op_layer_blocks_9/Pad/blocks_9/Pad","op":"Pad","input":["model_1/model/re_lu_18/Relu6_model_1/model/batch_normalization_27/FusedBatchNormV3_model_1/model/batch_normalization_25/FusedBatchNormV3_model_1/model/depthwise_conv2d_8/depthwise_model_1/model/depthwise_conv2d_9/depthwise_model_1/model/conv2d_18/Conv2D","model_1/model/tf_op_layer_blocks_9/Pad/blocks_9/Pad/paddings"],"attr":{"Tpaddings":{"type":"DT_INT32"},"T":{"type":"DT_FLOAT"}}},
          {"name":"depthwise_9","op":"DepthwiseConv2dNative","input":["model_1/model/tf_op_layer_blocks_9/Pad/blocks_9/Pad","depthwise_9/filter_in"],"attr":{"T":{"type":"DT_FLOAT"},"dilations":{"list":{"i":["1","1","1","1"]}},"padding":{"s":"VkFMSUQ="},"data_format":{"s":"TkhXQw=="},"strides":{"list":{"i":["1","2","2","1"]}},"explicit_paddings":{"list":{}}}},
          {"name":"Add_19","op":"Add","input":["depthwise_9","Add_19/y"],"attr":{"T":{"type":"DT_FLOAT"}}},
          {"name":"model_1/model/re_lu_19/Relu6_model_1/model/batch_normalization_28/FusedBatchNormV3_model_1/model/depthwise_conv2d_9/depthwise","op":"Relu6","input":["Add_19"],"attr":{"T":{"type":"DT_FLOAT"}}},
          {"name":"Conv2D_19","op":"Conv2D","input":["model_1/model/re_lu_19/Relu6_model_1/model/batch_normalization_28/FusedBatchNormV3_model_1/model/depthwise_conv2d_9/depthwise","Conv2D_19/filter"],"device":"/device:CPU:0","attr":{"strides":{"list":{"i":["1","1","1","1"]}},"T":{"type":"DT_FLOAT"},"explicit_paddings":{"list":{}},"padding":{"s":"U0FNRQ=="},"dilations":{"list":{"i":["1","1","1","1"]}},"use_cudnn_on_gpu":{"b":true},"data_format":{"s":"TkhXQw=="}}},
          {"name":"model_1/model/batch_normalization_29/FusedBatchNormV3_model_1/model/conv2d_29/Conv2D_model_1/model/conv2d_19/Conv2D1","op":"Add","input":["Conv2D_19","model_1/model/batch_normalization_29/FusedBatchNormV3_model_1/model/conv2d_29/Conv2D_model_1/model/conv2d_19/Conv2D1/y"],"attr":{"T":{"type":"DT_FLOAT"}}},
          {"name":"Conv2D_20","op":"Conv2D","input":["model_1/model/batch_normalization_29/FusedBatchNormV3_model_1/model/conv2d_29/Conv2D_model_1/model/conv2d_19/Conv2D1","Conv2D_20/filter"],"device":"/device:CPU:0","attr":{"data_format":{"s":"TkhXQw=="},"explicit_paddings":{"list":{}},"padding":{"s":"U0FNRQ=="},"dilations":{"list":{"i":["1","1","1","1"]}},"T":{"type":"DT_FLOAT"},"use_cudnn_on_gpu":{"b":true},"strides":{"list":{"i":["1","1","1","1"]}}}},
          {"name":"Add_20","op":"Add","input":["Conv2D_20","Add_20/y"],"attr":{"T":{"type":"DT_FLOAT"}}},
          {"name":"model_1/model/re_lu_20/Relu6_model_1/model/batch_normalization_30/FusedBatchNormV3_model_1/model/depthwise_conv2d_15/depthwise_model_1/model/conv2d_20/Conv2D","op":"Relu6","input":["Add_20"],"attr":{"T":{"type":"DT_FLOAT"}}},
          {"name":"depthwise_10","op":"DepthwiseConv2dNative","input":["model_1/model/re_lu_20/Relu6_model_1/model/batch_normalization_30/FusedBatchNormV3_model_1/model/depthwise_conv2d_15/depthwise_model_1/model/conv2d_20/Conv2D","depthwise_10/filter_in"],"attr":{"data_format":{"s":"TkhXQw=="},"T":{"type":"DT_FLOAT"},"explicit_paddings":{"list":{}},"strides":{"list":{"i":["1","1","1","1"]}},"padding":{"s":"U0FNRQ=="},"dilations":{"list":{"i":["1","1","1","1"]}}}},
          {"name":"Add_21","op":"Add","input":["depthwise_10","Add_21/y"],"attr":{"T":{"type":"DT_FLOAT"}}},
          {"name":"model_1/model/re_lu_21/Relu6_model_1/model/batch_normalization_31/FusedBatchNormV3_model_1/model/depthwise_conv2d_10/depthwise_model_1/model/depthwise_conv2d_15/depthwise","op":"Relu6","input":["Add_21"],"attr":{"T":{"type":"DT_FLOAT"}}},
          {"name":"Conv2D_21","op":"Conv2D","input":["model_1/model/re_lu_21/Relu6_model_1/model/batch_normalization_31/FusedBatchNormV3_model_1/model/depthwise_conv2d_10/depthwise_model_1/model/depthwise_conv2d_15/depthwise","Conv2D_21/filter"],"device":"/device:CPU:0","attr":{"data_format":{"s":"TkhXQw=="},"dilations":{"list":{"i":["1","1","1","1"]}},"explicit_paddings":{"list":{}},"use_cudnn_on_gpu":{"b":true},"T":{"type":"DT_FLOAT"},"padding":{"s":"U0FNRQ=="},"strides":{"list":{"i":["1","1","1","1"]}}}},
          {"name":"model_1/model/add_6/ArithmeticOptimizer/AddOpsRewrite_Leaf_1_add","op":"AddN","input":["Conv2D_21","model_1/model/batch_normalization_29/FusedBatchNormV3_model_1/model/conv2d_29/Conv2D_model_1/model/conv2d_19/Conv2D1"],"attr":{"T":{"type":"DT_FLOAT"},"_grappler_ArithmeticOptimizer_AddOpsRewriteStage":{"b":true},"N":{"i":"2"}}},
          {"name":"model_1/model/add_6/ArithmeticOptimizer/AddOpsRewrite_add","op":"AddV2","input":["model_1/model/batch_normalization_32/FusedBatchNormV3_model_1/model/conv2d_29/Conv2D_model_1/model/conv2d_21/Conv2D1/y","model_1/model/add_6/ArithmeticOptimizer/AddOpsRewrite_Leaf_1_add"],"attr":{"T":{"type":"DT_FLOAT"},"_grappler_ArithmeticOptimizer_AddOpsRewriteStage":{"b":true}}},
          {"name":"Conv2D_22","op":"Conv2D","input":["model_1/model/add_6/ArithmeticOptimizer/AddOpsRewrite_add","Conv2D_22/filter"],"device":"/device:CPU:0","attr":{"explicit_paddings":{"list":{}},"strides":{"list":{"i":["1","1","1","1"]}},"T":{"type":"DT_FLOAT"},"padding":{"s":"U0FNRQ=="},"dilations":{"list":{"i":["1","1","1","1"]}},"use_cudnn_on_gpu":{"b":true},"data_format":{"s":"TkhXQw=="}}},
          {"name":"Add_22","op":"Add","input":["Conv2D_22","Add_22/y"],"attr":{"T":{"type":"DT_FLOAT"}}},
          {"name":"model_1/model/re_lu_22/Relu6_model_1/model/batch_normalization_33/FusedBatchNormV3_model_1/model/depthwise_conv2d_15/depthwise_model_1/model/conv2d_22/Conv2D","op":"Relu6","input":["Add_22"],"attr":{"T":{"type":"DT_FLOAT"}}},
          {"name":"depthwise_11","op":"DepthwiseConv2dNative","input":["model_1/model/re_lu_22/Relu6_model_1/model/batch_normalization_33/FusedBatchNormV3_model_1/model/depthwise_conv2d_15/depthwise_model_1/model/conv2d_22/Conv2D","depthwise_11/filter_in"],"attr":{"strides":{"list":{"i":["1","1","1","1"]}},"padding":{"s":"U0FNRQ=="},"T":{"type":"DT_FLOAT"},"data_format":{"s":"TkhXQw=="},"explicit_paddings":{"list":{}},"dilations":{"list":{"i":["1","1","1","1"]}}}},
          {"name":"Add_23","op":"Add","input":["depthwise_11","Add_23/y"],"attr":{"T":{"type":"DT_FLOAT"}}},
          {"name":"model_1/model/re_lu_23/Relu6_model_1/model/batch_normalization_34/FusedBatchNormV3_model_1/model/depthwise_conv2d_11/depthwise_model_1/model/depthwise_conv2d_15/depthwise","op":"Relu6","input":["Add_23"],"attr":{"T":{"type":"DT_FLOAT"}}},
          {"name":"Conv2D_23","op":"Conv2D","input":["model_1/model/re_lu_23/Relu6_model_1/model/batch_normalization_34/FusedBatchNormV3_model_1/model/depthwise_conv2d_11/depthwise_model_1/model/depthwise_conv2d_15/depthwise","Conv2D_23/filter"],"device":"/device:CPU:0","attr":{"use_cudnn_on_gpu":{"b":true},"padding":{"s":"U0FNRQ=="},"T":{"type":"DT_FLOAT"},"strides":{"list":{"i":["1","1","1","1"]}},"dilations":{"list":{"i":["1","1","1","1"]}},"data_format":{"s":"TkhXQw=="},"explicit_paddings":{"list":{}}}},
          {"name":"model_1/model/add_7/ArithmeticOptimizer/AddOpsRewrite_Leaf_1_add","op":"AddN","input":["Conv2D_23","model_1/model/add_6/ArithmeticOptimizer/AddOpsRewrite_add"],"attr":{"N":{"i":"2"},"_grappler_ArithmeticOptimizer_AddOpsRewriteStage":{"b":true},"T":{"type":"DT_FLOAT"}}},
          {"name":"model_1/model/add_7/ArithmeticOptimizer/AddOpsRewrite_add","op":"AddV2","input":["model_1/model/batch_normalization_35/FusedBatchNormV3_model_1/model/conv2d_29/Conv2D_model_1/model/conv2d_23/Conv2D1/y","model_1/model/add_7/ArithmeticOptimizer/AddOpsRewrite_Leaf_1_add"],"attr":{"T":{"type":"DT_FLOAT"},"_grappler_ArithmeticOptimizer_AddOpsRewriteStage":{"b":true}}},
          {"name":"Conv2D_24","op":"Conv2D","input":["model_1/model/add_7/ArithmeticOptimizer/AddOpsRewrite_add","Conv2D_24/filter"],"device":"/device:CPU:0","attr":{"strides":{"list":{"i":["1","1","1","1"]}},"explicit_paddings":{"list":{}},"use_cudnn_on_gpu":{"b":true},"data_format":{"s":"TkhXQw=="},"T":{"type":"DT_FLOAT"},"padding":{"s":"U0FNRQ=="},"dilations":{"list":{"i":["1","1","1","1"]}}}},
          {"name":"Add_24","op":"Add","input":["Conv2D_24","Add_24/y"],"attr":{"T":{"type":"DT_FLOAT"}}},
          {"name":"model_1/model/re_lu_24/Relu6_model_1/model/batch_normalization_36/FusedBatchNormV3_model_1/model/depthwise_conv2d_15/depthwise_model_1/model/conv2d_24/Conv2D","op":"Relu6","input":["Add_24"],"attr":{"T":{"type":"DT_FLOAT"}}},
          {"name":"depthwise_12","op":"DepthwiseConv2dNative","input":["model_1/model/re_lu_24/Relu6_model_1/model/batch_normalization_36/FusedBatchNormV3_model_1/model/depthwise_conv2d_15/depthwise_model_1/model/conv2d_24/Conv2D","depthwise_12/filter_in"],"attr":{"T":{"type":"DT_FLOAT"},"data_format":{"s":"TkhXQw=="},"padding":{"s":"U0FNRQ=="},"strides":{"list":{"i":["1","1","1","1"]}},"dilations":{"list":{"i":["1","1","1","1"]}},"explicit_paddings":{"list":{}}}},
          {"name":"Add_25","op":"Add","input":["depthwise_12","Add_25/y"],"attr":{"T":{"type":"DT_FLOAT"}}},
          {"name":"model_1/model/re_lu_25/Relu6_model_1/model/batch_normalization_37/FusedBatchNormV3_model_1/model/depthwise_conv2d_12/depthwise_model_1/model/depthwise_conv2d_15/depthwise","op":"Relu6","input":["Add_25"],"attr":{"T":{"type":"DT_FLOAT"}}},
          {"name":"Conv2D_25","op":"Conv2D","input":["model_1/model/re_lu_25/Relu6_model_1/model/batch_normalization_37/FusedBatchNormV3_model_1/model/depthwise_conv2d_12/depthwise_model_1/model/depthwise_conv2d_15/depthwise","Conv2D_25/filter"],"device":"/device:CPU:0","attr":{"use_cudnn_on_gpu":{"b":true},"T":{"type":"DT_FLOAT"},"dilations":{"list":{"i":["1","1","1","1"]}},"padding":{"s":"U0FNRQ=="},"strides":{"list":{"i":["1","1","1","1"]}},"explicit_paddings":{"list":{}},"data_format":{"s":"TkhXQw=="}}},
          {"name":"model_1/model/add_8/ArithmeticOptimizer/AddOpsRewrite_Leaf_1_add","op":"AddN","input":["Conv2D_25","model_1/model/add_7/ArithmeticOptimizer/AddOpsRewrite_add"],"attr":{"N":{"i":"2"},"T":{"type":"DT_FLOAT"},"_grappler_ArithmeticOptimizer_AddOpsRewriteStage":{"b":true}}},
          {"name":"model_1/model/add_8/ArithmeticOptimizer/AddOpsRewrite_add","op":"AddV2","input":["model_1/model/batch_normalization_38/FusedBatchNormV3_model_1/model/conv2d_29/Conv2D_model_1/model/conv2d_25/Conv2D1/y","model_1/model/add_8/ArithmeticOptimizer/AddOpsRewrite_Leaf_1_add"],"attr":{"_grappler_ArithmeticOptimizer_AddOpsRewriteStage":{"b":true},"T":{"type":"DT_FLOAT"}}},
          {"name":"Conv2D_26","op":"Conv2D","input":["model_1/model/add_8/ArithmeticOptimizer/AddOpsRewrite_add","Conv2D_26/filter"],"device":"/device:CPU:0","attr":{"use_cudnn_on_gpu":{"b":true},"explicit_paddings":{"list":{}},"T":{"type":"DT_FLOAT"},"strides":{"list":{"i":["1","1","1","1"]}},"padding":{"s":"U0FNRQ=="},"dilations":{"list":{"i":["1","1","1","1"]}},"data_format":{"s":"TkhXQw=="}}},
          {"name":"Add_26","op":"Add","input":["Conv2D_26","Add_26/y"],"attr":{"T":{"type":"DT_FLOAT"}}},
          {"name":"model_1/model/re_lu_26/Relu6_model_1/model/batch_normalization_39/FusedBatchNormV3_model_1/model/depthwise_conv2d_15/depthwise_model_1/model/conv2d_26/Conv2D","op":"Relu6","input":["Add_26"],"attr":{"T":{"type":"DT_FLOAT"}}},
          {"name":"depthwise_13","op":"DepthwiseConv2dNative","input":["model_1/model/re_lu_26/Relu6_model_1/model/batch_normalization_39/FusedBatchNormV3_model_1/model/depthwise_conv2d_15/depthwise_model_1/model/conv2d_26/Conv2D","depthwise_13/filter_in"],"attr":{"strides":{"list":{"i":["1","1","1","1"]}},"explicit_paddings":{"list":{}},"padding":{"s":"U0FNRQ=="},"dilations":{"list":{"i":["1","1","1","1"]}},"data_format":{"s":"TkhXQw=="},"T":{"type":"DT_FLOAT"}}},
          {"name":"Add_27","op":"Add","input":["depthwise_13","Add_27/y"],"attr":{"T":{"type":"DT_FLOAT"}}},
          {"name":"model_1/model/re_lu_27/Relu6_model_1/model/batch_normalization_40/FusedBatchNormV3_model_1/model/depthwise_conv2d_13/depthwise_model_1/model/depthwise_conv2d_15/depthwise","op":"Relu6","input":["Add_27"],"attr":{"T":{"type":"DT_FLOAT"}}},
          {"name":"Conv2D_27","op":"Conv2D","input":["model_1/model/re_lu_27/Relu6_model_1/model/batch_normalization_40/FusedBatchNormV3_model_1/model/depthwise_conv2d_13/depthwise_model_1/model/depthwise_conv2d_15/depthwise","Conv2D_27/filter"],"device":"/device:CPU:0","attr":{"data_format":{"s":"TkhXQw=="},"dilations":{"list":{"i":["1","1","1","1"]}},"padding":{"s":"U0FNRQ=="},"use_cudnn_on_gpu":{"b":true},"strides":{"list":{"i":["1","1","1","1"]}},"explicit_paddings":{"list":{}},"T":{"type":"DT_FLOAT"}}},
          {"name":"model_1/model/add_9/ArithmeticOptimizer/AddOpsRewrite_Leaf_1_add","op":"AddN","input":["Conv2D_27","model_1/model/add_8/ArithmeticOptimizer/AddOpsRewrite_add"],"attr":{"N":{"i":"2"},"T":{"type":"DT_FLOAT"},"_grappler_ArithmeticOptimizer_AddOpsRewriteStage":{"b":true}}},
          {"name":"model_1/model/add_9/ArithmeticOptimizer/AddOpsRewrite_add","op":"AddV2","input":["model_1/model/batch_normalization_41/FusedBatchNormV3_model_1/model/conv2d_29/Conv2D_model_1/model/conv2d_27/Conv2D1/y","model_1/model/add_9/ArithmeticOptimizer/AddOpsRewrite_Leaf_1_add"],"attr":{"T":{"type":"DT_FLOAT"},"_grappler_ArithmeticOptimizer_AddOpsRewriteStage":{"b":true}}},
          {"name":"Conv2D_28","op":"Conv2D","input":["model_1/model/add_9/ArithmeticOptimizer/AddOpsRewrite_add","Conv2D_28/filter"],"device":"/device:CPU:0","attr":{"strides":{"list":{"i":["1","1","1","1"]}},"T":{"type":"DT_FLOAT"},"padding":{"s":"U0FNRQ=="},"data_format":{"s":"TkhXQw=="},"explicit_paddings":{"list":{}},"use_cudnn_on_gpu":{"b":true},"dilations":{"list":{"i":["1","1","1","1"]}}}},
          {"name":"Add_28","op":"Add","input":["Conv2D_28","Add_28/y"],"attr":{"T":{"type":"DT_FLOAT"}}},
          {"name":"model_1/model/re_lu_28/Relu6_model_1/model/batch_normalization_42/FusedBatchNormV3_model_1/model/depthwise_conv2d_15/depthwise_model_1/model/conv2d_28/Conv2D","op":"Relu6","input":["Add_28"],"attr":{"T":{"type":"DT_FLOAT"}}},
          {"name":"depthwise_14","op":"DepthwiseConv2dNative","input":["model_1/model/re_lu_28/Relu6_model_1/model/batch_normalization_42/FusedBatchNormV3_model_1/model/depthwise_conv2d_15/depthwise_model_1/model/conv2d_28/Conv2D","depthwise_14/filter_in"],"attr":{"explicit_paddings":{"list":{}},"strides":{"list":{"i":["1","1","1","1"]}},"padding":{"s":"U0FNRQ=="},"T":{"type":"DT_FLOAT"},"dilations":{"list":{"i":["1","1","1","1"]}},"data_format":{"s":"TkhXQw=="}}},
          {"name":"Add_29","op":"Add","input":["depthwise_14","Add_29/y"],"attr":{"T":{"type":"DT_FLOAT"}}},
          {"name":"model_1/model/re_lu_29/Relu6_model_1/model/batch_normalization_43/FusedBatchNormV3_model_1/model/depthwise_conv2d_14/depthwise_model_1/model/depthwise_conv2d_15/depthwise","op":"Relu6","input":["Add_29"],"attr":{"T":{"type":"DT_FLOAT"}}},
          {"name":"Conv2D_29","op":"Conv2D","input":["model_1/model/re_lu_29/Relu6_model_1/model/batch_normalization_43/FusedBatchNormV3_model_1/model/depthwise_conv2d_14/depthwise_model_1/model/depthwise_conv2d_15/depthwise","Conv2D_29/filter"],"device":"/device:CPU:0","attr":{"padding":{"s":"U0FNRQ=="},"strides":{"list":{"i":["1","1","1","1"]}},"use_cudnn_on_gpu":{"b":true},"dilations":{"list":{"i":["1","1","1","1"]}},"explicit_paddings":{"list":{}},"data_format":{"s":"TkhXQw=="},"T":{"type":"DT_FLOAT"}}},
          {"name":"model_1/model/add_10/ArithmeticOptimizer/AddOpsRewrite_Leaf_1_add","op":"AddN","input":["Conv2D_29","model_1/model/add_9/ArithmeticOptimizer/AddOpsRewrite_add"],"attr":{"N":{"i":"2"},"_grappler_ArithmeticOptimizer_AddOpsRewriteStage":{"b":true},"T":{"type":"DT_FLOAT"}}},
          {"name":"model_1/model/add_10/ArithmeticOptimizer/AddOpsRewrite_add","op":"AddV2","input":["model_1/model/batch_normalization_44/FusedBatchNormV3_model_1/model/conv2d_29/Conv2D1/y","model_1/model/add_10/ArithmeticOptimizer/AddOpsRewrite_Leaf_1_add"],"attr":{"T":{"type":"DT_FLOAT"},"_grappler_ArithmeticOptimizer_AddOpsRewriteStage":{"b":true}}},
          {"name":"Conv2D_30","op":"Conv2D","input":["model_1/model/add_10/ArithmeticOptimizer/AddOpsRewrite_add","Conv2D_30/filter"],"device":"/device:CPU:0","attr":{"data_format":{"s":"TkhXQw=="},"padding":{"s":"U0FNRQ=="},"use_cudnn_on_gpu":{"b":true},"strides":{"list":{"i":["1","1","1","1"]}},"T":{"type":"DT_FLOAT"},"dilations":{"list":{"i":["1","1","1","1"]}},"explicit_paddings":{"list":{}}}},
          {"name":"Add_30","op":"Add","input":["Conv2D_30","Add_30/y"],"attr":{"T":{"type":"DT_FLOAT"}}},
          {"name":"model_1/model/re_lu_30/Relu6_model_1/model/batch_normalization_45/FusedBatchNormV3_model_1/model/depthwise_conv2d_15/depthwise_model_1/model/conv2d_30/Conv2D","op":"Relu6","input":["Add_30"],"attr":{"T":{"type":"DT_FLOAT"}}},
          {"name":"depthwise_15","op":"DepthwiseConv2dNative","input":["model_1/model/re_lu_30/Relu6_model_1/model/batch_normalization_45/FusedBatchNormV3_model_1/model/depthwise_conv2d_15/depthwise_model_1/model/conv2d_30/Conv2D","depthwise_15/filter_in"],"attr":{"explicit_paddings":{"list":{}},"data_format":{"s":"TkhXQw=="},"T":{"type":"DT_FLOAT"},"strides":{"list":{"i":["1","1","1","1"]}},"dilations":{"list":{"i":["1","1","1","1"]}},"padding":{"s":"U0FNRQ=="}}},
          {"name":"Add_31","op":"Add","input":["depthwise_15","Add_31/y"],"attr":{"T":{"type":"DT_FLOAT"}}},
          {"name":"model_1/model/re_lu_31/Relu6_model_1/model/batch_normalization_46/FusedBatchNormV3_model_1/model/depthwise_conv2d_15/depthwise","op":"Relu6","input":["Add_31"],"attr":{"T":{"type":"DT_FLOAT"}}},
          {"name":"Conv2D_31","op":"Conv2D","input":["model_1/model/re_lu_31/Relu6_model_1/model/batch_normalization_46/FusedBatchNormV3_model_1/model/depthwise_conv2d_15/depthwise","Conv2D_31/filter"],"device":"/device:CPU:0","attr":{"T":{"type":"DT_FLOAT"},"use_cudnn_on_gpu":{"b":true},"dilations":{"list":{"i":["1","1","1","1"]}},"data_format":{"s":"TkhXQw=="},"strides":{"list":{"i":["1","1","1","1"]}},"padding":{"s":"U0FNRQ=="},"explicit_paddings":{"list":{}}}},
          {"name":"model_1/model/batch_normalization_47/FusedBatchNormV3_model_1/model/depthwise_conv2d_46/depthwise_model_1/model/conv2d_31/Conv2D1","op":"Add","input":["Conv2D_31","model_1/model/batch_normalization_47/FusedBatchNormV3_model_1/model/depthwise_conv2d_46/depthwise_model_1/model/conv2d_31/Conv2D1/y"],"attr":{"T":{"type":"DT_FLOAT"}}},
          {"name":"Conv2D_32","op":"Conv2D","input":["model_1/model/batch_normalization_47/FusedBatchNormV3_model_1/model/depthwise_conv2d_46/depthwise_model_1/model/conv2d_31/Conv2D1","Conv2D_32/filter"],"device":"/device:CPU:0","attr":{"padding":{"s":"U0FNRQ=="},"T":{"type":"DT_FLOAT"},"data_format":{"s":"TkhXQw=="},"use_cudnn_on_gpu":{"b":true},"explicit_paddings":{"list":{}},"strides":{"list":{"i":["1","1","1","1"]}},"dilations":{"list":{"i":["1","1","1","1"]}}}},
          {"name":"Add_32","op":"Add","input":["Conv2D_32","Add_32/y"],"attr":{"T":{"type":"DT_FLOAT"}}},
          {"name":"model_1/model/re_lu_32/Relu6_model_1/model/batch_normalization_48/FusedBatchNormV3_model_1/model/depthwise_conv2d_21/depthwise_model_1/model/conv2d_32/Conv2D","op":"Relu6","input":["Add_32"],"attr":{"T":{"type":"DT_FLOAT"}}},
          {"name":"depthwise_16","op":"DepthwiseConv2dNative","input":["model_1/model/re_lu_32/Relu6_model_1/model/batch_normalization_48/FusedBatchNormV3_model_1/model/depthwise_conv2d_21/depthwise_model_1/model/conv2d_32/Conv2D","depthwise_16/filter_in"],"attr":{"T":{"type":"DT_FLOAT"},"explicit_paddings":{"list":{}},"data_format":{"s":"TkhXQw=="},"dilations":{"list":{"i":["1","1","1","1"]}},"strides":{"list":{"i":["1","1","1","1"]}},"padding":{"s":"U0FNRQ=="}}},
          {"name":"Add_33","op":"Add","input":["depthwise_16","Add_33/y"],"attr":{"T":{"type":"DT_FLOAT"}}},
          {"name":"model_1/model/re_lu_33/Relu6_model_1/model/batch_normalization_49/FusedBatchNormV3_model_1/model/depthwise_conv2d_16/depthwise_model_1/model/depthwise_conv2d_21/depthwise","op":"Relu6","input":["Add_33"],"attr":{"T":{"type":"DT_FLOAT"}}},
          {"name":"Conv2D_33","op":"Conv2D","input":["model_1/model/re_lu_33/Relu6_model_1/model/batch_normalization_49/FusedBatchNormV3_model_1/model/depthwise_conv2d_16/depthwise_model_1/model/depthwise_conv2d_21/depthwise","Conv2D_33/filter"],"device":"/device:CPU:0","attr":{"explicit_paddings":{"list":{}},"strides":{"list":{"i":["1","1","1","1"]}},"padding":{"s":"U0FNRQ=="},"T":{"type":"DT_FLOAT"},"data_format":{"s":"TkhXQw=="},"dilations":{"list":{"i":["1","1","1","1"]}},"use_cudnn_on_gpu":{"b":true}}},
          {"name":"model_1/model/add_11/ArithmeticOptimizer/AddOpsRewrite_Leaf_1_add","op":"AddN","input":["Conv2D_33","model_1/model/batch_normalization_47/FusedBatchNormV3_model_1/model/depthwise_conv2d_46/depthwise_model_1/model/conv2d_31/Conv2D1"],"attr":{"N":{"i":"2"},"_grappler_ArithmeticOptimizer_AddOpsRewriteStage":{"b":true},"T":{"type":"DT_FLOAT"}}},
          {"name":"model_1/model/add_11/ArithmeticOptimizer/AddOpsRewrite_add","op":"AddV2","input":["model_1/model/batch_normalization_50/FusedBatchNormV3_model_1/model/depthwise_conv2d_46/depthwise_model_1/model/conv2d_33/Conv2D1/y","model_1/model/add_11/ArithmeticOptimizer/AddOpsRewrite_Leaf_1_add"],"attr":{"T":{"type":"DT_FLOAT"},"_grappler_ArithmeticOptimizer_AddOpsRewriteStage":{"b":true}}},
          {"name":"Conv2D_34","op":"Conv2D","input":["model_1/model/add_11/ArithmeticOptimizer/AddOpsRewrite_add","Conv2D_34/filter"],"device":"/device:CPU:0","attr":{"data_format":{"s":"TkhXQw=="},"strides":{"list":{"i":["1","1","1","1"]}},"dilations":{"list":{"i":["1","1","1","1"]}},"padding":{"s":"U0FNRQ=="},"explicit_paddings":{"list":{}},"use_cudnn_on_gpu":{"b":true},"T":{"type":"DT_FLOAT"}}},
          {"name":"Add_34","op":"Add","input":["Conv2D_34","Add_34/y"],"attr":{"T":{"type":"DT_FLOAT"}}},
          {"name":"model_1/model/re_lu_34/Relu6_model_1/model/batch_normalization_51/FusedBatchNormV3_model_1/model/depthwise_conv2d_21/depthwise_model_1/model/conv2d_34/Conv2D","op":"Relu6","input":["Add_34"],"attr":{"T":{"type":"DT_FLOAT"}}},
          {"name":"depthwise_17","op":"DepthwiseConv2dNative","input":["model_1/model/re_lu_34/Relu6_model_1/model/batch_normalization_51/FusedBatchNormV3_model_1/model/depthwise_conv2d_21/depthwise_model_1/model/conv2d_34/Conv2D","depthwise_17/filter_in"],"attr":{"strides":{"list":{"i":["1","1","1","1"]}},"data_format":{"s":"TkhXQw=="},"explicit_paddings":{"list":{}},"dilations":{"list":{"i":["1","1","1","1"]}},"T":{"type":"DT_FLOAT"},"padding":{"s":"U0FNRQ=="}}},
          {"name":"Add_35","op":"Add","input":["depthwise_17","Add_35/y"],"attr":{"T":{"type":"DT_FLOAT"}}},
          {"name":"model_1/model/re_lu_35/Relu6_model_1/model/batch_normalization_52/FusedBatchNormV3_model_1/model/depthwise_conv2d_17/depthwise_model_1/model/depthwise_conv2d_21/depthwise","op":"Relu6","input":["Add_35"],"attr":{"T":{"type":"DT_FLOAT"}}},
          {"name":"Conv2D_35","op":"Conv2D","input":["model_1/model/re_lu_35/Relu6_model_1/model/batch_normalization_52/FusedBatchNormV3_model_1/model/depthwise_conv2d_17/depthwise_model_1/model/depthwise_conv2d_21/depthwise","Conv2D_35/filter"],"device":"/device:CPU:0","attr":{"data_format":{"s":"TkhXQw=="},"T":{"type":"DT_FLOAT"},"explicit_paddings":{"list":{}},"use_cudnn_on_gpu":{"b":true},"strides":{"list":{"i":["1","1","1","1"]}},"dilations":{"list":{"i":["1","1","1","1"]}},"padding":{"s":"U0FNRQ=="}}},
          {"name":"model_1/model/add_12/ArithmeticOptimizer/AddOpsRewrite_Leaf_1_add","op":"AddN","input":["Conv2D_35","model_1/model/add_11/ArithmeticOptimizer/AddOpsRewrite_add"],"attr":{"_grappler_ArithmeticOptimizer_AddOpsRewriteStage":{"b":true},"N":{"i":"2"},"T":{"type":"DT_FLOAT"}}},
          {"name":"model_1/model/add_12/ArithmeticOptimizer/AddOpsRewrite_add","op":"AddV2","input":["model_1/model/batch_normalization_53/FusedBatchNormV3_model_1/model/depthwise_conv2d_46/depthwise_model_1/model/conv2d_35/Conv2D1/y","model_1/model/add_12/ArithmeticOptimizer/AddOpsRewrite_Leaf_1_add"],"attr":{"T":{"type":"DT_FLOAT"},"_grappler_ArithmeticOptimizer_AddOpsRewriteStage":{"b":true}}},
          {"name":"Conv2D_36","op":"Conv2D","input":["model_1/model/add_12/ArithmeticOptimizer/AddOpsRewrite_add","Conv2D_36/filter"],"device":"/device:CPU:0","attr":{"dilations":{"list":{"i":["1","1","1","1"]}},"explicit_paddings":{"list":{}},"strides":{"list":{"i":["1","1","1","1"]}},"data_format":{"s":"TkhXQw=="},"padding":{"s":"U0FNRQ=="},"use_cudnn_on_gpu":{"b":true},"T":{"type":"DT_FLOAT"}}},
          {"name":"Add_36","op":"Add","input":["Conv2D_36","Add_36/y"],"attr":{"T":{"type":"DT_FLOAT"}}},
          {"name":"model_1/model/re_lu_36/Relu6_model_1/model/batch_normalization_54/FusedBatchNormV3_model_1/model/depthwise_conv2d_21/depthwise_model_1/model/conv2d_36/Conv2D","op":"Relu6","input":["Add_36"],"attr":{"T":{"type":"DT_FLOAT"}}},
          {"name":"depthwise_18","op":"DepthwiseConv2dNative","input":["model_1/model/re_lu_36/Relu6_model_1/model/batch_normalization_54/FusedBatchNormV3_model_1/model/depthwise_conv2d_21/depthwise_model_1/model/conv2d_36/Conv2D","depthwise_18/filter_in"],"attr":{"data_format":{"s":"TkhXQw=="},"explicit_paddings":{"list":{}},"dilations":{"list":{"i":["1","1","1","1"]}},"padding":{"s":"U0FNRQ=="},"T":{"type":"DT_FLOAT"},"strides":{"list":{"i":["1","1","1","1"]}}}},
          {"name":"Add_37","op":"Add","input":["depthwise_18","Add_37/y"],"attr":{"T":{"type":"DT_FLOAT"}}},
          {"name":"model_1/model/re_lu_37/Relu6_model_1/model/batch_normalization_55/FusedBatchNormV3_model_1/model/depthwise_conv2d_18/depthwise_model_1/model/depthwise_conv2d_21/depthwise","op":"Relu6","input":["Add_37"],"attr":{"T":{"type":"DT_FLOAT"}}},
          {"name":"Conv2D_37","op":"Conv2D","input":["model_1/model/re_lu_37/Relu6_model_1/model/batch_normalization_55/FusedBatchNormV3_model_1/model/depthwise_conv2d_18/depthwise_model_1/model/depthwise_conv2d_21/depthwise","Conv2D_37/filter"],"device":"/device:CPU:0","attr":{"explicit_paddings":{"list":{}},"padding":{"s":"U0FNRQ=="},"use_cudnn_on_gpu":{"b":true},"strides":{"list":{"i":["1","1","1","1"]}},"data_format":{"s":"TkhXQw=="},"dilations":{"list":{"i":["1","1","1","1"]}},"T":{"type":"DT_FLOAT"}}},
          {"name":"model_1/model/add_13/ArithmeticOptimizer/AddOpsRewrite_Leaf_1_add","op":"AddN","input":["Conv2D_37","model_1/model/add_12/ArithmeticOptimizer/AddOpsRewrite_add"],"attr":{"N":{"i":"2"},"_grappler_ArithmeticOptimizer_AddOpsRewriteStage":{"b":true},"T":{"type":"DT_FLOAT"}}},
          {"name":"model_1/model/add_13/ArithmeticOptimizer/AddOpsRewrite_add","op":"AddV2","input":["model_1/model/batch_normalization_56/FusedBatchNormV3_model_1/model/depthwise_conv2d_46/depthwise_model_1/model/conv2d_37/Conv2D1/y","model_1/model/add_13/ArithmeticOptimizer/AddOpsRewrite_Leaf_1_add"],"attr":{"_grappler_ArithmeticOptimizer_AddOpsRewriteStage":{"b":true},"T":{"type":"DT_FLOAT"}}},
          {"name":"Conv2D_38","op":"Conv2D","input":["model_1/model/add_13/ArithmeticOptimizer/AddOpsRewrite_add","Conv2D_38/filter"],"device":"/device:CPU:0","attr":{"T":{"type":"DT_FLOAT"},"strides":{"list":{"i":["1","1","1","1"]}},"use_cudnn_on_gpu":{"b":true},"padding":{"s":"U0FNRQ=="},"dilations":{"list":{"i":["1","1","1","1"]}},"explicit_paddings":{"list":{}},"data_format":{"s":"TkhXQw=="}}},
          {"name":"Add_38","op":"Add","input":["Conv2D_38","Add_38/y"],"attr":{"T":{"type":"DT_FLOAT"}}},
          {"name":"model_1/model/re_lu_38/Relu6_model_1/model/batch_normalization_57/FusedBatchNormV3_model_1/model/depthwise_conv2d_21/depthwise_model_1/model/conv2d_38/Conv2D","op":"Relu6","input":["Add_38"],"attr":{"T":{"type":"DT_FLOAT"}}},
          {"name":"depthwise_19","op":"DepthwiseConv2dNative","input":["model_1/model/re_lu_38/Relu6_model_1/model/batch_normalization_57/FusedBatchNormV3_model_1/model/depthwise_conv2d_21/depthwise_model_1/model/conv2d_38/Conv2D","depthwise_19/filter_in"],"attr":{"T":{"type":"DT_FLOAT"},"explicit_paddings":{"list":{}},"padding":{"s":"U0FNRQ=="},"dilations":{"list":{"i":["1","1","1","1"]}},"data_format":{"s":"TkhXQw=="},"strides":{"list":{"i":["1","1","1","1"]}}}},
          {"name":"Add_39","op":"Add","input":["depthwise_19","Add_39/y"],"attr":{"T":{"type":"DT_FLOAT"}}},
          {"name":"model_1/model/re_lu_39/Relu6_model_1/model/batch_normalization_58/FusedBatchNormV3_model_1/model/depthwise_conv2d_19/depthwise_model_1/model/depthwise_conv2d_21/depthwise","op":"Relu6","input":["Add_39"],"attr":{"T":{"type":"DT_FLOAT"}}},
          {"name":"Conv2D_39","op":"Conv2D","input":["model_1/model/re_lu_39/Relu6_model_1/model/batch_normalization_58/FusedBatchNormV3_model_1/model/depthwise_conv2d_19/depthwise_model_1/model/depthwise_conv2d_21/depthwise","Conv2D_39/filter"],"device":"/device:CPU:0","attr":{"strides":{"list":{"i":["1","1","1","1"]}},"dilations":{"list":{"i":["1","1","1","1"]}},"data_format":{"s":"TkhXQw=="},"explicit_paddings":{"list":{}},"T":{"type":"DT_FLOAT"},"padding":{"s":"U0FNRQ=="},"use_cudnn_on_gpu":{"b":true}}},
          {"name":"model_1/model/add_14/ArithmeticOptimizer/AddOpsRewrite_Leaf_1_add","op":"AddN","input":["Conv2D_39","model_1/model/add_13/ArithmeticOptimizer/AddOpsRewrite_add"],"attr":{"_grappler_ArithmeticOptimizer_AddOpsRewriteStage":{"b":true},"N":{"i":"2"},"T":{"type":"DT_FLOAT"}}},
          {"name":"model_1/model/add_14/ArithmeticOptimizer/AddOpsRewrite_add","op":"AddV2","input":["model_1/model/batch_normalization_59/FusedBatchNormV3_model_1/model/depthwise_conv2d_46/depthwise_model_1/model/conv2d_39/Conv2D1/y","model_1/model/add_14/ArithmeticOptimizer/AddOpsRewrite_Leaf_1_add"],"attr":{"T":{"type":"DT_FLOAT"},"_grappler_ArithmeticOptimizer_AddOpsRewriteStage":{"b":true}}},
          {"name":"Conv2D_40","op":"Conv2D","input":["model_1/model/add_14/ArithmeticOptimizer/AddOpsRewrite_add","Conv2D_40/filter"],"device":"/device:CPU:0","attr":{"explicit_paddings":{"list":{}},"strides":{"list":{"i":["1","1","1","1"]}},"T":{"type":"DT_FLOAT"},"dilations":{"list":{"i":["1","1","1","1"]}},"use_cudnn_on_gpu":{"b":true},"padding":{"s":"U0FNRQ=="},"data_format":{"s":"TkhXQw=="}}},
          {"name":"Add_40","op":"Add","input":["Conv2D_40","Add_40/y"],"attr":{"T":{"type":"DT_FLOAT"}}},
          {"name":"model_1/model/re_lu_40/Relu6_model_1/model/batch_normalization_60/FusedBatchNormV3_model_1/model/depthwise_conv2d_21/depthwise_model_1/model/conv2d_40/Conv2D","op":"Relu6","input":["Add_40"],"attr":{"T":{"type":"DT_FLOAT"}}},
          {"name":"depthwise_20","op":"DepthwiseConv2dNative","input":["model_1/model/re_lu_40/Relu6_model_1/model/batch_normalization_60/FusedBatchNormV3_model_1/model/depthwise_conv2d_21/depthwise_model_1/model/conv2d_40/Conv2D","depthwise_20/filter_in"],"attr":{"dilations":{"list":{"i":["1","1","1","1"]}},"padding":{"s":"U0FNRQ=="},"strides":{"list":{"i":["1","1","1","1"]}},"data_format":{"s":"TkhXQw=="},"explicit_paddings":{"list":{}},"T":{"type":"DT_FLOAT"}}},
          {"name":"Add_41","op":"Add","input":["depthwise_20","Add_41/y"],"attr":{"T":{"type":"DT_FLOAT"}}},
          {"name":"model_1/model/re_lu_41/Relu6_model_1/model/batch_normalization_61/FusedBatchNormV3_model_1/model/depthwise_conv2d_20/depthwise_model_1/model/depthwise_conv2d_21/depthwise","op":"Relu6","input":["Add_41"],"attr":{"T":{"type":"DT_FLOAT"}}},
          {"name":"Conv2D_41","op":"Conv2D","input":["model_1/model/re_lu_41/Relu6_model_1/model/batch_normalization_61/FusedBatchNormV3_model_1/model/depthwise_conv2d_20/depthwise_model_1/model/depthwise_conv2d_21/depthwise","Conv2D_41/filter"],"device":"/device:CPU:0","attr":{"use_cudnn_on_gpu":{"b":true},"data_format":{"s":"TkhXQw=="},"T":{"type":"DT_FLOAT"},"explicit_paddings":{"list":{}},"dilations":{"list":{"i":["1","1","1","1"]}},"strides":{"list":{"i":["1","1","1","1"]}},"padding":{"s":"U0FNRQ=="}}},
          {"name":"model_1/model/add_15/ArithmeticOptimizer/AddOpsRewrite_Leaf_1_add","op":"AddN","input":["Conv2D_41","model_1/model/add_14/ArithmeticOptimizer/AddOpsRewrite_add"],"attr":{"T":{"type":"DT_FLOAT"},"_grappler_ArithmeticOptimizer_AddOpsRewriteStage":{"b":true},"N":{"i":"2"}}},
          {"name":"model_1/model/add_15/ArithmeticOptimizer/AddOpsRewrite_add","op":"AddV2","input":["model_1/model/batch_normalization_62/FusedBatchNormV3_model_1/model/depthwise_conv2d_46/depthwise_model_1/model/conv2d_41/Conv2D1/y","model_1/model/add_15/ArithmeticOptimizer/AddOpsRewrite_Leaf_1_add"],"attr":{"T":{"type":"DT_FLOAT"},"_grappler_ArithmeticOptimizer_AddOpsRewriteStage":{"b":true}}},
          {"name":"depthwise_32","op":"DepthwiseConv2dNative","input":["model_1/model/add_15/ArithmeticOptimizer/AddOpsRewrite_add","depthwise_32/filter_in"],"attr":{"T":{"type":"DT_FLOAT"},"dilations":{"list":{"i":["1","1","1","1"]}},"strides":{"list":{"i":["1","1","1","1"]}},"padding":{"s":"U0FNRQ=="},"explicit_paddings":{"list":{}},"data_format":{"s":"TkhXQw=="}}},
          {"name":"depthwise_33","op":"DepthwiseConv2dNative","input":["model_1/model/add_15/ArithmeticOptimizer/AddOpsRewrite_add","depthwise_33/filter_in"],"attr":{"strides":{"list":{"i":["1","1","1","1"]}},"explicit_paddings":{"list":{}},"T":{"type":"DT_FLOAT"},"data_format":{"s":"TkhXQw=="},"padding":{"s":"U0FNRQ=="},"dilations":{"list":{"i":["1","1","1","1"]}}}},
          {"name":"Conv2D_42","op":"Conv2D","input":["model_1/model/add_15/ArithmeticOptimizer/AddOpsRewrite_add","Conv2D_42/filter"],"device":"/device:CPU:0","attr":{"explicit_paddings":{"list":{}},"T":{"type":"DT_FLOAT"},"data_format":{"s":"TkhXQw=="},"padding":{"s":"U0FNRQ=="},"use_cudnn_on_gpu":{"b":true},"strides":{"list":{"i":["1","1","1","1"]}},"dilations":{"list":{"i":["1","1","1","1"]}}}},
          {"name":"Conv2D_61","op":"Conv2D","input":["depthwise_32","Conv2D_61/filter"],"device":"/device:CPU:0","attr":{"strides":{"list":{"i":["1","1","1","1"]}},"use_cudnn_on_gpu":{"b":true},"explicit_paddings":{"list":{}},"data_format":{"s":"TkhXQw=="},"padding":{"s":"VkFMSUQ="},"T":{"type":"DT_FLOAT"},"dilations":{"list":{"i":["1","1","1","1"]}}}},
          {"name":"Conv2D_62","op":"Conv2D","input":["depthwise_33","Conv2D_62/filter"],"device":"/device:CPU:0","attr":{"T":{"type":"DT_FLOAT"},"dilations":{"list":{"i":["1","1","1","1"]}},"use_cudnn_on_gpu":{"b":true},"padding":{"s":"VkFMSUQ="},"explicit_paddings":{"list":{}},"data_format":{"s":"TkhXQw=="},"strides":{"list":{"i":["1","1","1","1"]}}}},
          {"name":"Add_42","op":"Add","input":["Conv2D_42","Add_42/y"],"attr":{"T":{"type":"DT_FLOAT"}}},
          {"name":"Add_62","op":"Add","input":["Conv2D_61","Add_62/y"],"attr":{"T":{"type":"DT_FLOAT"}}},
          {"name":"Add_63","op":"Add","input":["Conv2D_62","Add_63/y"],"attr":{"T":{"type":"DT_FLOAT"}}},
          {"name":"model_1/model/re_lu_42/Relu6_model_1/model/batch_normalization_63/FusedBatchNormV3_model_1/model/depthwise_conv2d_21/depthwise_model_1/model/conv2d_42/Conv2D","op":"Relu6","input":["Add_42"],"attr":{"T":{"type":"DT_FLOAT"}}},
          {"name":"model_1/model/activation_1/Relu_model_1/model/batch_normalization_90/FusedBatchNormV3_model_1/model/conv2d_60/BiasAdd/ReadVariableOp/resource_model_1/model/conv2d_60/BiasAdd_model_1/model/depthwise_conv2d_72/depthwise_model_1/model/conv2d_60/Conv2D1","op":"Relu","input":["Add_62"],"attr":{"T":{"type":"DT_FLOAT"}}},
          {"name":"model_1/model/activation_16/Relu_model_1/model/batch_normalization_105/FusedBatchNormV3_model_1/model/conv2d_75/BiasAdd/ReadVariableOp/resource_model_1/model/conv2d_75/BiasAdd_model_1/model/depthwise_conv2d_47/depthwise_model_1/model/conv2d_75/Conv2D1","op":"Relu","input":["Add_63"],"attr":{"T":{"type":"DT_FLOAT"}}},
          {"name":"model_1/model/tf_op_layer_blocks_21/Pad/blocks_21/Pad","op":"Pad","input":["model_1/model/re_lu_42/Relu6_model_1/model/batch_normalization_63/FusedBatchNormV3_model_1/model/depthwise_conv2d_21/depthwise_model_1/model/conv2d_42/Conv2D","model_1/model/tf_op_layer_blocks_21/Pad/blocks_21/Pad/paddings"],"attr":{"T":{"type":"DT_FLOAT"},"Tpaddings":{"type":"DT_INT32"}}},
          {"name":"depthwise_21","op":"DepthwiseConv2dNative","input":["model_1/model/tf_op_layer_blocks_21/Pad/blocks_21/Pad","depthwise_21/filter_in"],"attr":{"explicit_paddings":{"list":{}},"padding":{"s":"VkFMSUQ="},"T":{"type":"DT_FLOAT"},"dilations":{"list":{"i":["1","1","1","1"]}},"strides":{"list":{"i":["1","2","2","1"]}},"data_format":{"s":"TkhXQw=="}}},
          {"name":"Add_43","op":"Add","input":["depthwise_21","Add_43/y"],"attr":{"T":{"type":"DT_FLOAT"}}},
          {"name":"model_1/model/re_lu_43/Relu6_model_1/model/batch_normalization_64/FusedBatchNormV3_model_1/model/depthwise_conv2d_21/depthwise","op":"Relu6","input":["Add_43"],"attr":{"T":{"type":"DT_FLOAT"}}},
          {"name":"Conv2D_43","op":"Conv2D","input":["model_1/model/re_lu_43/Relu6_model_1/model/batch_normalization_64/FusedBatchNormV3_model_1/model/depthwise_conv2d_21/depthwise","Conv2D_43/filter"],"device":"/device:CPU:0","attr":{"data_format":{"s":"TkhXQw=="},"dilations":{"list":{"i":["1","1","1","1"]}},"explicit_paddings":{"list":{}},"T":{"type":"DT_FLOAT"},"strides":{"list":{"i":["1","1","1","1"]}},"padding":{"s":"U0FNRQ=="},"use_cudnn_on_gpu":{"b":true}}},
          {"name":"model_1/model/batch_normalization_65/FusedBatchNormV3_model_1/model/conv2d_57/Conv2D_model_1/model/conv2d_43/Conv2D1","op":"Add","input":["Conv2D_43","model_1/model/batch_normalization_65/FusedBatchNormV3_model_1/model/conv2d_57/Conv2D_model_1/model/conv2d_43/Conv2D1/y"],"attr":{"T":{"type":"DT_FLOAT"}}},
          {"name":"Conv2D_44","op":"Conv2D","input":["model_1/model/batch_normalization_65/FusedBatchNormV3_model_1/model/conv2d_57/Conv2D_model_1/model/conv2d_43/Conv2D1","Conv2D_44/filter"],"device":"/device:CPU:0","attr":{"dilations":{"list":{"i":["1","1","1","1"]}},"padding":{"s":"U0FNRQ=="},"T":{"type":"DT_FLOAT"},"explicit_paddings":{"list":{}},"use_cudnn_on_gpu":{"b":true},"data_format":{"s":"TkhXQw=="},"strides":{"list":{"i":["1","1","1","1"]}}}},
          {"name":"Add_44","op":"Add","input":["Conv2D_44","Add_44/y"],"attr":{"T":{"type":"DT_FLOAT"}}},
          {"name":"model_1/model/re_lu_44/Relu6_model_1/model/batch_normalization_66/FusedBatchNormV3_model_1/model/depthwise_conv2d_54/depthwise_model_1/model/conv2d_44/Conv2D","op":"Relu6","input":["Add_44"],"attr":{"T":{"type":"DT_FLOAT"}}},
          {"name":"depthwise_22","op":"DepthwiseConv2dNative","input":["model_1/model/re_lu_44/Relu6_model_1/model/batch_normalization_66/FusedBatchNormV3_model_1/model/depthwise_conv2d_54/depthwise_model_1/model/conv2d_44/Conv2D","depthwise_22/filter_in"],"attr":{"strides":{"list":{"i":["1","1","1","1"]}},"data_format":{"s":"TkhXQw=="},"T":{"type":"DT_FLOAT"},"dilations":{"list":{"i":["1","1","1","1"]}},"explicit_paddings":{"list":{}},"padding":{"s":"U0FNRQ=="}}},
          {"name":"Add_45","op":"Add","input":["depthwise_22","Add_45/y"],"attr":{"T":{"type":"DT_FLOAT"}}},
          {"name":"model_1/model/re_lu_45/Relu6_model_1/model/batch_normalization_67/FusedBatchNormV3_model_1/model/depthwise_conv2d_22/depthwise_model_1/model/depthwise_conv2d_54/depthwise","op":"Relu6","input":["Add_45"],"attr":{"T":{"type":"DT_FLOAT"}}},
          {"name":"Conv2D_45","op":"Conv2D","input":["model_1/model/re_lu_45/Relu6_model_1/model/batch_normalization_67/FusedBatchNormV3_model_1/model/depthwise_conv2d_22/depthwise_model_1/model/depthwise_conv2d_54/depthwise","Conv2D_45/filter"],"device":"/device:CPU:0","attr":{"use_cudnn_on_gpu":{"b":true},"dilations":{"list":{"i":["1","1","1","1"]}},"data_format":{"s":"TkhXQw=="},"explicit_paddings":{"list":{}},"strides":{"list":{"i":["1","1","1","1"]}},"padding":{"s":"U0FNRQ=="},"T":{"type":"DT_FLOAT"}}},
          {"name":"model_1/model/add_16/ArithmeticOptimizer/AddOpsRewrite_Leaf_1_add","op":"AddN","input":["Conv2D_45","model_1/model/batch_normalization_65/FusedBatchNormV3_model_1/model/conv2d_57/Conv2D_model_1/model/conv2d_43/Conv2D1"],"attr":{"_grappler_ArithmeticOptimizer_AddOpsRewriteStage":{"b":true},"N":{"i":"2"},"T":{"type":"DT_FLOAT"}}},
          {"name":"model_1/model/add_16/ArithmeticOptimizer/AddOpsRewrite_add","op":"AddV2","input":["model_1/model/batch_normalization_68/FusedBatchNormV3_model_1/model/conv2d_57/Conv2D_model_1/model/conv2d_45/Conv2D1/y","model_1/model/add_16/ArithmeticOptimizer/AddOpsRewrite_Leaf_1_add"],"attr":{"_grappler_ArithmeticOptimizer_AddOpsRewriteStage":{"b":true},"T":{"type":"DT_FLOAT"}}},
          {"name":"Conv2D_46","op":"Conv2D","input":["model_1/model/add_16/ArithmeticOptimizer/AddOpsRewrite_add","Conv2D_46/filter"],"device":"/device:CPU:0","attr":{"padding":{"s":"U0FNRQ=="},"dilations":{"list":{"i":["1","1","1","1"]}},"explicit_paddings":{"list":{}},"use_cudnn_on_gpu":{"b":true},"data_format":{"s":"TkhXQw=="},"strides":{"list":{"i":["1","1","1","1"]}},"T":{"type":"DT_FLOAT"}}},
          {"name":"Add_46","op":"Add","input":["Conv2D_46","Add_46/y"],"attr":{"T":{"type":"DT_FLOAT"}}},
          {"name":"model_1/model/re_lu_46/Relu6_model_1/model/batch_normalization_69/FusedBatchNormV3_model_1/model/depthwise_conv2d_54/depthwise_model_1/model/conv2d_46/Conv2D","op":"Relu6","input":["Add_46"],"attr":{"T":{"type":"DT_FLOAT"}}},
          {"name":"depthwise_23","op":"DepthwiseConv2dNative","input":["model_1/model/re_lu_46/Relu6_model_1/model/batch_normalization_69/FusedBatchNormV3_model_1/model/depthwise_conv2d_54/depthwise_model_1/model/conv2d_46/Conv2D","depthwise_23/filter_in"],"attr":{"data_format":{"s":"TkhXQw=="},"strides":{"list":{"i":["1","1","1","1"]}},"padding":{"s":"U0FNRQ=="},"T":{"type":"DT_FLOAT"},"explicit_paddings":{"list":{}},"dilations":{"list":{"i":["1","1","1","1"]}}}},
          {"name":"Add_47","op":"Add","input":["depthwise_23","Add_47/y"],"attr":{"T":{"type":"DT_FLOAT"}}},
          {"name":"model_1/model/re_lu_47/Relu6_model_1/model/batch_normalization_70/FusedBatchNormV3_model_1/model/depthwise_conv2d_23/depthwise_model_1/model/depthwise_conv2d_54/depthwise","op":"Relu6","input":["Add_47"],"attr":{"T":{"type":"DT_FLOAT"}}},
          {"name":"Conv2D_47","op":"Conv2D","input":["model_1/model/re_lu_47/Relu6_model_1/model/batch_normalization_70/FusedBatchNormV3_model_1/model/depthwise_conv2d_23/depthwise_model_1/model/depthwise_conv2d_54/depthwise","Conv2D_47/filter"],"device":"/device:CPU:0","attr":{"data_format":{"s":"TkhXQw=="},"dilations":{"list":{"i":["1","1","1","1"]}},"padding":{"s":"U0FNRQ=="},"strides":{"list":{"i":["1","1","1","1"]}},"T":{"type":"DT_FLOAT"},"explicit_paddings":{"list":{}},"use_cudnn_on_gpu":{"b":true}}},
          {"name":"model_1/model/add_17/ArithmeticOptimizer/AddOpsRewrite_Leaf_1_add","op":"AddN","input":["Conv2D_47","model_1/model/add_16/ArithmeticOptimizer/AddOpsRewrite_add"],"attr":{"_grappler_ArithmeticOptimizer_AddOpsRewriteStage":{"b":true},"T":{"type":"DT_FLOAT"},"N":{"i":"2"}}},
          {"name":"model_1/model/add_17/ArithmeticOptimizer/AddOpsRewrite_add","op":"AddV2","input":["model_1/model/batch_normalization_71/FusedBatchNormV3_model_1/model/conv2d_57/Conv2D_model_1/model/conv2d_47/Conv2D1/y","model_1/model/add_17/ArithmeticOptimizer/AddOpsRewrite_Leaf_1_add"],"attr":{"_grappler_ArithmeticOptimizer_AddOpsRewriteStage":{"b":true},"T":{"type":"DT_FLOAT"}}},
          {"name":"Conv2D_48","op":"Conv2D","input":["model_1/model/add_17/ArithmeticOptimizer/AddOpsRewrite_add","Conv2D_48/filter"],"device":"/device:CPU:0","attr":{"dilations":{"list":{"i":["1","1","1","1"]}},"data_format":{"s":"TkhXQw=="},"use_cudnn_on_gpu":{"b":true},"padding":{"s":"U0FNRQ=="},"explicit_paddings":{"list":{}},"strides":{"list":{"i":["1","1","1","1"]}},"T":{"type":"DT_FLOAT"}}},
          {"name":"Add_48","op":"Add","input":["Conv2D_48","Add_48/y"],"attr":{"T":{"type":"DT_FLOAT"}}},
          {"name":"model_1/model/re_lu_48/Relu6_model_1/model/batch_normalization_72/FusedBatchNormV3_model_1/model/depthwise_conv2d_54/depthwise_model_1/model/conv2d_48/Conv2D","op":"Relu6","input":["Add_48"],"attr":{"T":{"type":"DT_FLOAT"}}},
          {"name":"depthwise_24","op":"DepthwiseConv2dNative","input":["model_1/model/re_lu_48/Relu6_model_1/model/batch_normalization_72/FusedBatchNormV3_model_1/model/depthwise_conv2d_54/depthwise_model_1/model/conv2d_48/Conv2D","depthwise_24/filter_in"],"attr":{"data_format":{"s":"TkhXQw=="},"T":{"type":"DT_FLOAT"},"strides":{"list":{"i":["1","1","1","1"]}},"padding":{"s":"U0FNRQ=="},"dilations":{"list":{"i":["1","1","1","1"]}},"explicit_paddings":{"list":{}}}},
          {"name":"Add_49","op":"Add","input":["depthwise_24","Add_49/y"],"attr":{"T":{"type":"DT_FLOAT"}}},
          {"name":"model_1/model/re_lu_49/Relu6_model_1/model/batch_normalization_73/FusedBatchNormV3_model_1/model/depthwise_conv2d_24/depthwise_model_1/model/depthwise_conv2d_54/depthwise","op":"Relu6","input":["Add_49"],"attr":{"T":{"type":"DT_FLOAT"}}},
          {"name":"Conv2D_49","op":"Conv2D","input":["model_1/model/re_lu_49/Relu6_model_1/model/batch_normalization_73/FusedBatchNormV3_model_1/model/depthwise_conv2d_24/depthwise_model_1/model/depthwise_conv2d_54/depthwise","Conv2D_49/filter"],"device":"/device:CPU:0","attr":{"T":{"type":"DT_FLOAT"},"data_format":{"s"…
          {"name":"model_1/model/convworld_3d/BiasAdd_model_1/model/convworld_3d/Conv2D_model_1/model/convworld_3d/BiasAdd/ReadVariableOp/resource1","op":"Add","input":["Conv2D_103","model_1/model/convworld_3d/BiasAdd_model_1/model/convworld_3d/Conv2D_model_1/model/convworld_3d/BiasAdd/ReadVariableOp/resource1/y"],"attr":{"T":{"type":"DT_FLOAT"}}},
          {"name":"Identity","op":"Reshape","input":["model_1/model/convld_3d/BiasAdd_model_1/model/convld_3d/Conv2D_model_1/model/convld_3d/BiasAdd/ReadVariableOp/resource1","Identity/shape"],"attr":{"Tshape":{"type":"DT_INT32"},"T":{"type":"DT_FLOAT"}}},
          {"name":"model_1/model/activation_poseflag/Sigmoid","op":"Sigmoid","input":["model_1/model/conv_poseflag/BiasAdd_model_1/model/output_segmentation/Conv2D_model_1/model/conv_poseflag/Conv2D_model_1/model/conv_poseflag/BiasAdd/ReadVariableOp/resource1"],"attr":{"T":{"type":"DT_FLOAT"}}},
          {"name":"Identity_4","op":"Reshape","input":["model_1/model/convworld_3d/BiasAdd_model_1/model/convworld_3d/Conv2D_model_1/model/convworld_3d/BiasAdd/ReadVariableOp/resource1","Identity_4/shape"],"attr":{"T":{"type":"DT_FLOAT"},"Tshape":{"type":"DT_INT32"}}},
          {"name":"Identity_1","op":"Reshape","input":["model_1/model/activation_poseflag/Sigmoid","Identity_1/shape"],"attr":{"T":{"type":"DT_FLOAT"},"Tshape":{"type":"DT_INT32"}}}
      ],
      "library": {},
      "versions":
      {
          "producer": 716
      }
  },
  "weightsManifest":
  [
      {
          "paths": ["blazepose-heavy.bin"],
          "weights": [{"name":"Conv2D_102/filter","shape":[2,2,288,195],"dtype":"float32","quantization":{"dtype":"float16","original_dtype":"float32"}},{"name":"model_1/model/convld_3d/BiasAdd_model_1/model/convld_3d/Conv2D_model_1/model/convld_3d/BiasAdd/ReadVariableOp/resource1/y","shape":[195],"dtype":"float32","quantization":{"dtype":"float16","original_dtype":"float32"}},{"name":"Identity/shape","shape":[2],"dtype":"int32"},{"name":"Conv2D_104/filter","shape":[2,2,288,1],"dtype":"float32","quantization":{"dtype":"float16","original_dtype":"float32"}},{"name":"model_1/model/conv_poseflag/BiasAdd_model_1/model/output_segmentation/Conv2D_model_1/model/conv_poseflag/Conv2D_model_1/model/conv_poseflag/BiasAdd/ReadVariableOp/resource1/y","shape":[1],"dtype":"float32","quantization":{"dtype":"float16","original_dtype":"float32"}},{"name":"Identity_1/shape","shape":[2],"dtype":"int32"},{"name":"depthwise_39/filter_in","shape":[3,3,48,1],"dtype":"float32","quantization":{"dtype":"float16","original_dtype":"float32"}},{"name":"Conv2D_68/filter","shape":[1,1,48,8],"dtype":"float32","quantization":{"dtype":"float16","original_dtype":"float32"}},{"name":"Add_68/y","shape":[8],"dtype":"float32","quantization":{"dtype":"float16","original_dtype":"float32"}},{"name":"model_1/model/up_sampling2d_3/resize/ResizeBilinear_lambda/resize/size","shape":[2],"dtype":"int32"},{"name":"depthwise_37/filter_in","shape":[3,3,24,1],"dtype":"float32","quantization":{"dtype":"float16","original_dtype":"float32"}},{"name":"Conv2D_66/filter","shape":[1,1,24,8],"dtype":"float32","quantization":{"dtype":"float16","original_dtype":"float32"}},{"name":"Add_67/y","shape":[8],"dtype":"float32","quantization":{"dtype":"float16","original_dtype":"float32"}},{"name":"depthwise_73/filter_in","shape":[3,3,8,1],"dtype":"float32","quantization":{"dtype":"float16","original_dtype":"float32"}},{"name":"Conv2D_106/filter","shape":[1,1,8,8],"dtype":"float32","quantization":{"dtype":"float16","original_dtype":"float32"}},{"name":"Add_103/y","shape":[8],"dtype":"float32","quantization":{"dtype":"float16","original_dtype":"float32"}},{"name":"Conv2D_107/filter","shape":[3,3,8,1],"dtype":"float32","quantization":{"dtype":"float16","original_dtype":"float32"}},{"name":"Identity_2/y","shape":[1],"dtype":"float32","quantization":{"dtype":"float16","original_dtype":"float32"}},{"name":"Conv2D_105/filter","shape":[3,3,48,39],"dtype":"float32","quantization":{"dtype":"float16","original_dtype":"float32"}},{"name":"Identity_3/y","shape":[39],"dtype":"float32","quantization":{"dtype":"float16","original_dtype":"float32"}},{"name":"model_1/model/batch_normalization_129/FusedBatchNormV3_model_1/model/conv2d_99/Conv2D1/y","shape":[288],"dtype":"float32","quantization":{"dtype":"float16","original_dtype":"float32"}},{"name":"model_1/model/batch_normalization_128/FusedBatchNormV3_model_1/model/conv2d_99/Conv2D_model_1/model/conv2d_98/Conv2D1/y","shape":[288],"dtype":"float32","quantization":{"dtype":"float16","original_dtype":"float32"}},{"name":"model_1/model/batch_normalization_127/FusedBatchNormV3_model_1/model/conv2d_99/Conv2D_model_1/model/conv2d_97/Conv2D1/y","shape":[288],"dtype":"float32","quantization":{"dtype":"float16","original_dtype":"float32"}},{"name":"model_1/model/batch_normalization_126/FusedBatchNormV3_model_1/model/conv2d_99/Conv2D_model_1/model/conv2d_96/Conv2D1/y","shape":[288],"dtype":"float32","quantization":{"dtype":"float16","original_dtype":"float32"}},{"name":"model_1/model/batch_normalization_125/FusedBatchNormV3_model_1/model/conv2d_99/Conv2D_model_1/model/conv2d_95/Conv2D1/y","shape":[288],"dtype":"float32","quantization":{"dtype":"float16","original_dtype":"float32"}},{"name":"model_1/model/batch_normalization_124/FusedBatchNormV3_model_1/model/conv2d_99/Conv2D_model_1/model/conv2d_94/Conv2D1/y","shape":[288],"dtype":"float32","quantization":{"dtype":"float16","original_dtype":"float32"}},{"name":"model_1/model/batch_normalization_123/FusedBatchNormV3_model_1/model/conv2d_99/Conv2D_model_1/model/conv2d_93/Conv2D1/y","shape":[288],"dtype":"float32","quantization":{"dtype":"float16","original_dtype":"float32"}},{"name":"model_1/model/batch_normalization_122/FusedBatchNormV3_model_1/model/conv2d_99/Conv2D_model_1/model/conv2d_92/Conv2D1/y","shape":[288],"dtype":"float32","quantization":{"dtype":"float16","original_dtype":"float32"}},{"name":"model_1/model/batch_normalization_121/FusedBatchNormV3_model_1/model/conv2d_99/Conv2D_model_1/model/conv2d_91/Conv2D1/y","shape":[288],"dtype":"float32","quantization":{"dtype":"float16","original_dtype":"float32"}},{"name":"model_1/model/batch_normalization_120/FusedBatchNormV3_model_1/model/conv2d_99/Conv2D_model_1/model/conv2d_90/Conv2D1/y","shape":[288],"dtype":"float32","quantization":{"dtype":"float16","original_dtype":"float32"}},{"name":"model_1/model/batch_normalization_119/FusedBatchNormV3_model_1/model/conv2d_99/Conv2D_model_1/model/conv2d_89/Conv2D1/y","shape":[288],"dtype":"float32","quantization":{"dtype":"float16","original_dtype":"float32"}},{"name":"model_1/model/batch_normalization_118/FusedBatchNormV3_model_1/model/conv2d_99/Conv2D_model_1/model/conv2d_88/Conv2D1/y","shape":[288],"dtype":"float32","quantization":{"dtype":"float16","original_dtype":"float32"}},{"name":"model_1/model/batch_normalization_117/FusedBatchNormV3_model_1/model/conv2d_99/Conv2D_model_1/model/conv2d_87/Conv2D1/y","shape":[288],"dtype":"float32","quantization":{"dtype":"float16","original_dtype":"float32"}},{"name":"model_1/model/batch_normalization_116/FusedBatchNormV3_model_1/model/conv2d_99/Conv2D_model_1/model/conv2d_86/Conv2D1/y","shape":[288],"dtype":"float32","quantization":{"dtype":"float16","original_dtype":"float32"}},{"name":"model_1/model/batch_normalization_115/FusedBatchNormV3_model_1/model/conv2d_99/Conv2D_model_1/model/conv2d_85/Conv2D1/y","shape":[288],"dtype":"float32","quantization":{"dtype":"float16","original_dtype":"float32"}},{"name":"model_1/model/batch_normalization_114/FusedBatchNormV3_model_1/model/conv2d_99/Conv2D_model_1/model/conv2d_84/Conv2D1/y","shape":[288],"dtype":"float32","quantization":{"dtype":"float16","original_dtype":"float32"}},{"name":"model_1/model/batch_normalization_112/FusedBatchNormV3_model_1/model/conv2d_99/Conv2D_model_1/model/conv2d_82/Conv2D1/y","shape":[288],"dtype":"float32","quantization":{"dtype":"float16","original_dtype":"float32"}},{"name":"model_1/model/batch_normalization_111/FusedBatchNormV3_model_1/model/conv2d_99/Conv2D_model_1/model/conv2d_81/Conv2D1/y","shape":[288],"dtype":"float32","quantization":{"dtype":"float16","original_dtype":"float32"}},{"name":"model_1/model/batch_normalization_110/FusedBatchNormV3_model_1/model/conv2d_99/Conv2D_model_1/model/conv2d_80/Conv2D1/y","shape":[288],"dtype":"float32","quantization":{"dtype":"float16","original_dtype":"float32"}},{"name":"model_1/model/batch_normalization_109/FusedBatchNormV3_model_1/model/conv2d_99/Conv2D_model_1/model/conv2d_79/Conv2D1/y","shape":[288],"dtype":"float32","quantization":{"dtype":"float16","original_dtype":"float32"}},{"name":"model_1/model/batch_normalization_108/FusedBatchNormV3_model_1/model/conv2d_99/Conv2D_model_1/model/conv2d_78/Conv2D1/y","shape":[288],"dtype":"float32","quantization":{"dtype":"float16","original_dtype":"float32"}},{"name":"model_1/model/batch_normalization_107/FusedBatchNormV3_model_1/model/conv2d_99/Conv2D_model_1/model/conv2d_77/Conv2D1/y","shape":[288],"dtype":"float32","quantization":{"dtype":"float16","original_dtype":"float32"}},{"name":"model_1/model/batch_normalization_106/FusedBatchNormV3_model_1/model/conv2d_99/Conv2D_model_1/model/conv2d_76/Conv2D1/y","shape":[288],"dtype":"float32","quantization":{"dtype":"float16","original_dtype":"float32"}},{"name":"model_1/model/channel_padding_2/Pad/paddings","shape":[4,2],"dtype":"int32"},{"name":"model_1/model/batch_normalization_104/FusedBatchNormV3_model_1/model/depthwise_conv2d_47/depthwise_model_1/model/conv2d_74/Conv2D1/y","shape":[192],"dtype":"float32","quantization":{"dtype":"float16","original_dtype":"float32"}},{"name":"model_1/model/batch_normalization_103/FusedBatchNormV3_model_1/model/depthwise_conv2d_47/depthwise_model_1/model/conv2d_73/Conv2D1/y","shape":[192],"dtype":"float32","quantization":{"dtype":"float16","original_dtype":"float32"}},{"name":"model_1/model/batch_normalization_102/FusedBatchNormV3_model_1/model/depthwise_conv2d_47/depthwise_model_1/model/conv2d_72/Conv2D1/y","shape":[192],"dtype":"float32","quantization":{"dtype":"float16","original_dtype":"float32"}},{"name":"model_1/model/batch_normalization_101/FusedBatchNormV3_model_1/model/depthwise_conv2d_47/depthwise_model_1/model/conv2d_71/Conv2D1/y","shape":[192],"dtype":"float32","quantization":{"dtype":"float16","original_dtype":"float32"}},{"name":"model_1/model/batch_normalization_100/FusedBatchNormV3_model_1/model/depthwise_conv2d_47/depthwise_model_1/model/conv2d_70/Conv2D1/y","shape":[192],"dtype":"float32","quantization":{"dtype":"float16","original_dtype":"float32"}},{"name":"model_1/model/batch_normalization_99/FusedBatchNormV3_model_1/model/depthwise_conv2d_47/depthwise_model_1/model/conv2d_69/Conv2D1/y","shape":[192],"dtype":"float32","quantization":{"dtype":"float16","original_dtype":"float32"}},{"name":"model_1/model/channel_padding_1/Pad/paddings","shape":[4,2],"dtype":"int32"},{"name":"model_1/model/batch_normalization_97/FusedBatchNormV3_model_1/model/depthwise_conv2d_40/depthwise_model_1/model/conv2d_67/Conv2D1/y","shape":[96],"dtype":"float32","quantization":{"dtype":"float16","original_dtype":"float32"}},{"name":"model_1/model/batch_normalization_96/FusedBatchNormV3_model_1/model/depthwise_conv2d_40/depthwise_model_1/model/conv2d_66/Conv2D1/y","shape":[96],"dtype":"float32","quantization":{"dtype":"float16","original_dtype":"float32"}},{"name":"model_1/model/batch_normalization_95/FusedBatchNormV3_model_1/model/depthwise_conv2d_40/depthwise_model_1/model/conv2d_65/Conv2D1/y","shape":[96],"dtype":"float32","quantization":{"dtype":"float16","original_dtype":"float32"}},{"name":"model_1/model/batch_normalization_94/FusedBatchNormV3_model_1/model/depthwise_conv2d_40/depthwise_model_1/model/conv2d_64/Conv2D1/y","shape":[96],"dtype":"float32","quantization":{"dtype":"float16","original_dtype":"float32"}},{"name":"model_1/model/batch_normalization_93/FusedBatchNormV3_model_1/model/depthwise_conv2d_40/depthwise_model_1/model/conv2d_63/Conv2D1/y","shape":[96],"dtype":"float32","quantization":{"dtype":"float16","original_dtype":"float32"}},{"name":"model_1/model/channel_padding/Pad/paddings","shape":[4,2],"dtype":"int32"},{"name":"depthwise_30/filter_in","shape":[3,3,1632,1],"dtype":"float32","quantization":{"dtype":"float16","original_dtype":"float32"}},{"name":"Conv2D_59/filter","shape":[1,1,1632,48],"dtype":"float32","quantization":{"dtype":"float16","original_dtype":"float32"}},{"name":"Add_60/y","shape":[48],"dtype":"float32","quantization":{"dtype":"float16","original_dtype":"float32"}},{"name":"model_1/model/up_sampling2d/resize/ResizeBilinear_lambda/resize/size","shape":[2],"dtype":"int32"},{"name":"depthwise_32/filter_in","shape":[3,3,160,1],"dtype":"float32","quantization":{"dtype":"float16","original_dtype":"float32"}},{"name":"Conv2D_61/filter","shape":[1,1,160,48],"dtype":"float32","quantization":{"dtype":"float16","original_dtype":"float32"}},{"name":"Add_62/y","shape":[48],"dtype":"float32","quantization":{"dtype":"float16","original_dtype":"float32"}},{"name":"model_1/model/up_sampling2d_1/resize/ResizeBilinear_lambda/resize/size","shape":[2],"dtype":"int32"},{"name":"depthwise_34/filter_in","shape":[3,3,56,1],"dtype":"float32","quantization":{"dtype":"float16","original_dtype":"float32"}},{"name":"Conv2D_63/filter","shape":[1,1,56,48],"dtype":"float32","quantization":{"dtype":"float16","original_dtype":"float32"}},{"name":"Add_64/y","shape":[48],"dtype":"float32","quantization":{"dtype":"float16","original_dtype":"float32"}},{"name":"model_1/model/up_sampling2d_2/resize/ResizeBilinear_lambda/resize/size","shape":[2],"dtype":"int32"},{"name":"depthwise_36/filter_in","shape":[3,3,32,1],"dtype":"float32","quantization":{"dtype":"float16","original_dtype":"float32"}},{"name":"Conv2D_65/filter","shape":[1,1,32,48],"dtype":"float32","quantization":{"dtype":"float16","original_dtype":"float32"}},{"name":"Add_66/y","shape":[48],"dtype":"float32","quantization":{"dtype":"float16","original_dtype":"float32"}},{"name":"depthwise_38/filter_in","shape":[3,3,48,1],"dtype":"float32","quantization":{"dtype":"float16","original_dtype":"float32"}},{"name":"Conv2D_67/filter","shape":[1,1,48,96],"dtype":"float32","quantization":{"dtype":"float16","original_dtype":"float32"}},{"name":"depthwise_40/filter_in","shape":[3,3,96,1],"dtype":"float32","quantization":{"dtype":"float16","original_dtype":"float32"}},{"name":"Conv2D_69/filter","shape":[1,1,96,96],"dtype":"float32","quantization":{"dtype":"float16","original_dtype":"float32"}},{"name":"depthwise_41/filter_in","shape":[3,3,96,1],"dtype":"float32","quantization":{"dtype":"float16","original_dtype":"float32"}},{"name":"Conv2D_70/filter","shape":[1,1,96,96],"dtype":"float32","quantization":{"dtype":"float16","original_dtype":"float32"}},{"name":"depthwise_42/filter_in","shape":[3,3,96,1],"dtype":"float32","quantization":{"dtype":"float16","original_dtype":"float32"}},{"name":"Conv2D_71/filter","shape":[1,1,96,96],"dtype":"float32","quantization":{"dtype":"float16","original_dtype":"float32"}},{"name":"depthwise_43/filter_in","shape":[3,3,96,1],"dtype":"float32","quantization":{"dtype":"float16","original_dtype":"float32"}},{"name":"Conv2D_72/filter","shape":[1,1,96,96],"dtype":"float32","quantization":{"dtype":"float16","original_dtype":"float32"}},{"name":"depthwise_35/filter_in","shape":[3,3,56,1],"dtype":"float32","quantization":{"dtype":"float16","original_dtype":"float32"}},{"name":"Conv2D_64/filter","shape":[1,1,56,96],"dtype":"float32","quantization":{"dtype":"float16","original_dtype":"float32"}},{"name":"Add_65/y","shape":[96],"dtype":"float32","quantization":{"dtype":"float16","original_dtype":"float32"}},{"name":"depthwise_44/filter_in","shape":[3,3,96,1],"dtype":"float32","quantization":{"dtype":"float16","original_dtype":"float32"}},{"name":"Conv2D_73/filter","shape":[1,1,96,192],"dtype":"float32","quantization":{"dtype":"float16","original_dtype":"float32"}},{"name":"depthwise_45/filter_in","shape":[3,3,192,1],"dtype":"float32","quantization":{"dtype":"float16","original_dtype":"float32"}},{"name":"Conv2D_74/filter","shape":[1,1,192,192],"dtype":"float32","quantization":{"dtype":"float16","original_dtype":"float32"}},{"name":"depthwise_46/filter_in","shape":[3,3,192,1],"dtype":"float32","quantization":{"dtype":"float16","original_dtype":"float32"}},{"name":"Conv2D_75/filter","shape":[1,1,192,192],"dtype":"float32","quantization":{"dtype":"float16","original_dtype":"float32"}},{"name":"depthwise_47/filter_in","shape":[3,3,192,1],"dtype":"float32","quantization":{"dtype":"float16","original_dtype":"float32"}},{"name":"Conv2D_76/filter","shape":[1,1,192,192],"dtype":"float32","quantization":{"dtype":"float16","original_dtype":"float32"}},{"name":"depthwise_48/filter_in","shape":[3,3,192,1],"dtype":"float32","quantization":{"dtype":"float16","original_dtype":"float32"}},{"name":"Conv2D_77/filter","shape":[1,1,192,192],"dtype":"float32","quantization":{"dtype":"float16","original_dtype":"float32"}},{"name":"depthwise_49/filter_in","shape":[3,3,192,1],"dtype":"float32","quantization":{"dtype":"float16","original_dtype":"float32"}},{"name":"Conv2D_78/filter","shape":[1,1,192,192],"dtype":"float32","quantization":{"dtype":"float16","original_dtype":"float32"}},{"name":"depthwise_33/filter_in","shape":[3,3,160,1],"dtype":"float32","quantization":{"dtype":"float16","original_dtype":"float32"}},{"name":"Conv2D_62/filter","shape":[1,1,160,192],"dtype":"float32","quantization":{"dtype":"float16","original_dtype":"float32"}},{"name":"Add_63/y","shape":[192],"dtype":"float32","quantization":{"dtype":"float16","original_dtype":"float32"}},{"name":"depthwise_50/filter_in","shape":[3,3,192,1],"dtype":"float32","quantization":{"dtype":"float16","original_dtype":"float32"}},{"name":"Conv2D_79/filter","shape":[1,1,192,288],"dtype":"float32","quantization":{"dtype":"float16","original_dtype":"float32"}},{"name":"depthwise_51/filter_in","shape":[3,3,288,1],"dtype":"float32","quantization":{"dtype":"float16","original_dtype":"float32"}},{"name":"Conv2D_80/filter","shape":[1,1,288,288],"dtype":"float32","quantization":{"dtype":"float16","original_dtype":"float32"}},{"name":"depthwise_52/filter_in","shape":[3,3,288,1],"dtype":"float32","quantization":{"dtype":"float16","original_dtype":"float32"}},{"name":"Conv2D_81/filter","shape":[1,1,288,288],"dtype":"float32","quantization":{"dtype":"float16","original_dtype":"float32"}},{"name":"depthwise_53/filter_in","shape":[3,3,288,1],"dtype":"float32","quantization":{"dtype":"float16","original_dtype":"float32"}},{"name":"Conv2D_82/filter","shape":[1,1,288,288],"dtype":"float32","quantization":{"dtype":"float16","original_dtype":"float32"}},{"name":"depthwise_54/filter_in","shape":[3,3,288,1],"dtype":"float32","quantization":{"dtype":"float16","original_dtype":"float32"}},{"name":"Conv2D_83/filter","shape":[1,1,288,288],"dtype":"float32","quantization":{"dtype":"float16","original_dtype":"float32"}},{"name":"depthwise_55/filter_in","shape":[3,3,288,1],"dtype":"float32","quantization":{"dtype":"float16","original_dtype":"float32"}},{"name":"Conv2D_84/filter","shape":[1,1,288,288],"dtype":"float32","quantization":{"dtype":"float16","original_dtype":"float32"}},{"name":"depthwise_56/filter_in","shape":[3,3,288,1],"dtype":"float32","quantization":{"dtype":"float16","original_dtype":"float32"}},{"name":"Conv2D_85/filter","shape":[1,1,288,288],"dtype":"float32","quantization":{"dtype":"float16","original_dtype":"float32"}},{"name":"model_1/model/batch_normalization_86/FusedBatchNormV3_model_1/model/conv2d_57/Conv2D1/y","shape":[272],"dtype":"float32","quantization":{"dtype":"float16","original_dtype":"float32"}},{"name":"Conv2D_56/filter","shape":[1,1,272,1632],"dtype":"float32","quantization":{"dtype":"float16","original_dtype":"float32"}},{"name":"Add_56/y","shape":[1632],"dtype":"float32","quantization":{"dtype":"float16","original_dtype":"float32"}},{"name":"depthwise_28/filter_in","shape":[5,5,1632,1],"dtype":"float32","quantization":{"dtype":"float16","original_dtype":"float32"}},{"name":"Add_57/y","shape":[1632],"dtype":"float32","quantization":{"dtype":"float16","original_dtype":"float32"}},{"name":"Conv2D_57/filter","shape":[1,1,1632,272],"dtype":"float32","quantization":{"dtype":"float16","original_dtype":"float32"}},{"name":"model_1/model/batch_normalization_83/FusedBatchNormV3_model_1/model/conv2d_57/Conv2D_model_1/model/conv2d_55/Conv2D1/y","shape":[272],"dtype":"float32","quantization":{"dtype":"float16","original_dtype":"float32"}},{"name":"Conv2D_54/filter","shape":[1,1,272,1632],"dtype":"float32","quantization":{"dtype":"float16","original_dtype":"float32"}},{"name":"Add_54/y","shape":[1632],"dtype":"float32","quantization":{"dtype":"float16","original_dtype":"float32"}},{"name":"depthwise_27/filter_in","shape":[5,5,1632,1],"dtype":"float32","quantization":{"dtype":"float16","original_dtype":"float32"}},{"name":"Add_55/y","shape":[1632],"dtype":"float32","quantization":{"dtype":"float16","original_dtype":"float32"}},{"name":"Conv2D_55/filter","shape":[1,1,1632,272],"dtype":"float32","quantization":{"dtype":"float16","original_dtype":"float32"}},{"name":"model_1/model/batch_normalization_80/FusedBatchNormV3_model_1/model/conv2d_57/Conv2D_model_1/model/conv2d_53/Conv2D1/y","shape":[272],"dtype":"float32","quantization":{"dtype":"float16","original_dtype":"float32"}},{"name":"Conv2D_52/filter","shape":[1,1,272,1632],"dtype":"float32","quantization":{"dtype":"float16","original_dtype":"float32"}},{"name":"Add_52/y","shape":[1632],"dtype":"float32","quantization":{"dtype":"float16","original_dtype":"float32"}},{"name":"depthwise_26/filter_in","shape":[5,5,1632,1],"dtype":"float32","quantization":{"dtype":"float16","original_dtype":"float32"}},{"name":"Add_53/y","shape":[1632],"dtype":"float32","quantization":{"dtype":"float16","original_dtype":"float32"}},{"name":"Conv2D_53/filter","shape":[1,1,1632,272],"dtype":"float32","quantization":{"dtype":"float16","original_dtype":"float32"}},{"name":"model_1/model/batch_normalization_77/FusedBatchNormV3_model_1/model/conv2d_57/Conv2D_model_1/model/conv2d_51/Conv2D1/y","shape":[272],"dtype":"float32","quantization":{"dtype":"float16","original_dtype":"float32"}},{"name":"Conv2D_50/filter","shape":[1,1,272,1632],"dtype":"float32","quantization":{"dtype":"float16","original_dtype":"float32"}},{"name":"Add_50/y","shape":[1632],"dtype":"float32","quantization":{"dtype":"float16","original_dtype":"float32"}},{"name":"depthwise_25/filter_in","shape":[5,5,1632,1],"dtype":"float32","quantization":{"dtype":"float16","original_dtype":"float32"}},{"name":"Add_51/y","shape":[1632],"dtype":"float32","quantization":{"dtype":"float16","original_dtype":"float32"}},{"name":"Conv2D_51/filter","shape":[1,1,1632,272],"dtype":"float32","quantization":{"dtype":"float16","original_dtype":"float32"}},{"name":"model_1/model/batch_normalization_74/FusedBatchNormV3_model_1/model/conv2d_57/Conv2D_model_1/model/conv2d_49/Conv2D1/y","shape":[272],"dtype":"float32","quantization":{"dtype":"float16","original_dtype":"float32"}},{"name":"Conv2D_48/filter","shape":[1,1,272,1632],"dtype":"float32","quantization":{"dtype":"float16","original_dtype":"float32"}},{"name":"Add_48/y","shape":[1632],"dtype":"float32","quantization":{"dtype":"float16","original_dtype":"float32"}},{"name":"depthwise_24/filter_in","shape":[5,5,1632,1],"dtype":"float32","quantization":{"dtype":"float16","original_dtype":"float32"}},{"name":"Add_49/y","shape":[1632],"dtype":"float32","quantization":{"dtype":"float16","original_dtype":"float32"}},{"name":"Conv2D_49/filter","shape":[1,1,1632,272],"dtype":"float32","quantization":{"dtype":"float16","original_dtype":"float32"}},{"name":"model_1/model/batch_normalization_71/FusedBatchNormV3_model_1/model/conv2d_57/Conv2D_model_1/model/conv2d_47/Conv2D1/y","shape":[272],"dtype":"float32","quantization":{"dtype":"float16","original_dtype":"float32"}},{"name":"Conv2D_46/filter","shape":[1,1,272,1632],"dtype":"float32","quantization":{"dtype":"float16","original_dtype":"float32"}},{"name":"Add_46/y","shape":[1632],"dtype":"float32","quantization":{"dtype":"float16","original_dtype":"float32"}},{"name":"depthwise_23/filter_in","shape":[5,5,1632,1],"dtype":"float32","quantization":{"dtype":"float16","original_dtype":"float32"}},{"name":"Add_47/y","shape":[1632],"dtype":"float32","quantization":{"dtype":"float16","original_dtype":"float32"}},{"name":"Conv2D_47/filter","shape":[1,1,1632,272],"dtype":"float32","quantization":{"dtype":"float16","original_dtype":"float32"}},{"name":"model_1/model/batch_normalization_68/FusedBatchNormV3_model_1/model/conv2d_57/Conv2D_model_1/model/conv2d_45/Conv2D1/y","shape":[272],"dtype":"float32","quantization":{"dtype":"float16","original_dtype":"float32"}},{"name":"Conv2D_44/filter","shape":[1,1,272,1632],"dtype":"float32","quantization":{"dtype":"float16","original_dtype":"float32"}},{"name":"Add_44/y","shape":[1632],"dtype":"float32","quantization":{"dtype":"float16","original_dtype":"float32"}},{"name":"depthwise_22/filter_in","shape":[5,5,1632,1],"dtype":"float32","quantization":{"dtype":"float16","original_dtype":"float32"}},{"name":"Add_45/y","shape":[1632],"dtype":"float32","quantization":{"dtype":"float16","original_dtype":"float32"}},{"name":"Conv2D_45/filter","shape":[1,1,1632,272],"dtype":"float32","quantization":{"dtype":"float16","original_dtype":"float32"}},{"name":"model_1/model/batch_normalization_62/FusedBatchNormV3_model_1/model/depthwise_conv2d_46/depthwise_model_1/model/conv2d_41/Conv2D1/y","shape":[160],"dtype":"float32","quantization":{"dtype":"float16","original_dtype":"float32"}},{"name":"Conv2D_40/filter","shape":[1,1,160,960],"dtype":"float32","quantization":{"dtype":"float16","original_dtype":"float32"}},{"name":"Add_40/y","shape":[960],"dtype":"float32","quantization":{"dtype":"float16","original_dtype":"float32"}},{"name":"depthwise_20/filter_in","shape":[5,5,960,1],"dtype":"float32","quantization":{"dtype":"float16","original_dtype":"float32"}},{"name":"Add_41/y","shape":[960],"dtype":"float32","quantization":{"dtype":"float16","original_dtype":"float32"}},{"name":"Conv2D_41/filter","shape":[1,1,960,160],"dtype":"float32","quantization":{"dtype":"float16","original_dtype":"float32"}},{"name":"model_1/model/batch_normalization_59/FusedBatchNormV3_model_1/model/depthwise_conv2d_46/depthwise_model_1/model/conv2d_39/Conv2D1/y","shape":[160],"dtype":"float32","quantization":{"dtype":"float16","original_dtype":"float32"}},{"name":"Conv2D_38/filter","shape":[1,1,160,960],"dtype":"float32","quantization":{"dtype":"float16","original_dtype":"float32"}},{"name":"Add_38/y","shape":[960],"dtype":"float32","quantization":{"dtype":"float16","original_dtype":"float32"}},{"name":"depthwise_19/filter_in","shape":[5,5,960,1],"dtype":"float32","quantization":{"dtype":"float16","original_dtype":"float32"}},{"name":"Add_39/y","shape":[960],"dtype":"float32","quantization":{"dtype":"float16","original_dtype":"float32"}},{"name":"Conv2D_39/filter","shape":[1,1,960,160],"dtype":"float32","quantization":{"dtype":"float16","original_dtype":"float32"}},{"name":"model_1/model/batch_normalization_56/FusedBatchNormV3_model_1/model/depthwise_conv2d_46/depthwise_model_1/model/conv2d_37/Conv2D1/y","shape":[160],"dtype":"float32","quantization":{"dtype":"float16","original_dtype":"float32"}},{"name":"Conv2D_36/filter","shape":[1,1,160,960],"dtype":"float32","quantization":{"dtype":"float16","original_dtype":"float32"}},{"name":"Add_36/y","shape":[960],"dtype":"float32","quantization":{"dtype":"float16","original_dtype":"float32"}},{"name":"depthwise_18/filter_in","shape":[5,5,960,1],"dtype":"float32","quantization":{"dtype":"float16","original_dtype":"float32"}},{"name":"Add_37/y","shape":[960],"dtype":"float32","quantization":{"dtype":"float16","original_dtype":"float32"}},{"name":"Conv2D_37/filter","shape":[1,1,960,160],"dtype":"float32","quantization":{"dtype":"float16","original_dtype":"float32"}},{"name":"model_1/model/batch_normalization_53/FusedBatchNormV3_model_1/model/depthwise_conv2d_46/depthwise_model_1/model/conv2d_35/Conv2D1/y","shape":[160],"dtype":"float32","quantization":{"dtype":"float16","original_dtype":"float32"}},{"name":"Conv2D_34/filter","shape":[1,1,160,960],"dtype":"float32","quantization":{"dtype":"float16","original_dtype":"float32"}},{"name":"Add_34/y","shape":[960],"dtype":"float32","quantization":{"dtype":"float16","original_dtype":"float32"}},{"name":"depthwise_17/filter_in","shape":[5,5,960,1],"dtype":"float32","quantization":{"dtype":"float16","original_dtype":"float32"}},{"name":"Add_35/y","shape":[960],"dtype":"float32","quantization":{"dtype":"float16","original_dtype":"float32"}},{"name":"Conv2D_35/filter","shape":[1,1,960,160],"dtype":"float32","quantization":{"dtype":"float16","original_dtype":"float32"}},{"name":"model_1/model/batch_normalization_50/FusedBatchNormV3_model_1/model/depthwise_conv2d_46/depthwise_model_1/model/conv2d_33/Conv2D1/y","shape":[160],"dtype":"float32","quantization":{"dtype":"float16","original_dtype":"float32"}},{"name":"Conv2D_32/filter","shape":[1,1,160,960],"dtype":"float32","quantization":{"dtype":"float16","original_dtype":"float32"}},{"name":"Add_32/y","shape":[960],"dtype":"float32","quantization":{"dtype":"float16","original_dtype":"float32"}},{"name":"depthwise_16/filter_in","shape":[5,5,960,1],"dtype":"float32","quantization":{"dtype":"float16","original_dtype":"float32"}},{"name":"Add_33/y","shape":[960],"dtype":"float32","quantization":{"dtype":"float16","original_dtype":"float32"}},{"name":"Conv2D_33/filter","shape":[1,1,960,160],"dtype":"float32","quantization":{"dtype":"float16","original_dtype":"float32"}},{"name":"model_1/model/batch_normalization_44/FusedBatchNormV3_model_1/model/conv2d_29/Conv2D1/y","shape":[112],"dtype":"float32","quantization":{"dtype":"float16","original_dtype":"float32"}},{"name":"Conv2D_28/filter","shape":[1,1,112,672],"dtype":"float32","quantization":{"dtype":"float16","original_dtype":"float32"}},{"name":"Add_28/y","shape":[672],"dtype":"float32","quantization":{"dtype":"float16","original_dtype":"float32"}},{"name":"depthwise_14/filter_in","shape":[3,3,672,1],"dtype":"float32","quantization":{"dtype":"float16","original_dtype":"float32"}},{"name":"Add_29/y","shape":[672],"dtype":"float32","quantization":{"dtype":"float16","original_dtype":"float32"}},{"name":"Conv2D_29/filter","shape":[1,1,672,112],"dtype":"float32","quantization":{"dtype":"float16","original_dtype":"float32"}},{"name":"model_1/model/batch_normalization_41/FusedBatchNormV3_model_1/model/conv2d_29/Conv2D_model_1/model/conv2d_27/Conv2D1/y","shape":[112],"dtype":"float32","quantization":{"dtype":"float16","original_dtype":"float32"}},{"name":"Conv2D_26/filter","shape":[1,1,112,672],"dtype":"float32","quantization":{"dtype":"float16","original_dtype":"float32"}},{"name":"Add_26/y","shape":[672],"dtype":"float32","quantization":{"dtype":"float16","original_dtype":"float32"}},{"name":"depthwise_13/filter_in","shape":[3,3,672,1],"dtype":"float32","quantization":{"dtype":"float16","original_dtype":"float32"}},{"name":"Add_27/y","shape":[672],"dtype":"float32","quantization":{"dtype":"float16","original_dtype":"float32"}},{"name":"Conv2D_27/filter","shape":[1,1,672,112],"dtype":"float32","quantization":{"dtype":"float16","original_dtype":"float32"}},{"name":"model_1/model/batch_normalization_38/FusedBatchNormV3_model_1/model/conv2d_29/Conv2D_model_1/model/conv2d_25/Conv2D1/y","shape":[112],"dtype":"float32","quantization":{"dtype":"float16","original_dtype":"float32"}},{"name":"Conv2D_24/filter","shape":[1,1,112,672],"dtype":"float32","quantization":{"dtype":"float16","original_dtype":"float32"}},{"name":"Add_24/y","shape":[672],"dtype":"float32","quantization":{"dtype":"float16","original_dtype":"float32"}},{"name":"depthwise_12/filter_in","shape":[3,3,672,1],"dtype":"float32","quantization":{"dtype":"float16","original_dtype":"float32"}},{"name":"Add_25/y","shape":[672],"dtype":"float32","quantization":{"dtype":"float16","original_dtype":"float32"}},{"name":"Conv2D_25/filter","shape":[1,1,672,112],"dtype":"float32","quantization":{"dtype":"float16","original_dtype":"float32"}},{"name":"model_1/model/batch_normalization_35/FusedBatchNormV3_model_1/model/conv2d_29/Conv2D_model_1/model/conv2d_23/Conv2D1/y","shape":[112],"dtype":"float32","quantization":{"dtype":"float16","original_dtype":"float32"}},{"name":"Conv2D_22/filter","shape":[1,1,112,672],"dtype":"float32","quantization":{"dtype":"float16","original_dtype":"float32"}},{"name":"Add_22/y","shape":[672],"dtype":"float32","quantization":{"dtype":"float16","original_dtype":"float32"}},{"name":"depthwise_11/filter_in","shape":[3,3,672,1],"dtype":"float32","quantization":{"dtype":"float16","original_dtype":"float32"}},{"name":"Add_23/y","shape":[672],"dtype":"float32","quantization":{"dtype":"float16","original_dtype":"float32"}},{"name":"Conv2D_23/filter","shape":[1,1,672,112],"dtype":"float32","quantization":{"dtype":"float16","original_dtype":"float32"}},{"name":"model_1/model/batch_normalization_32/FusedBatchNormV3_model_1/model/conv2d_29/Conv2D_model_1/model/conv2d_21/Conv2D1/y","shape":[112],"dtype":"float32","quantization":{"dtype":"float16","original_dtype":"float32"}},{"name":"Conv2D_20/filter","shape":[1,1,112,672],"dtype":"float32","quantization":{"dtype":"float16","original_dtype":"float32"}},{"name":"Add_20/y","shape":[672],"dtype":"float32","quantization":{"dtype":"float16","original_dtype":"float32"}},{"name":"depthwise_10/filter_in","shape":[3,3,672,1],"dtype":"float32","quantization":{"dtype":"float16","original_dtype":"float32"}},{"name":"Add_21/y","shape":[672],"dtype":"float32","quantization":{"dtype":"float16","original_dtype":"float32"}},{"name":"Conv2D_21/filter","shape":[1,1,672,112],"dtype":"float32","quantization":{"dtype":"float16","original_dtype":"float32"}},{"name":"model_1/model/batch_normalization_26/FusedBatchNormV3_model_1/model/depthwise_conv2d_39/depthwise_model_1/model/conv2d_17/Conv2D1/y","shape":[56],"dtype":"float32","quantization":{"dtype":"float16","original_dtype":"float32"}},{"name":"Conv2D_16/filter","shape":[1,1,56,336],"dtype":"float32","quantization":{"dtype":"float16","original_dtype":"float32"}},{"name":"Add_16/y","shape":[336],"dtype":"float32","quantization":{"dtype":"float16","original_dtype":"float32"}},{"name":"depthwise_8/filter_in","shape":[5,5,336,1],"dtype":"float32","quantization":{"dtype":"float16","original_dtype":"float32"}},{"name":"Add_17/y","shape":[336],"dtype":"float32","quantization":{"dtype":"float16","original_dtype":"float32"}},{"name":"Conv2D_17/filter","shape":[1,1,336,56],"dtype":"float32","quantization":{"dtype":"float16","original_dtype":"float32"}},{"name":"model_1/model/batch_normalization_23/FusedBatchNormV3_model_1/model/depthwise_conv2d_39/depthwise_model_1/model/conv2d_15/Conv2D1/y","shape":[56],"dtype":"float32","quantization":{"dtype":"float16","original_dtype":"float32"}},{"name":"Conv2D_14/filter","shape":[1,1,56,336],"dtype":"float32","quantization":{"dtype":"float16","original_dtype":"float32"}},{"name":"Add_14/y","shape":[336],"dtype":"float32","quantization":{"dtype":"float16","original_dtype":"float32"}},{"name":"depthwise_7/filter_in","shape":[5,5,336,1],"dtype":"float32","quantization":{"dtype":"float16","original_dtype":"float32"}},{"name":"Add_15/y","shape":[336],"dtype":"float32","quantization":{"dtype":"float16","original_dtype":"float32"}},{"name":"Conv2D_15/filter","shape":[1,1,336,56],"dtype":"float32","quantization":{"dtype":"float16","original_dtype":"float32"}},{"name":"model_1/model/batch_normalization_20/FusedBatchNormV3_model_1/model/depthwise_conv2d_39/depthwise_model_1/model/conv2d_13/Conv2D1/y","shape":[56],"dtype":"float32","quantization":{"dtype":"float16","original_dtype":"float32"}},{"name":"Conv2D_12/filter","shape":[1,1,56,336],"dtype":"float32","quantization":{"dtype":"float16","original_dtype":"float32"}},{"name":"Add_12/y","shape":[336],"dtype":"float32","quantization":{"dtype":"float16","original_dtype":"float32"}},{"name":"depthwise_6/filter_in","shape":[5,5,336,1],"dtype":"float32","quantization":{"dtype":"float16","original_dtype":"float32"}},{"name":"Add_13/y","shape":[336],"dtype":"float32","quantization":{"dtype":"float16","original_dtype":"float32"}},{"name":"Conv2D_13/filter","shape":[1,1,336,56],"dtype":"float32","quantization":{"dtype":"float16","original_dtype":"float32"}},{"name":"model_1/model/batch_normalization_14/FusedBatchNormV3_model_1/model/depthwise_conv2d_33/depthwise_model_1/model/conv2d_9/Conv2D1/y","shape":[32],"dtype":"float32","quantization":{"dtype":"float16","original_dtype":"float32"}},{"name":"Conv2D_8/filter","shape":[1,1,32,192],"dtype":"float32","quantization":{"dtype":"float16","original_dtype":"float32"}},{"name":"Add_8/y","shape":[192],"dtype":"float32","quantization":{"dtype":"float16","original_dtype":"float32"}},{"name":"depthwise_4/filter_in","shape":[3,3,192,1],"dtype":"float32","quantization":{"dtype":"float16","original_dtype":"float32"}},{"name":"Add_9/y","shape":[192],"dtype":"float32","quantization":{"dtype":"float16","original_dtype":"float32"}},{"name":"Conv2D_9/filter","shape":[1,1,192,32],"dtype":"float32","quantization":{"dtype":"float16","original_dtype":"float32"}},{"name":"model_1/model/batch_normalization_11/FusedBatchNormV3_model_1/model/depthwise_conv2d_33/depthwise_model_1/model/conv2d_7/Conv2D1/y","shape":[32],"dtype":"float32","quantization":{"dtype":"float16","original_dtype":"float32"}},{"name":"Conv2D_6/filter","shape":[1,1,32,192],"dtype":"float32","quantization":{"dtype":"float16","original_dtype":"float32"}},{"name":"Add_6/y","shape":[192],"dtype":"float32","quantization":{"dtype":"float16","original_dtype":"float32"}},{"name":"depthwise_3/filter_in","shape":[3,3,192,1],"dtype":"float32","quantization":{"dtype":"float16","original_dtype":"float32"}},{"name":"Add_7/y","shape":[192],"dtype":"float32","quantization":{"dtype":"float16","original_dtype":"float32"}},{"name":"Conv2D_7/filter","shape":[1,1,192,32],"dtype":"float32","quantization":{"dtype":"float16","original_dtype":"float32"}},{"name":"model_1/model/batch_normalization_8/FusedBatchNormV3_model_1/model/depthwise_conv2d_33/depthwise_model_1/model/conv2d_5/Conv2D1/y","shape":[32],"dtype":"float32","quantization":{"dtype":"float16","original_dtype":"float32"}},{"name":"Conv2D_4/filter","shape":[1,1,32,128],"dtype":"float32","quantization":{"dtype":"float16","original_dtype":"float32"}},{"name":"Add_4/y","shape":[128],"dtype":"float32","quantization":{"dtype":"float16","original_dtype":"float32"}},{"name":"depthwise_2/filter_in","shape":[3,3,128,1],"dtype":"float32","quantization":{"dtype":"float16","original_dtype":"float32"}},{"name":"Add_5/y","shape":[128],"dtype":"float32","quantization":{"dtype":"float16","original_dtype":"float32"}},{"name":"Conv2D_5/filter","shape":[1,1,128,32],"dtype":"float32","quantization":{"dtype":"float16","original_dtype":"float32"}},{"name":"model_1/model/tf_op_layer_stem/Pad/stem/Pad/paddings","shape":[4,2],"dtype":"int32"},{"name":"Conv2D/filter","shape":[3,3,3,24],"dtype":"float32","quantization":{"dtype":"float16","original_dtype":"float32"}},{"name":"Add/y","shape":[24],"dtype":"float32","quantization":{"dtype":"float16","original_dtype":"float32"}},{"name":"depthwise/filter_in","shape":[3,3,24,1],"dtype":"float32","quantization":{"dtype":"float16","original_dtype":"float32"}},{"name":"Add_1/y","shape":[24],"dtype":"float32","quantization":{"dtype":"float16","original_dtype":"float32"}},{"name":"Conv2D_1/filter","shape":[1,1,24,24],"dtype":"float32","quantization":{"dtype":"float16","original_dtype":"float32"}},{"name":"model_1/model/batch_normalization_2/FusedBatchNormV3_model_1/model/depthwise_conv2d_71/depthwise_model_1/model/conv2d_1/Conv2D1/y","shape":[24],"dtype":"float32","quantization":{"dtype":"float16","original_dtype":"float32"}},{"name":"Conv2D_2/filter","shape":[1,1,24,96],"dtype":"float32","quantization":{"dtype":"float16","original_dtype":"float32"}},{"name":"Add_2/y","shape":[96],"dtype":"float32","quantization":{"dtype":"float16","original_dtype":"float32"}},{"name":"model_1/model/tf_op_layer_blocks_1/Pad/blocks_1/Pad/paddings","shape":[4,2],"dtype":"int32"},{"name":"depthwise_1/filter_in","shape":[3,3,96,1],"dtype":"float32","quantization":{"dtype":"float16","original_dtype":"float32"}},{"name":"Add_3/y","shape":[96],"dtype":"float32","quantization":{"dtype":"float16","original_dtype":"float32"}},{"name":"Conv2D_3/filter","shape":[1,1,96,32],"dtype":"float32","quantization":{"dtype":"float16","original_dtype":"float32"}},{"name":"model_1/model/batch_normalization_5/FusedBatchNormV3_model_1/model/depthwise_conv2d_33/depthwise_model_1/model/conv2d_3/Conv2D1/y","shape":[32],"dtype":"float32","quantization":{"dtype":"float16","original_dtype":"float32"}},{"name":"Conv2D_10/filter","shape":[1,1,32,192],"dtype":"float32","quantization":{"dtype":"float16","original_dtype":"float32"}},{"name":"Add_10/y","shape":[192],"dtype":"float32","quantization":{"dtype":"float16","original_dtype":"float32"}},{"name":"model_1/model/tf_op_layer_blocks_5/Pad/blocks_5/Pad/paddings","shape":[4,2],"dtype":"int32"},{"name":"depthwise_5/filter_in","shape":[5,5,192,1],"dtype":"float32","quantization":{"dtype":"float16","original_dtype":"float32"}},{"name":"Add_11/y","shape":[192],"dtype":"float32","quantization":{"dtype":"float16","original_dtype":"float32"}},{"name":"Conv2D_11/filter","shape":[1,1,192,56],"dtype":"float32","quantization":{"dtype":"float16","original_dtype":"float32"}},{"name":"model_1/model/batch_normalization_17/FusedBatchNormV3_model_1/model/depthwise_conv2d_39/depthwise_model_1/model/conv2d_11/Conv2D1/y","shape":[56],"dtype":"float32","quantization":{"dtype":"float16","original_dtype":"float32"}},{"name":"Conv2D_18/filter","shape":[1,1,56,336],"dtype":"float32","quantization":{"dtype":"float16","original_dtype":"float32"}},{"name":"Add_18/y","shape":[336],"dtype":"float32","quantization":{"dtype":"float16","original_dtype":"float32"}},{"name":"model_1/model/tf_op_layer_blocks_9/Pad/blocks_9/Pad/paddings","shape":[4,2],"dtype":"int32"},{"name":"depthwise_9/filter_in","shape":[3,3,336,1],"dtype":"float32","quantization":{"dtype":"float16","original_dtype":"float32"}},{"name":"Add_19/y","shape":[336],"dtype":"float32","quantization":{"dtype":"float16","original_dtype":"float32"}},{"name":"Conv2D_19/filter","shape":[1,1,336,112],"dtype":"float32","quantization":{"dtype":"float16","original_dtype":"float32"}},{"name":"model_1/model/batch_normalization_29/FusedBatchNormV3_model_1/model/conv2d_29/Conv2D_model_1/model/conv2d_19/Conv2D1/y","shape":[112],"dtype":"float32","quantization":{"dtype":"float16","original_dtype":"float32"}},{"name":"Conv2D_30/filter","shape":[1,1,112,672],"dtype":"float32","quantization":{"dtype":"float16","original_dtype":"float32"}},{"name":"Add_30/y","shape":[672],"dtype":"float32","quantization":{"dtype":"float16","original_dtype":"float32"}},{"name":"depthwise_15/filter_in","shape":[5,5,672,1],"dtype":"float32","quantization":{"dtype":"float16","original_dtype":"float32"}},{"name":"Add_31/y","shape":[672],"dtype":"float32","quantization":{"dtype":"float16","original_dtype":"float32"}},{"name":"Conv2D_31/filter","shape":[1,1,672,160],"dtype":"float32","quantization":{"dtype":"float16","original_dtype":"float32"}},{"name":"model_1/model/batch_normalization_47/FusedBatchNormV3_model_1/model/depthwise_conv2d_46/depthwise_model_1/model/conv2d_31/Conv2D1/y","shape":[160],"dtype":"float32","quantization":{"dtype":"float16","original_dtype":"float32"}},{"name":"Conv2D_42/filter","shape":[1,1,160,960],"dtype":"float32","quantization":{"dtype":"float16","original_dtype":"float32"}},{"name":"Add_42/y","shape":[960],"dtype":"float32","quantization":{"dtype":"float16","original_dtype":"float32"}},{"name":"model_1/model/tf_op_layer_blocks_21/Pad/blocks_21/Pad/paddings","shape":[4,2],"dtype":"int32"},{"name":"depthwise_21/filter_in","shape":[5,5,960,1],"dtype":"float32","quantization":{"dtype":"float16","original_dtype":"float32"}},{"name":"Add_43/y","shape":[960],"dtype":"float32","quantization":{"dtype":"float16","original_dtype":"float32"}},{"name":"Conv2D_43/filter","shape":[1,1,960,272],"dtype":"float32","quantization":{"dtype":"float16","original_dtype":"float32"}},{"name":"model_1/model/batch_normalization_65/FusedBatchNormV3_model_1/model/conv2d_57/Conv2D_model_1/model/conv2d_43/Conv2D1/y","shape":[272],"dtype":"float32","quantization":{"dtype":"float16","original_dtype":"float32"}},{"name":"Conv2D_58/filter","shape":[1,1,272,1632],"dtype":"float32","quantization":{"dtype":"float16","original_dtype":"float32"}},{"name":"Add_58/y","shape":[1632],"dtype":"float32","quantization":{"dtype":"float16","original_dtype":"float32"}},{"name":"depthwise_29/filter_in","shape":[3,3,1632,1],"dtype":"float32","quantization":{"dtype":"float16","original_dtype":"float32"}},{"name":"Add_59/y","shape":[1632],"dtype":"float32","quantization":{"dtype":"float16","original_dtype":"float32"}},{"name":"depthwise_31/filter_in","shape":[3,3,1632,1],"dtype":"float32","quantization":{"dtype":"float16","original_dtype":"float32"}},{"name":"Conv2D_60/filter","shape":[1,1,1632,288],"dtype":"float32","quantization":{"dtype":"float16","original_dtype":"float32"}},{"name":"Add_61/y","shape":[288],"dtype":"float32","quantization":{"dtype":"float16","original_dtype":"float32"}},{"name":"depthwise_57/filter_in","shape":[3,3,288,1],"dtype":"float32","quantization":{"dtype":"float16","original_dtype":"float32"}},{"name":"Conv2D_86/filter","shape":[1,1,288,288],"dtype":"float32","quantization":{"dtype":"float16","original_dtype":"float32"}},{"name":"depthwise_58/filter_in","shape":[3,3,288,1],"dtype":"float32","quantization":{"dtype":"float16","original_dtype":"float32"}},{"name":"Conv2D_87/filter","shape":[1,1,288,288],"dtype":"float32","quantization":{"dtype":"float16","original_dtype":"float32"}},{"name":"depthwise_59/filter_in","shape":[3,3,288,1],"dtype":"float32","quantization":{"dtype":"float16","original_dtype":"float32"}},{"name":"Conv2D_88/filter","shape":[1,1,288,288],"dtype":"float32","quantization":{"dtype":"float16","original_dtype":"float32"}},{"name":"depthwise_60/filter_in","shape":[3,3,288,1],"dtype":"float32","quantization":{"dtype":"float16","original_dtype":"float32"}},{"name":"Conv2D_89/filter","shape":[1,1,288,288],"dtype":"float32","quantization":{"dtype":"float16","original_dtype":"float32"}},{"name":"depthwise_61/filter_in","shape":[3,3,288,1],"dtype":"float32","quantization":{"dtype":"float16","original_dtype":"float32"}},{"name":"Conv2D_90/filter","shape":[1,1,288,288],"dtype":"float32","quantization":{"dtype":"float16","original_dtype":"float32"}},{"name":"depthwise_62/filter_in","shape":[3,3,288,1],"dtype":"float32","quantization":{"dtype":"float16","original_dtype":"float32"}},{"name":"Conv2D_91/filter","shape":[1,1,288,288],"dtype":"float32","quantization":{"dtype":"float16","original_dtype":"float32"}},{"name":"depthwise_63/filter_in","shape":[3,3,288,1],"dtype":"float32","quantization":{"dtype":"float16","original_dtype":"float32"}},{"name":"Conv2D_92/filter","shape":[1,1,288,288],"dtype":"float32","quantization":{"dtype":"float16","original_dtype":"float32"}},{"name":"depthwise_64/filter_in","shape":[3,3,288,1],"dtype":"float32","quantization":{"dtype":"float16","original_dtype":"float32"}},{"name":"Conv2D_93/filter","shape":[1,1,288,288],"dtype":"float32","quantization":{"dtype":"float16","original_dtype":"float32"}},{"name":"depthwise_65/filter_in","shape":[3,3,288,1],"dtype":"float32","quantization":{"dtype":"float16","original_dtype":"float32"}},{"name":"Conv2D_94/filter","shape":[1,1,288,288],"dtype":"float32","quantization":{"dtype":"float16","original_dtype":"float32"}},{"name":"depthwise_66/filter_in","shape":[3,3,288,1],"dtype":"float32","quantization":{"dtype":"float16","original_dtype":"float32"}},{"name":"Conv2D_95/filter","shape":[1,1,288,288],"dtype":"float32","quantization":{"dtype":"float16","original_dtype":"float32"}},{"name":"depthwise_67/filter_in","shape":[3,3,288,1],"dtype":"float32","quantization":{"dtype":"float16","original_dtype":"float32"}},{"name":"Conv2D_96/filter","shape":[1,1,288,288],"dtype":"float32","quantization":{"dtype":"float16","original_dtype":"float32"}},{"name":"depthwise_68/filter_in","shape":[3,3,288,1],"dtype":"float32","quantization":{"dtype":"float16","original_dtype":"float32"}},{"name":"Conv2D_97/filter","shape":[1,1,288,288],"dtype":"float32","quantization":{"dtype":"float16","original_dtype":"float32"}},{"name":"depthwise_69/filter_in","shape":[3,3,288,1],"dtype":"float32","quantization":{"dtype":"float16","original_dtype":"float32"}},{"name":"Conv2D_98/filter","shape":[1,1,288,288],"dtype":"float32","quantization":{"dtype":"float16","original_dtype":"float32"}},{"name":"depthwise_70/filter_in","shape":[3,3,288,1],"dtype":"float32","quantization":{"dtype":"float16","original_dtype":"float32"}},{"name":"Conv2D_99/filter","shape":[1,1,288,288],"dtype":"float32","quantization":{"dtype":"float16","original_dtype":"float32"}},{"name":"depthwise_71/filter_in","shape":[3,3,288,1],"dtype":"float32","quantization":{"dtype":"float16","original_dtype":"float32"}},{"name":"Conv2D_100/filter","shape":[1,1,288,288],"dtype":"float32","quantization":{"dtype":"float16","original_dtype":"float32"}},{"name":"depthwise_72/filter_in","shape":[3,3,288,1],"dtype":"float32","quantization":{"dtype":"float16","original_dtype":"float32"}},{"name":"Conv2D_101/filter","shape":[1,1,288,288],"dtype":"float32","quantization":{"dtype":"float16","original_dtype":"float32"}},{"name":"Conv2D_103/filter","shape":[2,2,288,117],"dtype":"float32","quantization":{"dtype":"float16","original_dtype":"float32"}},{"name":"model_1/model/convworld_3d/BiasAdd_model_1/model/convworld_3d/Conv2D_model_1/model/convworld_3d/BiasAdd/ReadVariableOp/resource1/y","shape":[117],"dtype":"float32","quantization":{"dtype":"float16","original_dtype":"float32"}},{"name":"Identity_4/shape","shape":[2],"dtype":"int32"}]
      }
  ]
}