{
  "format": "graph-model",
  "generatedBy": "https://github.com/google/mediapipe/tree/master/mediapipe/modules/pose_landmark",
  "convertedBy": "https://github.com/vladmandic",
  "signature":
  {
      "inputs":
      {
          "input_1": {"name":"input_1:0","dtype":"DT_FLOAT","tensorShape":{"dim":[{"size":"-1"},{"size":"256"},{"size":"256"},{"size":"3"}]}}
      },
      "outputs":
      {
          "ld_3d": {"name":"Identity_2:0","dtype":"DT_FLOAT","tensorShape":{"dim":[{"size":"-1"},{"size":"195"}]}},
          "activation_segmentation": {"name":"Identity_1:0","dtype":"DT_FLOAT","tensorShape":{"dim":[{"size":"-1"},{"size":"256"},{"size":"256"},{"size":"1"}]}},
          "activation_heatmap": {"name":"Identity:0","dtype":"DT_FLOAT","tensorShape":{"dim":[{"size":"-1"},{"size":"64"},{"size":"64"},{"size":"39"}]}},
          "world_3d": {"name":"Identity_4:0","dtype":"DT_FLOAT","tensorShape":{"dim":[{"size":"-1"},{"size":"117"}]}},
          "output_poseflag": {"name":"Identity_3:0","dtype":"DT_FLOAT","tensorShape":{"dim":[{"size":"-1"},{"size":"1"}]}}
      }
  },
  "modelTopology":
  {
      "node":
      [
          {"name":"StatefulPartitionedCall/model/output_heatmap/Conv2D/ReadVariableOp","op":"Const","attr":{"dtype":{"type":"DT_FLOAT"},"value":{"tensor":{"dtype":"DT_FLOAT","tensorShape":{"dim":[{"size":"1"},{"size":"1"},{"size":"32"},{"size":"39"}]}}}}},
          {"name":"StatefulPartitionedCall/model/output_heatmap/BiasAdd/ReadVariableOp","op":"Const","attr":{"dtype":{"type":"DT_FLOAT"},"value":{"tensor":{"dtype":"DT_FLOAT","tensorShape":{"dim":[{"size":"39"}]}}}}},
          {"name":"StatefulPartitionedCall/model/up_sampling2d/mul","op":"Const","attr":{"dtype":{"type":"DT_INT32"},"value":{"tensor":{"dtype":"DT_INT32","tensorShape":{"dim":[{"size":"2"}]}}}}},
          {"name":"StatefulPartitionedCall/model/up_sampling2d_1/mul","op":"Const","attr":{"value":{"tensor":{"dtype":"DT_INT32","tensorShape":{"dim":[{"size":"2"}]}}},"dtype":{"type":"DT_INT32"}}},
          {"name":"StatefulPartitionedCall/model/up_sampling2d_2/mul","op":"Const","attr":{"dtype":{"type":"DT_INT32"},"value":{"tensor":{"dtype":"DT_INT32","tensorShape":{"dim":[{"size":"2"}]}}}}},
          {"name":"StatefulPartitionedCall/model/up_sampling2d_3/mul","op":"Const","attr":{"dtype":{"type":"DT_INT32"},"value":{"tensor":{"dtype":"DT_INT32","tensorShape":{"dim":[{"size":"2"}]}}}}},
          {"name":"StatefulPartitionedCall/model/output_segmentation/Conv2D/ReadVariableOp","op":"Const","attr":{"value":{"tensor":{"dtype":"DT_FLOAT","tensorShape":{"dim":[{"size":"3"},{"size":"3"},{"size":"8"},{"size":"1"}]}}},"dtype":{"type":"DT_FLOAT"}}},
          {"name":"StatefulPartitionedCall/model/output_segmentation/BiasAdd/ReadVariableOp","op":"Const","attr":{"value":{"tensor":{"dtype":"DT_FLOAT","tensorShape":{"dim":[{"size":"1"}]}}},"dtype":{"type":"DT_FLOAT"}}},
          {"name":"StatefulPartitionedCall/model/up_sampling2d_4/mul","op":"Const","attr":{"dtype":{"type":"DT_INT32"},"value":{"tensor":{"dtype":"DT_INT32","tensorShape":{"dim":[{"size":"2"}]}}}}},
          {"name":"StatefulPartitionedCall/model/convld_3d/Conv2D/ReadVariableOp","op":"Const","attr":{"dtype":{"type":"DT_FLOAT"},"value":{"tensor":{"dtype":"DT_FLOAT","tensorShape":{"dim":[{"size":"2"},{"size":"2"},{"size":"192"},{"size":"195"}]}}}}},
          {"name":"StatefulPartitionedCall/model/convld_3d/BiasAdd/ReadVariableOp","op":"Const","attr":{"dtype":{"type":"DT_FLOAT"},"value":{"tensor":{"dtype":"DT_FLOAT","tensorShape":{"dim":[{"size":"195"}]}}}}},
          {"name":"StatefulPartitionedCall/model/ld_3d/Const","op":"Const","attr":{"value":{"tensor":{"dtype":"DT_INT32","tensorShape":{"dim":[{"size":"2"}]}}},"dtype":{"type":"DT_INT32"}}},
          {"name":"StatefulPartitionedCall/model/conv_poseflag/Conv2D/ReadVariableOp","op":"Const","attr":{"dtype":{"type":"DT_FLOAT"},"value":{"tensor":{"dtype":"DT_FLOAT","tensorShape":{"dim":[{"size":"2"},{"size":"2"},{"size":"192"},{"size":"1"}]}}}}},
          {"name":"StatefulPartitionedCall/model/conv_poseflag/BiasAdd/ReadVariableOp","op":"Const","attr":{"value":{"tensor":{"dtype":"DT_FLOAT","tensorShape":{"dim":[{"size":"1"}]}}},"dtype":{"type":"DT_FLOAT"}}},
          {"name":"StatefulPartitionedCall/model/output_poseflag/Const","op":"Const","attr":{"dtype":{"type":"DT_INT32"},"value":{"tensor":{"dtype":"DT_INT32","tensorShape":{"dim":[{"size":"2"}]}}}}},
          {"name":"StatefulPartitionedCall/model/zero_padding2d/Pad/paddings","op":"Const","attr":{"value":{"tensor":{"dtype":"DT_INT32","tensorShape":{"dim":[{"size":"4"},{"size":"2"}]}}},"dtype":{"type":"DT_INT32"}}},
          {"name":"StatefulPartitionedCall/model/zero_padding2d_1/Pad/paddings","op":"Const","attr":{"value":{"tensor":{"dtype":"DT_INT32","tensorShape":{"dim":[{"size":"4"},{"size":"2"}]}}},"dtype":{"type":"DT_INT32"}}},
          {"name":"StatefulPartitionedCall/model/zero_padding2d_2/Pad/paddings","op":"Const","attr":{"dtype":{"type":"DT_INT32"},"value":{"tensor":{"dtype":"DT_INT32","tensorShape":{"dim":[{"size":"4"},{"size":"2"}]}}}}},
          {"name":"StatefulPartitionedCall/model/zero_padding2d_3/Pad/paddings","op":"Const","attr":{"dtype":{"type":"DT_INT32"},"value":{"tensor":{"dtype":"DT_INT32","tensorShape":{"dim":[{"size":"4"},{"size":"2"}]}}}}},
          {"name":"StatefulPartitionedCall/model/zero_padding2d_4/Pad/paddings","op":"Const","attr":{"dtype":{"type":"DT_INT32"},"value":{"tensor":{"dtype":"DT_INT32","tensorShape":{"dim":[{"size":"4"},{"size":"2"}]}}}}},
          {"name":"StatefulPartitionedCall/model/convworld_3d/Conv2D/ReadVariableOp","op":"Const","attr":{"value":{"tensor":{"dtype":"DT_FLOAT","tensorShape":{"dim":[{"size":"2"},{"size":"2"},{"size":"192"},{"size":"117"}]}}},"dtype":{"type":"DT_FLOAT"}}},
          {"name":"StatefulPartitionedCall/model/convworld_3d/BiasAdd/ReadVariableOp","op":"Const","attr":{"value":{"tensor":{"dtype":"DT_FLOAT","tensorShape":{"dim":[{"size":"117"}]}}},"dtype":{"type":"DT_FLOAT"}}},
          {"name":"StatefulPartitionedCall/model/world_3d/Const","op":"Const","attr":{"dtype":{"type":"DT_INT32"},"value":{"tensor":{"dtype":"DT_INT32","tensorShape":{"dim":[{"size":"2"}]}}}}},
          {"name":"input_1","op":"Placeholder","attr":{"dtype":{"type":"DT_FLOAT"},"shape":{"shape":{"dim":[{"size":"-1"},{"size":"256"},{"size":"256"},{"size":"3"}]}}}},
          {"name":"StatefulPartitionedCall/model/conv2d/Conv2D_weights","op":"Const","attr":{"value":{"tensor":{"dtype":"DT_FLOAT","tensorShape":{"dim":[{"size":"3"},{"size":"3"},{"size":"3"},{"size":"24"}]}}},"dtype":{"type":"DT_FLOAT"}}},
          {"name":"StatefulPartitionedCall/model/conv2d_38/Conv2D_bn_offset","op":"Const","attr":{"dtype":{"type":"DT_FLOAT"},"value":{"tensor":{"dtype":"DT_FLOAT","tensorShape":{"dim":[{"size":"192"}]}}}}},
          {"name":"StatefulPartitionedCall/model/conv2d/Conv2D_bn_offset","op":"Const","attr":{"value":{"tensor":{"dtype":"DT_FLOAT","tensorShape":{"dim":[{"size":"24"}]}}},"dtype":{"type":"DT_FLOAT"}}},
          {"name":"StatefulPartitionedCall/model/depthwise_conv2d/depthwise_weights","op":"Const","attr":{"value":{"tensor":{"dtype":"DT_FLOAT","tensorShape":{"dim":[{"size":"3"},{"size":"3"},{"size":"24"},{"size":"1"}]}}},"dtype":{"type":"DT_FLOAT"}}},
          {"name":"StatefulPartitionedCall/model/depthwise_conv2d/depthwise_bn_offset","op":"Const","attr":{"value":{"tensor":{"dtype":"DT_FLOAT","tensorShape":{"dim":[{"size":"24"}]}}},"dtype":{"type":"DT_FLOAT"}}},
          {"name":"StatefulPartitionedCall/model/conv2d_1/Conv2D_weights","op":"Const","attr":{"dtype":{"type":"DT_FLOAT"},"value":{"tensor":{"dtype":"DT_FLOAT","tensorShape":{"dim":[{"size":"1"},{"size":"1"},{"size":"24"},{"size":"8"}]}}}}},
          {"name":"StatefulPartitionedCall/model/conv2d_1/Conv2D_bn_offset","op":"Const","attr":{"dtype":{"type":"DT_FLOAT"},"value":{"tensor":{"dtype":"DT_FLOAT","tensorShape":{"dim":[{"size":"8"}]}}}}},
          {"name":"StatefulPartitionedCall/model/depthwise_conv2d_28/depthwise_weights","op":"Const","attr":{"value":{"tensor":{"dtype":"DT_FLOAT","tensorShape":{"dim":[{"size":"3"},{"size":"3"},{"size":"8"},{"size":"1"}]}}},"dtype":{"type":"DT_FLOAT"}}},
          {"name":"StatefulPartitionedCall/model/depthwise_conv2d_28/depthwise_bn_offset","op":"Const","attr":{"value":{"tensor":{"dtype":"DT_FLOAT","tensorShape":{"dim":[{"size":"8"}]}}},"dtype":{"type":"DT_FLOAT"}}},
          {"name":"StatefulPartitionedCall/model/conv2d_2/Conv2D_weights","op":"Const","attr":{"dtype":{"type":"DT_FLOAT"},"value":{"tensor":{"dtype":"DT_FLOAT","tensorShape":{"dim":[{"size":"1"},{"size":"1"},{"size":"8"},{"size":"32"}]}}}}},
          {"name":"StatefulPartitionedCall/model/conv2d_2/Conv2D_bn_offset","op":"Const","attr":{"value":{"tensor":{"dtype":"DT_FLOAT","tensorShape":{"dim":[{"size":"32"}]}}},"dtype":{"type":"DT_FLOAT"}}},
          {"name":"StatefulPartitionedCall/model/conv2d_43/Conv2D_weights","op":"Const","attr":{"value":{"tensor":{"dtype":"DT_FLOAT","tensorShape":{"dim":[{"size":"1"},{"size":"1"},{"size":"8"},{"size":"8"}]}}},"dtype":{"type":"DT_FLOAT"}}},
          {"name":"StatefulPartitionedCall/model/conv2d_45/Conv2D_weights","op":"Const","attr":{"dtype":{"type":"DT_FLOAT"},"value":{"tensor":{"dtype":"DT_FLOAT","tensorShape":{"dim":[{"size":"1"},{"size":"1"},{"size":"8"},{"size":"8"}]}}}}},
          {"name":"StatefulPartitionedCall/model/conv2d_43/Conv2D_bn_offset","op":"Const","attr":{"value":{"tensor":{"dtype":"DT_FLOAT","tensorShape":{"dim":[{"size":"8"}]}}},"dtype":{"type":"DT_FLOAT"}}},
          {"name":"StatefulPartitionedCall/model/depthwise_conv2d_1/depthwise_weights","op":"Const","attr":{"dtype":{"type":"DT_FLOAT"},"value":{"tensor":{"dtype":"DT_FLOAT","tensorShape":{"dim":[{"size":"3"},{"size":"3"},{"size":"32"},{"size":"1"}]}}}}},
          {"name":"StatefulPartitionedCall/model/depthwise_conv2d_1/depthwise_bn_offset","op":"Const","attr":{"dtype":{"type":"DT_FLOAT"},"value":{"tensor":{"dtype":"DT_FLOAT","tensorShape":{"dim":[{"size":"32"}]}}}}},
          {"name":"StatefulPartitionedCall/model/conv2d_3/Conv2D_weights","op":"Const","attr":{"value":{"tensor":{"dtype":"DT_FLOAT","tensorShape":{"dim":[{"size":"1"},{"size":"1"},{"size":"32"},{"size":"16"}]}}},"dtype":{"type":"DT_FLOAT"}}},
          {"name":"StatefulPartitionedCall/model/conv2d_3/Conv2D_bn_offset","op":"Const","attr":{"dtype":{"type":"DT_FLOAT"},"value":{"tensor":{"dtype":"DT_FLOAT","tensorShape":{"dim":[{"size":"16"}]}}}}},
          {"name":"StatefulPartitionedCall/model/conv2d_4/Conv2D_weights","op":"Const","attr":{"value":{"tensor":{"dtype":"DT_FLOAT","tensorShape":{"dim":[{"size":"1"},{"size":"1"},{"size":"16"},{"size":"96"}]}}},"dtype":{"type":"DT_FLOAT"}}},
          {"name":"StatefulPartitionedCall/model/conv2d_45/Conv2D_bn_offset","op":"Const","attr":{"value":{"tensor":{"dtype":"DT_FLOAT","tensorShape":{"dim":[{"size":"8"}]}}},"dtype":{"type":"DT_FLOAT"}}},
          {"name":"StatefulPartitionedCall/model/conv2d_4/Conv2D_bn_offset","op":"Const","attr":{"value":{"tensor":{"dtype":"DT_FLOAT","tensorShape":{"dim":[{"size":"96"}]}}},"dtype":{"type":"DT_FLOAT"}}},
          {"name":"StatefulPartitionedCall/model/depthwise_conv2d_2/depthwise_weights","op":"Const","attr":{"dtype":{"type":"DT_FLOAT"},"value":{"tensor":{"dtype":"DT_FLOAT","tensorShape":{"dim":[{"size":"3"},{"size":"3"},{"size":"96"},{"size":"1"}]}}}}},
          {"name":"StatefulPartitionedCall/model/depthwise_conv2d_2/depthwise_bn_offset","op":"Const","attr":{"value":{"tensor":{"dtype":"DT_FLOAT","tensorShape":{"dim":[{"size":"96"}]}}},"dtype":{"type":"DT_FLOAT"}}},
          {"name":"StatefulPartitionedCall/model/conv2d_5/Conv2D_weights","op":"Const","attr":{"value":{"tensor":{"dtype":"DT_FLOAT","tensorShape":{"dim":[{"size":"1"},{"size":"1"},{"size":"96"},{"size":"16"}]}}},"dtype":{"type":"DT_FLOAT"}}},
          {"name":"StatefulPartitionedCall/model/conv2d_5/Conv2D_bn_offset","op":"Const","attr":{"value":{"tensor":{"dtype":"DT_FLOAT","tensorShape":{"dim":[{"size":"16"}]}}},"dtype":{"type":"DT_FLOAT"}}},
          {"name":"StatefulPartitionedCall/model/depthwise_conv2d_19/depthwise_weights","op":"Const","attr":{"dtype":{"type":"DT_FLOAT"},"value":{"tensor":{"dtype":"DT_FLOAT","tensorShape":{"dim":[{"size":"3"},{"size":"3"},{"size":"16"},{"size":"1"}]}}}}},
          {"name":"StatefulPartitionedCall/model/depthwise_conv2d_19/depthwise_bn_offset","op":"Const","attr":{"dtype":{"type":"DT_FLOAT"},"value":{"tensor":{"dtype":"DT_FLOAT","tensorShape":{"dim":[{"size":"16"}]}}}}},
          {"name":"StatefulPartitionedCall/model/conv2d_6/Conv2D_weights","op":"Const","attr":{"value":{"tensor":{"dtype":"DT_FLOAT","tensorShape":{"dim":[{"size":"1"},{"size":"1"},{"size":"16"},{"size":"96"}]}}},"dtype":{"type":"DT_FLOAT"}}},
          {"name":"StatefulPartitionedCall/model/conv2d_6/Conv2D_bn_offset","op":"Const","attr":{"value":{"tensor":{"dtype":"DT_FLOAT","tensorShape":{"dim":[{"size":"96"}]}}},"dtype":{"type":"DT_FLOAT"}}},
          {"name":"StatefulPartitionedCall/model/conv2d_34/Conv2D_weights","op":"Const","attr":{"value":{"tensor":{"dtype":"DT_FLOAT","tensorShape":{"dim":[{"size":"1"},{"size":"1"},{"size":"16"},{"size":"32"}]}}},"dtype":{"type":"DT_FLOAT"}}},
          {"name":"StatefulPartitionedCall/model/conv2d_34/Conv2D_bn_offset","op":"Const","attr":{"dtype":{"type":"DT_FLOAT"},"value":{"tensor":{"dtype":"DT_FLOAT","tensorShape":{"dim":[{"size":"32"}]}}}}},
          {"name":"StatefulPartitionedCall/model/depthwise_conv2d_3/depthwise_weights","op":"Const","attr":{"dtype":{"type":"DT_FLOAT"},"value":{"tensor":{"dtype":"DT_FLOAT","tensorShape":{"dim":[{"size":"5"},{"size":"5"},{"size":"96"},{"size":"1"}]}}}}},
          {"name":"StatefulPartitionedCall/model/depthwise_conv2d_3/depthwise_bn_offset","op":"Const","attr":{"value":{"tensor":{"dtype":"DT_FLOAT","tensorShape":{"dim":[{"size":"96"}]}}},"dtype":{"type":"DT_FLOAT"}}},
          {"name":"StatefulPartitionedCall/model/conv2d_7/Conv2D_weights","op":"Const","attr":{"dtype":{"type":"DT_FLOAT"},"value":{"tensor":{"dtype":"DT_FLOAT","tensorShape":{"dim":[{"size":"1"},{"size":"1"},{"size":"96"},{"size":"24"}]}}}}},
          {"name":"StatefulPartitionedCall/model/conv2d_7/Conv2D_bn_offset","op":"Const","attr":{"dtype":{"type":"DT_FLOAT"},"value":{"tensor":{"dtype":"DT_FLOAT","tensorShape":{"dim":[{"size":"24"}]}}}}},
          {"name":"StatefulPartitionedCall/model/conv2d_8/Conv2D_weights","op":"Const","attr":{"dtype":{"type":"DT_FLOAT"},"value":{"tensor":{"dtype":"DT_FLOAT","tensorShape":{"dim":[{"size":"1"},{"size":"1"},{"size":"24"},{"size":"144"}]}}}}},
          {"name":"StatefulPartitionedCall/model/conv2d_8/Conv2D_bn_offset","op":"Const","attr":{"dtype":{"type":"DT_FLOAT"},"value":{"tensor":{"dtype":"DT_FLOAT","tensorShape":{"dim":[{"size":"144"}]}}}}},
          {"name":"StatefulPartitionedCall/model/depthwise_conv2d_24/depthwise_weights","op":"Const","attr":{"dtype":{"type":"DT_FLOAT"},"value":{"tensor":{"dtype":"DT_FLOAT","tensorShape":{"dim":[{"size":"3"},{"size":"3"},{"size":"192"},{"size":"1"}]}}}}},
          {"name":"StatefulPartitionedCall/model/depthwise_conv2d_4/depthwise_weights","op":"Const","attr":{"value":{"tensor":{"dtype":"DT_FLOAT","tensorShape":{"dim":[{"size":"5"},{"size":"5"},{"size":"144"},{"size":"1"}]}}},"dtype":{"type":"DT_FLOAT"}}},
          {"name":"StatefulPartitionedCall/model/depthwise_conv2d_4/depthwise_bn_offset","op":"Const","attr":{"dtype":{"type":"DT_FLOAT"},"value":{"tensor":{"dtype":"DT_FLOAT","tensorShape":{"dim":[{"size":"144"}]}}}}},
          {"name":"StatefulPartitionedCall/model/conv2d_9/Conv2D_weights","op":"Const","attr":{"value":{"tensor":{"dtype":"DT_FLOAT","tensorShape":{"dim":[{"size":"1"},{"size":"1"},{"size":"144"},{"size":"24"}]}}},"dtype":{"type":"DT_FLOAT"}}},
          {"name":"StatefulPartitionedCall/model/conv2d_9/Conv2D_bn_offset","op":"Const","attr":{"dtype":{"type":"DT_FLOAT"},"value":{"tensor":{"dtype":"DT_FLOAT","tensorShape":{"dim":[{"size":"24"}]}}}}},
          {"name":"StatefulPartitionedCall/model/depthwise_conv2d_18/depthwise_weights","op":"Const","attr":{"value":{"tensor":{"dtype":"DT_FLOAT","tensorShape":{"dim":[{"size":"3"},{"size":"3"},{"size":"24"},{"size":"1"}]}}},"dtype":{"type":"DT_FLOAT"}}},
          {"name":"StatefulPartitionedCall/model/depthwise_conv2d_18/depthwise_bn_offset","op":"Const","attr":{"value":{"tensor":{"dtype":"DT_FLOAT","tensorShape":{"dim":[{"size":"24"}]}}},"dtype":{"type":"DT_FLOAT"}}},
          {"name":"StatefulPartitionedCall/model/conv2d_10/Conv2D_weights","op":"Const","attr":{"dtype":{"type":"DT_FLOAT"},"value":{"tensor":{"dtype":"DT_FLOAT","tensorShape":{"dim":[{"size":"1"},{"size":"1"},{"size":"24"},{"size":"144"}]}}}}},
          {"name":"StatefulPartitionedCall/model/depthwise_conv2d_24/depthwise_bn_offset","op":"Const","attr":{"value":{"tensor":{"dtype":"DT_FLOAT","tensorShape":{"dim":[{"size":"192"}]}}},"dtype":{"type":"DT_FLOAT"}}},
          {"name":"StatefulPartitionedCall/model/conv2d_10/Conv2D_bn_offset","op":"Const","attr":{"dtype":{"type":"DT_FLOAT"},"value":{"tensor":{"dtype":"DT_FLOAT","tensorShape":{"dim":[{"size":"144"}]}}}}},
          {"name":"StatefulPartitionedCall/model/conv2d_33/Conv2D_weights","op":"Const","attr":{"value":{"tensor":{"dtype":"DT_FLOAT","tensorShape":{"dim":[{"size":"1"},{"size":"1"},{"size":"24"},{"size":"32"}]}}},"dtype":{"type":"DT_FLOAT"}}},
          {"name":"StatefulPartitionedCall/model/conv2d_33/Conv2D_bn_offset","op":"Const","attr":{"value":{"tensor":{"dtype":"DT_FLOAT","tensorShape":{"dim":[{"size":"32"}]}}},"dtype":{"type":"DT_FLOAT"}}},
          {"name":"StatefulPartitionedCall/model/conv2d_39/Conv2D_weights","op":"Const","attr":{"value":{"tensor":{"dtype":"DT_FLOAT","tensorShape":{"dim":[{"size":"1"},{"size":"1"},{"size":"192"},{"size":"192"}]}}},"dtype":{"type":"DT_FLOAT"}}},
          {"name":"StatefulPartitionedCall/model/depthwise_conv2d_5/depthwise_weights","op":"Const","attr":{"value":{"tensor":{"dtype":"DT_FLOAT","tensorShape":{"dim":[{"size":"3"},{"size":"3"},{"size":"144"},{"size":"1"}]}}},"dtype":{"type":"DT_FLOAT"}}},
          {"name":"StatefulPartitionedCall/model/depthwise_conv2d_5/depthwise_bn_offset","op":"Const","attr":{"value":{"tensor":{"dtype":"DT_FLOAT","tensorShape":{"dim":[{"size":"144"}]}}},"dtype":{"type":"DT_FLOAT"}}},
          {"name":"StatefulPartitionedCall/model/conv2d_11/Conv2D_weights","op":"Const","attr":{"dtype":{"type":"DT_FLOAT"},"value":{"tensor":{"dtype":"DT_FLOAT","tensorShape":{"dim":[{"size":"1"},{"size":"1"},{"size":"144"},{"size":"40"}]}}}}},
          {"name":"StatefulPartitionedCall/model/conv2d_11/Conv2D_bn_offset","op":"Const","attr":{"value":{"tensor":{"dtype":"DT_FLOAT","tensorShape":{"dim":[{"size":"40"}]}}},"dtype":{"type":"DT_FLOAT"}}},
          {"name":"StatefulPartitionedCall/model/conv2d_12/Conv2D_weights","op":"Const","attr":{"dtype":{"type":"DT_FLOAT"},"value":{"tensor":{"dtype":"DT_FLOAT","tensorShape":{"dim":[{"size":"1"},{"size":"1"},{"size":"40"},{"size":"240"}]}}}}},
          {"name":"StatefulPartitionedCall/model/conv2d_39/Conv2D_bn_offset","op":"Const","attr":{"value":{"tensor":{"dtype":"DT_FLOAT","tensorShape":{"dim":[{"size":"192"}]}}},"dtype":{"type":"DT_FLOAT"}}},
          {"name":"StatefulPartitionedCall/model/conv2d_12/Conv2D_bn_offset","op":"Const","attr":{"value":{"tensor":{"dtype":"DT_FLOAT","tensorShape":{"dim":[{"size":"240"}]}}},"dtype":{"type":"DT_FLOAT"}}},
          {"name":"StatefulPartitionedCall/model/depthwise_conv2d_6/depthwise_weights","op":"Const","attr":{"dtype":{"type":"DT_FLOAT"},"value":{"tensor":{"dtype":"DT_FLOAT","tensorShape":{"dim":[{"size":"3"},{"size":"3"},{"size":"240"},{"size":"1"}]}}}}},
          {"name":"StatefulPartitionedCall/model/depthwise_conv2d_6/depthwise_bn_offset","op":"Const","attr":{"value":{"tensor":{"dtype":"DT_FLOAT","tensorShape":{"dim":[{"size":"240"}]}}},"dtype":{"type":"DT_FLOAT"}}},
          {"name":"StatefulPartitionedCall/model/conv2d_13/Conv2D_weights","op":"Const","attr":{"value":{"tensor":{"dtype":"DT_FLOAT","tensorShape":{"dim":[{"size":"1"},{"size":"1"},{"size":"240"},{"size":"40"}]}}},"dtype":{"type":"DT_FLOAT"}}},
          {"name":"StatefulPartitionedCall/model/conv2d_13/Conv2D_bn_offset","op":"Const","attr":{"value":{"tensor":{"dtype":"DT_FLOAT","tensorShape":{"dim":[{"size":"40"}]}}},"dtype":{"type":"DT_FLOAT"}}},
          {"name":"StatefulPartitionedCall/model/conv2d_14/Conv2D_weights","op":"Const","attr":{"dtype":{"type":"DT_FLOAT"},"value":{"tensor":{"dtype":"DT_FLOAT","tensorShape":{"dim":[{"size":"1"},{"size":"1"},{"size":"40"},{"size":"240"}]}}}}},
          {"name":"StatefulPartitionedCall/model/conv2d_14/Conv2D_bn_offset","op":"Const","attr":{"dtype":{"type":"DT_FLOAT"},"value":{"tensor":{"dtype":"DT_FLOAT","tensorShape":{"dim":[{"size":"240"}]}}}}},
          {"name":"StatefulPartitionedCall/model/depthwise_conv2d_25/depthwise_weights","op":"Const","attr":{"dtype":{"type":"DT_FLOAT"},"value":{"tensor":{"dtype":"DT_FLOAT","tensorShape":{"dim":[{"size":"3"},{"size":"3"},{"size":"192"},{"size":"1"}]}}}}},
          {"name":"StatefulPartitionedCall/model/depthwise_conv2d_7/depthwise_weights","op":"Const","attr":{"dtype":{"type":"DT_FLOAT"},"value":{"tensor":{"dtype":"DT_FLOAT","tensorShape":{"dim":[{"size":"3"},{"size":"3"},{"size":"240"},{"size":"1"}]}}}}},
          {"name":"StatefulPartitionedCall/model/depthwise_conv2d_7/depthwise_bn_offset","op":"Const","attr":{"value":{"tensor":{"dtype":"DT_FLOAT","tensorShape":{"dim":[{"size":"240"}]}}},"dtype":{"type":"DT_FLOAT"}}},
          {"name":"StatefulPartitionedCall/model/conv2d_15/Conv2D_weights","op":"Const","attr":{"value":{"tensor":{"dtype":"DT_FLOAT","tensorShape":{"dim":[{"size":"1"},{"size":"1"},{"size":"240"},{"size":"40"}]}}},"dtype":{"type":"DT_FLOAT"}}},
          {"name":"StatefulPartitionedCall/model/conv2d_15/Conv2D_bn_offset","op":"Const","attr":{"value":{"tensor":{"dtype":"DT_FLOAT","tensorShape":{"dim":[{"size":"40"}]}}},"dtype":{"type":"DT_FLOAT"}}},
          {"name":"StatefulPartitionedCall/model/conv2d_16/Conv2D_weights","op":"Const","attr":{"dtype":{"type":"DT_FLOAT"},"value":{"tensor":{"dtype":"DT_FLOAT","tensorShape":{"dim":[{"size":"1"},{"size":"1"},{"size":"40"},{"size":"240"}]}}}}},
          {"name":"StatefulPartitionedCall/model/depthwise_conv2d_25/depthwise_bn_offset","op":"Const","attr":{"dtype":{"type":"DT_FLOAT"},"value":{"tensor":{"dtype":"DT_FLOAT","tensorShape":{"dim":[{"size":"192"}]}}}}},
          {"name":"StatefulPartitionedCall/model/conv2d_16/Conv2D_bn_offset","op":"Const","attr":{"value":{"tensor":{"dtype":"DT_FLOAT","tensorShape":{"dim":[{"size":"240"}]}}},"dtype":{"type":"DT_FLOAT"}}},
          {"name":"StatefulPartitionedCall/model/depthwise_conv2d_8/depthwise_weights","op":"Const","attr":{"value":{"tensor":{"dtype":"DT_FLOAT","tensorShape":{"dim":[{"size":"5"},{"size":"5"},{"size":"240"},{"size":"1"}]}}},"dtype":{"type":"DT_FLOAT"}}},
          {"name":"StatefulPartitionedCall/model/depthwise_conv2d_8/depthwise_bn_offset","op":"Const","attr":{"value":{"tensor":{"dtype":"DT_FLOAT","tensorShape":{"dim":[{"size":"240"}]}}},"dtype":{"type":"DT_FLOAT"}}},
          {"name":"StatefulPartitionedCall/model/conv2d_17/Conv2D_weights","op":"Const","attr":{"value":{"tensor":{"dtype":"DT_FLOAT","tensorShape":{"dim":[{"size":"1"},{"size":"1"},{"size":"240"},{"size":"56"}]}}},"dtype":{"type":"DT_FLOAT"}}},
          {"name":"StatefulPartitionedCall/model/conv2d_17/Conv2D_bn_offset","op":"Const","attr":{"value":{"tensor":{"dtype":"DT_FLOAT","tensorShape":{"dim":[{"size":"56"}]}}},"dtype":{"type":"DT_FLOAT"}}},
          {"name":"StatefulPartitionedCall/model/conv2d_18/Conv2D_weights","op":"Const","attr":{"dtype":{"type":"DT_FLOAT"},"value":{"tensor":{"dtype":"DT_FLOAT","tensorShape":{"dim":[{"size":"1"},{"size":"1"},{"size":"56"},{"size":"336"}]}}}}},
          {"name":"StatefulPartitionedCall/model/conv2d_40/Conv2D_weights","op":"Const","attr":{"dtype":{"type":"DT_FLOAT"},"value":{"tensor":{"dtype":"DT_FLOAT","tensorShape":{"dim":[{"size":"1"},{"size":"1"},{"size":"192"},{"size":"192"}]}}}}},
          {"name":"StatefulPartitionedCall/model/conv2d_18/Conv2D_bn_offset","op":"Const","attr":{"dtype":{"type":"DT_FLOAT"},"value":{"tensor":{"dtype":"DT_FLOAT","tensorShape":{"dim":[{"size":"336"}]}}}}},
          {"name":"StatefulPartitionedCall/model/depthwise_conv2d_9/depthwise_weights","op":"Const","attr":{"dtype":{"type":"DT_FLOAT"},"value":{"tensor":{"dtype":"DT_FLOAT","tensorShape":{"dim":[{"size":"5"},{"size":"5"},{"size":"336"},{"size":"1"}]}}}}},
          {"name":"StatefulPartitionedCall/model/depthwise_conv2d_9/depthwise_bn_offset","op":"Const","attr":{"value":{"tensor":{"dtype":"DT_FLOAT","tensorShape":{"dim":[{"size":"336"}]}}},"dtype":{"type":"DT_FLOAT"}}},
          {"name":"StatefulPartitionedCall/model/conv2d_19/Conv2D_weights","op":"Const","attr":{"value":{"tensor":{"dtype":"DT_FLOAT","tensorShape":{"dim":[{"size":"1"},{"size":"1"},{"size":"336"},{"size":"56"}]}}},"dtype":{"type":"DT_FLOAT"}}},
          {"name":"StatefulPartitionedCall/model/conv2d_40/Conv2D_bn_offset","op":"Const","attr":{"value":{"tensor":{"dtype":"DT_FLOAT","tensorShape":{"dim":[{"size":"192"}]}}},"dtype":{"type":"DT_FLOAT"}}},
          {"name":"StatefulPartitionedCall/model/conv2d_19/Conv2D_bn_offset","op":"Const","attr":{"value":{"tensor":{"dtype":"DT_FLOAT","tensorShape":{"dim":[{"size":"56"}]}}},"dtype":{"type":"DT_FLOAT"}}},
          {"name":"StatefulPartitionedCall/model/conv2d_20/Conv2D_weights","op":"Const","attr":{"dtype":{"type":"DT_FLOAT"},"value":{"tensor":{"dtype":"DT_FLOAT","tensorShape":{"dim":[{"size":"1"},{"size":"1"},{"size":"56"},{"size":"336"}]}}}}},
          {"name":"StatefulPartitionedCall/model/conv2d_20/Conv2D_bn_offset","op":"Const","attr":{"dtype":{"type":"DT_FLOAT"},"value":{"tensor":{"dtype":"DT_FLOAT","tensorShape":{"dim":[{"size":"336"}]}}}}},
          {"name":"StatefulPartitionedCall/model/depthwise_conv2d_10/depthwise_weights","op":"Const","attr":{"dtype":{"type":"DT_FLOAT"},"value":{"tensor":{"dtype":"DT_FLOAT","tensorShape":{"dim":[{"size":"5"},{"size":"5"},{"size":"336"},{"size":"1"}]}}}}},
          {"name":"StatefulPartitionedCall/model/depthwise_conv2d_10/depthwise_bn_offset","op":"Const","attr":{"dtype":{"type":"DT_FLOAT"},"value":{"tensor":{"dtype":"DT_FLOAT","tensorShape":{"dim":[{"size":"336"}]}}}}},
          {"name":"StatefulPartitionedCall/model/conv2d_21/Conv2D_weights","op":"Const","attr":{"value":{"tensor":{"dtype":"DT_FLOAT","tensorShape":{"dim":[{"size":"1"},{"size":"1"},{"size":"336"},{"size":"56"}]}}},"dtype":{"type":"DT_FLOAT"}}},
          {"name":"StatefulPartitionedCall/model/conv2d_21/Conv2D_bn_offset","op":"Const","attr":{"dtype":{"type":"DT_FLOAT"},"value":{"tensor":{"dtype":"DT_FLOAT","tensorShape":{"dim":[{"size":"56"}]}}}}},
          {"name":"StatefulPartitionedCall/model/depthwise_conv2d_17/depthwise_weights","op":"Const","attr":{"value":{"tensor":{"dtype":"DT_FLOAT","tensorShape":{"dim":[{"size":"3"},{"size":"3"},{"size":"56"},{"size":"1"}]}}},"dtype":{"type":"DT_FLOAT"}}},
          {"name":"StatefulPartitionedCall/model/depthwise_conv2d_17/depthwise_bn_offset","op":"Const","attr":{"dtype":{"type":"DT_FLOAT"},"value":{"tensor":{"dtype":"DT_FLOAT","tensorShape":{"dim":[{"size":"56"}]}}}}},
          {"name":"StatefulPartitionedCall/model/conv2d_22/Conv2D_weights","op":"Const","attr":{"dtype":{"type":"DT_FLOAT"},"value":{"tensor":{"dtype":"DT_FLOAT","tensorShape":{"dim":[{"size":"1"},{"size":"1"},{"size":"56"},{"size":"336"}]}}}}},
          {"name":"StatefulPartitionedCall/model/depthwise_conv2d_26/depthwise_weights","op":"Const","attr":{"value":{"tensor":{"dtype":"DT_FLOAT","tensorShape":{"dim":[{"size":"3"},{"size":"3"},{"size":"192"},{"size":"1"}]}}},"dtype":{"type":"DT_FLOAT"}}},
          {"name":"StatefulPartitionedCall/model/conv2d_22/Conv2D_bn_offset","op":"Const","attr":{"value":{"tensor":{"dtype":"DT_FLOAT","tensorShape":{"dim":[{"size":"336"}]}}},"dtype":{"type":"DT_FLOAT"}}},
          {"name":"StatefulPartitionedCall/model/conv2d_32/Conv2D_weights","op":"Const","attr":{"dtype":{"type":"DT_FLOAT"},"value":{"tensor":{"dtype":"DT_FLOAT","tensorShape":{"dim":[{"size":"1"},{"size":"1"},{"size":"56"},{"size":"32"}]}}}}},
          {"name":"StatefulPartitionedCall/model/depthwise_conv2d_26/depthwise_bn_offset","op":"Const","attr":{"value":{"tensor":{"dtype":"DT_FLOAT","tensorShape":{"dim":[{"size":"192"}]}}},"dtype":{"type":"DT_FLOAT"}}},
          {"name":"StatefulPartitionedCall/model/conv2d_32/Conv2D_bn_offset","op":"Const","attr":{"dtype":{"type":"DT_FLOAT"},"value":{"tensor":{"dtype":"DT_FLOAT","tensorShape":{"dim":[{"size":"32"}]}}}}},
          {"name":"StatefulPartitionedCall/model/depthwise_conv2d_11/depthwise_weights","op":"Const","attr":{"dtype":{"type":"DT_FLOAT"},"value":{"tensor":{"dtype":"DT_FLOAT","tensorShape":{"dim":[{"size":"5"},{"size":"5"},{"size":"336"},{"size":"1"}]}}}}},
          {"name":"StatefulPartitionedCall/model/depthwise_conv2d_11/depthwise_bn_offset","op":"Const","attr":{"dtype":{"type":"DT_FLOAT"},"value":{"tensor":{"dtype":"DT_FLOAT","tensorShape":{"dim":[{"size":"336"}]}}}}},
          {"name":"StatefulPartitionedCall/model/conv2d_23/Conv2D_weights","op":"Const","attr":{"dtype":{"type":"DT_FLOAT"},"value":{"tensor":{"dtype":"DT_FLOAT","tensorShape":{"dim":[{"size":"1"},{"size":"1"},{"size":"336"},{"size":"96"}]}}}}},
          {"name":"StatefulPartitionedCall/model/conv2d_23/Conv2D_bn_offset","op":"Const","attr":{"value":{"tensor":{"dtype":"DT_FLOAT","tensorShape":{"dim":[{"size":"96"}]}}},"dtype":{"type":"DT_FLOAT"}}},
          {"name":"StatefulPartitionedCall/model/conv2d_24/Conv2D_weights","op":"Const","attr":{"value":{"tensor":{"dtype":"DT_FLOAT","tensorShape":{"dim":[{"size":"1"},{"size":"1"},{"size":"96"},{"size":"576"}]}}},"dtype":{"type":"DT_FLOAT"}}},
          {"name":"StatefulPartitionedCall/model/conv2d_41/Conv2D_weights","op":"Const","attr":{"value":{"tensor":{"dtype":"DT_FLOAT","tensorShape":{"dim":[{"size":"1"},{"size":"1"},{"size":"192"},{"size":"192"}]}}},"dtype":{"type":"DT_FLOAT"}}},
          {"name":"StatefulPartitionedCall/model/conv2d_24/Conv2D_bn_offset","op":"Const","attr":{"value":{"tensor":{"dtype":"DT_FLOAT","tensorShape":{"dim":[{"size":"576"}]}}},"dtype":{"type":"DT_FLOAT"}}},
          {"name":"StatefulPartitionedCall/model/depthwise_conv2d_12/depthwise_weights","op":"Const","attr":{"value":{"tensor":{"dtype":"DT_FLOAT","tensorShape":{"dim":[{"size":"5"},{"size":"5"},{"size":"576"},{"size":"1"}]}}},"dtype":{"type":"DT_FLOAT"}}},
          {"name":"StatefulPartitionedCall/model/depthwise_conv2d_12/depthwise_bn_offset","op":"Const","attr":{"value":{"tensor":{"dtype":"DT_FLOAT","tensorShape":{"dim":[{"size":"576"}]}}},"dtype":{"type":"DT_FLOAT"}}},
          {"name":"StatefulPartitionedCall/model/conv2d_25/Conv2D_weights","op":"Const","attr":{"value":{"tensor":{"dtype":"DT_FLOAT","tensorShape":{"dim":[{"size":"1"},{"size":"1"},{"size":"576"},{"size":"96"}]}}},"dtype":{"type":"DT_FLOAT"}}},
          {"name":"StatefulPartitionedCall/model/conv2d_41/Conv2D_bn_offset","op":"Const","attr":{"dtype":{"type":"DT_FLOAT"},"value":{"tensor":{"dtype":"DT_FLOAT","tensorShape":{"dim":[{"size":"192"}]}}}}},
          {"name":"StatefulPartitionedCall/model/conv2d_25/Conv2D_bn_offset","op":"Const","attr":{"value":{"tensor":{"dtype":"DT_FLOAT","tensorShape":{"dim":[{"size":"96"}]}}},"dtype":{"type":"DT_FLOAT"}}},
          {"name":"StatefulPartitionedCall/model/conv2d_26/Conv2D_weights","op":"Const","attr":{"dtype":{"type":"DT_FLOAT"},"value":{"tensor":{"dtype":"DT_FLOAT","tensorShape":{"dim":[{"size":"1"},{"size":"1"},{"size":"96"},{"size":"576"}]}}}}},
          {"name":"StatefulPartitionedCall/model/conv2d_26/Conv2D_bn_offset","op":"Const","attr":{"dtype":{"type":"DT_FLOAT"},"value":{"tensor":{"dtype":"DT_FLOAT","tensorShape":{"dim":[{"size":"576"}]}}}}},
          {"name":"StatefulPartitionedCall/model/depthwise_conv2d_13/depthwise_weights","op":"Const","attr":{"value":{"tensor":{"dtype":"DT_FLOAT","tensorShape":{"dim":[{"size":"5"},{"size":"5"},{"size":"576"},{"size":"1"}]}}},"dtype":{"type":"DT_FLOAT"}}},
          {"name":"StatefulPartitionedCall/model/depthwise_conv2d_13/depthwise_bn_offset","op":"Const","attr":{"value":{"tensor":{"dtype":"DT_FLOAT","tensorShape":{"dim":[{"size":"576"}]}}},"dtype":{"type":"DT_FLOAT"}}},
          {"name":"StatefulPartitionedCall/model/conv2d_27/Conv2D_weights","op":"Const","attr":{"dtype":{"type":"DT_FLOAT"},"value":{"tensor":{"dtype":"DT_FLOAT","tensorShape":{"dim":[{"size":"1"},{"size":"1"},{"size":"576"},{"size":"96"}]}}}}},
          {"name":"StatefulPartitionedCall/model/conv2d_27/Conv2D_bn_offset","op":"Const","attr":{"dtype":{"type":"DT_FLOAT"},"value":{"tensor":{"dtype":"DT_FLOAT","tensorShape":{"dim":[{"size":"96"}]}}}}},
          {"name":"StatefulPartitionedCall/model/conv2d_28/Conv2D_weights","op":"Const","attr":{"dtype":{"type":"DT_FLOAT"},"value":{"tensor":{"dtype":"DT_FLOAT","tensorShape":{"dim":[{"size":"1"},{"size":"1"},{"size":"96"},{"size":"576"}]}}}}},
          {"name":"StatefulPartitionedCall/model/depthwise_conv2d_27/depthwise_weights","op":"Const","attr":{"dtype":{"type":"DT_FLOAT"},"value":{"tensor":{"dtype":"DT_FLOAT","tensorShape":{"dim":[{"size":"3"},{"size":"3"},{"size":"192"},{"size":"1"}]}}}}},
          {"name":"StatefulPartitionedCall/model/conv2d_28/Conv2D_bn_offset","op":"Const","attr":{"dtype":{"type":"DT_FLOAT"},"value":{"tensor":{"dtype":"DT_FLOAT","tensorShape":{"dim":[{"size":"576"}]}}}}},
          {"name":"StatefulPartitionedCall/model/depthwise_conv2d_14/depthwise_weights","op":"Const","attr":{"dtype":{"type":"DT_FLOAT"},"value":{"tensor":{"dtype":"DT_FLOAT","tensorShape":{"dim":[{"size":"5"},{"size":"5"},{"size":"576"},{"size":"1"}]}}}}},
          {"name":"StatefulPartitionedCall/model/depthwise_conv2d_14/depthwise_bn_offset","op":"Const","attr":{"dtype":{"type":"DT_FLOAT"},"value":{"tensor":{"dtype":"DT_FLOAT","tensorShape":{"dim":[{"size":"576"}]}}}}},
          {"name":"StatefulPartitionedCall/model/conv2d_29/Conv2D_weights","op":"Const","attr":{"value":{"tensor":{"dtype":"DT_FLOAT","tensorShape":{"dim":[{"size":"1"},{"size":"1"},{"size":"576"},{"size":"96"}]}}},"dtype":{"type":"DT_FLOAT"}}},
          {"name":"StatefulPartitionedCall/model/depthwise_conv2d_27/depthwise_bn_offset","op":"Const","attr":{"dtype":{"type":"DT_FLOAT"},"value":{"tensor":{"dtype":"DT_FLOAT","tensorShape":{"dim":[{"size":"192"}]}}}}},
          {"name":"StatefulPartitionedCall/model/conv2d_29/Conv2D_bn_offset","op":"Const","attr":{"value":{"tensor":{"dtype":"DT_FLOAT","tensorShape":{"dim":[{"size":"96"}]}}},"dtype":{"type":"DT_FLOAT"}}},
          {"name":"StatefulPartitionedCall/model/conv2d_30/Conv2D_weights","op":"Const","attr":{"value":{"tensor":{"dtype":"DT_FLOAT","tensorShape":{"dim":[{"size":"1"},{"size":"1"},{"size":"96"},{"size":"576"}]}}},"dtype":{"type":"DT_FLOAT"}}},
          {"name":"StatefulPartitionedCall/model/conv2d_30/Conv2D_bn_offset","op":"Const","attr":{"value":{"tensor":{"dtype":"DT_FLOAT","tensorShape":{"dim":[{"size":"576"}]}}},"dtype":{"type":"DT_FLOAT"}}},
          {"name":"StatefulPartitionedCall/model/depthwise_conv2d_15/depthwise_weights","op":"Const","attr":{"value":{"tensor":{"dtype":"DT_FLOAT","tensorShape":{"dim":[{"size":"3"},{"size":"3"},{"size":"576"},{"size":"1"}]}}},"dtype":{"type":"DT_FLOAT"}}},
          {"name":"StatefulPartitionedCall/model/depthwise_conv2d_15/depthwise_bn_offset","op":"Const","attr":{"value":{"tensor":{"dtype":"DT_FLOAT","tensorShape":{"dim":[{"size":"576"}]}}},"dtype":{"type":"DT_FLOAT"}}},
          {"name":"StatefulPartitionedCall/model/depthwise_conv2d_16/depthwise_weights","op":"Const","attr":{"value":{"tensor":{"dtype":"DT_FLOAT","tensorShape":{"dim":[{"size":"3"},{"size":"3"},{"size":"576"},{"size":"1"}]}}},"dtype":{"type":"DT_FLOAT"}}},
          {"name":"StatefulPartitionedCall/model/depthwise_conv2d_16/depthwise_bn_offset","op":"Const","attr":{"value":{"tensor":{"dtype":"DT_FLOAT","tensorShape":{"dim":[{"size":"576"}]}}},"dtype":{"type":"DT_FLOAT"}}},
          {"name":"StatefulPartitionedCall/model/depthwise_conv2d_20/depthwise_weights","op":"Const","attr":{"value":{"tensor":{"dtype":"DT_FLOAT","tensorShape":{"dim":[{"size":"3"},{"size":"3"},{"size":"576"},{"size":"1"}]}}},"dtype":{"type":"DT_FLOAT"}}},
          {"name":"StatefulPartitionedCall/model/depthwise_conv2d_20/depthwise_bn_offset","op":"Const","attr":{"dtype":{"type":"DT_FLOAT"},"value":{"tensor":{"dtype":"DT_FLOAT","tensorShape":{"dim":[{"size":"576"}]}}}}},
          {"name":"StatefulPartitionedCall/model/conv2d_31/Conv2D_weights","op":"Const","attr":{"dtype":{"type":"DT_FLOAT"},"value":{"tensor":{"dtype":"DT_FLOAT","tensorShape":{"dim":[{"size":"1"},{"size":"1"},{"size":"576"},{"size":"32"}]}}}}},
          {"name":"StatefulPartitionedCall/model/conv2d_42/Conv2D_weights","op":"Const","attr":{"value":{"tensor":{"dtype":"DT_FLOAT","tensorShape":{"dim":[{"size":"1"},{"size":"1"},{"size":"192"},{"size":"192"}]}}},"dtype":{"type":"DT_FLOAT"}}},
          {"name":"StatefulPartitionedCall/model/conv2d_31/Conv2D_bn_offset","op":"Const","attr":{"dtype":{"type":"DT_FLOAT"},"value":{"tensor":{"dtype":"DT_FLOAT","tensorShape":{"dim":[{"size":"32"}]}}}}},
          {"name":"StatefulPartitionedCall/model/conv2d_42/Conv2D_bn_offset","op":"Const","attr":{"value":{"tensor":{"dtype":"DT_FLOAT","tensorShape":{"dim":[{"size":"192"}]}}},"dtype":{"type":"DT_FLOAT"}}},
          {"name":"StatefulPartitionedCall/model/conv2d_35/Conv2D_weights","op":"Const","attr":{"dtype":{"type":"DT_FLOAT"},"value":{"tensor":{"dtype":"DT_FLOAT","tensorShape":{"dim":[{"size":"1"},{"size":"1"},{"size":"576"},{"size":"192"}]}}}}},
          {"name":"StatefulPartitionedCall/model/conv2d_35/Conv2D_bn_offset","op":"Const","attr":{"dtype":{"type":"DT_FLOAT"},"value":{"tensor":{"dtype":"DT_FLOAT","tensorShape":{"dim":[{"size":"192"}]}}}}},
          {"name":"StatefulPartitionedCall/model/depthwise_conv2d_21/depthwise_weights","op":"Const","attr":{"value":{"tensor":{"dtype":"DT_FLOAT","tensorShape":{"dim":[{"size":"3"},{"size":"3"},{"size":"192"},{"size":"1"}]}}},"dtype":{"type":"DT_FLOAT"}}},
          {"name":"StatefulPartitionedCall/model/depthwise_conv2d_21/depthwise_bn_offset","op":"Const","attr":{"value":{"tensor":{"dtype":"DT_FLOAT","tensorShape":{"dim":[{"size":"192"}]}}},"dtype":{"type":"DT_FLOAT"}}},
          {"name":"StatefulPartitionedCall/model/conv2d_36/Conv2D_weights","op":"Const","attr":{"dtype":{"type":"DT_FLOAT"},"value":{"tensor":{"dtype":"DT_FLOAT","tensorShape":{"dim":[{"size":"1"},{"size":"1"},{"size":"192"},{"size":"192"}]}}}}},
          {"name":"StatefulPartitionedCall/model/conv2d_36/Conv2D_bn_offset","op":"Const","attr":{"dtype":{"type":"DT_FLOAT"},"value":{"tensor":{"dtype":"DT_FLOAT","tensorShape":{"dim":[{"size":"192"}]}}}}},
          {"name":"StatefulPartitionedCall/model/depthwise_conv2d_29/depthwise_weights","op":"Const","attr":{"value":{"tensor":{"dtype":"DT_FLOAT","tensorShape":{"dim":[{"size":"3"},{"size":"3"},{"size":"32"},{"size":"1"}]}}},"dtype":{"type":"DT_FLOAT"}}},
          {"name":"StatefulPartitionedCall/model/depthwise_conv2d_29/depthwise_bn_offset","op":"Const","attr":{"dtype":{"type":"DT_FLOAT"},"value":{"tensor":{"dtype":"DT_FLOAT","tensorShape":{"dim":[{"size":"32"}]}}}}},
          {"name":"StatefulPartitionedCall/model/depthwise_conv2d_22/depthwise_weights","op":"Const","attr":{"value":{"tensor":{"dtype":"DT_FLOAT","tensorShape":{"dim":[{"size":"3"},{"size":"3"},{"size":"192"},{"size":"1"}]}}},"dtype":{"type":"DT_FLOAT"}}},
          {"name":"StatefulPartitionedCall/model/depthwise_conv2d_22/depthwise_bn_offset","op":"Const","attr":{"dtype":{"type":"DT_FLOAT"},"value":{"tensor":{"dtype":"DT_FLOAT","tensorShape":{"dim":[{"size":"192"}]}}}}},
          {"name":"StatefulPartitionedCall/model/conv2d_44/Conv2D_weights","op":"Const","attr":{"value":{"tensor":{"dtype":"DT_FLOAT","tensorShape":{"dim":[{"size":"1"},{"size":"1"},{"size":"32"},{"size":"8"}]}}},"dtype":{"type":"DT_FLOAT"}}},
          {"name":"StatefulPartitionedCall/model/conv2d_44/Conv2D_bn_offset","op":"Const","attr":{"dtype":{"type":"DT_FLOAT"},"value":{"tensor":{"dtype":"DT_FLOAT","tensorShape":{"dim":[{"size":"8"}]}}}}},
          {"name":"StatefulPartitionedCall/model/conv2d_37/Conv2D_weights","op":"Const","attr":{"value":{"tensor":{"dtype":"DT_FLOAT","tensorShape":{"dim":[{"size":"1"},{"size":"1"},{"size":"192"},{"size":"192"}]}}},"dtype":{"type":"DT_FLOAT"}}},
          {"name":"StatefulPartitionedCall/model/conv2d_37/Conv2D_bn_offset","op":"Const","attr":{"value":{"tensor":{"dtype":"DT_FLOAT","tensorShape":{"dim":[{"size":"192"}]}}},"dtype":{"type":"DT_FLOAT"}}},
          {"name":"StatefulPartitionedCall/model/depthwise_conv2d_23/depthwise_weights","op":"Const","attr":{"value":{"tensor":{"dtype":"DT_FLOAT","tensorShape":{"dim":[{"size":"3"},{"size":"3"},{"size":"192"},{"size":"1"}]}}},"dtype":{"type":"DT_FLOAT"}}},
          {"name":"StatefulPartitionedCall/model/depthwise_conv2d_23/depthwise_bn_offset","op":"Const","attr":{"value":{"tensor":{"dtype":"DT_FLOAT","tensorShape":{"dim":[{"size":"192"}]}}},"dtype":{"type":"DT_FLOAT"}}},
          {"name":"StatefulPartitionedCall/model/depthwise_conv2d_30/depthwise_weights","op":"Const","attr":{"value":{"tensor":{"dtype":"DT_FLOAT","tensorShape":{"dim":[{"size":"3"},{"size":"3"},{"size":"8"},{"size":"1"}]}}},"dtype":{"type":"DT_FLOAT"}}},
          {"name":"StatefulPartitionedCall/model/depthwise_conv2d_30/depthwise_bn_offset","op":"Const","attr":{"dtype":{"type":"DT_FLOAT"},"value":{"tensor":{"dtype":"DT_FLOAT","tensorShape":{"dim":[{"size":"8"}]}}}}},
          {"name":"StatefulPartitionedCall/model/conv2d_38/Conv2D_weights","op":"Const","attr":{"dtype":{"type":"DT_FLOAT"},"value":{"tensor":{"dtype":"DT_FLOAT","tensorShape":{"dim":[{"size":"1"},{"size":"1"},{"size":"192"},{"size":"192"}]}}}}},
          {"name":"StatefulPartitionedCall/model/zero_padding2d/Pad","op":"Pad","input":["input_1","StatefulPartitionedCall/model/zero_padding2d/Pad/paddings"],"attr":{"T":{"type":"DT_FLOAT"},"Tpaddings":{"type":"DT_INT32"}}},
          {"name":"StatefulPartitionedCall/model/re_lu/Relu6","op":"_FusedConv2D","input":["StatefulPartitionedCall/model/zero_padding2d/Pad","StatefulPartitionedCall/model/conv2d/Conv2D_weights","StatefulPartitionedCall/model/conv2d/Conv2D_bn_offset"],"device":"/device:CPU:0","attr":{"strides":{"list":{"i":["1","2","2","1"]}},"epsilon":{"f":0},"fused_ops":{"list":{"s":["Qmlhc0FkZA==","UmVsdTY="]}},"padding":{"s":"VkFMSUQ="},"use_cudnn_on_gpu":{"b":true},"T":{"type":"DT_FLOAT"},"explicit_paddings":{"list":{}},"dilations":{"list":{"i":["1","1","1","1"]}},"num_args":{"i":"1"},"data_format":{"s":"TkhXQw=="}}},
          {"name":"StatefulPartitionedCall/model/depthwise_conv2d/depthwise","op":"FusedDepthwiseConv2dNative","input":["StatefulPartitionedCall/model/re_lu/Relu6","StatefulPartitionedCall/model/depthwise_conv2d/depthwise_weights","StatefulPartitionedCall/model/depthwise_conv2d/depthwise_bn_offset"],"attr":{"explicit_paddings":{"list":{}},"num_args":{"i":"1"},"strides":{"list":{"i":["1","1","1","1"]}},"fused_ops":{"list":{"s":["Qmlhc0FkZA==","UmVsdTY="]}},"data_format":{"s":"TkhXQw=="},"dilations":{"list":{"i":["1","1","1","1"]}},"padding":{"s":"U0FNRQ=="},"T":{"type":"DT_FLOAT"}}},
          {"name":"StatefulPartitionedCall/model/batch_normalization_2/FusedBatchNormV3","op":"_FusedConv2D","input":["StatefulPartitionedCall/model/depthwise_conv2d/depthwise","StatefulPartitionedCall/model/conv2d_1/Conv2D_weights","StatefulPartitionedCall/model/conv2d_1/Conv2D_bn_offset"],"device":"/device:CPU:0","attr":{"dilations":{"list":{"i":["1","1","1","1"]}},"strides":{"list":{"i":["1","1","1","1"]}},"explicit_paddings":{"list":{}},"padding":{"s":"U0FNRQ=="},"data_format":{"s":"TkhXQw=="},"epsilon":{"f":0},"fused_ops":{"list":{"s":["Qmlhc0FkZA=="]}},"T":{"type":"DT_FLOAT"},"use_cudnn_on_gpu":{"b":true},"num_args":{"i":"1"}}},
          {"name":"StatefulPartitionedCall/model/depthwise_conv2d_28/depthwise","op":"FusedDepthwiseConv2dNative","input":["StatefulPartitionedCall/model/batch_normalization_2/FusedBatchNormV3","StatefulPartitionedCall/model/depthwise_conv2d_28/depthwise_weights","StatefulPartitionedCall/model/depthwise_conv2d_28/depthwise_bn_offset"],"attr":{"fused_ops":{"list":{"s":["Qmlhc0FkZA==","UmVsdTY="]}},"T":{"type":"DT_FLOAT"},"dilations":{"list":{"i":["1","1","1","1"]}},"strides":{"list":{"i":["1","1","1","1"]}},"num_args":{"i":"1"},"data_format":{"s":"TkhXQw=="},"padding":{"s":"U0FNRQ=="},"explicit_paddings":{"list":{}}}},
          {"name":"StatefulPartitionedCall/model/re_lu_2/Relu6","op":"_FusedConv2D","input":["StatefulPartitionedCall/model/batch_normalization_2/FusedBatchNormV3","StatefulPartitionedCall/model/conv2d_2/Conv2D_weights","StatefulPartitionedCall/model/conv2d_2/Conv2D_bn_offset"],"device":"/device:CPU:0","attr":{"dilations":{"list":{"i":["1","1","1","1"]}},"strides":{"list":{"i":["1","1","1","1"]}},"explicit_paddings":{"list":{}},"T":{"type":"DT_FLOAT"},"epsilon":{"f":0},"fused_ops":{"list":{"s":["Qmlhc0FkZA==","UmVsdTY="]}},"padding":{"s":"U0FNRQ=="},"num_args":{"i":"1"},"use_cudnn_on_gpu":{"b":true},"data_format":{"s":"TkhXQw=="}}},
          {"name":"StatefulPartitionedCall/model/zero_padding2d_1/Pad","op":"Pad","input":["StatefulPartitionedCall/model/re_lu_2/Relu6","StatefulPartitionedCall/model/zero_padding2d_1/Pad/paddings"],"attr":{"T":{"type":"DT_FLOAT"},"Tpaddings":{"type":"DT_INT32"}}},
          {"name":"StatefulPartitionedCall/model/depthwise_conv2d_1/depthwise","op":"FusedDepthwiseConv2dNative","input":["StatefulPartitionedCall/model/zero_padding2d_1/Pad","StatefulPartitionedCall/model/depthwise_conv2d_1/depthwise_weights","StatefulPartitionedCall/model/depthwise_conv2d_1/depthwise_bn_offset"],"attr":{"dilations":{"list":{"i":["1","1","1","1"]}},"fused_ops":{"list":{"s":["Qmlhc0FkZA==","UmVsdTY="]}},"padding":{"s":"VkFMSUQ="},"explicit_paddings":{"list":{}},"num_args":{"i":"1"},"data_format":{"s":"TkhXQw=="},"T":{"type":"DT_FLOAT"},"strides":{"list":{"i":["1","2","2","1"]}}}},
          {"name":"StatefulPartitionedCall/model/batch_normalization_72/FusedBatchNormV3","op":"_FusedConv2D","input":["StatefulPartitionedCall/model/depthwise_conv2d_28/depthwise","StatefulPartitionedCall/model/conv2d_43/Conv2D_weights","StatefulPartitionedCall/model/conv2d_43/Conv2D_bn_offset"],"device":"/device:CPU:0","attr":{"fused_ops":{"list":{"s":["Qmlhc0FkZA=="]}},"epsilon":{"f":0},"padding":{"s":"VkFMSUQ="},"explicit_paddings":{"list":{}},"num_args":{"i":"1"},"data_format":{"s":"TkhXQw=="},"dilations":{"list":{"i":["1","1","1","1"]}},"use_cudnn_on_gpu":{"b":true},"T":{"type":"DT_FLOAT"},"strides":{"list":{"i":["1","1","1","1"]}}}},
          {"name":"StatefulPartitionedCall/model/add_19/add","op":"AddV2","input":["StatefulPartitionedCall/model/batch_normalization_2/FusedBatchNormV3","StatefulPartitionedCall/model/batch_normalization_72/FusedBatchNormV3"],"attr":{"T":{"type":"DT_FLOAT"}}},
          {"name":"StatefulPartitionedCall/model/re_lu_57/Relu6","op":"Relu6","input":["StatefulPartitionedCall/model/add_19/add"],"attr":{"T":{"type":"DT_FLOAT"}}},
          {"name":"StatefulPartitionedCall/model/batch_normalization_5/FusedBatchNormV3","op":"_FusedConv2D","input":["StatefulPartitionedCall/model/depthwise_conv2d_1/depthwise","StatefulPartitionedCall/model/conv2d_3/Conv2D_weights","StatefulPartitionedCall/model/conv2d_3/Conv2D_bn_offset"],"device":"/device:CPU:0","attr":{"data_format":{"s":"TkhXQw=="},"strides":{"list":{"i":["1","1","1","1"]}},"T":{"type":"DT_FLOAT"},"fused_ops":{"list":{"s":["Qmlhc0FkZA=="]}},"explicit_paddings":{"list":{}},"epsilon":{"f":0},"use_cudnn_on_gpu":{"b":true},"padding":{"s":"U0FNRQ=="},"num_args":{"i":"1"},"dilations":{"list":{"i":["1","1","1","1"]}}}},
          {"name":"StatefulPartitionedCall/model/re_lu_4/Relu6","op":"_FusedConv2D","input":["StatefulPartitionedCall/model/batch_normalization_5/FusedBatchNormV3","StatefulPartitionedCall/model/conv2d_4/Conv2D_weights","StatefulPartitionedCall/model/conv2d_4/Conv2D_bn_offset"],"device":"/device:CPU:0","attr":{"fused_ops":{"list":{"s":["Qmlhc0FkZA==","UmVsdTY="]}},"padding":{"s":"U0FNRQ=="},"data_format":{"s":"TkhXQw=="},"epsilon":{"f":0},"explicit_paddings":{"list":{}},"num_args":{"i":"1"},"dilations":{"list":{"i":["1","1","1","1"]}},"use_cudnn_on_gpu":{"b":true},"strides":{"list":{"i":["1","1","1","1"]}},"T":{"type":"DT_FLOAT"}}},
          {"name":"StatefulPartitionedCall/model/depthwise_conv2d_2/depthwise","op":"FusedDepthwiseConv2dNative","input":["StatefulPartitionedCall/model/re_lu_4/Relu6","StatefulPartitionedCall/model/depthwise_conv2d_2/depthwise_weights","StatefulPartitionedCall/model/depthwise_conv2d_2/depthwise_bn_offset"],"attr":{"explicit_paddings":{"list":{}},"fused_ops":{"list":{"s":["Qmlhc0FkZA==","UmVsdTY="]}},"T":{"type":"DT_FLOAT"},"padding":{"s":"U0FNRQ=="},"strides":{"list":{"i":["1","1","1","1"]}},"dilations":{"list":{"i":["1","1","1","1"]}},"data_format":{"s":"TkhXQw=="},"num_args":{"i":"1"}}},
          {"name":"StatefulPartitionedCall/model/batch_normalization_8/FusedBatchNormV3","op":"_FusedConv2D","input":["StatefulPartitionedCall/model/depthwise_conv2d_2/depthwise","StatefulPartitionedCall/model/conv2d_5/Conv2D_weights","StatefulPartitionedCall/model/conv2d_5/Conv2D_bn_offset"],"device":"/device:CPU:0","attr":{"num_args":{"i":"1"},"use_cudnn_on_gpu":{"b":true},"padding":{"s":"U0FNRQ=="},"explicit_paddings":{"list":{}},"dilations":{"list":{"i":["1","1","1","1"]}},"fused_ops":{"list":{"s":["Qmlhc0FkZA=="]}},"data_format":{"s":"TkhXQw=="},"epsilon":{"f":0},"strides":{"list":{"i":["1","1","1","1"]}},"T":{"type":"DT_FLOAT"}}},
          {"name":"StatefulPartitionedCall/model/add/add","op":"AddV2","input":["StatefulPartitionedCall/model/batch_normalization_8/FusedBatchNormV3","StatefulPartitionedCall/model/batch_normalization_5/FusedBatchNormV3"],"attr":{"T":{"type":"DT_FLOAT"}}},
          {"name":"StatefulPartitionedCall/model/depthwise_conv2d_19/depthwise","op":"FusedDepthwiseConv2dNative","input":["StatefulPartitionedCall/model/add/add","StatefulPartitionedCall/model/depthwise_conv2d_19/depthwise_weights","StatefulPartitionedCall/model/depthwise_conv2d_19/depthwise_bn_offset"],"attr":{"num_args":{"i":"1"},"dilations":{"list":{"i":["1","1","1","1"]}},"explicit_paddings":{"list":{}},"fused_ops":{"list":{"s":["Qmlhc0FkZA==","UmVsdTY="]}},"padding":{"s":"U0FNRQ=="},"T":{"type":"DT_FLOAT"},"strides":{"list":{"i":["1","1","1","1"]}},"data_format":{"s":"TkhXQw=="}}},
          {"name":"StatefulPartitionedCall/model/re_lu_6/Relu6","op":"_FusedConv2D","input":["StatefulPartitionedCall/model/add/add","StatefulPartitionedCall/model/conv2d_6/Conv2D_weights","StatefulPartitionedCall/model/conv2d_6/Conv2D_bn_offset"],"device":"/device:CPU:0","attr":{"padding":{"s":"U0FNRQ=="},"epsilon":{"f":0},"fused_ops":{"list":{"s":["Qmlhc0FkZA==","UmVsdTY="]}},"data_format":{"s":"TkhXQw=="},"dilations":{"list":{"i":["1","1","1","1"]}},"use_cudnn_on_gpu":{"b":true},"T":{"type":"DT_FLOAT"},"num_args":{"i":"1"},"strides":{"list":{"i":["1","1","1","1"]}},"explicit_paddings":{"list":{}}}},
          {"name":"StatefulPartitionedCall/model/zero_padding2d_2/Pad","op":"Pad","input":["StatefulPartitionedCall/model/re_lu_6/Relu6","StatefulPartitionedCall/model/zero_padding2d_2/Pad/paddings"],"attr":{"Tpaddings":{"type":"DT_INT32"},"T":{"type":"DT_FLOAT"}}},
          {"name":"StatefulPartitionedCall/model/depthwise_conv2d_3/depthwise","op":"FusedDepthwiseConv2dNative","input":["StatefulPartitionedCall/model/zero_padding2d_2/Pad","StatefulPartitionedCall/model/depthwise_conv2d_3/depthwise_weights","StatefulPartitionedCall/model/depthwise_conv2d_3/depthwise_bn_offset"],"attr":{"dilations":{"list":{"i":["1","1","1","1"]}},"strides":{"list":{"i":["1","2","2","1"]}},"fused_ops":{"list":{"s":["Qmlhc0FkZA==","UmVsdTY="]}},"padding":{"s":"VkFMSUQ="},"data_format":{"s":"TkhXQw=="},"num_args":{"i":"1"},"explicit_paddings":{"list":{}},"T":{"type":"DT_FLOAT"}}},
          {"name":"StatefulPartitionedCall/model/re_lu_39/Relu6","op":"_FusedConv2D","input":["StatefulPartitionedCall/model/depthwise_conv2d_19/depthwise","StatefulPartitionedCall/model/conv2d_34/Conv2D_weights","StatefulPartitionedCall/model/conv2d_34/Conv2D_bn_offset"],"device":"/device:CPU:0","attr":{"epsilon":{"f":0},"dilations":{"list":{"i":["1","1","1","1"]}},"use_cudnn_on_gpu":{"b":true},"data_format":{"s":"TkhXQw=="},"strides":{"list":{"i":["1","1","1","1"]}},"fused_ops":{"list":{"s":["Qmlhc0FkZA==","UmVsdTY="]}},"T":{"type":"DT_FLOAT"},"padding":{"s":"VkFMSUQ="},"num_args":{"i":"1"},"explicit_paddings":{"list":{}}}},
          {"name":"StatefulPartitionedCall/model/batch_normalization_11/FusedBatchNormV3","op":"_FusedConv2D","input":["StatefulPartitionedCall/model/depthwise_conv2d_3/depthwise","StatefulPartitionedCall/model/conv2d_7/Conv2D_weights","StatefulPartitionedCall/model/conv2d_7/Conv2D_bn_offset"],"device":"/device:CPU:0","attr":{"data_format":{"s":"TkhXQw=="},"epsilon":{"f":0},"dilations":{"list":{"i":["1","1","1","1"]}},"num_args":{"i":"1"},"strides":{"list":{"i":["1","1","1","1"]}},"fused_ops":{"list":{"s":["Qmlhc0FkZA=="]}},"explicit_paddings":{"list":{}},"use_cudnn_on_gpu":{"b":true},"padding":{"s":"U0FNRQ=="},"T":{"type":"DT_FLOAT"}}},
          {"name":"StatefulPartitionedCall/model/re_lu_8/Relu6","op":"_FusedConv2D","input":["StatefulPartitionedCall/model/batch_normalization_11/FusedBatchNormV3","StatefulPartitionedCall/model/conv2d_8/Conv2D_weights","StatefulPartitionedCall/model/conv2d_8/Conv2D_bn_offset"],"device":"/device:CPU:0","attr":{"epsilon":{"f":0},"T":{"type":"DT_FLOAT"},"padding":{"s":"U0FNRQ=="},"strides":{"list":{"i":["1","1","1","1"]}},"data_format":{"s":"TkhXQw=="},"explicit_paddings":{"list":{}},"num_args":{"i":"1"},"use_cudnn_on_gpu":{"b":true},"dilations":{"list":{"i":["1","1","1","1"]}},"fused_ops":{"list":{"s":["Qmlhc0FkZA==","UmVsdTY="]}}}},
          {"name":"StatefulPartitionedCall/model/depthwise_conv2d_4/depthwise","op":"FusedDepthwiseConv2dNative","input":["StatefulPartitionedCall/model/re_lu_8/Relu6","StatefulPartitionedCall/model/depthwise_conv2d_4/depthwise_weights","StatefulPartitionedCall/model/depthwise_conv2d_4/depthwise_bn_offset"],"attr":{"strides":{"list":{"i":["1","1","1","1"]}},"fused_ops":{"list":{"s":["Qmlhc0FkZA==","UmVsdTY="]}},"num_args":{"i":"1"},"explicit_paddings":{"list":{}},"T":{"type":"DT_FLOAT"},"padding":{"s":"U0FNRQ=="},"data_format":{"s":"TkhXQw=="},"dilations":{"list":{"i":["1","1","1","1"]}}}},
          {"name":"StatefulPartitionedCall/model/batch_normalization_14/FusedBatchNormV3","op":"_FusedConv2D","input":["StatefulPartitionedCall/model/depthwise_conv2d_4/depthwise","StatefulPartitionedCall/model/conv2d_9/Conv2D_weights","StatefulPartitionedCall/model/conv2d_9/Conv2D_bn_offset"],"device":"/device:CPU:0","attr":{"data_format":{"s":"TkhXQw=="},"num_args":{"i":"1"},"fused_ops":{"list":{"s":["Qmlhc0FkZA=="]}},"epsilon":{"f":0},"padding":{"s":"U0FNRQ=="},"explicit_paddings":{"list":{}},"T":{"type":"DT_FLOAT"},"use_cudnn_on_gpu":{"b":true},"dilations":{"list":{"i":["1","1","1","1"]}},"strides":{"list":{"i":["1","1","1","1"]}}}},
          {"name":"StatefulPartitionedCall/model/add_1/add","op":"AddV2","input":["StatefulPartitionedCall/model/batch_normalization_14/FusedBatchNormV3","StatefulPartitionedCall/model/batch_normalization_11/FusedBatchNormV3"],"attr":{"T":{"type":"DT_FLOAT"}}},
          {"name":"StatefulPartitionedCall/model/depthwise_conv2d_18/depthwise","op":"FusedDepthwiseConv2dNative","input":["StatefulPartitionedCall/model/add_1/add","StatefulPartitionedCall/model/depthwise_conv2d_18/depthwise_weights","StatefulPartitionedCall/model/depthwise_conv2d_18/depthwise_bn_offset"],"attr":{"strides":{"list":{"i":["1","1","1","1"]}},"num_args":{"i":"1"},"padding":{"s":"U0FNRQ=="},"dilations":{"list":{"i":["1","1","1","1"]}},"data_format":{"s":"TkhXQw=="},"fused_ops":{"list":{"s":["Qmlhc0FkZA==","UmVsdTY="]}},"T":{"type":"DT_FLOAT"},"explicit_paddings":{"list":{}}}},
          {"name":"StatefulPartitionedCall/model/re_lu_10/Relu6","op":"_FusedConv2D","input":["StatefulPartitionedCall/model/add_1/add","StatefulPartitionedCall/model/conv2d_10/Conv2D_weights","StatefulPartitionedCall/model/conv2d_10/Conv2D_bn_offset"],"device":"/device:CPU:0","attr":{"T":{"type":"DT_FLOAT"},"strides":{"list":{"i":["1","1","1","1"]}},"use_cudnn_on_gpu":{"b":true},"dilations":{"list":{"i":["1","1","1","1"]}},"num_args":{"i":"1"},"padding":{"s":"U0FNRQ=="},"explicit_paddings":{"list":{}},"fused_ops":{"list":{"s":["Qmlhc0FkZA==","UmVsdTY="]}},"epsilon":{"f":0},"data_format":{"s":"TkhXQw=="}}},
          {"name":"StatefulPartitionedCall/model/zero_padding2d_3/Pad","op":"Pad","input":["StatefulPartitionedCall/model/re_lu_10/Relu6","StatefulPartitionedCall/model/zero_padding2d_3/Pad/paddings"],"attr":{"Tpaddings":{"type":"DT_INT32"},"T":{"type":"DT_FLOAT"}}},
          {"name":"StatefulPartitionedCall/model/depthwise_conv2d_5/depthwise","op":"FusedDepthwiseConv2dNative","input":["StatefulPartitionedCall/model/zero_padding2d_3/Pad","StatefulPartitionedCall/model/depthwise_conv2d_5/depthwise_weights","StatefulPartitionedCall/model/depthwise_conv2d_5/depthwise_bn_offset"],"attr":{"fused_ops":{"list":{"s":["Qmlhc0FkZA==","UmVsdTY="]}},"padding":{"s":"VkFMSUQ="},"explicit_paddings":{"list":{}},"data_format":{"s":"TkhXQw=="},"strides":{"list":{"i":["1","2","2","1"]}},"dilations":{"list":{"i":["1","1","1","1"]}},"T":{"type":"DT_FLOAT"},"num_args":{"i":"1"}}},
          {"name":"StatefulPartitionedCall/model/re_lu_37/Relu6","op":"_FusedConv2D","input":["StatefulPartitionedCall/model/depthwise_conv2d_18/depthwise","StatefulPartitionedCall/model/conv2d_33/Conv2D_weights","StatefulPartitionedCall/model/conv2d_33/Conv2D_bn_offset"],"device":"/device:CPU:0","attr":{"padding":{"s":"VkFMSUQ="},"epsilon":{"f":0},"data_format":{"s":"TkhXQw=="},"T":{"type":"DT_FLOAT"},"fused_ops":{"list":{"s":["Qmlhc0FkZA==","UmVsdTY="]}},"explicit_paddings":{"list":{}},"num_args":{"i":"1"},"strides":{"list":{"i":["1","1","1","1"]}},"dilations":{"list":{"i":["1","1","1","1"]}},"use_cudnn_on_gpu":{"b":true}}},
          {"name":"StatefulPartitionedCall/model/batch_normalization_17/FusedBatchNormV3","op":"_FusedConv2D","input":["StatefulPartitionedCall/model/depthwise_conv2d_5/depthwise","StatefulPartitionedCall/model/conv2d_11/Conv2D_weights","StatefulPartitionedCall/model/conv2d_11/Conv2D_bn_offset"],"device":"/device:CPU:0","attr":{"explicit_paddings":{"list":{}},"strides":{"list":{"i":["1","1","1","1"]}},"padding":{"s":"U0FNRQ=="},"dilations":{"list":{"i":["1","1","1","1"]}},"data_format":{"s":"TkhXQw=="},"use_cudnn_on_gpu":{"b":true},"num_args":{"i":"1"},"fused_ops":{"list":{"s":["Qmlhc0FkZA=="]}},"epsilon":{"f":0},"T":{"type":"DT_FLOAT"}}},
          {"name":"StatefulPartitionedCall/model/re_lu_12/Relu6","op":"_FusedConv2D","input":["StatefulPartitionedCall/model/batch_normalization_17/FusedBatchNormV3","StatefulPartitionedCall/model/conv2d_12/Conv2D_weights","StatefulPartitionedCall/model/conv2d_12/Conv2D_bn_offset"],"device":"/device:CPU:0","attr":{"dilations":{"list":{"i":["1","1","1","1"]}},"strides":{"list":{"i":["1","1","1","1"]}},"T":{"type":"DT_FLOAT"},"explicit_paddings":{"list":{}},"padding":{"s":"U0FNRQ=="},"data_format":{"s":"TkhXQw=="},"use_cudnn_on_gpu":{"b":true},"epsilon":{"f":0},"fused_ops":{"list":{"s":["Qmlhc0FkZA==","UmVsdTY="]}},"num_args":{"i":"1"}}},
          {"name":"StatefulPartitionedCall/model/depthwise_conv2d_6/depthwise","op":"FusedDepthwiseConv2dNative","input":["StatefulPartitionedCall/model/re_lu_12/Relu6","StatefulPartitionedCall/model/depthwise_conv2d_6/depthwise_weights","StatefulPartitionedCall/model/depthwise_conv2d_6/depthwise_bn_offset"],"attr":{"num_args":{"i":"1"},"explicit_paddings":{"list":{}},"T":{"type":"DT_FLOAT"},"strides":{"list":{"i":["1","1","1","1"]}},"padding":{"s":"U0FNRQ=="},"data_format":{"s":"TkhXQw=="},"fused_ops":{"list":{"s":["Qmlhc0FkZA==","UmVsdTY="]}},"dilations":{"list":{"i":["1","1","1","1"]}}}},
          {"name":"StatefulPartitionedCall/model/batch_normalization_20/FusedBatchNormV3","op":"_FusedConv2D","input":["StatefulPartitionedCall/model/depthwise_conv2d_6/depthwise","StatefulPartitionedCall/model/conv2d_13/Conv2D_weights","StatefulPartitionedCall/model/conv2d_13/Conv2D_bn_offset"],"device":"/device:CPU:0","attr":{"epsilon":{"f":0},"fused_ops":{"list":{"s":["Qmlhc0FkZA=="]}},"strides":{"list":{"i":["1","1","1","1"]}},"T":{"type":"DT_FLOAT"},"dilations":{"list":{"i":["1","1","1","1"]}},"num_args":{"i":"1"},"explicit_paddings":{"list":{}},"padding":{"s":"U0FNRQ=="},"use_cudnn_on_gpu":{"b":true},"data_format":{"s":"TkhXQw=="}}},
          {"name":"StatefulPartitionedCall/model/add_2/add","op":"AddV2","input":["StatefulPartitionedCall/model/batch_normalization_20/FusedBatchNormV3","StatefulPartitionedCall/model/batch_normalization_17/FusedBatchNormV3"],"attr":{"T":{"type":"DT_FLOAT"}}},
          {"name":"StatefulPartitionedCall/model/re_lu_14/Relu6","op":"_FusedConv2D","input":["StatefulPartitionedCall/model/add_2/add","StatefulPartitionedCall/model/conv2d_14/Conv2D_weights","StatefulPartitionedCall/model/conv2d_14/Conv2D_bn_offset"],"device":"/device:CPU:0","attr":{"explicit_paddings":{"list":{}},"use_cudnn_on_gpu":{"b":true},"dilations":{"list":{"i":["1","1","1","1"]}},"data_format":{"s":"TkhXQw=="},"padding":{"s":"U0FNRQ=="},"strides":{"list":{"i":["1","1","1","1"]}},"T":{"type":"DT_FLOAT"},"fused_ops":{"list":{"s":["Qmlhc0FkZA==","UmVsdTY="]}},"epsilon":{"f":0},"num_args":{"i":"1"}}},
          {"name":"StatefulPartitionedCall/model/depthwise_conv2d_7/depthwise","op":"FusedDepthwiseConv2dNative","input":["StatefulPartitionedCall/model/re_lu_14/Relu6","StatefulPartitionedCall/model/depthwise_conv2d_7/depthwise_weights","StatefulPartitionedCall/model/depthwise_conv2d_7/depthwise_bn_offset"],"attr":{"strides":{"list":{"i":["1","1","1","1"]}},"num_args":{"i":"1"},"explicit_paddings":{"list":{}},"padding":{"s":"U0FNRQ=="},"fused_ops":{"list":{"s":["Qmlhc0FkZA==","UmVsdTY="]}},"data_format":{"s":"TkhXQw=="},"dilations":{"list":{"i":["1","1","1","1"]}},"T":{"type":"DT_FLOAT"}}},
          {"name":"StatefulPartitionedCall/model/batch_normalization_23/FusedBatchNormV3","op":"_FusedConv2D","input":["StatefulPartitionedCall/model/depthwise_conv2d_7/depthwise","StatefulPartitionedCall/model/conv2d_15/Conv2D_weights","StatefulPartitionedCall/model/conv2d_15/Conv2D_bn_offset"],"device":"/device:CPU:0","attr":{"padding":{"s":"U0FNRQ=="},"T":{"type":"DT_FLOAT"},"use_cudnn_on_gpu":{"b":true},"data_format":{"s":"TkhXQw=="},"strides":{"list":{"i":["1","1","1","1"]}},"epsilon":{"f":0},"dilations":{"list":{"i":["1","1","1","1"]}},"fused_ops":{"list":{"s":["Qmlhc0FkZA=="]}},"num_args":{"i":"1"},"explicit_paddings":{"list":{}}}},
          {"name":"StatefulPartitionedCall/model/add_3/add","op":"AddV2","input":["StatefulPartitionedCall/model/batch_normalization_23/FusedBatchNormV3","StatefulPartitionedCall/model/add_2/add"],"attr":{"T":{"type":"DT_FLOAT"}}},
          {"name":"StatefulPartitionedCall/model/re_lu_16/Relu6","op":"_FusedConv2D","input":["StatefulPartitionedCall/model/add_3/add","StatefulPartitionedCall/model/conv2d_16/Conv2D_weights","StatefulPartitionedCall/model/conv2d_16/Conv2D_bn_offset"],"device":"/device:CPU:0","attr":{"padding":{"s":"U0FNRQ=="},"dilations":{"list":{"i":["1","1","1","1"]}},"epsilon":{"f":0},"T":{"type":"DT_FLOAT"},"data_format":{"s":"TkhXQw=="},"strides":{"list":{"i":["1","1","1","1"]}},"explicit_paddings":{"list":{}},"use_cudnn_on_gpu":{"b":true},"fused_ops":{"list":{"s":["Qmlhc0FkZA==","UmVsdTY="]}},"num_args":{"i":"1"}}},
          {"name":"StatefulPartitionedCall/model/depthwise_conv2d_8/depthwise","op":"FusedDepthwiseConv2dNative","input":["StatefulPartitionedCall/model/re_lu_16/Relu6","StatefulPartitionedCall/model/depthwise_conv2d_8/depthwise_weights","StatefulPartitionedCall/model/depthwise_conv2d_8/depthwise_bn_offset"],"attr":{"strides":{"list":{"i":["1","1","1","1"]}},"dilations":{"list":{"i":["1","1","1","1"]}},"T":{"type":"DT_FLOAT"},"fused_ops":{"list":{"s":["Qmlhc0FkZA==","UmVsdTY="]}},"data_format":{"s":"TkhXQw=="},"padding":{"s":"U0FNRQ=="},"num_args":{"i":"1"},"explicit_paddings":{"list":{}}}},
          {"name":"StatefulPartitionedCall/model/batch_normalization_26/FusedBatchNormV3","op":"_FusedConv2D","input":["StatefulPartitionedCall/model/depthwise_conv2d_8/depthwise","StatefulPartitionedCall/model/conv2d_17/Conv2D_weights","StatefulPartitionedCall/model/conv2d_17/Conv2D_bn_offset"],"device":"/device:CPU:0","attr":{"explicit_paddings":{"list":{}},"dilations":{"list":{"i":["1","1","1","1"]}},"num_args":{"i":"1"},"epsilon":{"f":0},"T":{"type":"DT_FLOAT"},"strides":{"list":{"i":["1","1","1","1"]}},"data_format":{"s":"TkhXQw=="},"padding":{"s":"U0FNRQ=="},"fused_ops":{"list":{"s":["Qmlhc0FkZA=="]}},"use_cudnn_on_gpu":{"b":true}}},
          {"name":"StatefulPartitionedCall/model/re_lu_18/Relu6","op":"_FusedConv2D","input":["StatefulPartitionedCall/model/batch_normalization_26/FusedBatchNormV3","StatefulPartitionedCall/model/conv2d_18/Conv2D_weights","StatefulPartitionedCall/model/conv2d_18/Conv2D_bn_offset"],"device":"/device:CPU:0","attr":{"fused_ops":{"list":{"s":["Qmlhc0FkZA==","UmVsdTY="]}},"data_format":{"s":"TkhXQw=="},"epsilon":{"f":0},"padding":{"s":"U0FNRQ=="},"dilations":{"list":{"i":["1","1","1","1"]}},"T":{"type":"DT_FLOAT"},"num_args":{"i":"1"},"explicit_paddings":{"list":{}},"strides":{"list":{"i":["1","1","1","1"]}},"use_cudnn_on_gpu":{"b":true}}},
          {"name":"StatefulPartitionedCall/model/depthwise_conv2d_9/depthwise","op":"FusedDepthwiseConv2dNative","input":["StatefulPartitionedCall/model/re_lu_18/Relu6","StatefulPartitionedCall/model/depthwise_conv2d_9/depthwise_weights","StatefulPartitionedCall/model/depthwise_conv2d_9/depthwise_bn_offset"],"attr":{"padding":{"s":"U0FNRQ=="},"explicit_paddings":{"list":{}},"T":{"type":"DT_FLOAT"},"fused_ops":{"list":{"s":["Qmlhc0FkZA==","UmVsdTY="]}},"strides":{"list":{"i":["1","1","1","1"]}},"dilations":{"list":{"i":["1","1","1","1"]}},"num_args":{"i":"1"},"data_format":{"s":"TkhXQw=="}}},
          {"name":"StatefulPartitionedCall/model/batch_normalization_29/FusedBatchNormV3","op":"_FusedConv2D","input":["StatefulPartitionedCall/model/depthwise_conv2d_9/depthwise","StatefulPartitionedCall/model/conv2d_19/Conv2D_weights","StatefulPartitionedCall/model/conv2d_19/Conv2D_bn_offset"],"device":"/device:CPU:0","attr":{"T":{"type":"DT_FLOAT"},"use_cudnn_on_gpu":{"b":true},"strides":{"list":{"i":["1","1","1","1"]}},"data_format":{"s":"TkhXQw=="},"num_args":{"i":"1"},"fused_ops":{"list":{"s":["Qmlhc0FkZA=="]}},"dilations":{"list":{"i":["1","1","1","1"]}},"padding":{"s":"U0FNRQ=="},"explicit_paddings":{"list":{}},"epsilon":{"f":0}}},
          {"name":"StatefulPartitionedCall/model/add_4/add","op":"AddV2","input":["StatefulPartitionedCall/model/batch_normalization_29/FusedBatchNormV3","StatefulPartitionedCall/model/batch_normalization_26/FusedBatchNormV3"],"attr":{"T":{"type":"DT_FLOAT"}}},
          {"name":"StatefulPartitionedCall/model/re_lu_20/Relu6","op":"_FusedConv2D","input":["StatefulPartitionedCall/model/add_4/add","StatefulPartitionedCall/model/conv2d_20/Conv2D_weights","StatefulPartitionedCall/model/conv2d_20/Conv2D_bn_offset"],"device":"/device:CPU:0","attr":{"padding":{"s":"U0FNRQ=="},"data_format":{"s":"TkhXQw=="},"num_args":{"i":"1"},"use_cudnn_on_gpu":{"b":true},"epsilon":{"f":0},"fused_ops":{"list":{"s":["Qmlhc0FkZA==","UmVsdTY="]}},"dilations":{"list":{"i":["1","1","1","1"]}},"T":{"type":"DT_FLOAT"},"strides":{"list":{"i":["1","1","1","1"]}},"explicit_paddings":{"list":{}}}},
          {"name":"StatefulPartitionedCall/model/depthwise_conv2d_10/depthwise","op":"FusedDepthwiseConv2dNative","input":["StatefulPartitionedCall/model/re_lu_20/Relu6","StatefulPartitionedCall/model/depthwise_conv2d_10/depthwise_weights","StatefulPartitionedCall/model/depthwise_conv2d_10/depthwise_bn_offset"],"attr":{"explicit_paddings":{"list":{}},"dilations":{"list":{"i":["1","1","1","1"]}},"strides":{"list":{"i":["1","1","1","1"]}},"num_args":{"i":"1"},"T":{"type":"DT_FLOAT"},"padding":{"s":"U0FNRQ=="},"fused_ops":{"list":{"s":["Qmlhc0FkZA==","UmVsdTY="]}},"data_format":{"s":"TkhXQw=="}}},
          {"name":"StatefulPartitionedCall/model/batch_normalization_32/FusedBatchNormV3","op":"_FusedConv2D","input":["StatefulPartitionedCall/model/depthwise_conv2d_10/depthwise","StatefulPartitionedCall/model/conv2d_21/Conv2D_weights","StatefulPartitionedCall/model/conv2d_21/Conv2D_bn_offset"],"device":"/device:CPU:0","attr":{"dilations":{"list":{"i":["1","1","1","1"]}},"T":{"type":"DT_FLOAT"},"strides":{"list":{"i":["1","1","1","1"]}},"use_cudnn_on_gpu":{"b":true},"epsilon":{"f":0},"num_args":{"i":"1"},"data_format":{"s":"TkhXQw=="},"explicit_paddings":{"list":{}},"padding":{"s":"U0FNRQ=="},"fused_ops":{"list":{"s":["Qmlhc0FkZA=="]}}}},
          {"name":"StatefulPartitionedCall/model/add_5/add","op":"AddV2","input":["StatefulPartitionedCall/model/batch_normalization_32/FusedBatchNormV3","StatefulPartitionedCall/model/add_4/add"],"attr":{"T":{"type":"DT_FLOAT"}}},
          {"name":"StatefulPartitionedCall/model/depthwise_conv2d_17/depthwise","op":"FusedDepthwiseConv2dNative","input":["StatefulPartitionedCall/model/add_5/add","StatefulPartitionedCall/model/depthwise_conv2d_17/depthwise_weights","StatefulPartitionedCall/model/depthwise_conv2d_17/depthwise_bn_offset"],"attr":{"explicit_paddings":{"list":{}},"dilations":{"list":{"i":["1","1","1","1"]}},"data_format":{"s":"TkhXQw=="},"fused_ops":{"list":{"s":["Qmlhc0FkZA==","UmVsdTY="]}},"padding":{"s":"U0FNRQ=="},"strides":{"list":{"i":["1","1","1","1"]}},"T":{"type":"DT_FLOAT"},"num_args":{"i":"1"}}},
          {"name":"StatefulPartitionedCall/model/re_lu_22/Relu6","op":"_FusedConv2D","input":["StatefulPartitionedCall/model/add_5/add","StatefulPartitionedCall/model/conv2d_22/Conv2D_weights","StatefulPartitionedCall/model/conv2d_22/Conv2D_bn_offset"],"device":"/device:CPU:0","attr":{"padding":{"s":"U0FNRQ=="},"T":{"type":"DT_FLOAT"},"fused_ops":{"list":{"s":["Qmlhc0FkZA==","UmVsdTY="]}},"dilations":{"list":{"i":["1","1","1","1"]}},"data_format":{"s":"TkhXQw=="},"strides":{"list":{"i":["1","1","1","1"]}},"explicit_paddings":{"list":{}},"epsilon":{"f":0},"use_cudnn_on_gpu":{"b":true},"num_args":{"i":"1"}}},
          {"name":"StatefulPartitionedCall/model/zero_padding2d_4/Pad","op":"Pad","input":["StatefulPartitionedCall/model/re_lu_22/Relu6","StatefulPartitionedCall/model/zero_padding2d_4/Pad/paddings"],"attr":{"Tpaddings":{"type":"DT_INT32"},"T":{"type":"DT_FLOAT"}}},
          {"name":"StatefulPartitionedCall/model/depthwise_conv2d_11/depthwise","op":"FusedDepthwiseConv2dNative","input":["StatefulPartitionedCall/model/zero_padding2d_4/Pad","StatefulPartitionedCall/model/depthwise_conv2d_11/depthwise_weights","StatefulPartitionedCall/model/depthwise_conv2d_11/depthwise_bn_offset"],"attr":{"num_args":{"i":"1"},"dilations":{"list":{"i":["1","1","1","1"]}},"strides":{"list":{"i":["1","2","2","1"]}},"data_format":{"s":"TkhXQw=="},"explicit_paddings":{"list":{}},"T":{"type":"DT_FLOAT"},"padding":{"s":"VkFMSUQ="},"fused_ops":{"list":{"s":["Qmlhc0FkZA==","UmVsdTY="]}}}},
          {"name":"StatefulPartitionedCall/model/re_lu_35/Relu6","op":"_FusedConv2D","input":["StatefulPartitionedCall/model/depthwise_conv2d_17/depthwise","StatefulPartitionedCall/model/conv2d_32/Conv2D_weights","StatefulPartitionedCall/model/conv2d_32/Conv2D_bn_offset"],"device":"/device:CPU:0","attr":{"T":{"type":"DT_FLOAT"},"padding":{"s":"VkFMSUQ="},"use_cudnn_on_gpu":{"b":true},"explicit_paddings":{"list":{}},"dilations":{"list":{"i":["1","1","1","1"]}},"num_args":{"i":"1"},"strides":{"list":{"i":["1","1","1","1"]}},"fused_ops":{"list":{"s":["Qmlhc0FkZA==","UmVsdTY="]}},"data_format":{"s":"TkhXQw=="},"epsilon":{"f":0}}},
          {"name":"StatefulPartitionedCall/model/batch_normalization_35/FusedBatchNormV3","op":"_FusedConv2D","input":["StatefulPartitionedCall/model/depthwise_conv2d_11/depthwise","StatefulPartitionedCall/model/conv2d_23/Conv2D_weights","StatefulPartitionedCall/model/conv2d_23/Conv2D_bn_offset"],"device":"/device:CPU:0","attr":{"epsilon":{"f":0},"dilations":{"list":{"i":["1","1","1","1"]}},"fused_ops":{"list":{"s":["Qmlhc0FkZA=="]}},"explicit_paddings":{"list":{}},"data_format":{"s":"TkhXQw=="},"strides":{"list":{"i":["1","1","1","1"]}},"padding":{"s":"U0FNRQ=="},"num_args":{"i":"1"},"T":{"type":"DT_FLOAT"},"use_cudnn_on_gpu":{"b":true}}},
          {"name":"StatefulPartitionedCall/model/re_lu_24/Relu6","op":"_FusedConv2D","input":["StatefulPartitionedCall/model/batch_normalization_35/FusedBatchNormV3","StatefulPartitionedCall/model/conv2d_24/Conv2D_weights","StatefulPartitionedCall/model/conv2d_24/Conv2D_bn_offset"],"device":"/device:CPU:0","attr":{"padding":{"s":"U0FNRQ=="},"T":{"type":"DT_FLOAT"},"strides":{"list":{"i":["1","1","1","1"]}},"epsilon":{"f":0},"use_cudnn_on_gpu":{"b":true},"explicit_paddings":{"list":{}},"dilations":{"list":{"i":["1","1","1","1"]}},"fused_ops":{"list":{"s":["Qmlhc0FkZA==","UmVsdTY="]}},"data_format":{"s":"TkhXQw=="},"num_args":{"i":"1"}}},
          {"name":"StatefulPartitionedCall/model/depthwise_conv2d_12/depthwise","op":"FusedDepthwiseConv2dNative","input":["StatefulPartitionedCall/model/re_lu_24/Relu6","StatefulPartitionedCall/model/depthwise_conv2d_12/depthwise_weights","StatefulPartitionedCall/model/depthwise_conv2d_12/depthwise_bn_offset"],"attr":{"T":{"type":"DT_FLOAT"},"padding":{"s":"U0FNRQ=="},"fused_ops":{"list":{"s":["Qmlhc0FkZA==","UmVsdTY="]}},"explicit_paddings":{"list":{}},"num_args":{"i":"1"},"data_format":{"s":"TkhXQw=="},"dilations":{"list":{"i":["1","1","1","1"]}},"strides":{"list":{"i":["1","1","1","1"]}}}},
          {"name":"StatefulPartitionedCall/model/batch_normalization_38/FusedBatchNormV3","op":"_FusedConv2D","input":["StatefulPartitionedCall/model/depthwise_conv2d_12/depthwise","StatefulPartitionedCall/model/conv2d_25/Conv2D_weights","StatefulPartitionedCall/model/conv2d_25/Conv2D_bn_offset"],"device":"/device:CPU:0","attr":{"use_cudnn_on_gpu":{"b":true},"strides":{"list":{"i":["1","1","1","1"]}},"padding":{"s":"U0FNRQ=="},"fused_ops":{"list":{"s":["Qmlhc0FkZA=="]}},"data_format":{"s":"TkhXQw=="},"explicit_paddings":{"list":{}},"T":{"type":"DT_FLOAT"},"epsilon":{"f":0},"num_args":{"i":"1"},"dilations":{"list":{"i":["1","1","1","1"]}}}},
          {"name":"StatefulPartitionedCall/model/add_6/add","op":"AddV2","input":["StatefulPartitionedCall/model/batch_normalization_38/FusedBatchNormV3","StatefulPartitionedCall/model/batch_normalization_35/FusedBatchNormV3"],"attr":{"T":{"type":"DT_FLOAT"}}},
          {"name":"StatefulPartitionedCall/model/re_lu_26/Relu6","op":"_FusedConv2D","input":["StatefulPartitionedCall/model/add_6/add","StatefulPartitionedCall/model/conv2d_26/Conv2D_weights","StatefulPartitionedCall/model/conv2d_26/Conv2D_bn_offset"],"device":"/device:CPU:0","attr":{"strides":{"list":{"i":["1","1","1","1"]}},"use_cudnn_on_gpu":{"b":true},"dilations":{"list":{"i":["1","1","1","1"]}},"num_args":{"i":"1"},"T":{"type":"DT_FLOAT"},"data_format":{"s":"TkhXQw=="},"epsilon":{"f":0},"padding":{"s":"U0FNRQ=="},"explicit_paddings":{"list":{}},"fused_ops":{"list":{"s":["Qmlhc0FkZA==","UmVsdTY="]}}}},
          {"name":"StatefulPartitionedCall/model/depthwise_conv2d_13/depthwise","op":"FusedDepthwiseConv2dNative","input":["StatefulPartitionedCall/model/re_lu_26/Relu6","StatefulPartitionedCall/model/depthwise_conv2d_13/depthwise_weights","StatefulPartitionedCall/model/depthwise_conv2d_13/depthwise_bn_offset"],"attr":{"T":{"type":"DT_FLOAT"},"num_args":{"i":"1"},"data_format":{"s":"TkhXQw=="},"fused_ops":{"list":{"s":["Qmlhc0FkZA==","UmVsdTY="]}},"explicit_paddings":{"list":{}},"strides":{"list":{"i":["1","1","1","1"]}},"padding":{"s":"U0FNRQ=="},"dilations":{"list":{"i":["1","1","1","1"]}}}},
          {"name":"StatefulPartitionedCall/model/batch_normalization_41/FusedBatchNormV3","op":"_FusedConv2D","input":["StatefulPartitionedCall/model/depthwise_conv2d_13/depthwise","StatefulPartitionedCall/model/conv2d_27/Conv2D_weights","StatefulPartitionedCall/model/conv2d_27/Conv2D_bn_offset"],"device":"/device:CPU:0","attr":{"epsilon":{"f":0},"explicit_paddings":{"list":{}},"T":{"type":"DT_FLOAT"},"padding":{"s":"U0FNRQ=="},"dilations":{"list":{"i":["1","1","1","1"]}},"num_args":{"i":"1"},"data_format":{"s":"TkhXQw=="},"strides":{"list":{"i":["1","1","1","1"]}},"use_cudnn_on_gpu":{"b":true},"fused_ops":{"list":{"s":["Qmlhc0FkZA=="]}}}},
          {"name":"StatefulPartitionedCall/model/add_7/add","op":"AddV2","input":["StatefulPartitionedCall/model/batch_normalization_41/FusedBatchNormV3","StatefulPartitionedCall/model/add_6/add"],"attr":{"T":{"type":"DT_FLOAT"}}},
          {"name":"StatefulPartitionedCall/model/re_lu_28/Relu6","op":"_FusedConv2D","input":["StatefulPartitionedCall/model/add_7/add","StatefulPartitionedCall/model/conv2d_28/Conv2D_weights","StatefulPartitionedCall/model/conv2d_28/Conv2D_bn_offset"],"device":"/device:CPU:0","attr":{"T":{"type":"DT_FLOAT"},"epsilon":{"f":0},"fused_ops":{"list":{"s":["Qmlhc0FkZA==","UmVsdTY="]}},"explicit_paddings":{"list":{}},"data_format":{"s":"TkhXQw=="},"num_args":{"i":"1"},"dilations":{"list":{"i":["1","1","1","1"]}},"strides":{"list":{"i":["1","1","1","1"]}},"use_cudnn_on_gpu":{"b":true},"padding":{"s":"U0FNRQ=="}}},
          {"name":"StatefulPartitionedCall/model/depthwise_conv2d_14/depthwise","op":"FusedDepthwiseConv2dNative","input":["StatefulPartitionedCall/model/re_lu_28/Relu6","StatefulPartitionedCall/model/depthwise_conv2d_14/depthwise_weights","StatefulPartitionedCall/model/depthwise_conv2d_14/depthwise_bn_offset"],"attr":{"strides":{"list":{"i":["1","1","1","1"]}},"data_format":{"s":"TkhXQw=="},"T":{"type":"DT_FLOAT"},"explicit_paddings":{"list":{}},"num_args":{"i":"1"},"dilations":{"list":{"i":["1","1","1","1"]}},"padding":{"s":"U0FNRQ=="},"fused_ops":{"list":{"s":["Qmlhc0FkZA==","UmVsdTY="]}}}},
          {"name":"StatefulPartitionedCall/model/batch_normalization_44/FusedBatchNormV3","op":"_FusedConv2D","input":["StatefulPartitionedCall/model/depthwise_conv2d_14/depthwise","StatefulPartitionedCall/model/conv2d_29/Conv2D_weights","StatefulPartitionedCall/model/conv2d_29/Conv2D_bn_offset"],"device":"/device:CPU:0","attr":{"num_args":{"i":"1"},"epsilon":{"f":0},"padding":{"s":"U0FNRQ=="},"use_cudnn_on_gpu":{"b":true},"fused_ops":{"list":{"s":["Qmlhc0FkZA=="]}},"explicit_paddings":{"list":{}},"data_format":{"s":"TkhXQw=="},"strides":{"list":{"i":["1","1","1","1"]}},"T":{"type":"DT_FLOAT"},"dilations":{"list":{"i":["1","1","1","1"]}}}},
          {"name":"StatefulPartitionedCall/model/add_8/add","op":"AddV2","input":["StatefulPartitionedCall/model/batch_normalization_44/FusedBatchNormV3","StatefulPartitionedCall/model/add_7/add"],"attr":{"T":{"type":"DT_FLOAT"}}},
          {"name":"StatefulPartitionedCall/model/re_lu_30/Relu6","op":"_FusedConv2D","input":["StatefulPartitionedCall/model/add_8/add","StatefulPartitionedCall/model/conv2d_30/Conv2D_weights","StatefulPartitionedCall/model/conv2d_30/Conv2D_bn_offset"],"device":"/device:CPU:0","attr":{"data_format":{"s":"TkhXQw=="},"explicit_paddings":{"list":{}},"num_args":{"i":"1"},"padding":{"s":"U0FNRQ=="},"strides":{"list":{"i":["1","1","1","1"]}},"dilations":{"list":{"i":["1","1","1","1"]}},"T":{"type":"DT_FLOAT"},"epsilon":{"f":0},"fused_ops":{"list":{"s":["Qmlhc0FkZA==","UmVsdTY="]}},"use_cudnn_on_gpu":{"b":true}}},
          {"name":"StatefulPartitionedCall/model/depthwise_conv2d_15/depthwise","op":"FusedDepthwiseConv2dNative","input":["StatefulPartitionedCall/model/re_lu_30/Relu6","StatefulPartitionedCall/model/depthwise_conv2d_15/depthwise_weights","StatefulPartitionedCall/model/depthwise_conv2d_15/depthwise_bn_offset"],"attr":{"data_format":{"s":"TkhXQw=="},"padding":{"s":"U0FNRQ=="},"T":{"type":"DT_FLOAT"},"strides":{"list":{"i":["1","1","1","1"]}},"fused_ops":{"list":{"s":["Qmlhc0FkZA==","UmVsdTY="]}},"explicit_paddings":{"list":{}},"num_args":{"i":"1"},"dilations":{"list":{"i":["1","1","1","1"]}}}},
          {"name":"StatefulPartitionedCall/model/depthwise_conv2d_16/depthwise","op":"FusedDepthwiseConv2dNative","input":["StatefulPartitionedCall/model/depthwise_conv2d_15/depthwise","StatefulPartitionedCall/model/depthwise_conv2d_16/depthwise_weights","StatefulPartitionedCall/model/depthwise_conv2d_16/depthwise_bn_offset"],"attr":{"num_args":{"i":"1"},"explicit_paddings":{"list":{}},"T":{"type":"DT_FLOAT"},"padding":{"s":"U0FNRQ=="},"fused_ops":{"list":{"s":["Qmlhc0FkZA==","UmVsdTY="]}},"data_format":{"s":"TkhXQw=="},"dilations":{"list":{"i":["1","1","1","1"]}},"strides":{"list":{"i":["1","1","1","1"]}}}},
          {"name":"StatefulPartitionedCall/model/depthwise_conv2d_20/depthwise","op":"FusedDepthwiseConv2dNative","input":["StatefulPartitionedCall/model/depthwise_conv2d_15/depthwise","StatefulPartitionedCall/model/depthwise_conv2d_20/depthwise_weights","StatefulPartitionedCall/model/depthwise_conv2d_20/depthwise_bn_offset"],"attr":{"padding":{"s":"U0FNRQ=="},"data_format":{"s":"TkhXQw=="},"fused_ops":{"list":{"s":["Qmlhc0FkZA==","UmVsdTY="]}},"dilations":{"list":{"i":["1","1","1","1"]}},"num_args":{"i":"1"},"strides":{"list":{"i":["1","1","1","1"]}},"T":{"type":"DT_FLOAT"},"explicit_paddings":{"list":{}}}},
          {"name":"StatefulPartitionedCall/model/re_lu_33/Relu6","op":"_FusedConv2D","input":["StatefulPartitionedCall/model/depthwise_conv2d_16/depthwise","StatefulPartitionedCall/model/conv2d_31/Conv2D_weights","StatefulPartitionedCall/model/conv2d_31/Conv2D_bn_offset"],"device":"/device:CPU:0","attr":{"dilations":{"list":{"i":["1","1","1","1"]}},"num_args":{"i":"1"},"fused_ops":{"list":{"s":["Qmlhc0FkZA==","UmVsdTY="]}},"epsilon":{"f":0},"T":{"type":"DT_FLOAT"},"padding":{"s":"VkFMSUQ="},"data_format":{"s":"TkhXQw=="},"use_cudnn_on_gpu":{"b":true},"explicit_paddings":{"list":{}},"strides":{"list":{"i":["1","1","1","1"]}}}},
          {"name":"StatefulPartitionedCall/model/re_lu_41/Relu6","op":"_FusedConv2D","input":["StatefulPartitionedCall/model/depthwise_conv2d_20/depthwise","StatefulPartitionedCall/model/conv2d_35/Conv2D_weights","StatefulPartitionedCall/model/conv2d_35/Conv2D_bn_offset"],"device":"/device:CPU:0","attr":{"T":{"type":"DT_FLOAT"},"fused_ops":{"list":{"s":["Qmlhc0FkZA==","UmVsdTY="]}},"explicit_paddings":{"list":{}},"padding":{"s":"VkFMSUQ="},"num_args":{"i":"1"},"dilations":{"list":{"i":["1","1","1","1"]}},"epsilon":{"f":0},"use_cudnn_on_gpu":{"b":true},"data_format":{"s":"TkhXQw=="},"strides":{"list":{"i":["1","1","1","1"]}}}},
          {"name":"StatefulPartitionedCall/model/up_sampling2d/resize/ResizeBilinear","op":"ResizeBilinear","input":["StatefulPartitionedCall/model/re_lu_33/Relu6","StatefulPartitionedCall/model/up_sampling2d/mul"],"attr":{"half_pixel_centers":{"b":true},"T":{"type":"DT_FLOAT"},"align_corners":{"b":false}}},
          {"name":"StatefulPartitionedCall/model/max_pooling2d/MaxPool","op":"MaxPool","input":["StatefulPartitionedCall/model/re_lu_41/Relu6"],"attr":{"padding":{"s":"VkFMSUQ="},"strides":{"list":{"i":["1","2","2","1"]}},"explicit_paddings":{"list":{}},"ksize":{"list":{"i":["1","2","2","1"]}},"T":{"type":"DT_FLOAT"},"data_format":{"s":"TkhXQw=="}}},
          {"name":"StatefulPartitionedCall/model/depthwise_conv2d_21/depthwise","op":"FusedDepthwiseConv2dNative","input":["StatefulPartitionedCall/model/re_lu_41/Relu6","StatefulPartitionedCall/model/depthwise_conv2d_21/depthwise_weights","StatefulPartitionedCall/model/depthwise_conv2d_21/depthwise_bn_offset"],"attr":{"padding":{"s":"U0FNRQ=="},"strides":{"list":{"i":["1","2","2","1"]}},"T":{"type":"DT_FLOAT"},"explicit_paddings":{"list":{}},"dilations":{"list":{"i":["1","1","1","1"]}},"data_format":{"s":"TkhXQw=="},"fused_ops":{"list":{"s":["Qmlhc0FkZA==","UmVsdTY="]}},"num_args":{"i":"1"}}},
          {"name":"StatefulPartitionedCall/model/add_9/add","op":"AddV2","input":["StatefulPartitionedCall/model/up_sampling2d/resize/ResizeBilinear","StatefulPartitionedCall/model/re_lu_35/Relu6"],"attr":{"T":{"type":"DT_FLOAT"}}},
          {"name":"StatefulPartitionedCall/model/up_sampling2d_1/resize/ResizeBilinear","op":"ResizeBilinear","input":["StatefulPartitionedCall/model/add_9/add","StatefulPartitionedCall/model/up_sampling2d_1/mul"],"attr":{"align_corners":{"b":false},"T":{"type":"DT_FLOAT"},"half_pixel_centers":{"b":true}}},
          {"name":"StatefulPartitionedCall/model/add_10/add","op":"AddV2","input":["StatefulPartitionedCall/model/up_sampling2d_1/resize/ResizeBilinear","StatefulPartitionedCall/model/re_lu_37/Relu6"],"attr":{"T":{"type":"DT_FLOAT"}}},
          {"name":"StatefulPartitionedCall/model/batch_normalization_58/FusedBatchNormV3","op":"_FusedConv2D","input":["StatefulPartitionedCall/model/depthwise_conv2d_21/depthwise","StatefulPartitionedCall/model/conv2d_36/Conv2D_weights","StatefulPartitionedCall/model/conv2d_36/Conv2D_bn_offset"],"device":"/device:CPU:0","attr":{"dilations":{"list":{"i":["1","1","1","1"]}},"T":{"type":"DT_FLOAT"},"data_format":{"s":"TkhXQw=="},"explicit_paddings":{"list":{}},"strides":{"list":{"i":["1","1","1","1"]}},"epsilon":{"f":0},"fused_ops":{"list":{"s":["Qmlhc0FkZA=="]}},"padding":{"s":"VkFMSUQ="},"num_args":{"i":"1"},"use_cudnn_on_gpu":{"b":true}}},
          {"name":"StatefulPartitionedCall/model/up_sampling2d_2/resize/ResizeBilinear","op":"ResizeBilinear","input":["StatefulPartitionedCall/model/add_10/add","StatefulPartitionedCall/model/up_sampling2d_2/mul"],"attr":{"half_pixel_centers":{"b":true},"T":{"type":"DT_FLOAT"},"align_corners":{"b":false}}},
          {"name":"StatefulPartitionedCall/model/add_12/add","op":"AddV2","input":["StatefulPartitionedCall/model/max_pooling2d/MaxPool","StatefulPartitionedCall/model/batch_normalization_58/FusedBatchNormV3"],"attr":{"T":{"type":"DT_FLOAT"}}},
          {"name":"StatefulPartitionedCall/model/add_11/add","op":"AddV2","input":["StatefulPartitionedCall/model/up_sampling2d_2/resize/ResizeBilinear","StatefulPartitionedCall/model/re_lu_39/Relu6"],"attr":{"T":{"type":"DT_FLOAT"}}},
          {"name":"StatefulPartitionedCall/model/re_lu_43/Relu6","op":"Relu6","input":["StatefulPartitionedCall/model/add_12/add"],"attr":{"T":{"type":"DT_FLOAT"}}},
          {"name":"StatefulPartitionedCall/model/output_heatmap/BiasAdd","op":"_FusedConv2D","input":["StatefulPartitionedCall/model/add_11/add","StatefulPartitionedCall/model/output_heatmap/Conv2D/ReadVariableOp","StatefulPartitionedCall/model/output_heatmap/BiasAdd/ReadVariableOp"],"device":"/device:CPU:0","attr":{"strides":{"list":{"i":["1","1","1","1"]}},"T":{"type":"DT_FLOAT"},"epsilon":{"f":0},"fused_ops":{"list":{"s":["Qmlhc0FkZA=="]}},"num_args":{"i":"1"},"explicit_paddings":{"list":{}},"dilations":{"list":{"i":["1","1","1","1"]}},"padding":{"s":"U0FNRQ=="},"data_format":{"s":"TkhXQw=="},"use_cudnn_on_gpu":{"b":true}}},
          {"name":"StatefulPartitionedCall/model/depthwise_conv2d_29/depthwise","op":"FusedDepthwiseConv2dNative","input":["StatefulPartitionedCall/model/add_11/add","StatefulPartitionedCall/model/depthwise_conv2d_29/depthwise_weights","StatefulPartitionedCall/model/depthwise_conv2d_29/depthwise_bn_offset"],"attr":{"fused_ops":{"list":{"s":["Qmlhc0FkZA==","UmVsdTY="]}},"data_format":{"s":"TkhXQw=="},"num_args":{"i":"1"},"padding":{"s":"U0FNRQ=="},"strides":{"list":{"i":["1","1","1","1"]}},"T":{"type":"DT_FLOAT"},"dilations":{"list":{"i":["1","1","1","1"]}},"explicit_paddings":{"list":{}}}},
          {"name":"StatefulPartitionedCall/model/depthwise_conv2d_22/depthwise","op":"FusedDepthwiseConv2dNative","input":["StatefulPartitionedCall/model/re_lu_43/Relu6","StatefulPartitionedCall/model/depthwise_conv2d_22/depthwise_weights","StatefulPartitionedCall/model/depthwise_conv2d_22/depthwise_bn_offset"],"attr":{"padding":{"s":"U0FNRQ=="},"strides":{"list":{"i":["1","1","1","1"]}},"explicit_paddings":{"list":{}},"dilations":{"list":{"i":["1","1","1","1"]}},"T":{"type":"DT_FLOAT"},"data_format":{"s":"TkhXQw=="},"num_args":{"i":"1"},"fused_ops":{"list":{"s":["Qmlhc0FkZA==","UmVsdTY="]}}}},
          {"name":"StatefulPartitionedCall/model/activation_heatmap/Sigmoid","op":"Sigmoid","input":["StatefulPartitionedCall/model/output_heatmap/BiasAdd"],"attr":{"T":{"type":"DT_FLOAT"}}},
          {"name":"Identity","op":"Identity","input":["StatefulPartitionedCall/model/activation_heatmap/Sigmoid"],"attr":{"T":{"type":"DT_FLOAT"}}},
          {"name":"StatefulPartitionedCall/model/re_lu_59/Relu6","op":"_FusedConv2D","input":["StatefulPartitionedCall/model/depthwise_conv2d_29/depthwise","StatefulPartitionedCall/model/conv2d_44/Conv2D_weights","StatefulPartitionedCall/model/conv2d_44/Conv2D_bn_offset"],"device":"/device:CPU:0","attr":{"num_args":{"i":"1"},"fused_ops":{"list":{"s":["Qmlhc0FkZA==","UmVsdTY="]}},"dilations":{"list":{"i":["1","1","1","1"]}},"T":{"type":"DT_FLOAT"},"strides":{"list":{"i":["1","1","1","1"]}},"padding":{"s":"VkFMSUQ="},"use_cudnn_on_gpu":{"b":true},"epsilon":{"f":0},"data_format":{"s":"TkhXQw=="},"explicit_paddings":{"list":{}}}},
          {"name":"StatefulPartitionedCall/model/batch_normalization_60/FusedBatchNormV3","op":"_FusedConv2D","input":["StatefulPartitionedCall/model/depthwise_conv2d_22/depthwise","StatefulPartitionedCall/model/conv2d_37/Conv2D_weights","StatefulPartitionedCall/model/conv2d_37/Conv2D_bn_offset"],"device":"/device:CPU:0","attr":{"data_format":{"s":"TkhXQw=="},"use_cudnn_on_gpu":{"b":true},"num_args":{"i":"1"},"epsilon":{"f":0},"padding":{"s":"VkFMSUQ="},"explicit_paddings":{"list":{}},"fused_ops":{"list":{"s":["Qmlhc0FkZA=="]}},"strides":{"list":{"i":["1","1","1","1"]}},"dilations":{"list":{"i":["1","1","1","1"]}},"T":{"type":"DT_FLOAT"}}},
          {"name":"StatefulPartitionedCall/model/up_sampling2d_3/resize/ResizeBilinear","op":"ResizeBilinear","input":["StatefulPartitionedCall/model/re_lu_59/Relu6","StatefulPartitionedCall/model/up_sampling2d_3/mul"],"attr":{"half_pixel_centers":{"b":true},"align_corners":{"b":false},"T":{"type":"DT_FLOAT"}}},
          {"name":"StatefulPartitionedCall/model/add_13/add","op":"AddV2","input":["StatefulPartitionedCall/model/re_lu_43/Relu6","StatefulPartitionedCall/model/batch_normalization_60/FusedBatchNormV3"],"attr":{"T":{"type":"DT_FLOAT"}}},
          {"name":"StatefulPartitionedCall/model/add_20/add","op":"AddV2","input":["StatefulPartitionedCall/model/up_sampling2d_3/resize/ResizeBilinear","StatefulPartitionedCall/model/re_lu_57/Relu6"],"attr":{"T":{"type":"DT_FLOAT"}}},
          {"name":"StatefulPartitionedCall/model/re_lu_45/Relu6","op":"Relu6","input":["StatefulPartitionedCall/model/add_13/add"],"attr":{"T":{"type":"DT_FLOAT"}}},
          {"name":"StatefulPartitionedCall/model/depthwise_conv2d_30/depthwise","op":"FusedDepthwiseConv2dNative","input":["StatefulPartitionedCall/model/add_20/add","StatefulPartitionedCall/model/depthwise_conv2d_30/depthwise_weights","StatefulPartitionedCall/model/depthwise_conv2d_30/depthwise_bn_offset"],"attr":{"dilations":{"list":{"i":["1","1","1","1"]}},"explicit_paddings":{"list":{}},"padding":{"s":"U0FNRQ=="},"T":{"type":"DT_FLOAT"},"num_args":{"i":"1"},"data_format":{"s":"TkhXQw=="},"fused_ops":{"list":{"s":["Qmlhc0FkZA==","UmVsdTY="]}},"strides":{"list":{"i":["1","1","1","1"]}}}},
          {"name":"StatefulPartitionedCall/model/depthwise_conv2d_23/depthwise","op":"FusedDepthwiseConv2dNative","input":["StatefulPartitionedCall/model/re_lu_45/Relu6","StatefulPartitionedCall/model/depthwise_conv2d_23/depthwise_weights","StatefulPartitionedCall/model/depthwise_conv2d_23/depthwise_bn_offset"],"attr":{"dilations":{"list":{"i":["1","1","1","1"]}},"strides":{"list":{"i":["1","1","1","1"]}},"padding":{"s":"U0FNRQ=="},"T":{"type":"DT_FLOAT"},"data_format":{"s":"TkhXQw=="},"fused_ops":{"list":{"s":["Qmlhc0FkZA==","UmVsdTY="]}},"explicit_paddings":{"list":{}},"num_args":{"i":"1"}}},
          {"name":"StatefulPartitionedCall/model/batch_normalization_76/FusedBatchNormV3","op":"_FusedConv2D","input":["StatefulPartitionedCall/model/depthwise_conv2d_30/depthwise","StatefulPartitionedCall/model/conv2d_45/Conv2D_weights","StatefulPartitionedCall/model/conv2d_45/Conv2D_bn_offset"],"device":"/device:CPU:0","attr":{"dilations":{"list":{"i":["1","1","1","1"]}},"T":{"type":"DT_FLOAT"},"use_cudnn_on_gpu":{"b":true},"strides":{"list":{"i":["1","1","1","1"]}},"explicit_paddings":{"list":{}},"num_args":{"i":"1"},"epsilon":{"f":0},"fused_ops":{"list":{"s":["Qmlhc0FkZA=="]}},"padding":{"s":"VkFMSUQ="},"data_format":{"s":"TkhXQw=="}}},
          {"name":"StatefulPartitionedCall/model/batch_normalization_62/FusedBatchNormV3","op":"_FusedConv2D","input":["StatefulPartitionedCall/model/depthwise_conv2d_23/depthwise","StatefulPartitionedCall/model/conv2d_38/Conv2D_weights","StatefulPartitionedCall/model/conv2d_38/Conv2D_bn_offset"],"device":"/device:CPU:0","attr":{"epsilon":{"f":0},"num_args":{"i":"1"},"data_format":{"s":"TkhXQw=="},"T":{"type":"DT_FLOAT"},"fused_ops":{"list":{"s":["Qmlhc0FkZA=="]}},"use_cudnn_on_gpu":{"b":true},"padding":{"s":"VkFMSUQ="},"dilations":{"list":{"i":["1","1","1","1"]}},"strides":{"list":{"i":["1","1","1","1"]}},"explicit_paddings":{"list":{}}}},
          {"name":"StatefulPartitionedCall/model/add_21/add","op":"AddV2","input":["StatefulPartitionedCall/model/add_20/add","StatefulPartitionedCall/model/batch_normalization_76/FusedBatchNormV3"],"attr":{"T":{"type":"DT_FLOAT"}}},
          {"name":"StatefulPartitionedCall/model/add_14/add","op":"AddV2","input":["StatefulPartitionedCall/model/re_lu_45/Relu6","StatefulPartitionedCall/model/batch_normalization_62/FusedBatchNormV3"],"attr":{"T":{"type":"DT_FLOAT"}}},
          {"name":"StatefulPartitionedCall/model/re_lu_61/Relu6","op":"Relu6","input":["StatefulPartitionedCall/model/add_21/add"],"attr":{"T":{"type":"DT_FLOAT"}}},
          {"name":"StatefulPartitionedCall/model/re_lu_47/Relu6","op":"Relu6","input":["StatefulPartitionedCall/model/add_14/add"],"attr":{"T":{"type":"DT_FLOAT"}}},
          {"name":"StatefulPartitionedCall/model/output_segmentation/BiasAdd","op":"_FusedConv2D","input":["StatefulPartitionedCall/model/re_lu_61/Relu6","StatefulPartitionedCall/model/output_segmentation/Conv2D/ReadVariableOp","StatefulPartitionedCall/model/output_segmentation/BiasAdd/ReadVariableOp"],"device":"/device:CPU:0","attr":{"fused_ops":{"list":{"s":["Qmlhc0FkZA=="]}},"use_cudnn_on_gpu":{"b":true},"strides":{"list":{"i":["1","1","1","1"]}},"explicit_paddings":{"list":{}},"dilations":{"list":{"i":["1","1","1","1"]}},"T":{"type":"DT_FLOAT"},"num_args":{"i":"1"},"padding":{"s":"U0FNRQ=="},"data_format":{"s":"TkhXQw=="},"epsilon":{"f":0}}},
          {"name":"StatefulPartitionedCall/model/max_pooling2d_1/MaxPool","op":"MaxPool","input":["StatefulPartitionedCall/model/re_lu_47/Relu6"],"attr":{"explicit_paddings":{"list":{}},"ksize":{"list":{"i":["1","2","2","1"]}},"data_format":{"s":"TkhXQw=="},"padding":{"s":"VkFMSUQ="},"T":{"type":"DT_FLOAT"},"strides":{"list":{"i":["1","2","2","1"]}}}},
          {"name":"StatefulPartitionedCall/model/depthwise_conv2d_24/depthwise","op":"FusedDepthwiseConv2dNative","input":["StatefulPartitionedCall/model/re_lu_47/Relu6","StatefulPartitionedCall/model/depthwise_conv2d_24/depthwise_weights","StatefulPartitionedCall/model/depthwise_conv2d_24/depthwise_bn_offset"],"attr":{"T":{"type":"DT_FLOAT"},"explicit_paddings":{"list":{}},"padding":{"s":"U0FNRQ=="},"num_args":{"i":"1"},"strides":{"list":{"i":["1","2","2","1"]}},"fused_ops":{"list":{"s":["Qmlhc0FkZA==","UmVsdTY="]}},"data_format":{"s":"TkhXQw=="},"dilations":{"list":{"i":["1","1","1","1"]}}}},
          {"name":"StatefulPartitionedCall/model/up_sampling2d_4/resize/ResizeBilinear","op":"ResizeBilinear","input":["StatefulPartitionedCall/model/output_segmentation/BiasAdd","StatefulPartitionedCall/model/up_sampling2d_4/mul"],"attr":{"align_corners":{"b":false},"half_pixel_centers":{"b":true},"T":{"type":"DT_FLOAT"}}},
          {"name":"StatefulPartitionedCall/model/activation_segmentation/Sigmoid","op":"Sigmoid","input":["StatefulPartitionedCall/model/up_sampling2d_4/resize/ResizeBilinear"],"attr":{"T":{"type":"DT_FLOAT"}}},
          {"name":"Identity_1","op":"Identity","input":["StatefulPartitionedCall/model/activation_segmentation/Sigmoid"],"attr":{"T":{"type":"DT_FLOAT"}}},
          {"name":"StatefulPartitionedCall/model/batch_normalization_64/FusedBatchNormV3","op":"_FusedConv2D","input":["StatefulPartitionedCall/model/depthwise_conv2d_24/depthwise","StatefulPartitionedCall/model/conv2d_39/Conv2D_weights","StatefulPartitionedCall/model/conv2d_39/Conv2D_bn_offset"],"device":"/device:CPU:0","attr":{"padding":{"s":"VkFMSUQ="},"explicit_paddings":{"list":{}},"epsilon":{"f":0},"dilations":{"list":{"i":["1","1","1","1"]}},"data_format":{"s":"TkhXQw=="},"strides":{"list":{"i":["1","1","1","1"]}},"fused_ops":{"list":{"s":["Qmlhc0FkZA=="]}},"num_args":{"i":"1"},"use_cudnn_on_gpu":{"b":true},"T":{"type":"DT_FLOAT"}}},
          {"name":"StatefulPartitionedCall/model/add_15/add","op":"AddV2","input":["StatefulPartitionedCall/model/max_pooling2d_1/MaxPool","StatefulPartitionedCall/model/batch_normalization_64/FusedBatchNormV3"],"attr":{"T":{"type":"DT_FLOAT"}}},
          {"name":"StatefulPartitionedCall/model/re_lu_49/Relu6","op":"Relu6","input":["StatefulPartitionedCall/model/add_15/add"],"attr":{"T":{"type":"DT_FLOAT"}}},
          {"name":"StatefulPartitionedCall/model/depthwise_conv2d_25/depthwise","op":"FusedDepthwiseConv2dNative","input":["StatefulPartitionedCall/model/re_lu_49/Relu6","StatefulPartitionedCall/model/depthwise_conv2d_25/depthwise_weights","StatefulPartitionedCall/model/depthwise_conv2d_25/depthwise_bn_offset"],"attr":{"explicit_paddings":{"list":{}},"fused_ops":{"list":{"s":["Qmlhc0FkZA==","UmVsdTY="]}},"dilations":{"list":{"i":["1","1","1","1"]}},"num_args":{"i":"1"},"data_format":{"s":"TkhXQw=="},"T":{"type":"DT_FLOAT"},"strides":{"list":{"i":["1","1","1","1"]}},"padding":{"s":"U0FNRQ=="}}},
          {"name":"StatefulPartitionedCall/model/batch_normalization_66/FusedBatchNormV3","op":"_FusedConv2D","input":["StatefulPartitionedCall/model/depthwise_conv2d_25/depthwise","StatefulPartitionedCall/model/conv2d_40/Conv2D_weights","StatefulPartitionedCall/model/conv2d_40/Conv2D_bn_offset"],"device":"/device:CPU:0","attr":{"num_args":{"i":"1"},"strides":{"list":{"i":["1","1","1","1"]}},"data_format":{"s":"TkhXQw=="},"epsilon":{"f":0},"fused_ops":{"list":{"s":["Qmlhc0FkZA=="]}},"explicit_paddings":{"list":{}},"padding":{"s":"VkFMSUQ="},"use_cudnn_on_gpu":{"b":true},"dilations":{"list":{"i":["1","1","1","1"]}},"T":{"type":"DT_FLOAT"}}},
          {"name":"StatefulPartitionedCall/model/add_16/add","op":"AddV2","input":["StatefulPartitionedCall/model/re_lu_49/Relu6","StatefulPartitionedCall/model/batch_normalization_66/FusedBatchNormV3"],"attr":{"T":{"type":"DT_FLOAT"}}},
          {"name":"StatefulPartitionedCall/model/re_lu_51/Relu6","op":"Relu6","input":["StatefulPartitionedCall/model/add_16/add"],"attr":{"T":{"type":"DT_FLOAT"}}},
          {"name":"StatefulPartitionedCall/model/depthwise_conv2d_26/depthwise","op":"FusedDepthwiseConv2dNative","input":["StatefulPartitionedCall/model/re_lu_51/Relu6","StatefulPartitionedCall/model/depthwise_conv2d_26/depthwise_weights","StatefulPartitionedCall/model/depthwise_conv2d_26/depthwise_bn_offset"],"attr":{"fused_ops":{"list":{"s":["Qmlhc0FkZA==","UmVsdTY="]}},"T":{"type":"DT_FLOAT"},"data_format":{"s":"TkhXQw=="},"strides":{"list":{"i":["1","1","1","1"]}},"padding":{"s":"U0FNRQ=="},"dilations":{"list":{"i":["1","1","1","1"]}},"num_args":{"i":"1"},"explicit_paddings":{"list":{}}}},
          {"name":"StatefulPartitionedCall/model/batch_normalization_68/FusedBatchNormV3","op":"_FusedConv2D","input":["StatefulPartitionedCall/model/depthwise_conv2d_26/depthwise","StatefulPartitionedCall/model/conv2d_41/Conv2D_weights","StatefulPartitionedCall/model/conv2d_41/Conv2D_bn_offset"],"device":"/device:CPU:0","attr":{"dilations":{"list":{"i":["1","1","1","1"]}},"strides":{"list":{"i":["1","1","1","1"]}},"data_format":{"s":"TkhXQw=="},"padding":{"s":"VkFMSUQ="},"epsilon":{"f":0},"use_cudnn_on_gpu":{"b":true},"num_args":{"i":"1"},"fused_ops":{"list":{"s":["Qmlhc0FkZA=="]}},"explicit_paddings":{"list":{}},"T":{"type":"DT_FLOAT"}}},
          {"name":"StatefulPartitionedCall/model/add_17/add","op":"AddV2","input":["StatefulPartitionedCall/model/re_lu_51/Relu6","StatefulPartitionedCall/model/batch_normalization_68/FusedBatchNormV3"],"attr":{"T":{"type":"DT_FLOAT"}}},
          {"name":"StatefulPartitionedCall/model/re_lu_53/Relu6","op":"Relu6","input":["StatefulPartitionedCall/model/add_17/add"],"attr":{"T":{"type":"DT_FLOAT"}}},
          {"name":"StatefulPartitionedCall/model/depthwise_conv2d_27/depthwise","op":"FusedDepthwiseConv2dNative","input":["StatefulPartitionedCall/model/re_lu_53/Relu6","StatefulPartitionedCall/model/depthwise_conv2d_27/depthwise_weights","StatefulPartitionedCall/model/depthwise_conv2d_27/depthwise_bn_offset"],"attr":{"padding":{"s":"U0FNRQ=="},"fused_ops":{"list":{"s":["Qmlhc0FkZA==","UmVsdTY="]}},"data_format":{"s":"TkhXQw=="},"strides":{"list":{"i":["1","1","1","1"]}},"explicit_paddings":{"list":{}},"dilations":{"list":{"i":["1","1","1","1"]}},"T":{"type":"DT_FLOAT"},"num_args":{"i":"1"}}},
          {"name":"StatefulPartitionedCall/model/batch_normalization_70/FusedBatchNormV3","op":"_FusedConv2D","input":["StatefulPartitionedCall/model/depthwise_conv2d_27/depthwise","StatefulPartitionedCall/model/conv2d_42/Conv2D_weights","StatefulPartitionedCall/model/conv2d_42/Conv2D_bn_offset"],"device":"/device:CPU:0","attr":{"data_format":{"s":"TkhXQw=="},"num_args":{"i":"1"},"fused_ops":{"list":{"s":["Qmlhc0FkZA=="]}},"dilations":{"list":{"i":["1","1","1","1"]}},"use_cudnn_on_gpu":{"b":true},"padding":{"s":"VkFMSUQ="},"explicit_paddings":{"list":{}},"epsilon":{"f":0},"T":{"type":"DT_FLOAT"},"strides":{"list":{"i":["1","1","1","1"]}}}},
          {"name":"StatefulPartitionedCall/model/add_18/add","op":"AddV2","input":["StatefulPartitionedCall/model/re_lu_53/Relu6","StatefulPartitionedCall/model/batch_normalization_70/FusedBatchNormV3"],"attr":{"T":{"type":"DT_FLOAT"}}},
          {"name":"StatefulPartitionedCall/model/re_lu_55/Relu6","op":"Relu6","input":["StatefulPartitionedCall/model/add_18/add"],"attr":{"T":{"type":"DT_FLOAT"}}},
          {"name":"StatefulPartitionedCall/model/conv_poseflag/BiasAdd","op":"_FusedConv2D","input":["StatefulPartitionedCall/model/re_lu_55/Relu6","StatefulPartitionedCall/model/conv_poseflag/Conv2D/ReadVariableOp","StatefulPartitionedCall/model/conv_poseflag/BiasAdd/ReadVariableOp"],"device":"/device:CPU:0","attr":{"data_format":{"s":"TkhXQw=="},"use_cudnn_on_gpu":{"b":true},"epsilon":{"f":0},"strides":{"list":{"i":["1","1","1","1"]}},"padding":{"s":"VkFMSUQ="},"num_args":{"i":"1"},"explicit_paddings":{"list":{}},"T":{"type":"DT_FLOAT"},"fused_ops":{"list":{"s":["Qmlhc0FkZA=="]}},"dilations":{"list":{"i":["1","1","1","1"]}}}},
          {"name":"StatefulPartitionedCall/model/convworld_3d/BiasAdd","op":"_FusedConv2D","input":["StatefulPartitionedCall/model/re_lu_55/Relu6","StatefulPartitionedCall/model/convworld_3d/Conv2D/ReadVariableOp","StatefulPartitionedCall/model/convworld_3d/BiasAdd/ReadVariableOp"],"device":"/device:CPU:0","attr":{"fused_ops":{"list":{"s":["Qmlhc0FkZA=="]}},"dilations":{"list":{"i":["1","1","1","1"]}},"explicit_paddings":{"list":{}},"strides":{"list":{"i":["1","1","1","1"]}},"T":{"type":"DT_FLOAT"},"use_cudnn_on_gpu":{"b":true},"data_format":{"s":"TkhXQw=="},"num_args":{"i":"1"},"padding":{"s":"VkFMSUQ="},"epsilon":{"f":0}}},
          {"name":"StatefulPartitionedCall/model/convld_3d/BiasAdd","op":"_FusedConv2D","input":["StatefulPartitionedCall/model/re_lu_55/Relu6","StatefulPartitionedCall/model/convld_3d/Conv2D/ReadVariableOp","StatefulPartitionedCall/model/convld_3d/BiasAdd/ReadVariableOp"],"device":"/device:CPU:0","attr":{"strides":{"list":{"i":["1","1","1","1"]}},"padding":{"s":"VkFMSUQ="},"dilations":{"list":{"i":["1","1","1","1"]}},"explicit_paddings":{"list":{}},"data_format":{"s":"TkhXQw=="},"epsilon":{"f":0},"fused_ops":{"list":{"s":["Qmlhc0FkZA=="]}},"num_args":{"i":"1"},"use_cudnn_on_gpu":{"b":true},"T":{"type":"DT_FLOAT"}}},
          {"name":"StatefulPartitionedCall/model/activation_poseflag/Sigmoid","op":"Sigmoid","input":["StatefulPartitionedCall/model/conv_poseflag/BiasAdd"],"attr":{"T":{"type":"DT_FLOAT"}}},
          {"name":"StatefulPartitionedCall/model/world_3d/Reshape","op":"Reshape","input":["StatefulPartitionedCall/model/convworld_3d/BiasAdd","StatefulPartitionedCall/model/world_3d/Const"],"attr":{"Tshape":{"type":"DT_INT32"},"T":{"type":"DT_FLOAT"}}},
          {"name":"StatefulPartitionedCall/model/ld_3d/Reshape","op":"Reshape","input":["StatefulPartitionedCall/model/convld_3d/BiasAdd","StatefulPartitionedCall/model/ld_3d/Const"],"attr":{"Tshape":{"type":"DT_INT32"},"T":{"type":"DT_FLOAT"}}},
          {"name":"StatefulPartitionedCall/model/output_poseflag/Reshape","op":"Reshape","input":["StatefulPartitionedCall/model/activation_poseflag/Sigmoid","StatefulPartitionedCall/model/output_poseflag/Const"],"attr":{"Tshape":{"type":"DT_INT32"},"T":{"type":"DT_FLOAT"}}},
          {"name":"Identity_4","op":"Identity","input":["StatefulPartitionedCall/model/world_3d/Reshape"],"attr":{"T":{"type":"DT_FLOAT"}}},
          {"name":"Identity_2","op":"Identity","input":["StatefulPartitionedCall/model/ld_3d/Reshape"],"attr":{"T":{"type":"DT_FLOAT"}}},
          {"name":"Identity_3","op":"Identity","input":["StatefulPartitionedCall/model/output_poseflag/Reshape"],"attr":{"T":{"type":"DT_FLOAT"}}}
      ],
      "library": {},
      "versions": {}
  },
  "weightsManifest":
  [
      {
          "paths": ["blazepose-lite.bin"],
          "weights": [{"name":"StatefulPartitionedCall/model/output_heatmap/Conv2D/ReadVariableOp","shape":[1,1,32,39],"dtype":"float32","quantization":{"dtype":"float16","original_dtype":"float32"}},{"name":"StatefulPartitionedCall/model/output_heatmap/BiasAdd/ReadVariableOp","shape":[39],"dtype":"float32","quantization":{"dtype":"float16","original_dtype":"float32"}},{"name":"StatefulPartitionedCall/model/up_sampling2d/mul","shape":[2],"dtype":"int32"},{"name":"StatefulPartitionedCall/model/up_sampling2d_1/mul","shape":[2],"dtype":"int32"},{"name":"StatefulPartitionedCall/model/up_sampling2d_2/mul","shape":[2],"dtype":"int32"},{"name":"StatefulPartitionedCall/model/up_sampling2d_3/mul","shape":[2],"dtype":"int32"},{"name":"StatefulPartitionedCall/model/output_segmentation/Conv2D/ReadVariableOp","shape":[3,3,8,1],"dtype":"float32","quantization":{"dtype":"float16","original_dtype":"float32"}},{"name":"StatefulPartitionedCall/model/output_segmentation/BiasAdd/ReadVariableOp","shape":[1],"dtype":"float32","quantization":{"dtype":"float16","original_dtype":"float32"}},{"name":"StatefulPartitionedCall/model/up_sampling2d_4/mul","shape":[2],"dtype":"int32"},{"name":"StatefulPartitionedCall/model/convld_3d/Conv2D/ReadVariableOp","shape":[2,2,192,195],"dtype":"float32","quantization":{"dtype":"float16","original_dtype":"float32"}},{"name":"StatefulPartitionedCall/model/convld_3d/BiasAdd/ReadVariableOp","shape":[195],"dtype":"float32","quantization":{"dtype":"float16","original_dtype":"float32"}},{"name":"StatefulPartitionedCall/model/ld_3d/Const","shape":[2],"dtype":"int32"},{"name":"StatefulPartitionedCall/model/conv_poseflag/Conv2D/ReadVariableOp","shape":[2,2,192,1],"dtype":"float32","quantization":{"dtype":"float16","original_dtype":"float32"}},{"name":"StatefulPartitionedCall/model/conv_poseflag/BiasAdd/ReadVariableOp","shape":[1],"dtype":"float32","quantization":{"dtype":"float16","original_dtype":"float32"}},{"name":"StatefulPartitionedCall/model/output_poseflag/Const","shape":[2],"dtype":"int32"},{"name":"StatefulPartitionedCall/model/zero_padding2d/Pad/paddings","shape":[4,2],"dtype":"int32"},{"name":"StatefulPartitionedCall/model/zero_padding2d_1/Pad/paddings","shape":[4,2],"dtype":"int32"},{"name":"StatefulPartitionedCall/model/zero_padding2d_2/Pad/paddings","shape":[4,2],"dtype":"int32"},{"name":"StatefulPartitionedCall/model/zero_padding2d_3/Pad/paddings","shape":[4,2],"dtype":"int32"},{"name":"StatefulPartitionedCall/model/zero_padding2d_4/Pad/paddings","shape":[4,2],"dtype":"int32"},{"name":"StatefulPartitionedCall/model/convworld_3d/Conv2D/ReadVariableOp","shape":[2,2,192,117],"dtype":"float32","quantization":{"dtype":"float16","original_dtype":"float32"}},{"name":"StatefulPartitionedCall/model/convworld_3d/BiasAdd/ReadVariableOp","shape":[117],"dtype":"float32","quantization":{"dtype":"float16","original_dtype":"float32"}},{"name":"StatefulPartitionedCall/model/world_3d/Const","shape":[2],"dtype":"int32"},{"name":"StatefulPartitionedCall/model/conv2d/Conv2D_weights","shape":[3,3,3,24],"dtype":"float32","quantization":{"dtype":"float16","original_dtype":"float32"}},{"name":"StatefulPartitionedCall/model/conv2d_38/Conv2D_bn_offset","shape":[192],"dtype":"float32","quantization":{"dtype":"float16","original_dtype":"float32"}},{"name":"StatefulPartitionedCall/model/conv2d/Conv2D_bn_offset","shape":[24],"dtype":"float32","quantization":{"dtype":"float16","original_dtype":"float32"}},{"name":"StatefulPartitionedCall/model/depthwise_conv2d/depthwise_weights","shape":[3,3,24,1],"dtype":"float32","quantization":{"dtype":"float16","original_dtype":"float32"}},{"name":"StatefulPartitionedCall/model/depthwise_conv2d/depthwise_bn_offset","shape":[24],"dtype":"float32","quantization":{"dtype":"float16","original_dtype":"float32"}},{"name":"StatefulPartitionedCall/model/conv2d_1/Conv2D_weights","shape":[1,1,24,8],"dtype":"float32","quantization":{"dtype":"float16","original_dtype":"float32"}},{"name":"StatefulPartitionedCall/model/conv2d_1/Conv2D_bn_offset","shape":[8],"dtype":"float32","quantization":{"dtype":"float16","original_dtype":"float32"}},{"name":"StatefulPartitionedCall/model/depthwise_conv2d_28/depthwise_weights","shape":[3,3,8,1],"dtype":"float32","quantization":{"dtype":"float16","original_dtype":"float32"}},{"name":"StatefulPartitionedCall/model/depthwise_conv2d_28/depthwise_bn_offset","shape":[8],"dtype":"float32","quantization":{"dtype":"float16","original_dtype":"float32"}},{"name":"StatefulPartitionedCall/model/conv2d_2/Conv2D_weights","shape":[1,1,8,32],"dtype":"float32","quantization":{"dtype":"float16","original_dtype":"float32"}},{"name":"StatefulPartitionedCall/model/conv2d_2/Conv2D_bn_offset","shape":[32],"dtype":"float32","quantization":{"dtype":"float16","original_dtype":"float32"}},{"name":"StatefulPartitionedCall/model/conv2d_43/Conv2D_weights","shape":[1,1,8,8],"dtype":"float32","quantization":{"dtype":"float16","original_dtype":"float32"}},{"name":"StatefulPartitionedCall/model/conv2d_45/Conv2D_weights","shape":[1,1,8,8],"dtype":"float32","quantization":{"dtype":"float16","original_dtype":"float32"}},{"name":"StatefulPartitionedCall/model/conv2d_43/Conv2D_bn_offset","shape":[8],"dtype":"float32","quantization":{"dtype":"float16","original_dtype":"float32"}},{"name":"StatefulPartitionedCall/model/depthwise_conv2d_1/depthwise_weights","shape":[3,3,32,1],"dtype":"float32","quantization":{"dtype":"float16","original_dtype":"float32"}},{"name":"StatefulPartitionedCall/model/depthwise_conv2d_1/depthwise_bn_offset","shape":[32],"dtype":"float32","quantization":{"dtype":"float16","original_dtype":"float32"}},{"name":"StatefulPartitionedCall/model/conv2d_3/Conv2D_weights","shape":[1,1,32,16],"dtype":"float32","quantization":{"dtype":"float16","original_dtype":"float32"}},{"name":"StatefulPartitionedCall/model/conv2d_3/Conv2D_bn_offset","shape":[16],"dtype":"float32","quantization":{"dtype":"float16","original_dtype":"float32"}},{"name":"StatefulPartitionedCall/model/conv2d_4/Conv2D_weights","shape":[1,1,16,96],"dtype":"float32","quantization":{"dtype":"float16","original_dtype":"float32"}},{"name":"StatefulPartitionedCall/model/conv2d_45/Conv2D_bn_offset","shape":[8],"dtype":"float32","quantization":{"dtype":"float16","original_dtype":"float32"}},{"name":"StatefulPartitionedCall/model/conv2d_4/Conv2D_bn_offset","shape":[96],"dtype":"float32","quantization":{"dtype":"float16","original_dtype":"float32"}},{"name":"StatefulPartitionedCall/model/depthwise_conv2d_2/depthwise_weights","shape":[3,3,96,1],"dtype":"float32","quantization":{"dtype":"float16","original_dtype":"float32"}},{"name":"StatefulPartitionedCall/model/depthwise_conv2d_2/depthwise_bn_offset","shape":[96],"dtype":"float32","quantization":{"dtype":"float16","original_dtype":"float32"}},{"name":"StatefulPartitionedCall/model/conv2d_5/Conv2D_weights","shape":[1,1,96,16],"dtype":"float32","quantization":{"dtype":"float16","original_dtype":"float32"}},{"name":"StatefulPartitionedCall/model/conv2d_5/Conv2D_bn_offset","shape":[16],"dtype":"float32","quantization":{"dtype":"float16","original_dtype":"float32"}},{"name":"StatefulPartitionedCall/model/depthwise_conv2d_19/depthwise_weights","shape":[3,3,16,1],"dtype":"float32","quantization":{"dtype":"float16","original_dtype":"float32"}},{"name":"StatefulPartitionedCall/model/depthwise_conv2d_19/depthwise_bn_offset","shape":[16],"dtype":"float32","quantization":{"dtype":"float16","original_dtype":"float32"}},{"name":"StatefulPartitionedCall/model/conv2d_6/Conv2D_weights","shape":[1,1,16,96],"dtype":"float32","quantization":{"dtype":"float16","original_dtype":"float32"}},{"name":"StatefulPartitionedCall/model/conv2d_6/Conv2D_bn_offset","shape":[96],"dtype":"float32","quantization":{"dtype":"float16","original_dtype":"float32"}},{"name":"StatefulPartitionedCall/model/conv2d_34/Conv2D_weights","shape":[1,1,16,32],"dtype":"float32","quantization":{"dtype":"float16","original_dtype":"float32"}},{"name":"StatefulPartitionedCall/model/conv2d_34/Conv2D_bn_offset","shape":[32],"dtype":"float32","quantization":{"dtype":"float16","original_dtype":"float32"}},{"name":"StatefulPartitionedCall/model/depthwise_conv2d_3/depthwise_weights","shape":[5,5,96,1],"dtype":"float32","quantization":{"dtype":"float16","original_dtype":"float32"}},{"name":"StatefulPartitionedCall/model/depthwise_conv2d_3/depthwise_bn_offset","shape":[96],"dtype":"float32","quantization":{"dtype":"float16","original_dtype":"float32"}},{"name":"StatefulPartitionedCall/model/conv2d_7/Conv2D_weights","shape":[1,1,96,24],"dtype":"float32","quantization":{"dtype":"float16","original_dtype":"float32"}},{"name":"StatefulPartitionedCall/model/conv2d_7/Conv2D_bn_offset","shape":[24],"dtype":"float32","quantization":{"dtype":"float16","original_dtype":"float32"}},{"name":"StatefulPartitionedCall/model/conv2d_8/Conv2D_weights","shape":[1,1,24,144],"dtype":"float32","quantization":{"dtype":"float16","original_dtype":"float32"}},{"name":"StatefulPartitionedCall/model/conv2d_8/Conv2D_bn_offset","shape":[144],"dtype":"float32","quantization":{"dtype":"float16","original_dtype":"float32"}},{"name":"StatefulPartitionedCall/model/depthwise_conv2d_24/depthwise_weights","shape":[3,3,192,1],"dtype":"float32","quantization":{"dtype":"float16","original_dtype":"float32"}},{"name":"StatefulPartitionedCall/model/depthwise_conv2d_4/depthwise_weights","shape":[5,5,144,1],"dtype":"float32","quantization":{"dtype":"float16","original_dtype":"float32"}},{"name":"StatefulPartitionedCall/model/depthwise_conv2d_4/depthwise_bn_offset","shape":[144],"dtype":"float32","quantization":{"dtype":"float16","original_dtype":"float32"}},{"name":"StatefulPartitionedCall/model/conv2d_9/Conv2D_weights","shape":[1,1,144,24],"dtype":"float32","quantization":{"dtype":"float16","original_dtype":"float32"}},{"name":"StatefulPartitionedCall/model/conv2d_9/Conv2D_bn_offset","shape":[24],"dtype":"float32","quantization":{"dtype":"float16","original_dtype":"float32"}},{"name":"StatefulPartitionedCall/model/depthwise_conv2d_18/depthwise_weights","shape":[3,3,24,1],"dtype":"float32","quantization":{"dtype":"float16","original_dtype":"float32"}},{"name":"StatefulPartitionedCall/model/depthwise_conv2d_18/depthwise_bn_offset","shape":[24],"dtype":"float32","quantization":{"dtype":"float16","original_dtype":"float32"}},{"name":"StatefulPartitionedCall/model/conv2d_10/Conv2D_weights","shape":[1,1,24,144],"dtype":"float32","quantization":{"dtype":"float16","original_dtype":"float32"}},{"name":"StatefulPartitionedCall/model/depthwise_conv2d_24/depthwise_bn_offset","shape":[192],"dtype":"float32","quantization":{"dtype":"float16","original_dtype":"float32"}},{"name":"StatefulPartitionedCall/model/conv2d_10/Conv2D_bn_offset","shape":[144],"dtype":"float32","quantization":{"dtype":"float16","original_dtype":"float32"}},{"name":"StatefulPartitionedCall/model/conv2d_33/Conv2D_weights","shape":[1,1,24,32],"dtype":"float32","quantization":{"dtype":"float16","original_dtype":"float32"}},{"name":"StatefulPartitionedCall/model/conv2d_33/Conv2D_bn_offset","shape":[32],"dtype":"float32","quantization":{"dtype":"float16","original_dtype":"float32"}},{"name":"StatefulPartitionedCall/model/conv2d_39/Conv2D_weights","shape":[1,1,192,192],"dtype":"float32","quantization":{"dtype":"float16","original_dtype":"float32"}},{"name":"StatefulPartitionedCall/model/depthwise_conv2d_5/depthwise_weights","shape":[3,3,144,1],"dtype":"float32","quantization":{"dtype":"float16","original_dtype":"float32"}},{"name":"StatefulPartitionedCall/model/depthwise_conv2d_5/depthwise_bn_offset","shape":[144],"dtype":"float32","quantization":{"dtype":"float16","original_dtype":"float32"}},{"name":"StatefulPartitionedCall/model/conv2d_11/Conv2D_weights","shape":[1,1,144,40],"dtype":"float32","quantization":{"dtype":"float16","original_dtype":"float32"}},{"name":"StatefulPartitionedCall/model/conv2d_11/Conv2D_bn_offset","shape":[40],"dtype":"float32","quantization":{"dtype":"float16","original_dtype":"float32"}},{"name":"StatefulPartitionedCall/model/conv2d_12/Conv2D_weights","shape":[1,1,40,240],"dtype":"float32","quantization":{"dtype":"float16","original_dtype":"float32"}},{"name":"StatefulPartitionedCall/model/conv2d_39/Conv2D_bn_offset","shape":[192],"dtype":"float32","quantization":{"dtype":"float16","original_dtype":"float32"}},{"name":"StatefulPartitionedCall/model/conv2d_12/Conv2D_bn_offset","shape":[240],"dtype":"float32","quantization":{"dtype":"float16","original_dtype":"float32"}},{"name":"StatefulPartitionedCall/model/depthwise_conv2d_6/depthwise_weights","shape":[3,3,240,1],"dtype":"float32","quantization":{"dtype":"float16","original_dtype":"float32"}},{"name":"StatefulPartitionedCall/model/depthwise_conv2d_6/depthwise_bn_offset","shape":[240],"dtype":"float32","quantization":{"dtype":"float16","original_dtype":"float32"}},{"name":"StatefulPartitionedCall/model/conv2d_13/Conv2D_weights","shape":[1,1,240,40],"dtype":"float32","quantization":{"dtype":"float16","original_dtype":"float32"}},{"name":"StatefulPartitionedCall/model/conv2d_13/Conv2D_bn_offset","shape":[40],"dtype":"float32","quantization":{"dtype":"float16","original_dtype":"float32"}},{"name":"StatefulPartitionedCall/model/conv2d_14/Conv2D_weights","shape":[1,1,40,240],"dtype":"float32","quantization":{"dtype":"float16","original_dtype":"float32"}},{"name":"StatefulPartitionedCall/model/conv2d_14/Conv2D_bn_offset","shape":[240],"dtype":"float32","quantization":{"dtype":"float16","original_dtype":"float32"}},{"name":"StatefulPartitionedCall/model/depthwise_conv2d_25/depthwise_weights","shape":[3,3,192,1],"dtype":"float32","quantization":{"dtype":"float16","original_dtype":"float32"}},{"name":"StatefulPartitionedCall/model/depthwise_conv2d_7/depthwise_weights","shape":[3,3,240,1],"dtype":"float32","quantization":{"dtype":"float16","original_dtype":"float32"}},{"name":"StatefulPartitionedCall/model/depthwise_conv2d_7/depthwise_bn_offset","shape":[240],"dtype":"float32","quantization":{"dtype":"float16","original_dtype":"float32"}},{"name":"StatefulPartitionedCall/model/conv2d_15/Conv2D_weights","shape":[1,1,240,40],"dtype":"float32","quantization":{"dtype":"float16","original_dtype":"float32"}},{"name":"StatefulPartitionedCall/model/conv2d_15/Conv2D_bn_offset","shape":[40],"dtype":"float32","quantization":{"dtype":"float16","original_dtype":"float32"}},{"name":"StatefulPartitionedCall/model/conv2d_16/Conv2D_weights","shape":[1,1,40,240],"dtype":"float32","quantization":{"dtype":"float16","original_dtype":"float32"}},{"name":"StatefulPartitionedCall/model/depthwise_conv2d_25/depthwise_bn_offset","shape":[192],"dtype":"float32","quantization":{"dtype":"float16","original_dtype":"float32"}},{"name":"StatefulPartitionedCall/model/conv2d_16/Conv2D_bn_offset","shape":[240],"dtype":"float32","quantization":{"dtype":"float16","original_dtype":"float32"}},{"name":"StatefulPartitionedCall/model/depthwise_conv2d_8/depthwise_weights","shape":[5,5,240,1],"dtype":"float32","quantization":{"dtype":"float16","original_dtype":"float32"}},{"name":"StatefulPartitionedCall/model/depthwise_conv2d_8/depthwise_bn_offset","shape":[240],"dtype":"float32","quantization":{"dtype":"float16","original_dtype":"float32"}},{"name":"StatefulPartitionedCall/model/conv2d_17/Conv2D_weights","shape":[1,1,240,56],"dtype":"float32","quantization":{"dtype":"float16","original_dtype":"float32"}},{"name":"StatefulPartitionedCall/model/conv2d_17/Conv2D_bn_offset","shape":[56],"dtype":"float32","quantization":{"dtype":"float16","original_dtype":"float32"}},{"name":"StatefulPartitionedCall/model/conv2d_18/Conv2D_weights","shape":[1,1,56,336],"dtype":"float32","quantization":{"dtype":"float16","original_dtype":"float32"}},{"name":"StatefulPartitionedCall/model/conv2d_40/Conv2D_weights","shape":[1,1,192,192],"dtype":"float32","quantization":{"dtype":"float16","original_dtype":"float32"}},{"name":"StatefulPartitionedCall/model/conv2d_18/Conv2D_bn_offset","shape":[336],"dtype":"float32","quantization":{"dtype":"float16","original_dtype":"float32"}},{"name":"StatefulPartitionedCall/model/depthwise_conv2d_9/depthwise_weights","shape":[5,5,336,1],"dtype":"float32","quantization":{"dtype":"float16","original_dtype":"float32"}},{"name":"StatefulPartitionedCall/model/depthwise_conv2d_9/depthwise_bn_offset","shape":[336],"dtype":"float32","quantization":{"dtype":"float16","original_dtype":"float32"}},{"name":"StatefulPartitionedCall/model/conv2d_19/Conv2D_weights","shape":[1,1,336,56],"dtype":"float32","quantization":{"dtype":"float16","original_dtype":"float32"}},{"name":"StatefulPartitionedCall/model/conv2d_40/Conv2D_bn_offset","shape":[192],"dtype":"float32","quantization":{"dtype":"float16","original_dtype":"float32"}},{"name":"StatefulPartitionedCall/model/conv2d_19/Conv2D_bn_offset","shape":[56],"dtype":"float32","quantization":{"dtype":"float16","original_dtype":"float32"}},{"name":"StatefulPartitionedCall/model/conv2d_20/Conv2D_weights","shape":[1,1,56,336],"dtype":"float32","quantization":{"dtype":"float16","original_dtype":"float32"}},{"name":"StatefulPartitionedCall/model/conv2d_20/Conv2D_bn_offset","shape":[336],"dtype":"float32","quantization":{"dtype":"float16","original_dtype":"float32"}},{"name":"StatefulPartitionedCall/model/depthwise_conv2d_10/depthwise_weights","shape":[5,5,336,1],"dtype":"float32","quantization":{"dtype":"float16","original_dtype":"float32"}},{"name":"StatefulPartitionedCall/model/depthwise_conv2d_10/depthwise_bn_offset","shape":[336],"dtype":"float32","quantization":{"dtype":"float16","original_dtype":"float32"}},{"name":"StatefulPartitionedCall/model/conv2d_21/Conv2D_weights","shape":[1,1,336,56],"dtype":"float32","quantization":{"dtype":"float16","original_dtype":"float32"}},{"name":"StatefulPartitionedCall/model/conv2d_21/Conv2D_bn_offset","shape":[56],"dtype":"float32","quantization":{"dtype":"float16","original_dtype":"float32"}},{"name":"StatefulPartitionedCall/model/depthwise_conv2d_17/depthwise_weights","shape":[3,3,56,1],"dtype":"float32","quantization":{"dtype":"float16","original_dtype":"float32"}},{"name":"StatefulPartitionedCall/model/depthwise_conv2d_17/depthwise_bn_offset","shape":[56],"dtype":"float32","quantization":{"dtype":"float16","original_dtype":"float32"}},{"name":"StatefulPartitionedCall/model/conv2d_22/Conv2D_weights","shape":[1,1,56,336],"dtype":"float32","quantization":{"dtype":"float16","original_dtype":"float32"}},{"name":"StatefulPartitionedCall/model/depthwise_conv2d_26/depthwise_weights","shape":[3,3,192,1],"dtype":"float32","quantization":{"dtype":"float16","original_dtype":"float32"}},{"name":"StatefulPartitionedCall/model/conv2d_22/Conv2D_bn_offset","shape":[336],"dtype":"float32","quantization":{"dtype":"float16","original_dtype":"float32"}},{"name":"StatefulPartitionedCall/model/conv2d_32/Conv2D_weights","shape":[1,1,56,32],"dtype":"float32","quantization":{"dtype":"float16","original_dtype":"float32"}},{"name":"StatefulPartitionedCall/model/depthwise_conv2d_26/depthwise_bn_offset","shape":[192],"dtype":"float32","quantization":{"dtype":"float16","original_dtype":"float32"}},{"name":"StatefulPartitionedCall/model/conv2d_32/Conv2D_bn_offset","shape":[32],"dtype":"float32","quantization":{"dtype":"float16","original_dtype":"float32"}},{"name":"StatefulPartitionedCall/model/depthwise_conv2d_11/depthwise_weights","shape":[5,5,336,1],"dtype":"float32","quantization":{"dtype":"float16","original_dtype":"float32"}},{"name":"StatefulPartitionedCall/model/depthwise_conv2d_11/depthwise_bn_offset","shape":[336],"dtype":"float32","quantization":{"dtype":"float16","original_dtype":"float32"}},{"name":"StatefulPartitionedCall/model/conv2d_23/Conv2D_weights","shape":[1,1,336,96],"dtype":"float32","quantization":{"dtype":"float16","original_dtype":"float32"}},{"name":"StatefulPartitionedCall/model/conv2d_23/Conv2D_bn_offset","shape":[96],"dtype":"float32","quantization":{"dtype":"float16","original_dtype":"float32"}},{"name":"StatefulPartitionedCall/model/conv2d_24/Conv2D_weights","shape":[1,1,96,576],"dtype":"float32","quantization":{"dtype":"float16","original_dtype":"float32"}},{"name":"StatefulPartitionedCall/model/conv2d_41/Conv2D_weights","shape":[1,1,192,192],"dtype":"float32","quantization":{"dtype":"float16","original_dtype":"float32"}},{"name":"StatefulPartitionedCall/model/conv2d_24/Conv2D_bn_offset","shape":[576],"dtype":"float32","quantization":{"dtype":"float16","original_dtype":"float32"}},{"name":"StatefulPartitionedCall/model/depthwise_conv2d_12/depthwise_weights","shape":[5,5,576,1],"dtype":"float32","quantization":{"dtype":"float16","original_dtype":"float32"}},{"name":"StatefulPartitionedCall/model/depthwise_conv2d_12/depthwise_bn_offset","shape":[576],"dtype":"float32","quantization":{"dtype":"float16","original_dtype":"float32"}},{"name":"StatefulPartitionedCall/model/conv2d_25/Conv2D_weights","shape":[1,1,576,96],"dtype":"float32","quantization":{"dtype":"float16","original_dtype":"float32"}},{"name":"StatefulPartitionedCall/model/conv2d_41/Conv2D_bn_offset","shape":[192],"dtype":"float32","quantization":{"dtype":"float16","original_dtype":"float32"}},{"name":"StatefulPartitionedCall/model/conv2d_25/Conv2D_bn_offset","shape":[96],"dtype":"float32","quantization":{"dtype":"float16","original_dtype":"float32"}},{"name":"StatefulPartitionedCall/model/conv2d_26/Conv2D_weights","shape":[1,1,96,576],"dtype":"float32","quantization":{"dtype":"float16","original_dtype":"float32"}},{"name":"StatefulPartitionedCall/model/conv2d_26/Conv2D_bn_offset","shape":[576],"dtype":"float32","quantization":{"dtype":"float16","original_dtype":"float32"}},{"name":"StatefulPartitionedCall/model/depthwise_conv2d_13/depthwise_weights","shape":[5,5,576,1],"dtype":"float32","quantization":{"dtype":"float16","original_dtype":"float32"}},{"name":"StatefulPartitionedCall/model/depthwise_conv2d_13/depthwise_bn_offset","shape":[576],"dtype":"float32","quantization":{"dtype":"float16","original_dtype":"float32"}},{"name":"StatefulPartitionedCall/model/conv2d_27/Conv2D_weights","shape":[1,1,576,96],"dtype":"float32","quantization":{"dtype":"float16","original_dtype":"float32"}},{"name":"StatefulPartitionedCall/model/conv2d_27/Conv2D_bn_offset","shape":[96],"dtype":"float32","quantization":{"dtype":"float16","original_dtype":"float32"}},{"name":"StatefulPartitionedCall/model/conv2d_28/Conv2D_weights","shape":[1,1,96,576],"dtype":"float32","quantization":{"dtype":"float16","original_dtype":"float32"}},{"name":"StatefulPartitionedCall/model/depthwise_conv2d_27/depthwise_weights","shape":[3,3,192,1],"dtype":"float32","quantization":{"dtype":"float16","original_dtype":"float32"}},{"name":"StatefulPartitionedCall/model/conv2d_28/Conv2D_bn_offset","shape":[576],"dtype":"float32","quantization":{"dtype":"float16","original_dtype":"float32"}},{"name":"StatefulPartitionedCall/model/depthwise_conv2d_14/depthwise_weights","shape":[5,5,576,1],"dtype":"float32","quantization":{"dtype":"float16","original_dtype":"float32"}},{"name":"StatefulPartitionedCall/model/depthwise_conv2d_14/depthwise_bn_offset","shape":[576],"dtype":"float32","quantization":{"dtype":"float16","original_dtype":"float32"}},{"name":"StatefulPartitionedCall/model/conv2d_29/Conv2D_weights","shape":[1,1,576,96],"dtype":"float32","quantization":{"dtype":"float16","original_dtype":"float32"}},{"name":"StatefulPartitionedCall/model/depthwise_conv2d_27/depthwise_bn_offset","shape":[192],"dtype":"float32","quantization":{"dtype":"float16","original_dtype":"float32"}},{"name":"StatefulPartitionedCall/model/conv2d_29/Conv2D_bn_offset","shape":[96],"dtype":"float32","quantization":{"dtype":"float16","original_dtype":"float32"}},{"name":"StatefulPartitionedCall/model/conv2d_30/Conv2D_weights","shape":[1,1,96,576],"dtype":"float32","quantization":{"dtype":"float16","original_dtype":"float32"}},{"name":"StatefulPartitionedCall/model/conv2d_30/Conv2D_bn_offset","shape":[576],"dtype":"float32","quantization":{"dtype":"float16","original_dtype":"float32"}},{"name":"StatefulPartitionedCall/model/depthwise_conv2d_15/depthwise_weights","shape":[3,3,576,1],"dtype":"float32","quantization":{"dtype":"float16","original_dtype":"float32"}},{"name":"StatefulPartitionedCall/model/depthwise_conv2d_15/depthwise_bn_offset","shape":[576],"dtype":"float32","quantization":{"dtype":"float16","original_dtype":"float32"}},{"name":"StatefulPartitionedCall/model/depthwise_conv2d_16/depthwise_weights","shape":[3,3,576,1],"dtype":"float32","quantization":{"dtype":"float16","original_dtype":"float32"}},{"name":"StatefulPartitionedCall/model/depthwise_conv2d_16/depthwise_bn_offset","shape":[576],"dtype":"float32","quantization":{"dtype":"float16","original_dtype":"float32"}},{"name":"StatefulPartitionedCall/model/depthwise_conv2d_20/depthwise_weights","shape":[3,3,576,1],"dtype":"float32","quantization":{"dtype":"float16","original_dtype":"float32"}},{"name":"StatefulPartitionedCall/model/depthwise_conv2d_20/depthwise_bn_offset","shape":[576],"dtype":"float32","quantization":{"dtype":"float16","original_dtype":"float32"}},{"name":"StatefulPartitionedCall/model/conv2d_31/Conv2D_weights","shape":[1,1,576,32],"dtype":"float32","quantization":{"dtype":"float16","original_dtype":"float32"}},{"name":"StatefulPartitionedCall/model/conv2d_42/Conv2D_weights","shape":[1,1,192,192],"dtype":"float32","quantization":{"dtype":"float16","original_dtype":"float32"}},{"name":"StatefulPartitionedCall/model/conv2d_31/Conv2D_bn_offset","shape":[32],"dtype":"float32","quantization":{"dtype":"float16","original_dtype":"float32"}},{"name":"StatefulPartitionedCall/model/conv2d_42/Conv2D_bn_offset","shape":[192],"dtype":"float32","quantization":{"dtype":"float16","original_dtype":"float32"}},{"name":"StatefulPartitionedCall/model/conv2d_35/Conv2D_weights","shape":[1,1,576,192],"dtype":"float32","quantization":{"dtype":"float16","original_dtype":"float32"}},{"name":"StatefulPartitionedCall/model/conv2d_35/Conv2D_bn_offset","shape":[192],"dtype":"float32","quantization":{"dtype":"float16","original_dtype":"float32"}},{"name":"StatefulPartitionedCall/model/depthwise_conv2d_21/depthwise_weights","shape":[3,3,192,1],"dtype":"float32","quantization":{"dtype":"float16","original_dtype":"float32"}},{"name":"StatefulPartitionedCall/model/depthwise_conv2d_21/depthwise_bn_offset","shape":[192],"dtype":"float32","quantization":{"dtype":"float16","original_dtype":"float32"}},{"name":"StatefulPartitionedCall/model/conv2d_36/Conv2D_weights","shape":[1,1,192,192],"dtype":"float32","quantization":{"dtype":"float16","original_dtype":"float32"}},{"name":"StatefulPartitionedCall/model/conv2d_36/Conv2D_bn_offset","shape":[192],"dtype":"float32","quantization":{"dtype":"float16","original_dtype":"float32"}},{"name":"StatefulPartitionedCall/model/depthwise_conv2d_29/depthwise_weights","shape":[3,3,32,1],"dtype":"float32","quantization":{"dtype":"float16","original_dtype":"float32"}},{"name":"StatefulPartitionedCall/model/depthwise_conv2d_29/depthwise_bn_offset","shape":[32],"dtype":"float32","quantization":{"dtype":"float16","original_dtype":"float32"}},{"name":"StatefulPartitionedCall/model/depthwise_conv2d_22/depthwise_weights","shape":[3,3,192,1],"dtype":"float32","quantization":{"dtype":"float16","original_dtype":"float32"}},{"name":"StatefulPartitionedCall/model/depthwise_conv2d_22/depthwise_bn_offset","shape":[192],"dtype":"float32","quantization":{"dtype":"float16","original_dtype":"float32"}},{"name":"StatefulPartitionedCall/model/conv2d_44/Conv2D_weights","shape":[1,1,32,8],"dtype":"float32","quantization":{"dtype":"float16","original_dtype":"float32"}},{"name":"StatefulPartitionedCall/model/conv2d_44/Conv2D_bn_offset","shape":[8],"dtype":"float32","quantization":{"dtype":"float16","original_dtype":"float32"}},{"name":"StatefulPartitionedCall/model/conv2d_37/Conv2D_weights","shape":[1,1,192,192],"dtype":"float32","quantization":{"dtype":"float16","original_dtype":"float32"}},{"name":"StatefulPartitionedCall/model/conv2d_37/Conv2D_bn_offset","shape":[192],"dtype":"float32","quantization":{"dtype":"float16","original_dtype":"float32"}},{"name":"StatefulPartitionedCall/model/depthwise_conv2d_23/depthwise_weights","shape":[3,3,192,1],"dtype":"float32","quantization":{"dtype":"float16","original_dtype":"float32"}},{"name":"StatefulPartitionedCall/model/depthwise_conv2d_23/depthwise_bn_offset","shape":[192],"dtype":"float32","quantization":{"dtype":"float16","original_dtype":"float32"}},{"name":"StatefulPartitionedCall/model/depthwise_conv2d_30/depthwise_weights","shape":[3,3,8,1],"dtype":"float32","quantization":{"dtype":"float16","original_dtype":"float32"}},{"name":"StatefulPartitionedCall/model/depthwise_conv2d_30/depthwise_bn_offset","shape":[8],"dtype":"float32","quantization":{"dtype":"float16","original_dtype":"float32"}},{"name":"StatefulPartitionedCall/model/conv2d_38/Conv2D_weights","shape":[1,1,192,192],"dtype":"float32","quantization":{"dtype":"float16","original_dtype":"float32"}}]
      }
  ]
}