{
  "format": "graph-model",
  "generatedBy": "https://tfhub.dev/google/tfjs-model/movenet/multipose/lightning/1",
  "convertedBy": "https://github.com/vladmandic",
  "signature":
  {
      "inputs":
      {
          "input": {"name":"input:0","dtype":"DT_INT32","tensorShape":{"dim":[{"size":"1"},{"size":"256"},{"size":"256"},{"size":"3"}]}}
      },
      "outputs":
      {
          "output_0": {"name":"Identity:0","dtype":"DT_FLOAT","tensorShape":{"dim":[{"size":"1"},{"size":"6"},{"size":"56"}]}}
      }
  },
  "modelTopology":
  {
      "node":
      [
          {"name":"StatefulPartitionedCall/ExpandDims_3/dim","op":"Const","attr":{"value":{"tensor":{"dtype":"DT_INT32","tensorShape":{}}},"dtype":{"type":"DT_INT32"}}},
          {"name":"StatefulPartitionedCall/kpt_offset_0/separable_conv2d_8/separable_conv2d/ReadVariableOp","op":"Const","attr":{"dtype":{"type":"DT_FLOAT"},"value":{"tensor":{"dtype":"DT_FLOAT","tensorShape":{"dim":[{"size":"3"},{"size":"3"},{"size":"24"},{"size":"1"}]}}}}},
          {"name":"StatefulPartitionedCall/kpt_offset_0/separable_conv2d_8/separable_conv2d/ReadVariableOp_1","op":"Const","attr":{"value":{"tensor":{"dtype":"DT_FLOAT","tensorShape":{"dim":[{"size":"1"},{"size":"1"},{"size":"24"},{"size":"96"}]}}},"dtype":{"type":"DT_FLOAT"}}},
          {"name":"StatefulPartitionedCall/kpt_offset_0/separable_conv2d_8/BiasAdd/ReadVariableOp","op":"Const","attr":{"value":{"tensor":{"dtype":"DT_FLOAT","tensorShape":{"dim":[{"size":"96"}]}}},"dtype":{"type":"DT_FLOAT"}}},
          {"name":"StatefulPartitionedCall/kpt_offset_0/conv2d_9/Conv2D/ReadVariableOp","op":"Const","attr":{"value":{"tensor":{"dtype":"DT_FLOAT","tensorShape":{"dim":[{"size":"1"},{"size":"1"},{"size":"96"},{"size":"34"}]}}},"dtype":{"type":"DT_FLOAT"}}},
          {"name":"StatefulPartitionedCall/kpt_offset_0/conv2d_9/BiasAdd/ReadVariableOp","op":"Const","attr":{"dtype":{"type":"DT_FLOAT"},"value":{"tensor":{"dtype":"DT_FLOAT","tensorShape":{"dim":[{"size":"34"}]}}}}},
          {"name":"StatefulPartitionedCall/Reshape_8/shape/2","op":"Const","attr":{"value":{"tensor":{"dtype":"DT_INT32","tensorShape":{}}},"dtype":{"type":"DT_INT32"}}},
          {"name":"StatefulPartitionedCall/Reshape_8/shape/3","op":"Const","attr":{"dtype":{"type":"DT_INT32"},"value":{"tensor":{"dtype":"DT_INT32","tensorShape":{}}}}},
          {"name":"StatefulPartitionedCall/Reshape_17","op":"Const","attr":{"value":{"tensor":{"dtype":"DT_INT32","tensorShape":{"dim":[{"size":"102"}]}}},"dtype":{"type":"DT_INT32"}}},
          {"name":"StatefulPartitionedCall/ExpandDims_4/dim","op":"Const","attr":{"dtype":{"type":"DT_INT32"},"value":{"tensor":{"dtype":"DT_INT32","tensorShape":{}}}}},
          {"name":"StatefulPartitionedCall/Reshape_18/shape","op":"Const","attr":{"value":{"tensor":{"dtype":"DT_INT32","tensorShape":{"dim":[{"size":"4"}]}}},"dtype":{"type":"DT_INT32"}}},
          {"name":"StatefulPartitionedCall/truediv_8/x","op":"Const","attr":{"value":{"tensor":{"dtype":"DT_FLOAT","tensorShape":{}}},"dtype":{"type":"DT_FLOAT"}}},
          {"name":"StatefulPartitionedCall/truediv_9/x","op":"Const","attr":{"dtype":{"type":"DT_FLOAT"},"value":{"tensor":{"dtype":"DT_FLOAT","tensorShape":{}}}}},
          {"name":"StatefulPartitionedCall/Reshape_21/shape","op":"Const","attr":{"value":{"tensor":{"dtype":"DT_INT32","tensorShape":{"dim":[{"size":"4"}]}}},"dtype":{"type":"DT_INT32"}}},
          {"name":"StatefulPartitionedCall/ExpandDims_6/dim","op":"Const","attr":{"dtype":{"type":"DT_INT32"},"value":{"tensor":{"dtype":"DT_INT32","tensorShape":{}}}}},
          {"name":"StatefulPartitionedCall/concat/axis","op":"Const","attr":{"value":{"tensor":{"dtype":"DT_INT32","tensorShape":{}}},"dtype":{"type":"DT_INT32"}}},
          {"name":"StatefulPartitionedCall/Reshape_22/shape","op":"Const","attr":{"value":{"tensor":{"dtype":"DT_INT32","tensorShape":{"dim":[{"size":"3"}]}}},"dtype":{"type":"DT_INT32"}}},
          {"name":"StatefulPartitionedCall/mul_5/y","op":"Const","attr":{"value":{"tensor":{"dtype":"DT_FLOAT","tensorShape":{}}},"dtype":{"type":"DT_FLOAT"}}},
          {"name":"StatefulPartitionedCall/strided_slice/stack","op":"Const","attr":{"value":{"tensor":{"dtype":"DT_INT32","tensorShape":{"dim":[{"size":"1"}]}}},"dtype":{"type":"DT_INT32"}}},
          {"name":"StatefulPartitionedCall/strided_slice/stack_1","op":"Const","attr":{"value":{"tensor":{"dtype":"DT_INT32","tensorShape":{"dim":[{"size":"1"}]}}},"dtype":{"type":"DT_INT32"}}},
          {"name":"StatefulPartitionedCall/strided_slice/stack_2","op":"Const","attr":{"value":{"tensor":{"dtype":"DT_INT32","tensorShape":{"dim":[{"size":"1"}]}}},"dtype":{"type":"DT_INT32"}}},
          {"name":"StatefulPartitionedCall/mul/y","op":"Const","attr":{"value":{"tensor":{"dtype":"DT_INT32","tensorShape":{}}},"dtype":{"type":"DT_INT32"}}},
          {"name":"StatefulPartitionedCall/strided_slice_1/stack","op":"Const","attr":{"value":{"tensor":{"dtype":"DT_INT32","tensorShape":{"dim":[{"size":"1"}]}}},"dtype":{"type":"DT_INT32"}}},
          {"name":"StatefulPartitionedCall/strided_slice_1/stack_1","op":"Const","attr":{"dtype":{"type":"DT_INT32"},"value":{"tensor":{"dtype":"DT_INT32","tensorShape":{"dim":[{"size":"1"}]}}}}},
          {"name":"StatefulPartitionedCall/strided_slice_1/stack_2","op":"Const","attr":{"dtype":{"type":"DT_INT32"},"value":{"tensor":{"dtype":"DT_INT32","tensorShape":{"dim":[{"size":"1"}]}}}}},
          {"name":"StatefulPartitionedCall/mul_1/y","op":"Const","attr":{"dtype":{"type":"DT_INT32"},"value":{"tensor":{"dtype":"DT_INT32","tensorShape":{}}}}},
          {"name":"StatefulPartitionedCall/Const_2","op":"Const","attr":{"value":{"tensor":{"dtype":"DT_INT32","tensorShape":{}}},"dtype":{"type":"DT_INT32"}}},
          {"name":"StatefulPartitionedCall/ExpandDims/dim","op":"Const","attr":{"dtype":{"type":"DT_INT32"},"value":{"tensor":{"dtype":"DT_INT32","tensorShape":{}}}}},
          {"name":"StatefulPartitionedCall/strided_slice_6/stack","op":"Const","attr":{"value":{"tensor":{"dtype":"DT_INT32","tensorShape":{"dim":[{"size":"3"}]}}},"dtype":{"type":"DT_INT32"}}},
          {"name":"StatefulPartitionedCall/strided_slice_6/stack_1","op":"Const","attr":{"value":{"tensor":{"dtype":"DT_INT32","tensorShape":{"dim":[{"size":"3"}]}}},"dtype":{"type":"DT_INT32"}}},
          {"name":"StatefulPartitionedCall/strided_slice_6/stack_2","op":"Const","attr":{"dtype":{"type":"DT_INT32"},"value":{"tensor":{"dtype":"DT_INT32","tensorShape":{"dim":[{"size":"3"}]}}}}},
          {"name":"StatefulPartitionedCall/Tile_1/multiples","op":"Const","attr":{"value":{"tensor":{"dtype":"DT_INT32","tensorShape":{"dim":[{"size":"3"}]}}},"dtype":{"type":"DT_INT32"}}},
          {"name":"StatefulPartitionedCall/clip_by_value_4/Minimum/y","op":"Const","attr":{"dtype":{"type":"DT_FLOAT"},"value":{"tensor":{"dtype":"DT_FLOAT","tensorShape":{}}}}},
          {"name":"StatefulPartitionedCall/clip_by_value_4/y","op":"Const","attr":{"dtype":{"type":"DT_FLOAT"},"value":{"tensor":{"dtype":"DT_FLOAT","tensorShape":{}}}}},
          {"name":"StatefulPartitionedCall/x_2","op":"Const","attr":{"value":{"tensor":{"dtype":"DT_INT32","tensorShape":{}}},"dtype":{"type":"DT_INT32"}}},
          {"name":"StatefulPartitionedCall/Sum_2/reduction_indices","op":"Const","attr":{"value":{"tensor":{"dtype":"DT_INT32","tensorShape":{}}},"dtype":{"type":"DT_INT32"}}},
          {"name":"StatefulPartitionedCall/Maximum_1/y","op":"Const","attr":{"value":{"tensor":{"dtype":"DT_FLOAT","tensorShape":{}}},"dtype":{"type":"DT_FLOAT"}}},
          {"name":"StatefulPartitionedCall/strided_slice_23/stack","op":"Const","attr":{"dtype":{"type":"DT_INT32"},"value":{"tensor":{"dtype":"DT_INT32","tensorShape":{"dim":[{"size":"3"}]}}}}},
          {"name":"StatefulPartitionedCall/strided_slice_23/stack_1","op":"Const","attr":{"dtype":{"type":"DT_INT32"},"value":{"tensor":{"dtype":"DT_INT32","tensorShape":{"dim":[{"size":"3"}]}}}}},
          {"name":"StatefulPartitionedCall/strided_slice_23/stack_2","op":"Const","attr":{"value":{"tensor":{"dtype":"DT_INT32","tensorShape":{"dim":[{"size":"3"}]}}},"dtype":{"type":"DT_INT32"}}},
          {"name":"StatefulPartitionedCall/floordiv_3/y","op":"Const","attr":{"dtype":{"type":"DT_INT32"},"value":{"tensor":{"dtype":"DT_INT32","tensorShape":{}}}}},
          {"name":"StatefulPartitionedCall/strided_slice_21/stack","op":"Const","attr":{"dtype":{"type":"DT_INT32"},"value":{"tensor":{"dtype":"DT_INT32","tensorShape":{"dim":[{"size":"3"}]}}}}},
          {"name":"StatefulPartitionedCall/strided_slice_21/stack_1","op":"Const","attr":{"value":{"tensor":{"dtype":"DT_INT32","tensorShape":{"dim":[{"size":"3"}]}}},"dtype":{"type":"DT_INT32"}}},
          {"name":"StatefulPartitionedCall/strided_slice_21/stack_2","op":"Const","attr":{"dtype":{"type":"DT_INT32"},"value":{"tensor":{"dtype":"DT_INT32","tensorShape":{"dim":[{"size":"3"}]}}}}},
          {"name":"StatefulPartitionedCall/Tile_4/multiples","op":"Const","attr":{"value":{"tensor":{"dtype":"DT_INT32","tensorShape":{"dim":[{"size":"3"}]}}},"dtype":{"type":"DT_INT32"}}},
          {"name":"StatefulPartitionedCall/x","op":"Const","attr":{"value":{"tensor":{"dtype":"DT_INT32","tensorShape":{}}},"dtype":{"type":"DT_INT32"}}},
          {"name":"StatefulPartitionedCall/Greater_1/y","op":"Const","attr":{"dtype":{"type":"DT_FLOAT"},"value":{"tensor":{"dtype":"DT_FLOAT","tensorShape":{}}}}},
          {"name":"StatefulPartitionedCall/Max/reduction_indices","op":"Const","attr":{"dtype":{"type":"DT_INT32"},"value":{"tensor":{"dtype":"DT_INT32","tensorShape":{}}}}},
          {"name":"StatefulPartitionedCall/Reshape_16/shape","op":"Const","attr":{"value":{"tensor":{"dtype":"DT_INT32","tensorShape":{"dim":[{"size":"2"}]}}},"dtype":{"type":"DT_INT32"}}},
          {"name":"StatefulPartitionedCall/ArgMax/dimension","op":"Const","attr":{"value":{"tensor":{"dtype":"DT_INT32","tensorShape":{}}},"dtype":{"type":"DT_INT32"}}},
          {"name":"StatefulPartitionedCall/strided_slice_17/stack","op":"Const","attr":{"value":{"tensor":{"dtype":"DT_INT32","tensorShape":{"dim":[{"size":"4"}]}}},"dtype":{"type":"DT_INT32"}}},
          {"name":"StatefulPartitionedCall/strided_slice_17/stack_1","op":"Const","attr":{"dtype":{"type":"DT_INT32"},"value":{"tensor":{"dtype":"DT_INT32","tensorShape":{"dim":[{"size":"4"}]}}}}},
          {"name":"StatefulPartitionedCall/strided_slice_17/stack_2","op":"Const","attr":{"value":{"tensor":{"dtype":"DT_INT32","tensorShape":{"dim":[{"size":"4"}]}}},"dtype":{"type":"DT_INT32"}}},
          {"name":"StatefulPartitionedCall/mul_7/x","op":"Const","attr":{"value":{"tensor":{"dtype":"DT_FLOAT","tensorShape":{}}},"dtype":{"type":"DT_FLOAT"}}},
          {"name":"StatefulPartitionedCall/strided_slice_9/stack","op":"Const","attr":{"value":{"tensor":{"dtype":"DT_INT32","tensorShape":{"dim":[{"size":"4"}]}}},"dtype":{"type":"DT_INT32"}}},
          {"name":"StatefulPartitionedCall/strided_slice_9/stack_1","op":"Const","attr":{"value":{"tensor":{"dtype":"DT_INT32","tensorShape":{"dim":[{"size":"4"}]}}},"dtype":{"type":"DT_INT32"}}},
          {"name":"StatefulPartitionedCall/strided_slice_9/stack_2","op":"Const","attr":{"dtype":{"type":"DT_INT32"},"value":{"tensor":{"dtype":"DT_INT32","tensorShape":{"dim":[{"size":"4"}]}}}}},
          {"name":"StatefulPartitionedCall/Reshape_10/shape","op":"Const","attr":{"dtype":{"type":"DT_INT32"},"value":{"tensor":{"dtype":"DT_INT32","tensorShape":{"dim":[{"size":"2"}]}}}}},
          {"name":"StatefulPartitionedCall/strided_slice_10/stack","op":"Const","attr":{"value":{"tensor":{"dtype":"DT_INT32","tensorShape":{"dim":[{"size":"4"}]}}},"dtype":{"type":"DT_INT32"}}},
          {"name":"StatefulPartitionedCall/strided_slice_10/stack_1","op":"Const","attr":{"dtype":{"type":"DT_INT32"},"value":{"tensor":{"dtype":"DT_INT32","tensorShape":{"dim":[{"size":"4"}]}}}}},
          {"name":"StatefulPartitionedCall/strided_slice_10/stack_2","op":"Const","attr":{"dtype":{"type":"DT_INT32"},"value":{"tensor":{"dtype":"DT_INT32","tensorShape":{"dim":[{"size":"4"}]}}}}},
          {"name":"StatefulPartitionedCall/strided_slice_11/stack","op":"Const","attr":{"value":{"tensor":{"dtype":"DT_INT32","tensorShape":{"dim":[{"size":"4"}]}}},"dtype":{"type":"DT_INT32"}}},
          {"name":"StatefulPartitionedCall/strided_slice_11/stack_1","op":"Const","attr":{"dtype":{"type":"DT_INT32"},"value":{"tensor":{"dtype":"DT_INT32","tensorShape":{"dim":[{"size":"4"}]}}}}},
          {"name":"StatefulPartitionedCall/strided_slice_11/stack_2","op":"Const","attr":{"value":{"tensor":{"dtype":"DT_INT32","tensorShape":{"dim":[{"size":"4"}]}}},"dtype":{"type":"DT_INT32"}}},
          {"name":"StatefulPartitionedCall/Reshape_11/shape","op":"Const","attr":{"value":{"tensor":{"dtype":"DT_INT32","tensorShape":{"dim":[{"size":"2"}]}}},"dtype":{"type":"DT_INT32"}}},
          {"name":"StatefulPartitionedCall/kpt_regress_0/separable_conv2d_7/separable_conv2d/ReadVariableOp","op":"Const","attr":{"value":{"tensor":{"dtype":"DT_FLOAT","tensorShape":{"dim":[{"size":"3"},{"size":"3"},{"size":"24"},{"size":"1"}]}}},"dtype":{"type":"DT_FLOAT"}}},
          {"name":"StatefulPartitionedCall/kpt_regress_0/separable_conv2d_7/separable_conv2d/ReadVariableOp_1","op":"Const","attr":{"dtype":{"type":"DT_FLOAT"},"value":{"tensor":{"dtype":"DT_FLOAT","tensorShape":{"dim":[{"size":"1"},{"size":"1"},{"size":"24"},{"size":"96"}]}}}}},
          {"name":"StatefulPartitionedCall/kpt_regress_0/separable_conv2d_7/BiasAdd/ReadVariableOp","op":"Const","attr":{"value":{"tensor":{"dtype":"DT_FLOAT","tensorShape":{"dim":[{"size":"96"}]}}},"dtype":{"type":"DT_FLOAT"}}},
          {"name":"StatefulPartitionedCall/kpt_regress_0/conv2d_8/Conv2D/ReadVariableOp","op":"Const","attr":{"value":{"tensor":{"dtype":"DT_FLOAT","tensorShape":{"dim":[{"size":"1"},{"size":"1"},{"size":"96"},{"size":"34"}]}}},"dtype":{"type":"DT_FLOAT"}}},
          {"name":"StatefulPartitionedCall/kpt_regress_0/conv2d_8/BiasAdd/ReadVariableOp","op":"Const","attr":{"dtype":{"type":"DT_FLOAT"},"value":{"tensor":{"dtype":"DT_FLOAT","tensorShape":{"dim":[{"size":"34"}]}}}}},
          {"name":"StatefulPartitionedCall/Reshape_9/shape","op":"Const","attr":{"value":{"tensor":{"dtype":"DT_INT32","tensorShape":{"dim":[{"size":"3"}]}}},"dtype":{"type":"DT_INT32"}}},
          {"name":"StatefulPartitionedCall/strided_slice_12/stack","op":"Const","attr":{"dtype":{"type":"DT_INT32"},"value":{"tensor":{"dtype":"DT_INT32","tensorShape":{"dim":[{"size":"4"}]}}}}},
          {"name":"StatefulPartitionedCall/strided_slice_12/stack_1","op":"Const","attr":{"value":{"tensor":{"dtype":"DT_INT32","tensorShape":{"dim":[{"size":"4"}]}}},"dtype":{"type":"DT_INT32"}}},
          {"name":"StatefulPartitionedCall/strided_slice_12/stack_2","op":"Const","attr":{"value":{"tensor":{"dtype":"DT_INT32","tensorShape":{"dim":[{"size":"4"}]}}},"dtype":{"type":"DT_INT32"}}},
          {"name":"StatefulPartitionedCall/mul_6/y","op":"Const","attr":{"value":{"tensor":{"dtype":"DT_FLOAT","tensorShape":{}}},"dtype":{"type":"DT_FLOAT"}}},
          {"name":"StatefulPartitionedCall/strided_slice_13/stack","op":"Const","attr":{"dtype":{"type":"DT_INT32"},"value":{"tensor":{"dtype":"DT_INT32","tensorShape":{"dim":[{"size":"3"}]}}}}},
          {"name":"StatefulPartitionedCall/strided_slice_13/stack_1","op":"Const","attr":{"value":{"tensor":{"dtype":"DT_INT32","tensorShape":{"dim":[{"size":"3"}]}}},"dtype":{"type":"DT_INT32"}}},
          {"name":"StatefulPartitionedCall/strided_slice_13/stack_2","op":"Const","attr":{"value":{"tensor":{"dtype":"DT_INT32","tensorShape":{"dim":[{"size":"3"}]}}},"dtype":{"type":"DT_INT32"}}},
          {"name":"StatefulPartitionedCall/Reshape_12/shape","op":"Const","attr":{"dtype":{"type":"DT_INT32"},"value":{"tensor":{"dtype":"DT_INT32","tensorShape":{"dim":[{"size":"3"}]}}}}},
          {"name":"StatefulPartitionedCall/meshgrid/Reshape_3/shape","op":"Const","attr":{"dtype":{"type":"DT_INT32"},"value":{"tensor":{"dtype":"DT_INT32","tensorShape":{"dim":[{"size":"2"}]}}}}},
          {"name":"StatefulPartitionedCall/strided_slice_14/stack","op":"Const","attr":{"dtype":{"type":"DT_INT32"},"value":{"tensor":{"dtype":"DT_INT32","tensorShape":{"dim":[{"size":"3"}]}}}}},
          {"name":"StatefulPartitionedCall/strided_slice_14/stack_1","op":"Const","attr":{"dtype":{"type":"DT_INT32"},"value":{"tensor":{"dtype":"DT_INT32","tensorShape":{"dim":[{"size":"3"}]}}}}},
          {"name":"StatefulPartitionedCall/strided_slice_14/stack_2","op":"Const","attr":{"dtype":{"type":"DT_INT32"},"value":{"tensor":{"dtype":"DT_INT32","tensorShape":{"dim":[{"size":"3"}]}}}}},
          {"name":"StatefulPartitionedCall/Reshape_13/shape","op":"Const","attr":{"dtype":{"type":"DT_INT32"},"value":{"tensor":{"dtype":"DT_INT32","tensorShape":{"dim":[{"size":"3"}]}}}}},
          {"name":"StatefulPartitionedCall/strided_slice_15/stack","op":"Const","attr":{"dtype":{"type":"DT_INT32"},"value":{"tensor":{"dtype":"DT_INT32","tensorShape":{"dim":[{"size":"3"}]}}}}},
          {"name":"StatefulPartitionedCall/strided_slice_15/stack_1","op":"Const","attr":{"dtype":{"type":"DT_INT32"},"value":{"tensor":{"dtype":"DT_INT32","tensorShape":{"dim":[{"size":"3"}]}}}}},
          {"name":"StatefulPartitionedCall/strided_slice_15/stack_2","op":"Const","attr":{"value":{"tensor":{"dtype":"DT_INT32","tensorShape":{"dim":[{"size":"3"}]}}},"dtype":{"type":"DT_INT32"}}},
          {"name":"StatefulPartitionedCall/Reshape_14/shape","op":"Const","attr":{"value":{"tensor":{"dtype":"DT_INT32","tensorShape":{"dim":[{"size":"3"}]}}},"dtype":{"type":"DT_INT32"}}},
          {"name":"StatefulPartitionedCall/meshgrid/Reshape_2/shape","op":"Const","attr":{"dtype":{"type":"DT_INT32"},"value":{"tensor":{"dtype":"DT_INT32","tensorShape":{"dim":[{"size":"2"}]}}}}},
          {"name":"StatefulPartitionedCall/range_2/start","op":"Const","attr":{"dtype":{"type":"DT_FLOAT"},"value":{"tensor":{"dtype":"DT_FLOAT","tensorShape":{}}}}},
          {"name":"StatefulPartitionedCall/strided_slice_7/stack","op":"Const","attr":{"dtype":{"type":"DT_INT32"},"value":{"tensor":{"dtype":"DT_INT32","tensorShape":{"dim":[{"size":"1"}]}}}}},
          {"name":"StatefulPartitionedCall/strided_slice_7/stack_1","op":"Const","attr":{"value":{"tensor":{"dtype":"DT_INT32","tensorShape":{"dim":[{"size":"1"}]}}},"dtype":{"type":"DT_INT32"}}},
          {"name":"StatefulPartitionedCall/strided_slice_7/stack_2","op":"Const","attr":{"value":{"tensor":{"dtype":"DT_INT32","tensorShape":{"dim":[{"size":"1"}]}}},"dtype":{"type":"DT_INT32"}}},
          {"name":"StatefulPartitionedCall/range_2/delta","op":"Const","attr":{"dtype":{"type":"DT_FLOAT"},"value":{"tensor":{"dtype":"DT_FLOAT","tensorShape":{}}}}},
          {"name":"StatefulPartitionedCall/range_1/start","op":"Const","attr":{"dtype":{"type":"DT_FLOAT"},"value":{"tensor":{"dtype":"DT_FLOAT","tensorShape":{}}}}},
          {"name":"StatefulPartitionedCall/kpt_heatmap_0/separable_conv2d_6/separable_conv2d/ReadVariableOp","op":"Const","attr":{"value":{"tensor":{"dtype":"DT_FLOAT","tensorShape":{"dim":[{"size":"3"},{"size":"3"},{"size":"24"},{"size":"1"}]}}},"dtype":{"type":"DT_FLOAT"}}},
          {"name":"StatefulPartitionedCall/kpt_heatmap_0/separable_conv2d_6/separable_conv2d/ReadVariableOp_1","op":"Const","attr":{"dtype":{"type":"DT_FLOAT"},"value":{"tensor":{"dtype":"DT_FLOAT","tensorShape":{"dim":[{"size":"1"},{"size":"1"},{"size":"24"},{"size":"96"}]}}}}},
          {"name":"StatefulPartitionedCall/kpt_heatmap_0/separable_conv2d_6/BiasAdd/ReadVariableOp","op":"Const","attr":{"dtype":{"type":"DT_FLOAT"},"value":{"tensor":{"dtype":"DT_FLOAT","tensorShape":{"dim":[{"size":"96"}]}}}}},
          {"name":"StatefulPartitionedCall/kpt_heatmap_0/conv2d_7/Conv2D/ReadVariableOp","op":"Const","attr":{"value":{"tensor":{"dtype":"DT_FLOAT","tensorShape":{"dim":[{"size":"1"},{"size":"1"},{"size":"96"},{"size":"17"}]}}},"dtype":{"type":"DT_FLOAT"}}},
          {"name":"StatefulPartitionedCall/kpt_heatmap_0/conv2d_7/BiasAdd/ReadVariableOp","op":"Const","attr":{"dtype":{"type":"DT_FLOAT"},"value":{"tensor":{"dtype":"DT_FLOAT","tensorShape":{"dim":[{"size":"17"}]}}}}},
          {"name":"StatefulPartitionedCall/strided_slice_8/stack","op":"Const","attr":{"value":{"tensor":{"dtype":"DT_INT32","tensorShape":{"dim":[{"size":"1"}]}}},"dtype":{"type":"DT_INT32"}}},
          {"name":"StatefulPartitionedCall/strided_slice_8/stack_1","op":"Const","attr":{"value":{"tensor":{"dtype":"DT_INT32","tensorShape":{"dim":[{"size":"1"}]}}},"dtype":{"type":"DT_INT32"}}},
          {"name":"StatefulPartitionedCall/strided_slice_8/stack_2","op":"Const","attr":{"dtype":{"type":"DT_INT32"},"value":{"tensor":{"dtype":"DT_INT32","tensorShape":{"dim":[{"size":"1"}]}}}}},
          {"name":"StatefulPartitionedCall/range_1/delta","op":"Const","attr":{"value":{"tensor":{"dtype":"DT_FLOAT","tensorShape":{}}},"dtype":{"type":"DT_FLOAT"}}},
          {"name":"StatefulPartitionedCall/meshgrid/ones/Const","op":"Const","attr":{"dtype":{"type":"DT_FLOAT"},"value":{"tensor":{"dtype":"DT_FLOAT","tensorShape":{}}}}},
          {"name":"StatefulPartitionedCall/strided_slice_16/stack","op":"Const","attr":{"value":{"tensor":{"dtype":"DT_INT32","tensorShape":{"dim":[{"size":"3"}]}}},"dtype":{"type":"DT_INT32"}}},
          {"name":"StatefulPartitionedCall/strided_slice_16/stack_1","op":"Const","attr":{"dtype":{"type":"DT_INT32"},"value":{"tensor":{"dtype":"DT_INT32","tensorShape":{"dim":[{"size":"3"}]}}}}},
          {"name":"StatefulPartitionedCall/strided_slice_16/stack_2","op":"Const","attr":{"value":{"tensor":{"dtype":"DT_INT32","tensorShape":{"dim":[{"size":"3"}]}}},"dtype":{"type":"DT_INT32"}}},
          {"name":"StatefulPartitionedCall/split/split_dim","op":"Const","attr":{"dtype":{"type":"DT_INT32"},"value":{"tensor":{"dtype":"DT_INT32","tensorShape":{}}}}},
          {"name":"ConstantFolding/StatefulPartitionedCall/truediv_2_recip","op":"Const","attr":{"dtype":{"type":"DT_FLOAT"},"value":{"tensor":{"dtype":"DT_FLOAT","tensorShape":{}}}}},
          {"name":"StatefulPartitionedCall/clip_by_value/y","op":"Const","attr":{"dtype":{"type":"DT_FLOAT"},"value":{"tensor":{"dtype":"DT_FLOAT","tensorShape":{}}}}},
          {"name":"ConstantFolding/StatefulPartitionedCall/truediv_3_recip","op":"Const","attr":{"dtype":{"type":"DT_FLOAT"},"value":{"tensor":{"dtype":"DT_FLOAT","tensorShape":{}}}}},
          {"name":"StatefulPartitionedCall/clip_by_value_1/y","op":"Const","attr":{"dtype":{"type":"DT_FLOAT"},"value":{"tensor":{"dtype":"DT_FLOAT","tensorShape":{}}}}},
          {"name":"ConstantFolding/StatefulPartitionedCall/truediv_4_recip","op":"Const","attr":{"value":{"tensor":{"dtype":"DT_FLOAT","tensorShape":{}}},"dtype":{"type":"DT_FLOAT"}}},
          {"name":"StatefulPartitionedCall/strided_slice_4/stack","op":"Const","attr":{"dtype":{"type":"DT_INT32"},"value":{"tensor":{"dtype":"DT_INT32","tensorShape":{"dim":[{"size":"1"}]}}}}},
          {"name":"StatefulPartitionedCall/strided_slice_4/stack_1","op":"Const","attr":{"dtype":{"type":"DT_INT32"},"value":{"tensor":{"dtype":"DT_INT32","tensorShape":{"dim":[{"size":"1"}]}}}}},
          {"name":"StatefulPartitionedCall/strided_slice_4/stack_2","op":"Const","attr":{"dtype":{"type":"DT_INT32"},"value":{"tensor":{"dtype":"DT_INT32","tensorShape":{"dim":[{"size":"1"}]}}}}},
          {"name":"StatefulPartitionedCall/clip_by_value_2/y","op":"Const","attr":{"value":{"tensor":{"dtype":"DT_FLOAT","tensorShape":{}}},"dtype":{"type":"DT_FLOAT"}}},
          {"name":"StatefulPartitionedCall/box_offset_0/separable_conv2d_5/separable_conv2d/ReadVariableOp","op":"Const","attr":{"dtype":{"type":"DT_FLOAT"},"value":{"tensor":{"dtype":"DT_FLOAT","tensorShape":{"dim":[{"size":"3"},{"size":"3"},{"size":"24"},{"size":"1"}]}}}}},
          {"name":"StatefulPartitionedCall/box_offset_0/separable_conv2d_5/separable_conv2d/ReadVariableOp_1","op":"Const","attr":{"dtype":{"type":"DT_FLOAT"},"value":{"tensor":{"dtype":"DT_FLOAT","tensorShape":{"dim":[{"size":"1"},{"size":"1"},{"size":"24"},{"size":"96"}]}}}}},
          {"name":"StatefulPartitionedCall/box_offset_0/separable_conv2d_5/BiasAdd/ReadVariableOp","op":"Const","attr":{"dtype":{"type":"DT_FLOAT"},"value":{"tensor":{"dtype":"DT_FLOAT","tensorShape":{"dim":[{"size":"96"}]}}}}},
          {"name":"StatefulPartitionedCall/box_offset_0/conv2d_6/Conv2D/ReadVariableOp","op":"Const","attr":{"value":{"tensor":{"dtype":"DT_FLOAT","tensorShape":{"dim":[{"size":"1"},{"size":"1"},{"size":"96"},{"size":"2"}]}}},"dtype":{"type":"DT_FLOAT"}}},
          {"name":"StatefulPartitionedCall/box_offset_0/conv2d_6/BiasAdd/ReadVariableOp","op":"Const","attr":{"value":{"tensor":{"dtype":"DT_FLOAT","tensorShape":{"dim":[{"size":"2"}]}}},"dtype":{"type":"DT_FLOAT"}}},
          {"name":"StatefulPartitionedCall/Reshape_7/shape","op":"Const","attr":{"dtype":{"type":"DT_INT32"},"value":{"tensor":{"dtype":"DT_INT32","tensorShape":{"dim":[{"size":"3"}]}}}}},
          {"name":"StatefulPartitionedCall/Reshape_3","op":"Const","attr":{"dtype":{"type":"DT_INT32"},"value":{"tensor":{"dtype":"DT_INT32","tensorShape":{"dim":[{"size":"6"}]}}}}},
          {"name":"StatefulPartitionedCall/Reshape_4/shape","op":"Const","attr":{"value":{"tensor":{"dtype":"DT_INT32","tensorShape":{"dim":[{"size":"1"}]}}},"dtype":{"type":"DT_INT32"}}},
          {"name":"StatefulPartitionedCall/floordiv_2/y","op":"Const","attr":{"value":{"tensor":{"dtype":"DT_INT32","tensorShape":{}}},"dtype":{"type":"DT_INT32"}}},
          {"name":"StatefulPartitionedCall/floordiv/y","op":"Const","attr":{"value":{"tensor":{"dtype":"DT_INT32","tensorShape":{}}},"dtype":{"type":"DT_INT32"}}},
          {"name":"StatefulPartitionedCall/strided_slice_3/stack","op":"Const","attr":{"dtype":{"type":"DT_INT32"},"value":{"tensor":{"dtype":"DT_INT32","tensorShape":{"dim":[{"size":"1"}]}}}}},
          {"name":"StatefulPartitionedCall/strided_slice_3/stack_1","op":"Const","attr":{"value":{"tensor":{"dtype":"DT_INT32","tensorShape":{"dim":[{"size":"1"}]}}},"dtype":{"type":"DT_INT32"}}},
          {"name":"StatefulPartitionedCall/strided_slice_3/stack_2","op":"Const","attr":{"dtype":{"type":"DT_INT32"},"value":{"tensor":{"dtype":"DT_INT32","tensorShape":{"dim":[{"size":"1"}]}}}}},
          {"name":"StatefulPartitionedCall/Reshape_5/shape","op":"Const","attr":{"dtype":{"type":"DT_INT32"},"value":{"tensor":{"dtype":"DT_INT32","tensorShape":{"dim":[{"size":"1"}]}}}}},
          {"name":"StatefulPartitionedCall/Reshape_6/shape","op":"Const","attr":{"dtype":{"type":"DT_INT32"},"value":{"tensor":{"dtype":"DT_INT32","tensorShape":{"dim":[{"size":"3"}]}}}}},
          {"name":"StatefulPartitionedCall/Maximum/y","op":"Const","attr":{"value":{"tensor":{"dtype":"DT_FLOAT","tensorShape":{}}},"dtype":{"type":"DT_FLOAT"}}},
          {"name":"ConstantFolding/StatefulPartitionedCall/truediv_5_recip","op":"Const","attr":{"value":{"tensor":{"dtype":"DT_FLOAT","tensorShape":{}}},"dtype":{"type":"DT_FLOAT"}}},
          {"name":"StatefulPartitionedCall/box_scale_0/separable_conv2d_4/separable_conv2d/ReadVariableOp","op":"Const","attr":{"value":{"tensor":{"dtype":"DT_FLOAT","tensorShape":{"dim":[{"size":"3"},{"size":"3"},{"size":"24"},{"size":"1"}]}}},"dtype":{"type":"DT_FLOAT"}}},
          {"name":"StatefulPartitionedCall/box_scale_0/separable_conv2d_4/separable_conv2d/ReadVariableOp_1","op":"Const","attr":{"value":{"tensor":{"dtype":"DT_FLOAT","tensorShape":{"dim":[{"size":"1"},{"size":"1"},{"size":"24"},{"size":"96"}]}}},"dtype":{"type":"DT_FLOAT"}}},
          {"name":"StatefulPartitionedCall/box_scale_0/separable_conv2d_4/BiasAdd/ReadVariableOp","op":"Const","attr":{"dtype":{"type":"DT_FLOAT"},"value":{"tensor":{"dtype":"DT_FLOAT","tensorShape":{"dim":[{"size":"96"}]}}}}},
          {"name":"StatefulPartitionedCall/box_scale_0/conv2d_5/Conv2D/ReadVariableOp","op":"Const","attr":{"dtype":{"type":"DT_FLOAT"},"value":{"tensor":{"dtype":"DT_FLOAT","tensorShape":{"dim":[{"size":"1"},{"size":"1"},{"size":"96"},{"size":"2"}]}}}}},
          {"name":"StatefulPartitionedCall/box_scale_0/conv2d_5/BiasAdd/ReadVariableOp","op":"Const","attr":{"dtype":{"type":"DT_FLOAT"},"value":{"tensor":{"dtype":"DT_FLOAT","tensorShape":{"dim":[{"size":"2"}]}}}}},
          {"name":"StatefulPartitionedCall/strided_slice_5/stack","op":"Const","attr":{"value":{"tensor":{"dtype":"DT_INT32","tensorShape":{"dim":[{"size":"1"}]}}},"dtype":{"type":"DT_INT32"}}},
          {"name":"StatefulPartitionedCall/strided_slice_5/stack_1","op":"Const","attr":{"value":{"tensor":{"dtype":"DT_INT32","tensorShape":{"dim":[{"size":"1"}]}}},"dtype":{"type":"DT_INT32"}}},
          {"name":"StatefulPartitionedCall/strided_slice_5/stack_2","op":"Const","attr":{"value":{"tensor":{"dtype":"DT_INT32","tensorShape":{"dim":[{"size":"1"}]}}},"dtype":{"type":"DT_INT32"}}},
          {"name":"StatefulPartitionedCall/clip_by_value_3/y","op":"Const","attr":{"value":{"tensor":{"dtype":"DT_FLOAT","tensorShape":{}}},"dtype":{"type":"DT_FLOAT"}}},
          {"name":"StatefulPartitionedCall/Reshape_15/shape","op":"Const","attr":{"dtype":{"type":"DT_INT32"},"value":{"tensor":{"dtype":"DT_INT32","tensorShape":{"dim":[{"size":"3"}]}}}}},
          {"name":"StatefulPartitionedCall/strided_slice_18/stack","op":"Const","attr":{"dtype":{"type":"DT_INT32"},"value":{"tensor":{"dtype":"DT_INT32","tensorShape":{"dim":[{"size":"4"}]}}}}},
          {"name":"StatefulPartitionedCall/strided_slice_18/stack_1","op":"Const","attr":{"value":{"tensor":{"dtype":"DT_INT32","tensorShape":{"dim":[{"size":"4"}]}}},"dtype":{"type":"DT_INT32"}}},
          {"name":"StatefulPartitionedCall/strided_slice_18/stack_2","op":"Const","attr":{"value":{"tensor":{"dtype":"DT_INT32","tensorShape":{"dim":[{"size":"4"}]}}},"dtype":{"type":"DT_INT32"}}},
          {"name":"StatefulPartitionedCall/strided_slice_20/stack","op":"Const","attr":{"dtype":{"type":"DT_INT32"},"value":{"tensor":{"dtype":"DT_INT32","tensorShape":{"dim":[{"size":"1"}]}}}}},
          {"name":"StatefulPartitionedCall/strided_slice_20/stack_1","op":"Const","attr":{"value":{"tensor":{"dtype":"DT_INT32","tensorShape":{"dim":[{"size":"1"}]}}},"dtype":{"type":"DT_INT32"}}},
          {"name":"StatefulPartitionedCall/strided_slice_20/stack_2","op":"Const","attr":{"dtype":{"type":"DT_INT32"},"value":{"tensor":{"dtype":"DT_INT32","tensorShape":{"dim":[{"size":"1"}]}}}}},
          {"name":"StatefulPartitionedCall/Reshape_19","op":"Const","attr":{"dtype":{"type":"DT_INT32"},"value":{"tensor":{"dtype":"DT_INT32","tensorShape":{"dim":[{"size":"102"}]}}}}},
          {"name":"StatefulPartitionedCall/Reshape_20/shape","op":"Const","attr":{"dtype":{"type":"DT_INT32"},"value":{"tensor":{"dtype":"DT_INT32","tensorShape":{"dim":[{"size":"3"}]}}}}},
          {"name":"StatefulPartitionedCall/zeros_like","op":"Const","attr":{"value":{"tensor":{"dtype":"DT_FLOAT","tensorShape":{"dim":[{"size":"1"},{"size":"6"},{"size":"17"}]}}},"dtype":{"type":"DT_FLOAT"}}},
          {"name":"StatefulPartitionedCall/Sum_3/reduction_indices","op":"Const","attr":{"value":{"tensor":{"dtype":"DT_INT32","tensorShape":{}}},"dtype":{"type":"DT_INT32"}}},
          {"name":"StatefulPartitionedCall/center_net_mobile_net_v2fpn_feature_extractor/model_1/conv2d/Conv2D/ReadVariableOp","op":"Const","attr":{"dtype":{"type":"DT_FLOAT"},"value":{"tensor":{"dtype":"DT_FLOAT","tensorShape":{"dim":[{"size":"1"},{"size":"1"},{"size":"1280"},{"size":"64"}]}}}}},
          {"name":"StatefulPartitionedCall/center_net_mobile_net_v2fpn_feature_extractor/model_1/conv2d/BiasAdd/ReadVariableOp","op":"Const","attr":{"dtype":{"type":"DT_FLOAT"},"value":{"tensor":{"dtype":"DT_FLOAT","tensorShape":{"dim":[{"size":"64"}]}}}}},
          {"name":"StatefulPartitionedCall/center_net_mobile_net_v2fpn_feature_extractor/model_1/up_sampling2d/strided_slice/stack","op":"Const","attr":{"value":{"tensor":{"dtype":"DT_INT32","tensorShape":{"dim":[{"size":"1"}]}}},"dtype":{"type":"DT_INT32"}}},
          {"name":"StatefulPartitionedCall/center_net_mobile_net_v2fpn_feature_extractor/model_1/up_sampling2d/strided_slice/stack_1","op":"Const","attr":{"value":{"tensor":{"dtype":"DT_INT32","tensorShape":{"dim":[{"size":"1"}]}}},"dtype":{"type":"DT_INT32"}}},
          {"name":"StatefulPartitionedCall/center_net_mobile_net_v2fpn_feature_extractor/model_1/up_sampling2d/strided_slice/stack_2","op":"Const","attr":{"dtype":{"type":"DT_INT32"},"value":{"tensor":{"dtype":"DT_INT32","tensorShape":{"dim":[{"size":"1"}]}}}}},
          {"name":"StatefulPartitionedCall/center_net_mobile_net_v2fpn_feature_extractor/model_1/up_sampling2d/Const","op":"Const","attr":{"dtype":{"type":"DT_INT32"},"value":{"tensor":{"dtype":"DT_INT32","tensorShape":{"dim":[{"size":"2"}]}}}}},
          {"name":"StatefulPartitionedCall/center_net_mobile_net_v2fpn_feature_extractor/model_1/conv2d_1/Conv2D/ReadVariableOp","op":"Const","attr":{"value":{"tensor":{"dtype":"DT_FLOAT","tensorShape":{"dim":[{"size":"1"},{"size":"1"},{"size":"96"},{"size":"64"}]}}},"dtype":{"type":"DT_FLOAT"}}},
          {"name":"StatefulPartitionedCall/center_net_mobile_net_v2fpn_feature_extractor/model_1/conv2d_1/BiasAdd/ReadVariableOp","op":"Const","attr":{"dtype":{"type":"DT_FLOAT"},"value":{"tensor":{"dtype":"DT_FLOAT","tensorShape":{"dim":[{"size":"64"}]}}}}},
          {"name":"StatefulPartitionedCall/center_net_mobile_net_v2fpn_feature_extractor/model_1/separable_conv2d/separable_conv2d/ReadVariableOp","op":"Const","attr":{"value":{"tensor":{"dtype":"DT_FLOAT","tensorShape":{"dim":[{"size":"3"},{"size":"3"},{"size":"64"},{"size":"1"}]}}},"dtype":{"type":"DT_FLOAT"}}},
          {"name":"StatefulPartitionedCall/center_net_mobile_net_v2fpn_feature_extractor/model_1/up_sampling2d_1/strided_slice/stack","op":"Const","attr":{"dtype":{"type":"DT_INT32"},"value":{"tensor":{"dtype":"DT_INT32","tensorShape":{"dim":[{"size":"1"}]}}}}},
          {"name":"StatefulPartitionedCall/center_net_mobile_net_v2fpn_feature_extractor/model_1/up_sampling2d_1/strided_slice/stack_1","op":"Const","attr":{"dtype":{"type":"DT_INT32"},"value":{"tensor":{"dtype":"DT_INT32","tensorShape":{"dim":[{"size":"1"}]}}}}},
          {"name":"StatefulPartitionedCall/center_net_mobile_net_v2fpn_feature_extractor/model_1/up_sampling2d_1/strided_slice/stack_2","op":"Const","attr":{"dtype":{"type":"DT_INT32"},"value":{"tensor":{"dtype":"DT_INT32","tensorShape":{"dim":[{"size":"1"}]}}}}},
          {"name":"StatefulPartitionedCall/center_net_mobile_net_v2fpn_feature_extractor/model_1/up_sampling2d_1/Const","op":"Const","attr":{"dtype":{"type":"DT_INT32"},"value":{"tensor":{"dtype":"DT_INT32","tensorShape":{"dim":[{"size":"2"}]}}}}},
          {"name":"StatefulPartitionedCall/center_net_mobile_net_v2fpn_feature_extractor/model_1/conv2d_2/Conv2D/ReadVariableOp","op":"Const","attr":{"dtype":{"type":"DT_FLOAT"},"value":{"tensor":{"dtype":"DT_FLOAT","tensorShape":{"dim":[{"size":"1"},{"size":"1"},{"size":"48"},{"size":"32"}]}}}}},
          {"name":"StatefulPartitionedCall/center_net_mobile_net_v2fpn_feature_extractor/model_1/conv2d_2/BiasAdd/ReadVariableOp","op":"Const","attr":{"value":{"tensor":{"dtype":"DT_FLOAT","tensorShape":{"dim":[{"size":"32"}]}}},"dtype":{"type":"DT_FLOAT"}}},
          {"name":"StatefulPartitionedCall/center_net_mobile_net_v2fpn_feature_extractor/model_1/separable_conv2d_1/separable_conv2d/ReadVariableOp","op":"Const","attr":{"value":{"tensor":{"dtype":"DT_FLOAT","tensorShape":{"dim":[{"size":"3"},{"size":"3"},{"size":"32"},{"size":"1"}]}}},"dtype":{"type":"DT_FLOAT"}}},
          {"name":"StatefulPartitionedCall/center_net_mobile_net_v2fpn_feature_extractor/model_1/up_sampling2d_2/strided_slice/stack","op":"Const","attr":{"dtype":{"type":"DT_INT32"},"value":{"tensor":{"dtype":"DT_INT32","tensorShape":{"dim":[{"size":"1"}]}}}}},
          {"name":"StatefulPartitionedCall/center_net_mobile_net_v2fpn_feature_extractor/model_1/up_sampling2d_2/strided_slice/stack_1","op":"Const","attr":{"value":{"tensor":{"dtype":"DT_INT32","tensorShape":{"dim":[{"size":"1"}]}}},"dtype":{"type":"DT_INT32"}}},
          {"name":"StatefulPartitionedCall/center_net_mobile_net_v2fpn_feature_extractor/model_1/up_sampling2d_2/strided_slice/stack_2","op":"Const","attr":{"value":{"tensor":{"dtype":"DT_INT32","tensorShape":{"dim":[{"size":"1"}]}}},"dtype":{"type":"DT_INT32"}}},
          {"name":"StatefulPartitionedCall/center_net_mobile_net_v2fpn_feature_extractor/model_1/up_sampling2d_2/Const","op":"Const","attr":{"dtype":{"type":"DT_INT32"},"value":{"tensor":{"dtype":"DT_INT32","tensorShape":{"dim":[{"size":"2"}]}}}}},
          {"name":"StatefulPartitionedCall/Reshape","op":"Const","attr":{"dtype":{"type":"DT_FLOAT"},"value":{"tensor":{"dtype":"DT_FLOAT","tensorShape":{"dim":[{"size":"1"},{"size":"1"},{"size":"1"},{"size":"3"}]}}}}},
          {"name":"StatefulPartitionedCall/truediv","op":"Const","attr":{"value":{"tensor":{"dtype":"DT_FLOAT","tensorShape":{"dim":[{"size":"1"},{"size":"1"},{"size":"1"},{"size":"3"}]}}},"dtype":{"type":"DT_FLOAT"}}},
          {"name":"StatefulPartitionedCall/sub_1/y","op":"Const","attr":{"value":{"tensor":{"dtype":"DT_FLOAT","tensorShape":{}}},"dtype":{"type":"DT_FLOAT"}}},
          {"name":"StatefulPartitionedCall/center_net_mobile_net_v2fpn_feature_extractor/model_1/conv2d_3/Conv2D/ReadVariableOp","op":"Const","attr":{"value":{"tensor":{"dtype":"DT_FLOAT","tensorShape":{"dim":[{"size":"1"},{"size":"1"},{"size":"40"},{"size":"24"}]}}},"dtype":{"type":"DT_FLOAT"}}},
          {"name":"StatefulPartitionedCall/center_net_mobile_net_v2fpn_feature_extractor/model_1/conv2d_3/BiasAdd/ReadVariableOp","op":"Const","attr":{"value":{"tensor":{"dtype":"DT_FLOAT","tensorShape":{"dim":[{"size":"24"}]}}},"dtype":{"type":"DT_FLOAT"}}},
          {"name":"StatefulPartitionedCall/center_net_mobile_net_v2fpn_feature_extractor/model_1/separable_conv2d_2/separable_conv2d/ReadVariableOp","op":"Const","attr":{"dtype":{"type":"DT_FLOAT"},"value":{"tensor":{"dtype":"DT_FLOAT","tensorShape":{"dim":[{"size":"3"},{"size":"3"},{"size":"24"},{"size":"1"}]}}}}},
          {"name":"StatefulPartitionedCall/center_0/separable_conv2d_3/separable_conv2d/ReadVariableOp","op":"Const","attr":{"value":{"tensor":{"dtype":"DT_FLOAT","tensorShape":{"dim":[{"size":"3"},{"size":"3"},{"size":"24"},{"size":"1"}]}}},"dtype":{"type":"DT_FLOAT"}}},
          {"name":"StatefulPartitionedCall/center_0/separable_conv2d_3/separable_conv2d/ReadVariableOp_1","op":"Const","attr":{"dtype":{"type":"DT_FLOAT"},"value":{"tensor":{"dtype":"DT_FLOAT","tensorShape":{"dim":[{"size":"1"},{"size":"1"},{"size":"24"},{"size":"96"}]}}}}},
          {"name":"StatefulPartitionedCall/center_0/separable_conv2d_3/BiasAdd/ReadVariableOp","op":"Const","attr":{"value":{"tensor":{"dtype":"DT_FLOAT","tensorShape":{"dim":[{"size":"96"}]}}},"dtype":{"type":"DT_FLOAT"}}},
          {"name":"StatefulPartitionedCall/center_0/conv2d_4/Conv2D/ReadVariableOp","op":"Const","attr":{"dtype":{"type":"DT_FLOAT"},"value":{"tensor":{"dtype":"DT_FLOAT","tensorShape":{"dim":[{"size":"1"},{"size":"1"},{"size":"96"},{"size":"1"}]}}}}},
          {"name":"StatefulPartitionedCall/center_0/conv2d_4/BiasAdd/ReadVariableOp","op":"Const","attr":{"value":{"tensor":{"dtype":"DT_FLOAT","tensorShape":{"dim":[{"size":"1"}]}}},"dtype":{"type":"DT_FLOAT"}}},
          {"name":"StatefulPartitionedCall/Less/y","op":"Const","attr":{"value":{"tensor":{"dtype":"DT_FLOAT","tensorShape":{}}},"dtype":{"type":"DT_FLOAT"}}},
          {"name":"StatefulPartitionedCall/Reshape_2/shape","op":"Const","attr":{"value":{"tensor":{"dtype":"DT_INT32","tensorShape":{"dim":[{"size":"2"}]}}},"dtype":{"type":"DT_INT32"}}},
          {"name":"StatefulPartitionedCall/TopKV2/k","op":"Const","attr":{"dtype":{"type":"DT_INT32"},"value":{"tensor":{"dtype":"DT_INT32","tensorShape":{}}}}},
          {"name":"StatefulPartitionedCall/strided_slice_24/stack","op":"Const","attr":{"dtype":{"type":"DT_INT32"},"value":{"tensor":{"dtype":"DT_INT32","tensorShape":{"dim":[{"size":"3"}]}}}}},
          {"name":"StatefulPartitionedCall/strided_slice_24/stack_1","op":"Const","attr":{"dtype":{"type":"DT_INT32"},"value":{"tensor":{"dtype":"DT_INT32","tensorShape":{"dim":[{"size":"3"}]}}}}},
          {"name":"StatefulPartitionedCall/strided_slice_24/stack_2","op":"Const","attr":{"dtype":{"type":"DT_INT32"},"value":{"tensor":{"dtype":"DT_INT32","tensorShape":{"dim":[{"size":"3"}]}}}}},
          {"name":"StatefulPartitionedCall/concat_1/axis","op":"Const","attr":{"dtype":{"type":"DT_INT32"},"value":{"tensor":{"dtype":"DT_INT32","tensorShape":{}}}}},
          {"name":"input","op":"Placeholder","attr":{"dtype":{"type":"DT_INT32"},"shape":{"shape":{"dim":[{"size":"1"},{"size":"-1"},{"size":"-1"},{"size":"3"}]}}}},
          {"name":"StatefulPartitionedCall/center_net_mobile_net_v2fpn_feature_extractor/model_1/model/Conv1/Conv2D_weights","op":"Const","attr":{"dtype":{"type":"DT_FLOAT"},"value":{"tensor":{"dtype":"DT_FLOAT","tensorShape":{"dim":[{"size":"3"},{"size":"3"},{"size":"3"},{"size":"48"}]}}}}},
          {"name":"StatefulPartitionedCall/center_net_mobile_net_v2fpn_feature_extractor/model_1/model/Conv1/Conv2D_bn_offset","op":"Const","attr":{"value":{"tensor":{"dtype":"DT_FLOAT","tensorShape":{"dim":[{"size":"48"}]}}},"dtype":{"type":"DT_FLOAT"}}},
          {"name":"StatefulPartitionedCall/center_net_mobile_net_v2fpn_feature_extractor/model_1/model/expanded_conv_depthwise/depthwise_weights","op":"Const","attr":{"dtype":{"type":"DT_FLOAT"},"value":{"tensor":{"dtype":"DT_FLOAT","tensorShape":{"dim":[{"size":"3"},{"size":"3"},{"size":"48"},{"size":"1"}]}}}}},
          {"name":"StatefulPartitionedCall/center_net_mobile_net_v2fpn_feature_extractor/model_1/model/expanded_conv_depthwise/depthwise_bn_offset","op":"Const","attr":{"value":{"tensor":{"dtype":"DT_FLOAT","tensorShape":{"dim":[{"size":"48"}]}}},"dtype":{"type":"DT_FLOAT"}}},
          {"name":"StatefulPartitionedCall/center_net_mobile_net_v2fpn_feature_extractor/model_1/model/expanded_conv_project/Conv2D_weights","op":"Const","attr":{"value":{"tensor":{"dtype":"DT_FLOAT","tensorShape":{"dim":[{"size":"1"},{"size":"1"},{"size":"48"},{"size":"24"}]}}},"dtype":{"type":"DT_FLOAT"}}},
          {"name":"StatefulPartitionedCall/center_net_mobile_net_v2fpn_feature_extractor/model_1/model/expanded_conv_project/Conv2D_bn_offset","op":"Const","attr":{"value":{"tensor":{"dtype":"DT_FLOAT","tensorShape":{"dim":[{"size":"24"}]}}},"dtype":{"type":"DT_FLOAT"}}},
          {"name":"StatefulPartitionedCall/center_net_mobile_net_v2fpn_feature_extractor/model_1/model/block_1_expand/Conv2D_weights","op":"Const","attr":{"value":{"tensor":{"dtype":"DT_FLOAT","tensorShape":{"dim":[{"size":"1"},{"size":"1"},{"size":"24"},{"size":"144"}]}}},"dtype":{"type":"DT_FLOAT"}}},
          {"name":"StatefulPartitionedCall/center_net_mobile_net_v2fpn_feature_extractor/model_1/model/block_1_expand/Conv2D_bn_offset","op":"Const","attr":{"dtype":{"type":"DT_FLOAT"},"value":{"tensor":{"dtype":"DT_FLOAT","tensorShape":{"dim":[{"size":"144"}]}}}}},
          {"name":"StatefulPartitionedCall/center_net_mobile_net_v2fpn_feature_extractor/model_1/model/block_1_depthwise/depthwise_weights","op":"Const","attr":{"value":{"tensor":{"dtype":"DT_FLOAT","tensorShape":{"dim":[{"size":"3"},{"size":"3"},{"size":"144"},{"size":"1"}]}}},"dtype":{"type":"DT_FLOAT"}}},
          {"name":"StatefulPartitionedCall/center_net_mobile_net_v2fpn_feature_extractor/model_1/model/block_1_depthwise/depthwise_bn_offset","op":"Const","attr":{"dtype":{"type":"DT_FLOAT"},"value":{"tensor":{"dtype":"DT_FLOAT","tensorShape":{"dim":[{"size":"144"}]}}}}},
          {"name":"StatefulPartitionedCall/center_net_mobile_net_v2fpn_feature_extractor/model_1/model/block_1_project/Conv2D_weights","op":"Const","attr":{"value":{"tensor":{"dtype":"DT_FLOAT","tensorShape":{"dim":[{"size":"1"},{"size":"1"},{"size":"144"},{"size":"40"}]}}},"dtype":{"type":"DT_FLOAT"}}},
          {"name":"StatefulPartitionedCall/center_net_mobile_net_v2fpn_feature_extractor/model_1/model/block_1_project/Conv2D_bn_offset","op":"Const","attr":{"value":{"tensor":{"dtype":"DT_FLOAT","tensorShape":{"dim":[{"size":"40"}]}}},"dtype":{"type":"DT_FLOAT"}}},
          {"name":"StatefulPartitionedCall/center_net_mobile_net_v2fpn_feature_extractor/model_1/model/block_2_expand/Conv2D_weights","op":"Const","attr":{"value":{"tensor":{"dtype":"DT_FLOAT","tensorShape":{"dim":[{"size":"1"},{"size":"1"},{"size":"40"},{"size":"240"}]}}},"dtype":{"type":"DT_FLOAT"}}},
          {"name":"StatefulPartitionedCall/center_net_mobile_net_v2fpn_feature_extractor/model_1/model/block_2_expand/Conv2D_bn_offset","op":"Const","attr":{"dtype":{"type":"DT_FLOAT"},"value":{"tensor":{"dtype":"DT_FLOAT","tensorShape":{"dim":[{"size":"240"}]}}}}},
          {"name":"StatefulPartitionedCall/center_net_mobile_net_v2fpn_feature_extractor/model_1/model/block_2_depthwise/depthwise_weights","op":"Const","attr":{"value":{"tensor":{"dtype":"DT_FLOAT","tensorShape":{"dim":[{"size":"3"},{"size":"3"},{"size":"240"},{"size":"1"}]}}},"dtype":{"type":"DT_FLOAT"}}},
          {"name":"StatefulPartitionedCall/center_net_mobile_net_v2fpn_feature_extractor/model_1/model/block_2_depthwise/depthwise_bn_offset","op":"Const","attr":{"dtype":{"type":"DT_FLOAT"},"value":{"tensor":{"dtype":"DT_FLOAT","tensorShape":{"dim":[{"size":"240"}]}}}}},
          {"name":"StatefulPartitionedCall/center_net_mobile_net_v2fpn_feature_extractor/model_1/model/block_2_project/Conv2D_weights","op":"Const","attr":{"value":{"tensor":{"dtype":"DT_FLOAT","tensorShape":{"dim":[{"size":"1"},{"size":"1"},{"size":"240"},{"size":"40"}]}}},"dtype":{"type":"DT_FLOAT"}}},
          {"name":"StatefulPartitionedCall/center_net_mobile_net_v2fpn_feature_extractor/model_1/model/block_2_project/Conv2D_bn_offset","op":"Const","attr":{"dtype":{"type":"DT_FLOAT"},"value":{"tensor":{"dtype":"DT_FLOAT","tensorShape":{"dim":[{"size":"40"}]}}}}},
          {"name":"StatefulPartitionedCall/center_net_mobile_net_v2fpn_feature_extractor/model_1/model/block_3_expand/Conv2D_weights","op":"Const","attr":{"dtype":{"type":"DT_FLOAT"},"value":{"tensor":{"dtype":"DT_FLOAT","tensorShape":{"dim":[{"size":"1"},{"size":"1"},{"size":"40"},{"size":"240"}]}}}}},
          {"name":"StatefulPartitionedCall/center_net_mobile_net_v2fpn_feature_extractor/model_1/model/block_3_expand/Conv2D_bn_offset","op":"Const","attr":{"dtype":{"type":"DT_FLOAT"},"value":{"tensor":{"dtype":"DT_FLOAT","tensorShape":{"dim":[{"size":"240"}]}}}}},
          {"name":"StatefulPartitionedCall/center_net_mobile_net_v2fpn_feature_extractor/model_1/model/block_3_depthwise/depthwise_weights","op":"Const","attr":{"value":{"tensor":{"dtype":"DT_FLOAT","tensorShape":{"dim":[{"size":"3"},{"size":"3"},{"size":"240"},{"size":"1"}]}}},"dtype":{"type":"DT_FLOAT"}}},
          {"name":"StatefulPartitionedCall/center_net_mobile_net_v2fpn_feature_extractor/model_1/model/block_3_depthwise/depthwise_bn_offset","op":"Const","attr":{"value":{"tensor":{"dtype":"DT_FLOAT","tensorShape":{"dim":[{"size":"240"}]}}},"dtype":{"type":"DT_FLOAT"}}},
          {"name":"StatefulPartitionedCall/center_net_mobile_net_v2fpn_feature_extractor/model_1/model/block_3_project/Conv2D_weights","op":"Const","attr":{"value":{"tensor":{"dtype":"DT_FLOAT","tensorShape":{"dim":[{"size":"1"},{"size":"1"},{"size":"240"},{"size":"48"}]}}},"dtype":{"type":"DT_FLOAT"}}},
          {"name":"StatefulPartitionedCall/center_net_mobile_net_v2fpn_feature_extractor/model_1/model/block_3_project/Conv2D_bn_offset","op":"Const","attr":{"value":{"tensor":{"dtype":"DT_FLOAT","tensorShape":{"dim":[{"size":"48"}]}}},"dtype":{"type":"DT_FLOAT"}}},
          {"name":"StatefulPartitionedCall/center_net_mobile_net_v2fpn_feature_extractor/model_1/model/block_4_expand/Conv2D_weights","op":"Const","attr":{"value":{"tensor":{"dtype":"DT_FLOAT","tensorShape":{"dim":[{"size":"1"},{"size":"1"},{"size":"48"},{"size":"288"}]}}},"dtype":{"type":"DT_FLOAT"}}},
          {"name":"StatefulPartitionedCall/center_net_mobile_net_v2fpn_feature_extractor/model_1/model/block_4_expand/Conv2D_bn_offset","op":"Const","attr":{"value":{"tensor":{"dtype":"DT_FLOAT","tensorShape":{"dim":[{"size":"288"}]}}},"dtype":{"type":"DT_FLOAT"}}},
          {"name":"StatefulPartitionedCall/center_net_mobile_net_v2fpn_feature_extractor/model_1/model/block_4_depthwise/depthwise_weights","op":"Const","attr":{"dtype":{"type":"DT_FLOAT"},"value":{"tensor":{"dtype":"DT_FLOAT","tensorShape":{"dim":[{"size":"3"},{"size":"3"},{"size":"288"},{"size":"1"}]}}}}},
          {"name":"StatefulPartitionedCall/center_net_mobile_net_v2fpn_feature_extractor/model_1/model/block_4_depthwise/depthwise_bn_offset","op":"Const","attr":{"value":{"tensor":{"dtype":"DT_FLOAT","tensorShape":{"dim":[{"size":"288"}]}}},"dtype":{"type":"DT_FLOAT"}}},
          {"name":"StatefulPartitionedCall/center_net_mobile_net_v2fpn_feature_extractor/model_1/model/block_4_project/Conv2D_weights","op":"Const","attr":{"dtype":{"type":"DT_FLOAT"},"value":{"tensor":{"dtype":"DT_FLOAT","tensorShape":{"dim":[{"size":"1"},{"size":"1"},{"size":"288"},{"size":"48"}]}}}}},
          {"name":"StatefulPartitionedCall/center_net_mobile_net_v2fpn_feature_extractor/model_1/model/block_4_project/Conv2D_bn_offset","op":"Const","attr":{"dtype":{"type":"DT_FLOAT"},"value":{"tensor":{"dtype":"DT_FLOAT","tensorShape":{"dim":[{"size":"48"}]}}}}},
          {"name":"StatefulPartitionedCall/center_net_mobile_net_v2fpn_feature_extractor/model_1/model/block_5_expand/Conv2D_weights","op":"Const","attr":{"value":{"tensor":{"dtype":"DT_FLOAT","tensorShape":{"dim":[{"size":"1"},{"size":"1"},{"size":"48"},{"size":"288"}]}}},"dtype":{"type":"DT_FLOAT"}}},
          {"name":"StatefulPartitionedCall/center_net_mobile_net_v2fpn_feature_extractor/model_1/model/block_5_expand/Conv2D_bn_offset","op":"Const","attr":{"dtype":{"type":"DT_FLOAT"},"value":{"tensor":{"dtype":"DT_FLOAT","tensorShape":{"dim":[{"size":"288"}]}}}}},
          {"name":"StatefulPartitionedCall/center_net_mobile_net_v2fpn_feature_extractor/model_1/model/block_5_depthwise/depthwise_weights","op":"Const","attr":{"value":{"tensor":{"dtype":"DT_FLOAT","tensorShape":{"dim":[{"size":"3"},{"size":"3"},{"size":"288"},{"size":"1"}]}}},"dtype":{"type":"DT_FLOAT"}}},
          {"name":"StatefulPartitionedCall/center_net_mobile_net_v2fpn_feature_extractor/model_1/model/block_5_depthwise/depthwise_bn_offset","op":"Const","attr":{"value":{"tensor":{"dtype":"DT_FLOAT","tensorShape":{"dim":[{"size":"288"}]}}},"dtype":{"type":"DT_FLOAT"}}},
          {"name":"StatefulPartitionedCall/center_net_mobile_net_v2fpn_feature_extractor/model_1/model/block_5_project/Conv2D_weights","op":"Const","attr":{"value":{"tensor":{"dtype":"DT_FLOAT","tensorShape":{"dim":[{"size":"1"},{"size":"1"},{"size":"288"},{"size":"48"}]}}},"dtype":{"type":"DT_FLOAT"}}},
          {"name":"StatefulPartitionedCall/center_net_mobile_net_v2fpn_feature_extractor/model_1/model/block_5_project/Conv2D_bn_offset","op":"Const","attr":{"dtype":{"type":"DT_FLOAT"},"value":{"tensor":{"dtype":"DT_FLOAT","tensorShape":{"dim":[{"size":"48"}]}}}}},
          {"name":"StatefulPartitionedCall/center_net_mobile_net_v2fpn_feature_extractor/model_1/model/block_6_expand/Conv2D_weights","op":"Const","attr":{"value":{"tensor":{"dtype":"DT_FLOAT","tensorShape":{"dim":[{"size":"1"},{"size":"1"},{"size":"48"},{"size":"288"}]}}},"dtype":{"type":"DT_FLOAT"}}},
          {"name":"StatefulPartitionedCall/center_net_mobile_net_v2fpn_feature_extractor/model_1/model/block_6_expand/Conv2D_bn_offset","op":"Const","attr":{"dtype":{"type":"DT_FLOAT"},"value":{"tensor":{"dtype":"DT_FLOAT","tensorShape":{"dim":[{"size":"288"}]}}}}},
          {"name":"StatefulPartitionedCall/center_net_mobile_net_v2fpn_feature_extractor/model_1/model/block_6_depthwise/depthwise_weights","op":"Const","attr":{"value":{"tensor":{"dtype":"DT_FLOAT","tensorShape":{"dim":[{"size":"3"},{"size":"3"},{"size":"288"},{"size":"1"}]}}},"dtype":{"type":"DT_FLOAT"}}},
          {"name":"StatefulPartitionedCall/center_net_mobile_net_v2fpn_feature_extractor/model_1/model/block_6_depthwise/depthwise_bn_offset","op":"Const","attr":{"dtype":{"type":"DT_FLOAT"},"value":{"tensor":{"dtype":"DT_FLOAT","tensorShape":{"dim":[{"size":"288"}]}}}}},
          {"name":"StatefulPartitionedCall/center_net_mobile_net_v2fpn_feature_extractor/model_1/model/block_6_project/Conv2D_weights","op":"Const","attr":{"value":{"tensor":{"dtype":"DT_FLOAT","tensorShape":{"dim":[{"size":"1"},{"size":"1"},{"size":"288"},{"size":"96"}]}}},"dtype":{"type":"DT_FLOAT"}}},
          {"name":"StatefulPartitionedCall/center_net_mobile_net_v2fpn_feature_extractor/model_1/model/block_6_project/Conv2D_bn_offset","op":"Const","attr":{"value":{"tensor":{"dtype":"DT_FLOAT","tensorShape":{"dim":[{"size":"96"}]}}},"dtype":{"type":"DT_FLOAT"}}},
          {"name":"StatefulPartitionedCall/center_net_mobile_net_v2fpn_feature_extractor/model_1/model/block_7_expand/Conv2D_weights","op":"Const","attr":{"value":{"tensor":{"dtype":"DT_FLOAT","tensorShape":{"dim":[{"size":"1"},{"size":"1"},{"size":"96"},{"size":"576"}]}}},"dtype":{"type":"DT_FLOAT"}}},
          {"name":"StatefulPartitionedCall/center_net_mobile_net_v2fpn_feature_extractor/model_1/model/block_7_expand/Conv2D_bn_offset","op":"Const","attr":{"dtype":{"type":"DT_FLOAT"},"value":{"tensor":{"dtype":"DT_FLOAT","tensorShape":{"dim":[{"size":"576"}]}}}}},
          {"name":"StatefulPartitionedCall/center_net_mobile_net_v2fpn_feature_extractor/model_1/model/block_7_depthwise/depthwise_weights","op":"Const","attr":{"value":{"tensor":{"dtype":"DT_FLOAT","tensorShape":{"dim":[{"size":"3"},{"size":"3"},{"size":"576"},{"size":"1"}]}}},"dtype":{"type":"DT_FLOAT"}}},
          {"name":"StatefulPartitionedCall/center_net_mobile_net_v2fpn_feature_extractor/model_1/model/block_7_depthwise/depthwise_bn_offset","op":"Const","attr":{"dtype":{"type":"DT_FLOAT"},"value":{"tensor":{"dtype":"DT_FLOAT","tensorShape":{"dim":[{"size":"576"}]}}}}},
          {"name":"StatefulPartitionedCall/center_net_mobile_net_v2fpn_feature_extractor/model_1/model/block_7_project/Conv2D_weights","op":"Const","attr":{"dtype":{"type":"DT_FLOAT"},"value":{"tensor":{"dtype":"DT_FLOAT","tensorShape":{"dim":[{"size":"1"},{"size":"1"},{"size":"576"},{"size":"96"}]}}}}},
          {"name":"StatefulPartitionedCall/center_net_mobile_net_v2fpn_feature_extractor/model_1/model/block_7_project/Conv2D_bn_offset","op":"Const","attr":{"dtype":{"type":"DT_FLOAT"},"value":{"tensor":{"dtype":"DT_FLOAT","tensorShape":{"dim":[{"size":"96"}]}}}}},
          {"name":"StatefulPartitionedCall/center_net_mobile_net_v2fpn_feature_extractor/model_1/model/block_8_expand/Conv2D_weights","op":"Const","attr":{"value":{"tensor":{"dtype":"DT_FLOAT","tensorShape":{"dim":[{"size":"1"},{"size":"1"},{"size":"96"},{"size":"576"}]}}},"dtype":{"type":"DT_FLOAT"}}},
          {"name":"StatefulPartitionedCall/center_net_mobile_net_v2fpn_feature_extractor/model_1/model/block_8_expand/Conv2D_bn_offset","op":"Const","attr":{"dtype":{"type":"DT_FLOAT"},"value":{"tensor":{"dtype":"DT_FLOAT","tensorShape":{"dim":[{"size":"576"}]}}}}},
          {"name":"StatefulPartitionedCall/center_net_mobile_net_v2fpn_feature_extractor/model_1/model/block_8_depthwise/depthwise_weights","op":"Const","attr":{"dtype":{"type":"DT_FLOAT"},"value":{"tensor":{"dtype":"DT_FLOAT","tensorShape":{"dim":[{"size":"3"},{"size":"3"},{"size":"576"},{"size":"1"}]}}}}},
          {"name":"StatefulPartitionedCall/center_net_mobile_net_v2fpn_feature_extractor/model_1/model/block_8_depthwise/depthwise_bn_offset","op":"Const","attr":{"value":{"tensor":{"dtype":"DT_FLOAT","tensorShape":{"dim":[{"size":"576"}]}}},"dtype":{"type":"DT_FLOAT"}}},
          {"name":"StatefulPartitionedCall/center_net_mobile_net_v2fpn_feature_extractor/model_1/model/block_8_project/Conv2D_weights","op":"Const","attr":{"value":{"tensor":{"dtype":"DT_FLOAT","tensorShape":{"dim":[{"size":"1"},{"size":"1"},{"size":"576"},{"size":"96"}]}}},"dtype":{"type":"DT_FLOAT"}}},
          {"name":"StatefulPartitionedCall/center_net_mobile_net_v2fpn_feature_extractor/model_1/model/block_8_project/Conv2D_bn_offset","op":"Const","attr":{"value":{"tensor":{"dtype":"DT_FLOAT","tensorShape":{"dim":[{"size":"96"}]}}},"dtype":{"type":"DT_FLOAT"}}},
          {"name":"StatefulPartitionedCall/center_net_mobile_net_v2fpn_feature_extractor/model_1/model/block_9_expand/Conv2D_weights","op":"Const","attr":{"value":{"tensor":{"dtype":"DT_FLOAT","tensorShape":{"dim":[{"size":"1"},{"size":"1"},{"size":"96"},{"size":"576"}]}}},"dtype":{"type":"DT_FLOAT"}}},
          {"name":"StatefulPartitionedCall/center_net_mobile_net_v2fpn_feature_extractor/model_1/model/block_9_expand/Conv2D_bn_offset","op":"Const","attr":{"dtype":{"type":"DT_FLOAT"},"value":{"tensor":{"dtype":"DT_FLOAT","tensorShape":{"dim":[{"size":"576"}]}}}}},
          {"name":"StatefulPartitionedCall/center_net_mobile_net_v2fpn_feature_extractor/model_1/model/block_9_depthwise/depthwise_weights","op":"Const","attr":{"value":{"tensor":{"dtype":"DT_FLOAT","tensorShape":{"dim":[{"size":"3"},{"size":"3"},{"size":"576"},{"size":"1"}]}}},"dtype":{"type":"DT_FLOAT"}}},
          {"name":"StatefulPartitionedCall/center_net_mobile_net_v2fpn_feature_extractor/model_1/model/block_9_depthwise/depthwise_bn_offset","op":"Const","attr":{"dtype":{"type":"DT_FLOAT"},"value":{"tensor":{"dtype":"DT_FLOAT","tensorShape":{"dim":[{"size":"576"}]}}}}},
          {"name":"StatefulPartitionedCall/center_net_mobile_net_v2fpn_feature_extractor/model_1/model/block_9_project/Conv2D_weights","op":"Const","attr":{"dtype":{"type":"DT_FLOAT"},"value":{"tensor":{"dtype":"DT_FLOAT","tensorShape":{"dim":[{"size":"1"},{"size":"1"},{"size":"576"},{"size":"96"}]}}}}},
          {"name":"StatefulPartitionedCall/center_net_mobile_net_v2fpn_feature_extractor/model_1/model/block_9_project/Conv2D_bn_offset","op":"Const","attr":{"value":{"tensor":{"dtype":"DT_FLOAT","tensorShape":{"dim":[{"size":"96"}]}}},"dtype":{"type":"DT_FLOAT"}}},
          {"name":"StatefulPartitionedCall/center_net_mobile_net_v2fpn_feature_extractor/model_1/model/block_10_expand/Conv2D_weights","op":"Const","attr":{"value":{"tensor":{"dtype":"DT_FLOAT","tensorShape":{"dim":[{"size":"1"},{"size":"1"},{"size":"96"},{"size":"576"}]}}},"dtype":{"type":"DT_FLOAT"}}},
          {"name":"StatefulPartitionedCall/center_net_mobile_net_v2fpn_feature_extractor/model_1/model/block_10_expand/Conv2D_bn_offset","op":"Const","attr":{"dtype":{"type":"DT_FLOAT"},"value":{"tensor":{"dtype":"DT_FLOAT","tensorShape":{"dim":[{"size":"576"}]}}}}},
          {"name":"StatefulPartitionedCall/center_net_mobile_net_v2fpn_feature_extractor/model_1/model/block_10_depthwise/depthwise_weights","op":"Const","attr":{"dtype":{"type":"DT_FLOAT"},"value":{"tensor":{"dtype":"DT_FLOAT","tensorShape":{"dim":[{"size":"3"},{"size":"3"},{"size":"576"},{"size":"1"}]}}}}},
          {"name":"StatefulPartitionedCall/center_net_mobile_net_v2fpn_feature_extractor/model_1/model/block_10_depthwise/depthwise_bn_offset","op":"Const","attr":{"dtype":{"type":"DT_FLOAT"},"value":{"tensor":{"dtype":"DT_FLOAT","tensorShape":{"dim":[{"size":"576"}]}}}}},
          {"name":"StatefulPartitionedCall/center_net_mobile_net_v2fpn_feature_extractor/model_1/model/block_10_project/Conv2D_weights","op":"Const","attr":{"dtype":{"type":"DT_FLOAT"},"value":{"tensor":{"dtype":"DT_FLOAT","tensorShape":{"dim":[{"size":"1"},{"size":"1"},{"size":"576"},{"size":"144"}]}}}}},
          {"name":"StatefulPartitionedCall/center_net_mobile_net_v2fpn_feature_extractor/model_1/model/block_10_project/Conv2D_bn_offset","op":"Const","attr":{"dtype":{"type":"DT_FLOAT"},"value":{"tensor":{"dtype":"DT_FLOAT","tensorShape":{"dim":[{"size":"144"}]}}}}},
          {"name":"StatefulPartitionedCall/center_net_mobile_net_v2fpn_feature_extractor/model_1/model/block_11_expand/Conv2D_weights","op":"Const","attr":{"dtype":{"type":"DT_FLOAT"},"value":{"tensor":{"dtype":"DT_FLOAT","tensorShape":{"dim":[{"size":"1"},{"size":"1"},{"size":"144"},{"size":"864"}]}}}}},
          {"name":"StatefulPartitionedCall/center_net_mobile_net_v2fpn_feature_extractor/model_1/model/block_11_expand/Conv2D_bn_offset","op":"Const","attr":{"dtype":{"type":"DT_FLOAT"},"value":{"tensor":{"dtype":"DT_FLOAT","tensorShape":{"dim":[{"size":"864"}]}}}}},
          {"name":"StatefulPartitionedCall/center_net_mobile_net_v2fpn_feature_extractor/model_1/model/block_11_depthwise/depthwise_weights","op":"Const","attr":{"value":{"tensor":{"dtype":"DT_FLOAT","tensorShape":{"dim":[{"size":"3"},{"size":"3"},{"size":"864"},{"size":"1"}]}}},"dtype":{"type":"DT_FLOAT"}}},
          {"name":"StatefulPartitionedCall/center_net_mobile_net_v2fpn_feature_extractor/model_1/model/block_11_depthwise/depthwise_bn_offset","op":"Const","attr":{"dtype":{"type":"DT_FLOAT"},"value":{"tensor":{"dtype":"DT_FLOAT","tensorShape":{"dim":[{"size":"864"}]}}}}},
          {"name":"StatefulPartitionedCall/center_net_mobile_net_v2fpn_feature_extractor/model_1/model/block_11_project/Conv2D_weights","op":"Const","attr":{"value":{"tensor":{"dtype":"DT_FLOAT","tensorShape":{"dim":[{"size":"1"},{"size":"1"},{"size":"864"},{"size":"144"}]}}},"dtype":{"type":"DT_FLOAT"}}},
          {"name":"StatefulPartitionedCall/center_net_mobile_net_v2fpn_feature_extractor/model_1/model/block_11_project/Conv2D_bn_offset","op":"Const","attr":{"value":{"tensor":{"dtype":"DT_FLOAT","tensorShape":{"dim":[{"size":"144"}]}}},"dtype":{"type":"DT_FLOAT"}}},
          {"name":"StatefulPartitionedCall/center_net_mobile_net_v2fpn_feature_extractor/model_1/model/block_12_expand/Conv2D_weights","op":"Const","attr":{"value":{"tensor":{"dtype":"DT_FLOAT","tensorShape":{"dim":[{"size":"1"},{"size":"1"},{"size":"144"},{"size":"864"}]}}},"dtype":{"type":"DT_FLOAT"}}},
          {"name":"StatefulPartitionedCall/center_net_mobile_net_v2fpn_feature_extractor/model_1/model/block_12_expand/Conv2D_bn_offset","op":"Const","attr":{"dtype":{"type":"DT_FLOAT"},"value":{"tensor":{"dtype":"DT_FLOAT","tensorShape":{"dim":[{"size":"864"}]}}}}},
          {"name":"StatefulPartitionedCall/center_net_mobile_net_v2fpn_feature_extractor/model_1/model/block_12_depthwise/depthwise_weights","op":"Const","attr":{"dtype":{"type":"DT_FLOAT"},"value":{"tensor":{"dtype":"DT_FLOAT","tensorShape":{"dim":[{"size":"3"},{"size":"3"},{"size":"864"},{"size":"1"}]}}}}},
          {"name":"StatefulPartitionedCall/center_net_mobile_net_v2fpn_feature_extractor/model_1/model/block_12_depthwise/depthwise_bn_offset","op":"Const","attr":{"value":{"tensor":{"dtype":"DT_FLOAT","tensorShape":{"dim":[{"size":"864"}]}}},"dtype":{"type":"DT_FLOAT"}}},
          {"name":"StatefulPartitionedCall/center_net_mobile_net_v2fpn_feature_extractor/model_1/model/block_12_project/Conv2D_weights","op":"Const","attr":{"value":{"tensor":{"dtype":"DT_FLOAT","tensorShape":{"dim":[{"size":"1"},{"size":"1"},{"size":"864"},{"size":"144"}]}}},"dtype":{"type":"DT_FLOAT"}}},
          {"name":"StatefulPartitionedCall/center_net_mobile_net_v2fpn_feature_extractor/model_1/model/block_12_project/Conv2D_bn_offset","op":"Const","attr":{"value":{"tensor":{"dtype":"DT_FLOAT","tensorShape":{"dim":[{"size":"144"}]}}},"dtype":{"type":"DT_FLOAT"}}},
          {"name":"StatefulPartitionedCall/center_net_mobile_net_v2fpn_feature_extractor/model_1/model/block_13_expand/Conv2D_weights","op":"Const","attr":{"dtype":{"type":"DT_FLOAT"},"value":{"tensor":{"dtype":"DT_FLOAT","tensorShape":{"dim":[{"size":"1"},{"size":"1"},{"size":"144"},{"size":"864"}]}}}}},
          {"name":"StatefulPartitionedCall/center_net_mobile_net_v2fpn_feature_extractor/model_1/model/block_13_expand/Conv2D_bn_offset","op":"Const","attr":{"dtype":{"type":"DT_FLOAT"},"value":{"tensor":{"dtype":"DT_FLOAT","tensorShape":{"dim":[{"size":"864"}]}}}}},
          {"name":"StatefulPartitionedCall/center_net_mobile_net_v2fpn_feature_extractor/model_1/model/block_13_depthwise/depthwise_weights","op":"Const","attr":{"dtype":{"type":"DT_FLOAT"},"value":{"tensor":{"dtype":"DT_FLOAT","tensorShape":{"dim":[{"size":"3"},{"size":"3"},{"size":"864"},{"size":"1"}]}}}}},
          {"name":"StatefulPartitionedCall/center_net_mobile_net_v2fpn_feature_extractor/model_1/model/block_13_depthwise/depthwise_bn_offset","op":"Const","attr":{"dtype":{"type":"DT_FLOAT"},"value":{"tensor":{"dtype":"DT_FLOAT","tensorShape":{"dim":[{"size":"864"}]}}}}},
          {"name":"StatefulPartitionedCall/center_net_mobile_net_v2fpn_feature_extractor/model_1/model/block_13_project/Conv2D_weights","op":"Const","attr":{"dtype":{"type":"DT_FLOAT"},"value":{"tensor":{"dtype":"DT_FLOAT","tensorShape":{"dim":[{"size":"1"},{"size":"1"},{"size":"864"},{"size":"240"}]}}}}},
          {"name":"StatefulPartitionedCall/center_net_mobile_net_v2fpn_feature_extractor/model_1/model/block_13_project/Conv2D_bn_offset","op":"Const","attr":{"value":{"tensor":{"dtype":"DT_FLOAT","tensorShape":{"dim":[{"size":"240"}]}}},"dtype":{"type":"DT_FLOAT"}}},
          {"name":"StatefulPartitionedCall/center_net_mobile_net_v2fpn_feature_extractor/model_1/model/block_14_expand/Conv2D_weights","op":"Const","attr":{"dtype":{"type":"DT_FLOAT"},"value":{"tensor":{"dtype":"DT_FLOAT","tensorShape":{"dim":[{"size":"1"},{"size":"1"},{"size":"240"},{"size":"1440"}]}}}}},
          {"name":"StatefulPartitionedCall/center_net_mobile_net_v2fpn_feature_extractor/model_1/model/block_14_expand/Conv2D_bn_offset","op":"Const","attr":{"dtype":{"type":"DT_FLOAT"},"value":{"tensor":{"dtype":"DT_FLOAT","tensorShape":{"dim":[{"size":"1440"}]}}}}},
          {"name":"StatefulPartitionedCall/center_net_mobile_net_v2fpn_feature_extractor/model_1/model/block_14_depthwise/depthwise_weights","op":"Const","attr":{"dtype":{"type":"DT_FLOAT"},"value":{"tensor":{"dtype":"DT_FLOAT","tensorShape":{"dim":[{"size":"3"},{"size":"3"},{"size":"1440"},{"size":"1"}]}}}}},
          {"name":"StatefulPartitionedCall/center_net_mobile_net_v2fpn_feature_extractor/model_1/model/block_14_depthwise/depthwise_bn_offset","op":"Const","attr":{"dtype":{"type":"DT_FLOAT"},"value":{"tensor":{"dtype":"DT_FLOAT","tensorShape":{"dim":[{"size":"1440"}]}}}}},
          {"name":"StatefulPartitionedCall/center_net_mobile_net_v2fpn_feature_extractor/model_1/model/block_14_project/Conv2D_weights","op":"Const","attr":{"dtype":{"type":"DT_FLOAT"},"value":{"tensor":{"dtype":"DT_FLOAT","tensorShape":{"dim":[{"size":"1"},{"size":"1"},{"size":"1440"},{"size":"240"}]}}}}},
          {"name":"StatefulPartitionedCall/center_net_mobile_net_v2fpn_feature_extractor/model_1/model/block_14_project/Conv2D_bn_offset","op":"Const","attr":{"value":{"tensor":{"dtype":"DT_FLOAT","tensorShape":{"dim":[{"size":"240"}]}}},"dtype":{"type":"DT_FLOAT"}}},
          {"name":"StatefulPartitionedCall/center_net_mobile_net_v2fpn_feature_extractor/model_1/model/block_15_expand/Conv2D_weights","op":"Const","attr":{"dtype":{"type":"DT_FLOAT"},"value":{"tensor":{"dtype":"DT_FLOAT","tensorShape":{"dim":[{"size":"1"},{"size":"1"},{"size":"240"},{"size":"1440"}]}}}}},
          {"name":"StatefulPartitionedCall/center_net_mobile_net_v2fpn_feature_extractor/model_1/model/block_15_expand/Conv2D_bn_offset","op":"Const","attr":{"dtype":{"type":"DT_FLOAT"},"value":{"tensor":{"dtype":"DT_FLOAT","tensorShape":{"dim":[{"size":"1440"}]}}}}},
          {"name":"StatefulPartitionedCall/center_net_mobile_net_v2fpn_feature_extractor/model_1/model/block_15_depthwise/depthwise_weights","op":"Const","attr":{"value":{"tensor":{"dtype":"DT_FLOAT","tensorShape":{"dim":[{"size":"3"},{"size":"3"},{"size":"1440"},{"size":"1"}]}}},"dtype":{"type":"DT_FLOAT"}}},
          {"name":"StatefulPartitionedCall/center_net_mobile_net_v2fpn_feature_extractor/model_1/model/block_15_depthwise/depthwise_bn_offset","op":"Const","attr":{"dtype":{"type":"DT_FLOAT"},"value":{"tensor":{"dtype":"DT_FLOAT","tensorShape":{"dim":[{"size":"1440"}]}}}}},
          {"name":"StatefulPartitionedCall/center_net_mobile_net_v2fpn_feature_extractor/model_1/model/block_15_project/Conv2D_weights","op":"Const","attr":{"dtype":{"type":"DT_FLOAT"},"value":{"tensor":{"dtype":"DT_FLOAT","tensorShape":{"dim":[{"size":"1"},{"size":"1"},{"size":"1440"},{"size":"240"}]}}}}},
          {"name":"StatefulPartitionedCall/center_net_mobile_net_v2fpn_feature_extractor/model_1/model/block_15_project/Conv2D_bn_offset","op":"Const","attr":{"dtype":{"type":"DT_FLOAT"},"value":{"tensor":{"dtype":"DT_FLOAT","tensorShape":{"dim":[{"size":"240"}]}}}}},
          {"name":"StatefulPartitionedCall/center_net_mobile_net_v2fpn_feature_extractor/model_1/model/block_16_expand/Conv2D_weights","op":"Const","attr":{"dtype":{"type":"DT_FLOAT"},"value":{"tensor":{"dtype":"DT_FLOAT","tensorShape":{"dim":[{"size":"1"},{"size":"1"},{"size":"240"},{"size":"1440"}]}}}}},
          {"name":"StatefulPartitionedCall/center_net_mobile_net_v2fpn_feature_extractor/model_1/model/block_16_expand/Conv2D_bn_offset","op":"Const","attr":{"dtype":{"type":"DT_FLOAT"},"value":{"tensor":{"dtype":"DT_FLOAT","tensorShape":{"dim":[{"size":"1440"}]}}}}},
          {"name":"StatefulPartitionedCall/center_net_mobile_net_v2fpn_feature_extractor/model_1/model/block_16_depthwise/depthwise_weights","op":"Const","attr":{"value":{"tensor":{"dtype":"DT_FLOAT","tensorShape":{"dim":[{"size":"3"},{"size":"3"},{"size":"1440"},{"size":"1"}]}}},"dtype":{"type":"DT_FLOAT"}}},
          {"name":"StatefulPartitionedCall/center_net_mobile_net_v2fpn_feature_extractor/model_1/model/block_16_depthwise/depthwise_bn_offset","op":"Const","attr":{"dtype":{"type":"DT_FLOAT"},"value":{"tensor":{"dtype":"DT_FLOAT","tensorShape":{"dim":[{"size":"1440"}]}}}}},
          {"name":"StatefulPartitionedCall/center_net_mobile_net_v2fpn_feature_extractor/model_1/model/block_16_project/Conv2D_weights","op":"Const","attr":{"value":{"tensor":{"dtype":"DT_FLOAT","tensorShape":{"dim":[{"size":"1"},{"size":"1"},{"size":"1440"},{"size":"480"}]}}},"dtype":{"type":"DT_FLOAT"}}},
          {"name":"StatefulPartitionedCall/center_net_mobile_net_v2fpn_feature_extractor/model_1/model/block_16_project/Conv2D_bn_offset","op":"Const","attr":{"dtype":{"type":"DT_FLOAT"},"value":{"tensor":{"dtype":"DT_FLOAT","tensorShape":{"dim":[{"size":"480"}]}}}}},
          {"name":"StatefulPartitionedCall/center_net_mobile_net_v2fpn_feature_extractor/model_1/model/Conv_1/Conv2D_weights","op":"Const","attr":{"value":{"tensor":{"dtype":"DT_FLOAT","tensorShape":{"dim":[{"size":"1"},{"size":"1"},{"size":"480"},{"size":"1280"}]}}},"dtype":{"type":"DT_FLOAT"}}},
          {"name":"StatefulPartitionedCall/center_net_mobile_net_v2fpn_feature_extractor/model_1/model/Conv_1/Conv2D_bn_offset","op":"Const","attr":{"value":{"tensor":{"dtype":"DT_FLOAT","tensorShape":{"dim":[{"size":"1280"}]}}},"dtype":{"type":"DT_FLOAT"}}},
          {"name":"StatefulPartitionedCall/center_net_mobile_net_v2fpn_feature_extractor/model_1/separable_conv2d/separable_conv2d_weights","op":"Const","attr":{"value":{"tensor":{"dtype":"DT_FLOAT","tensorShape":{"dim":[{"size":"1"},{"size":"1"},{"size":"64"},{"size":"32"}]}}},"dtype":{"type":"DT_FLOAT"}}},
          {"name":"StatefulPartitionedCall/center_net_mobile_net_v2fpn_feature_extractor/model_1/separable_conv2d/separable_conv2d_bn_offset","op":"Const","attr":{"value":{"tensor":{"dtype":"DT_FLOAT","tensorShape":{"dim":[{"size":"32"}]}}},"dtype":{"type":"DT_FLOAT"}}},
          {"name":"StatefulPartitionedCall/center_net_mobile_net_v2fpn_feature_extractor/model_1/separable_conv2d_1/separable_conv2d_weights","op":"Const","attr":{"dtype":{"type":"DT_FLOAT"},"value":{"tensor":{"dtype":"DT_FLOAT","tensorShape":{"dim":[{"size":"1"},{"size":"1"},{"size":"32"},{"size":"24"}]}}}}},
          {"name":"StatefulPartitionedCall/center_net_mobile_net_v2fpn_feature_extractor/model_1/separable_conv2d_1/separable_conv2d_bn_offset","op":"Const","attr":{"value":{"tensor":{"dtype":"DT_FLOAT","tensorShape":{"dim":[{"size":"24"}]}}},"dtype":{"type":"DT_FLOAT"}}},
          {"name":"StatefulPartitionedCall/center_net_mobile_net_v2fpn_feature_extractor/model_1/separable_conv2d_2/separable_conv2d_weights","op":"Const","attr":{"value":{"tensor":{"dtype":"DT_FLOAT","tensorShape":{"dim":[{"size":"1"},{"size":"1"},{"size":"24"},{"size":"24"}]}}},"dtype":{"type":"DT_FLOAT"}}},
          {"name":"StatefulPartitionedCall/center_net_mobile_net_v2fpn_feature_extractor/model_1/separable_conv2d_2/separable_conv2d_bn_offset","op":"Const","attr":{"dtype":{"type":"DT_FLOAT"},"value":{"tensor":{"dtype":"DT_FLOAT","tensorShape":{"dim":[{"size":"24"}]}}}}},
          {"name":"StatefulPartitionedCall/Cast","op":"Cast","input":["input"],"attr":{"SrcT":{"type":"DT_INT32"},"Truncate":{"b":false},"DstT":{"type":"DT_FLOAT"}}},
          {"name":"StatefulPartitionedCall/sub","op":"Sub","input":["StatefulPartitionedCall/Cast","StatefulPartitionedCall/Reshape"],"attr":{"T":{"type":"DT_FLOAT"}}},
          {"name":"StatefulPartitionedCall/truediv_1","op":"Mul","input":["StatefulPartitionedCall/sub","StatefulPartitionedCall/truediv"],"attr":{"T":{"type":"DT_FLOAT"}}},
          {"name":"StatefulPartitionedCall/sub_1","op":"Sub","input":["StatefulPartitionedCall/truediv_1","StatefulPartitionedCall/sub_1/y"],"attr":{"T":{"type":"DT_FLOAT"}}},
          {"name":"StatefulPartitionedCall/center_net_mobile_net_v2fpn_feature_extractor/model_1/model/Conv1_relu/Relu6","op":"_FusedConv2D","input":["StatefulPartitionedCall/sub_1","StatefulPartitionedCall/center_net_mobile_net_v2fpn_feature_extractor/model_1/model/Conv1/Conv2D_weights","StatefulPartitionedCall/center_net_mobile_net_v2fpn_feature_extractor/model_1/model/Conv1/Conv2D_bn_offset"],"device":"/device:CPU:0","attr":{"strides":{"list":{"i":["1","2","2","1"]}},"fused_ops":{"list":{"s":["Qmlhc0FkZA==","UmVsdTY="]}},"epsilon":{"f":0},"num_args":{"i":"1"},"data_format":{"s":"TkhXQw=="},"explicit_paddings":{"list":{}},"T":{"type":"DT_FLOAT"},"padding":{"s":"U0FNRQ=="},"dilations":{"list":{"i":["1","1","1","1"]}},"use_cudnn_on_gpu":{"b":true}}},
          {"name":"StatefulPartitionedCall/center_net_mobile_net_v2fpn_feature_extractor/model_1/model/expanded_conv_depthwise/depthwise","op":"FusedDepthwiseConv2dNative","input":["StatefulPartitionedCall/center_net_mobile_net_v2fpn_feature_extractor/model_1/model/Conv1_relu/Relu6","StatefulPartitionedCall/center_net_mobile_net_v2fpn_feature_extractor/model_1/model/expanded_conv_depthwise/depthwise_weights","StatefulPartitionedCall/center_net_mobile_net_v2fpn_feature_extractor/model_1/model/expanded_conv_depthwise/depthwise_bn_offset"],"attr":{"num_args":{"i":"1"},"fused_ops":{"list":{"s":["Qmlhc0FkZA==","UmVsdTY="]}},"data_format":{"s":"TkhXQw=="},"explicit_paddings":{"list":{}},"padding":{"s":"U0FNRQ=="},"T":{"type":"DT_FLOAT"},"strides":{"list":{"i":["1","1","1","1"]}},"dilations":{"list":{"i":["1","1","1","1"]}}}},
          {"name":"StatefulPartitionedCall/center_net_mobile_net_v2fpn_feature_extractor/model_1/model/expanded_conv_project_BN/FusedBatchNormV3","op":"_FusedConv2D","input":["StatefulPartitionedCall/center_net_mobile_net_v2fpn_feature_extractor/model_1/model/expanded_conv_depthwise/depthwise","StatefulPartitionedCall/center_net_mobile_net_v2fpn_feature_extractor/model_1/model/expanded_conv_project/Conv2D_weights","StatefulPartitionedCall/center_net_mobile_net_v2fpn_feature_extractor/model_1/model/expanded_conv_project/Conv2D_bn_offset"],"device":"/device:CPU:0","attr":{"padding":{"s":"U0FNRQ=="},"use_cudnn_on_gpu":{"b":true},"data_format":{"s":"TkhXQw=="},"epsilon":{"f":0},"fused_ops":{"list":{"s":["Qmlhc0FkZA=="]}},"dilations":{"list":{"i":["1","1","1","1"]}},"T":{"type":"DT_FLOAT"},"strides":{"list":{"i":["1","1","1","1"]}},"explicit_paddings":{"list":{}},"num_args":{"i":"1"}}},
          {"name":"StatefulPartitionedCall/center_net_mobile_net_v2fpn_feature_extractor/model_1/model/block_1_expand_relu/Relu6","op":"_FusedConv2D","input":["StatefulPartitionedCall/center_net_mobile_net_v2fpn_feature_extractor/model_1/model/expanded_conv_project_BN/FusedBatchNormV3","StatefulPartitionedCall/center_net_mobile_net_v2fpn_feature_extractor/model_1/model/block_1_expand/Conv2D_weights","StatefulPartitionedCall/center_net_mobile_net_v2fpn_feature_extractor/model_1/model/block_1_expand/Conv2D_bn_offset"],"device":"/device:CPU:0","attr":{"num_args":{"i":"1"},"dilations":{"list":{"i":["1","1","1","1"]}},"T":{"type":"DT_FLOAT"},"data_format":{"s":"TkhXQw=="},"padding":{"s":"U0FNRQ=="},"epsilon":{"f":0},"explicit_paddings":{"list":{}},"strides":{"list":{"i":["1","1","1","1"]}},"fused_ops":{"list":{"s":["Qmlhc0FkZA==","UmVsdTY="]}},"use_cudnn_on_gpu":{"b":true}}},
          {"name":"StatefulPartitionedCall/center_net_mobile_net_v2fpn_feature_extractor/model_1/model/block_1_depthwise/depthwise","op":"FusedDepthwiseConv2dNative","input":["StatefulPartitionedCall/center_net_mobile_net_v2fpn_feature_extractor/model_1/model/block_1_expand_relu/Relu6","StatefulPartitionedCall/center_net_mobile_net_v2fpn_feature_extractor/model_1/model/block_1_depthwise/depthwise_weights","StatefulPartitionedCall/center_net_mobile_net_v2fpn_feature_extractor/model_1/model/block_1_depthwise/depthwise_bn_offset"],"attr":{"dilations":{"list":{"i":["1","1","1","1"]}},"padding":{"s":"U0FNRQ=="},"num_args":{"i":"1"},"T":{"type":"DT_FLOAT"},"explicit_paddings":{"list":{}},"fused_ops":{"list":{"s":["Qmlhc0FkZA==","UmVsdTY="]}},"strides":{"list":{"i":["1","2","2","1"]}},"data_format":{"s":"TkhXQw=="}}},
          {"name":"StatefulPartitionedCall/center_net_mobile_net_v2fpn_feature_extractor/model_1/model/block_1_project_BN/FusedBatchNormV3","op":"_FusedConv2D","input":["StatefulPartitionedCall/center_net_mobile_net_v2fpn_feature_extractor/model_1/model/block_1_depthwise/depthwise","StatefulPartitionedCall/center_net_mobile_net_v2fpn_feature_extractor/model_1/model/block_1_project/Conv2D_weights","StatefulPartitionedCall/center_net_mobile_net_v2fpn_feature_extractor/model_1/model/block_1_project/Conv2D_bn_offset"],"device":"/device:CPU:0","attr":{"fused_ops":{"list":{"s":["Qmlhc0FkZA=="]}},"explicit_paddings":{"list":{}},"strides":{"list":{"i":["1","1","1","1"]}},"T":{"type":"DT_FLOAT"},"data_format":{"s":"TkhXQw=="},"use_cudnn_on_gpu":{"b":true},"epsilon":{"f":0},"num_args":{"i":"1"},"dilations":{"list":{"i":["1","1","1","1"]}},"padding":{"s":"U0FNRQ=="}}},
          {"name":"StatefulPartitionedCall/center_net_mobile_net_v2fpn_feature_extractor/model_1/model/block_2_expand_relu/Relu6","op":"_FusedConv2D","input":["StatefulPartitionedCall/center_net_mobile_net_v2fpn_feature_extractor/model_1/model/block_1_project_BN/FusedBatchNormV3","StatefulPartitionedCall/center_net_mobile_net_v2fpn_feature_extractor/model_1/model/block_2_expand/Conv2D_weights","StatefulPartitionedCall/center_net_mobile_net_v2fpn_feature_extractor/model_1/model/block_2_expand/Conv2D_bn_offset"],"device":"/device:CPU:0","attr":{"fused_ops":{"list":{"s":["Qmlhc0FkZA==","UmVsdTY="]}},"data_format":{"s":"TkhXQw=="},"dilations":{"list":{"i":["1","1","1","1"]}},"num_args":{"i":"1"},"padding":{"s":"U0FNRQ=="},"T":{"type":"DT_FLOAT"},"use_cudnn_on_gpu":{"b":true},"explicit_paddings":{"list":{}},"epsilon":{"f":0},"strides":{"list":{"i":["1","1","1","1"]}}}},
          {"name":"StatefulPartitionedCall/center_net_mobile_net_v2fpn_feature_extractor/model_1/model/block_2_depthwise/depthwise","op":"FusedDepthwiseConv2dNative","input":["StatefulPartitionedCall/center_net_mobile_net_v2fpn_feature_extractor/model_1/model/block_2_expand_relu/Relu6","StatefulPartitionedCall/center_net_mobile_net_v2fpn_feature_extractor/model_1/model/block_2_depthwise/depthwise_weights","StatefulPartitionedCall/center_net_mobile_net_v2fpn_feature_extractor/model_1/model/block_2_depthwise/depthwise_bn_offset"],"attr":{"strides":{"list":{"i":["1","1","1","1"]}},"fused_ops":{"list":{"s":["Qmlhc0FkZA==","UmVsdTY="]}},"T":{"type":"DT_FLOAT"},"num_args":{"i":"1"},"padding":{"s":"U0FNRQ=="},"explicit_paddings":{"list":{}},"dilations":{"list":{"i":["1","1","1","1"]}},"data_format":{"s":"TkhXQw=="}}},
          {"name":"StatefulPartitionedCall/center_net_mobile_net_v2fpn_feature_extractor/model_1/model/block_2_project_BN/FusedBatchNormV3","op":"_FusedConv2D","input":["StatefulPartitionedCall/center_net_mobile_net_v2fpn_feature_extractor/model_1/model/block_2_depthwise/depthwise","StatefulPartitionedCall/center_net_mobile_net_v2fpn_feature_extractor/model_1/model/block_2_project/Conv2D_weights","StatefulPartitionedCall/center_net_mobile_net_v2fpn_feature_extractor/model_1/model/block_2_project/Conv2D_bn_offset"],"device":"/device:CPU:0","attr":{"padding":{"s":"U0FNRQ=="},"T":{"type":"DT_FLOAT"},"explicit_paddings":{"list":{}},"dilations":{"list":{"i":["1","1","1","1"]}},"strides":{"list":{"i":["1","1","1","1"]}},"data_format":{"s":"TkhXQw=="},"use_cudnn_on_gpu":{"b":true},"num_args":{"i":"1"},"epsilon":{"f":0},"fused_ops":{"list":{"s":["Qmlhc0FkZA=="]}}}},
          {"name":"StatefulPartitionedCall/center_net_mobile_net_v2fpn_feature_extractor/model_1/model/block_2_add/add","op":"AddV2","input":["StatefulPartitionedCall/center_net_mobile_net_v2fpn_feature_extractor/model_1/model/block_1_project_BN/FusedBatchNormV3","StatefulPartitionedCall/center_net_mobile_net_v2fpn_feature_extractor/model_1/model/block_2_project_BN/FusedBatchNormV3"],"attr":{"T":{"type":"DT_FLOAT"}}},
          {"name":"StatefulPartitionedCall/center_net_mobile_net_v2fpn_feature_extractor/model_1/conv2d_3/BiasAdd","op":"_FusedConv2D","input":["StatefulPartitionedCall/center_net_mobile_net_v2fpn_feature_extractor/model_1/model/block_2_add/add","StatefulPartitionedCall/center_net_mobile_net_v2fpn_feature_extractor/model_1/conv2d_3/Conv2D/ReadVariableOp","StatefulPartitionedCall/center_net_mobile_net_v2fpn_feature_extractor/model_1/conv2d_3/BiasAdd/ReadVariableOp"],"device":"/device:CPU:0","attr":{"padding":{"s":"U0FNRQ=="},"strides":{"list":{"i":["1","1","1","1"]}},"num_args":{"i":"1"},"use_cudnn_on_gpu":{"b":true},"epsilon":{"f":0},"data_format":{"s":"TkhXQw=="},"fused_ops":{"list":{"s":["Qmlhc0FkZA=="]}},"T":{"type":"DT_FLOAT"},"explicit_paddings":{"list":{}},"dilations":{"list":{"i":["1","1","1","1"]}}}},
          {"name":"StatefulPartitionedCall/center_net_mobile_net_v2fpn_feature_extractor/model_1/model/block_3_expand_relu/Relu6","op":"_FusedConv2D","input":["StatefulPartitionedCall/center_net_mobile_net_v2fpn_feature_extractor/model_1/model/block_2_add/add","StatefulPartitionedCall/center_net_mobile_net_v2fpn_feature_extractor/model_1/model/block_3_expand/Conv2D_weights","StatefulPartitionedCall/center_net_mobile_net_v2fpn_feature_extractor/model_1/model/block_3_expand/Conv2D_bn_offset"],"device":"/device:CPU:0","attr":{"padding":{"s":"U0FNRQ=="},"fused_ops":{"list":{"s":["Qmlhc0FkZA==","UmVsdTY="]}},"num_args":{"i":"1"},"data_format":{"s":"TkhXQw=="},"epsilon":{"f":0},"explicit_paddings":{"list":{}},"T":{"type":"DT_FLOAT"},"dilations":{"list":{"i":["1","1","1","1"]}},"strides":{"list":{"i":["1","1","1","1"]}},"use_cudnn_on_gpu":{"b":true}}},
          {"name":"StatefulPartitionedCall/center_net_mobile_net_v2fpn_feature_extractor/model_1/model/block_3_depthwise/depthwise","op":"FusedDepthwiseConv2dNative","input":["StatefulPartitionedCall/center_net_mobile_net_v2fpn_feature_extractor/model_1/model/block_3_expand_relu/Relu6","StatefulPartitionedCall/center_net_mobile_net_v2fpn_feature_extractor/model_1/model/block_3_depthwise/depthwise_weights","StatefulPartitionedCall/center_net_mobile_net_v2fpn_feature_extractor/model_1/model/block_3_depthwise/depthwise_bn_offset"],"attr":{"T":{"type":"DT_FLOAT"},"strides":{"list":{"i":["1","2","2","1"]}},"data_format":{"s":"TkhXQw=="},"dilations":{"list":{"i":["1","1","1","1"]}},"explicit_paddings":{"list":{}},"num_args":{"i":"1"},"padding":{"s":"U0FNRQ=="},"fused_ops":{"list":{"s":["Qmlhc0FkZA==","UmVsdTY="]}}}},
          {"name":"StatefulPartitionedCall/center_net_mobile_net_v2fpn_feature_extractor/model_1/model/block_3_project_BN/FusedBatchNormV3","op":"_FusedConv2D","input":["StatefulPartitionedCall/center_net_mobile_net_v2fpn_feature_extractor/model_1/model/block_3_depthwise/depthwise","StatefulPartitionedCall/center_net_mobile_net_v2fpn_feature_extractor/model_1/model/block_3_project/Conv2D_weights","StatefulPartitionedCall/center_net_mobile_net_v2fpn_feature_extractor/model_1/model/block_3_project/Conv2D_bn_offset"],"device":"/device:CPU:0","attr":{"use_cudnn_on_gpu":{"b":true},"dilations":{"list":{"i":["1","1","1","1"]}},"num_args":{"i":"1"},"fused_ops":{"list":{"s":["Qmlhc0FkZA=="]}},"strides":{"list":{"i":["1","1","1","1"]}},"padding":{"s":"U0FNRQ=="},"explicit_paddings":{"list":{}},"epsilon":{"f":0},"T":{"type":"DT_FLOAT"},"data_format":{"s":"TkhXQw=="}}},
          {"name":"StatefulPartitionedCall/center_net_mobile_net_v2fpn_feature_extractor/model_1/model/block_4_expand_relu/Relu6","op":"_FusedConv2D","input":["StatefulPartitionedCall/center_net_mobile_net_v2fpn_feature_extractor/model_1/model/block_3_project_BN/FusedBatchNormV3","StatefulPartitionedCall/center_net_mobile_net_v2fpn_feature_extractor/model_1/model/block_4_expand/Conv2D_weights","StatefulPartitionedCall/center_net_mobile_net_v2fpn_feature_extractor/model_1/model/block_4_expand/Conv2D_bn_offset"],"device":"/device:CPU:0","attr":{"strides":{"list":{"i":["1","1","1","1"]}},"use_cudnn_on_gpu":{"b":true},"T":{"type":"DT_FLOAT"},"explicit_paddings":{"list":{}},"dilations":{"list":{"i":["1","1","1","1"]}},"fused_ops":{"list":{"s":["Qmlhc0FkZA==","UmVsdTY="]}},"data_format":{"s":"TkhXQw=="},"epsilon":{"f":0},"num_args":{"i":"1"},"padding":{"s":"U0FNRQ=="}}},
          {"name":"StatefulPartitionedCall/center_net_mobile_net_v2fpn_feature_extractor/model_1/model/block_4_depthwise/depthwise","op":"FusedDepthwiseConv2dNative","input":["StatefulPartitionedCall/center_net_mobile_net_v2fpn_feature_extractor/model_1/model/block_4_expand_relu/Relu6","StatefulPartitionedCall/center_net_mobile_net_v2fpn_feature_extractor/model_1/model/block_4_depthwise/depthwise_weights","StatefulPartitionedCall/center_net_mobile_net_v2fpn_feature_extractor/model_1/model/block_4_depthwise/depthwise_bn_offset"],"attr":{"fused_ops":{"list":{"s":["Qmlhc0FkZA==","UmVsdTY="]}},"explicit_paddings":{"list":{}},"data_format":{"s":"TkhXQw=="},"dilations":{"list":{"i":["1","1","1","1"]}},"num_args":{"i":"1"},"strides":{"list":{"i":["1","1","1","1"]}},"T":{"type":"DT_FLOAT"},"padding":{"s":"U0FNRQ=="}}},
          {"name":"StatefulPartitionedCall/center_net_mobile_net_v2fpn_feature_extractor/model_1/model/block_4_project_BN/FusedBatchNormV3","op":"_FusedConv2D","input":["StatefulPartitionedCall/center_net_mobile_net_v2fpn_feature_extractor/model_1/model/block_4_depthwise/depthwise","StatefulPartitionedCall/center_net_mobile_net_v2fpn_feature_extractor/model_1/model/block_4_project/Conv2D_weights","StatefulPartitionedCall/center_net_mobile_net_v2fpn_feature_extractor/model_1/model/block_4_project/Conv2D_bn_offset"],"device":"/device:CPU:0","attr":{"fused_ops":{"list":{"s":["Qmlhc0FkZA=="]}},"epsilon":{"f":0},"T":{"type":"DT_FLOAT"},"num_args":{"i":"1"},"strides":{"list":{"i":["1","1","1","1"]}},"explicit_paddings":{"list":{}},"use_cudnn_on_gpu":{"b":true},"dilations":{"list":{"i":["1","1","1","1"]}},"data_format":{"s":"TkhXQw=="},"padding":{"s":"U0FNRQ=="}}},
          {"name":"StatefulPartitionedCall/center_net_mobile_net_v2fpn_feature_extractor/model_1/model/block_4_add/add","op":"AddV2","input":["StatefulPartitionedCall/center_net_mobile_net_v2fpn_feature_extractor/model_1/model/block_3_project_BN/FusedBatchNormV3","StatefulPartitionedCall/center_net_mobile_net_v2fpn_feature_extractor/model_1/model/block_4_project_BN/FusedBatchNormV3"],"attr":{"T":{"type":"DT_FLOAT"}}},
          {"name":"StatefulPartitionedCall/center_net_mobile_net_v2fpn_feature_extractor/model_1/model/block_5_expand_relu/Relu6","op":"_FusedConv2D","input":["StatefulPartitionedCall/center_net_mobile_net_v2fpn_feature_extractor/model_1/model/block_4_add/add","StatefulPartitionedCall/center_net_mobile_net_v2fpn_feature_extractor/model_1/model/block_5_expand/Conv2D_weights","StatefulPartitionedCall/center_net_mobile_net_v2fpn_feature_extractor/model_1/model/block_5_expand/Conv2D_bn_offset"],"device":"/device:CPU:0","attr":{"num_args":{"i":"1"},"use_cudnn_on_gpu":{"b":true},"epsilon":{"f":0},"T":{"type":"DT_FLOAT"},"explicit_paddings":{"list":{}},"padding":{"s":"U0FNRQ=="},"dilations":{"list":{"i":["1","1","1","1"]}},"data_format":{"s":"TkhXQw=="},"fused_ops":{"list":{"s":["Qmlhc0FkZA==","UmVsdTY="]}},"strides":{"list":{"i":["1","1","1","1"]}}}},
          {"name":"StatefulPartitionedCall/center_net_mobile_net_v2fpn_feature_extractor/model_1/model/block_5_depthwise/depthwise","op":"FusedDepthwiseConv2dNative","input":["StatefulPartitionedCall/center_net_mobile_net_v2fpn_feature_extractor/model_1/model/block_5_expand_relu/Relu6","StatefulPartitionedCall/center_net_mobile_net_v2fpn_feature_extractor/model_1/model/block_5_depthwise/depthwise_weights","StatefulPartitionedCall/center_net_mobile_net_v2fpn_feature_extractor/model_1/model/block_5_depthwise/depthwise_bn_offset"],"attr":{"padding":{"s":"U0FNRQ=="},"fused_ops":{"list":{"s":["Qmlhc0FkZA==","UmVsdTY="]}},"data_format":{"s":"TkhXQw=="},"dilations":{"list":{"i":["1","1","1","1"]}},"explicit_paddings":{"list":{}},"T":{"type":"DT_FLOAT"},"num_args":{"i":"1"},"strides":{"list":{"i":["1","1","1","1"]}}}},
          {"name":"StatefulPartitionedCall/center_net_mobile_net_v2fpn_feature_extractor/model_1/model/block_5_project_BN/FusedBatchNormV3","op":"_FusedConv2D","input":["StatefulPartitionedCall/center_net_mobile_net_v2fpn_feature_extractor/model_1/model/block_5_depthwise/depthwise","StatefulPartitionedCall/center_net_mobile_net_v2fpn_feature_extractor/model_1/model/block_5_project/Conv2D_weights","StatefulPartitionedCall/center_net_mobile_net_v2fpn_feature_extractor/model_1/model/block_5_project/Conv2D_bn_offset"],"device":"/device:CPU:0","attr":{"fused_ops":{"list":{"s":["Qmlhc0FkZA=="]}},"dilations":{"list":{"i":["1","1","1","1"]}},"T":{"type":"DT_FLOAT"},"explicit_paddings":{"list":{}},"padding":{"s":"U0FNRQ=="},"num_args":{"i":"1"},"data_format":{"s":"TkhXQw=="},"use_cudnn_on_gpu":{"b":true},"strides":{"list":{"i":["1","1","1","1"]}},"epsilon":{"f":0}}},
          {"name":"StatefulPartitionedCall/center_net_mobile_net_v2fpn_feature_extractor/model_1/model/block_5_add/add","op":"AddV2","input":["StatefulPartitionedCall/center_net_mobile_net_v2fpn_feature_extractor/model_1/model/block_4_add/add","StatefulPartitionedCall/center_net_mobile_net_v2fpn_feature_extractor/model_1/model/block_5_project_BN/FusedBatchNormV3"],"attr":{"T":{"type":"DT_FLOAT"}}},
          {"name":"StatefulPartitionedCall/center_net_mobile_net_v2fpn_feature_extractor/model_1/conv2d_2/BiasAdd","op":"_FusedConv2D","input":["StatefulPartitionedCall/center_net_mobile_net_v2fpn_feature_extractor/model_1/model/block_5_add/add","StatefulPartitionedCall/center_net_mobile_net_v2fpn_feature_extractor/model_1/conv2d_2/Conv2D/ReadVariableOp","StatefulPartitionedCall/center_net_mobile_net_v2fpn_feature_extractor/model_1/conv2d_2/BiasAdd/ReadVariableOp"],"device":"/device:CPU:0","attr":{"num_args":{"i":"1"},"strides":{"list":{"i":["1","1","1","1"]}},"epsilon":{"f":0},"explicit_paddings":{"list":{}},"fused_ops":{"list":{"s":["Qmlhc0FkZA=="]}},"data_format":{"s":"TkhXQw=="},"use_cudnn_on_gpu":{"b":true},"padding":{"s":"U0FNRQ=="},"T":{"type":"DT_FLOAT"},"dilations":{"list":{"i":["1","1","1","1"]}}}},
          {"name":"StatefulPartitionedCall/center_net_mobile_net_v2fpn_feature_extractor/model_1/model/block_6_expand_relu/Relu6","op":"_FusedConv2D","input":["StatefulPartitionedCall/center_net_mobile_net_v2fpn_feature_extractor/model_1/model/block_5_add/add","StatefulPartitionedCall/center_net_mobile_net_v2fpn_feature_extractor/model_1/model/block_6_expand/Conv2D_weights","StatefulPartitionedCall/center_net_mobile_net_v2fpn_feature_extractor/model_1/model/block_6_expand/Conv2D_bn_offset"],"device":"/device:CPU:0","attr":{"T":{"type":"DT_FLOAT"},"epsilon":{"f":0},"data_format":{"s":"TkhXQw=="},"num_args":{"i":"1"},"strides":{"list":{"i":["1","1","1","1"]}},"explicit_paddings":{"list":{}},"padding":{"s":"U0FNRQ=="},"dilations":{"list":{"i":["1","1","1","1"]}},"fused_ops":{"list":{"s":["Qmlhc0FkZA==","UmVsdTY="]}},"use_cudnn_on_gpu":{"b":true}}},
          {"name":"StatefulPartitionedCall/center_net_mobile_net_v2fpn_feature_extractor/model_1/model/block_6_depthwise/depthwise","op":"FusedDepthwiseConv2dNative","input":["StatefulPartitionedCall/center_net_mobile_net_v2fpn_feature_extractor/model_1/model/block_6_expand_relu/Relu6","StatefulPartitionedCall/center_net_mobile_net_v2fpn_feature_extractor/model_1/model/block_6_depthwise/depthwise_weights","StatefulPartitionedCall/center_net_mobile_net_v2fpn_feature_extractor/model_1/model/block_6_depthwise/depthwise_bn_offset"],"attr":{"explicit_paddings":{"list":{}},"T":{"type":"DT_FLOAT"},"data_format":{"s":"TkhXQw=="},"num_args":{"i":"1"},"dilations":{"list":{"i":["1","1","1","1"]}},"fused_ops":{"list":{"s":["Qmlhc0FkZA==","UmVsdTY="]}},"strides":{"list":{"i":["1","2","2","1"]}},"padding":{"s":"U0FNRQ=="}}},
          {"name":"StatefulPartitionedCall/center_net_mobile_net_v2fpn_feature_extractor/model_1/model/block_6_project_BN/FusedBatchNormV3","op":"_FusedConv2D","input":["StatefulPartitionedCall/center_net_mobile_net_v2fpn_feature_extractor/model_1/model/block_6_depthwise/depthwise","StatefulPartitionedCall/center_net_mobile_net_v2fpn_feature_extractor/model_1/model/block_6_project/Conv2D_weights","StatefulPartitionedCall/center_net_mobile_net_v2fpn_feature_extractor/model_1/model/block_6_project/Conv2D_bn_offset"],"device":"/device:CPU:0","attr":{"padding":{"s":"U0FNRQ=="},"use_cudnn_on_gpu":{"b":true},"explicit_paddings":{"list":{}},"data_format":{"s":"TkhXQw=="},"num_args":{"i":"1"},"fused_ops":{"list":{"s":["Qmlhc0FkZA=="]}},"epsilon":{"f":0},"strides":{"list":{"i":["1","1","1","1"]}},"dilations":{"list":{"i":["1","1","1","1"]}},"T":{"type":"DT_FLOAT"}}},
          {"name":"StatefulPartitionedCall/center_net_mobile_net_v2fpn_feature_extractor/model_1/model/block_7_expand_relu/Relu6","op":"_FusedConv2D","input":["StatefulPartitionedCall/center_net_mobile_net_v2fpn_feature_extractor/model_1/model/block_6_project_BN/FusedBatchNormV3","StatefulPartitionedCall/center_net_mobile_net_v2fpn_feature_extractor/model_1/model/block_7_expand/Conv2D_weights","StatefulPartitionedCall/center_net_mobile_net_v2fpn_feature_extractor/model_1/model/block_7_expand/Conv2D_bn_offset"],"device":"/device:CPU:0","attr":{"explicit_paddings":{"list":{}},"dilations":{"list":{"i":["1","1","1","1"]}},"use_cudnn_on_gpu":{"b":true},"num_args":{"i":"1"},"epsilon":{"f":0},"fused_ops":{"list":{"s":["Qmlhc0FkZA==","UmVsdTY="]}},"padding":{"s":"U0FNRQ=="},"strides":{"list":{"i":["1","1","1","1"]}},"T":{"type":"DT_FLOAT"},"data_format":{"s":"TkhXQw=="}}},
          {"name":"StatefulPartitionedCall/center_net_mobile_net_v2fpn_feature_extractor/model_1/model/block_7_depthwise/depthwise","op":"FusedDepthwiseConv2dNative","input":["StatefulPartitionedCall/center_net_mobile_net_v2fpn_feature_extractor/model_1/model/block_7_expand_relu/Relu6","StatefulPartitionedCall/center_net_mobile_net_v2fpn_feature_extractor/model_1/model/block_7_depthwise/depthwise_weights","StatefulPartitionedCall/center_net_mobile_net_v2fpn_feature_extractor/model_1/model/block_7_depthwise/depthwise_bn_offset"],"attr":{"dilations":{"list":{"i":["1","1","1","1"]}},"strides":{"list":{"i":["1","1","1","1"]}},"T":{"type":"DT_FLOAT"},"explicit_paddings":{"list":{}},"padding":{"s":"U0FNRQ=="},"data_format":{"s":"TkhXQw=="},"fused_ops":{"list":{"s":["Qmlhc0FkZA==","UmVsdTY="]}},"num_args":{"i":"1"}}},
          {"name":"StatefulPartitionedCall/center_net_mobile_net_v2fpn_feature_extractor/model_1/model/block_7_project_BN/FusedBatchNormV3","op":"_FusedConv2D","input":["StatefulPartitionedCall/center_net_mobile_net_v2fpn_feature_extractor/model_1/model/block_7_depthwise/depthwise","StatefulPartitionedCall/center_net_mobile_net_v2fpn_feature_extractor/model_1/model/block_7_project/Conv2D_weights","StatefulPartitionedCall/center_net_mobile_net_v2fpn_feature_extractor/model_1/model/block_7_project/Conv2D_bn_offset"],"device":"/device:CPU:0","attr":{"data_format":{"s":"TkhXQw=="},"fused_ops":{"list":{"s":["Qmlhc0FkZA=="]}},"T":{"type":"DT_FLOAT"},"explicit_paddings":{"list":{}},"padding":{"s":"U0FNRQ=="},"use_cudnn_on_gpu":{"b":true},"num_args":{"i":"1"},"dilations":{"list":{"i":["1","1","1","1"]}},"strides":{"list":{"i":["1","1","1","1"]}},"epsilon":{"f":0}}},
          {"name":"StatefulPartitionedCall/center_net_mobile_net_v2fpn_feature_extractor/model_1/model/block_7_add/add","op":"AddV2","input":["StatefulPartitionedCall/center_net_mobile_net_v2fpn_feature_extractor/model_1/model/block_6_project_BN/FusedBatchNormV3","StatefulPartitionedCall/center_net_mobile_net_v2fpn_feature_extractor/model_1/model/block_7_project_BN/FusedBatchNormV3"],"attr":{"T":{"type":"DT_FLOAT"}}},
          {"name":"StatefulPartitionedCall/center_net_mobile_net_v2fpn_feature_extractor/model_1/model/block_8_expand_relu/Relu6","op":"_FusedConv2D","input":["StatefulPartitionedCall/center_net_mobile_net_v2fpn_feature_extractor/model_1/model/block_7_add/add","StatefulPartitionedCall/center_net_mobile_net_v2fpn_feature_extractor/model_1/model/block_8_expand/Conv2D_weights","StatefulPartitionedCall/center_net_mobile_net_v2fpn_feature_extractor/model_1/model/block_8_expand/Conv2D_bn_offset"],"device":"/device:CPU:0","attr":{"use_cudnn_on_gpu":{"b":true},"fused_ops":{"list":{"s":["Qmlhc0FkZA==","UmVsdTY="]}},"data_format":{"s":"TkhXQw=="},"strides":{"list":{"i":["1","1","1","1"]}},"num_args":{"i":"1"},"T":{"type":"DT_FLOAT"},"explicit_paddings":{"list":{}},"epsilon":{"f":0},"dilations":{"list":{"i":["1","1","1","1"]}},"padding":{"s":"U0FNRQ=="}}},
          {"name":"StatefulPartitionedCall/center_net_mobile_net_v2fpn_feature_extractor/model_1/model/block_8_depthwise/depthwise","op":"FusedDepthwiseConv2dNative","input":["StatefulPartitionedCall/center_net_mobile_net_v2fpn_feature_extractor/model_1/model/block_8_expand_relu/Relu6","StatefulPartitionedCall/center_net_mobile_net_v2fpn_feature_extractor/model_1/model/block_8_depthwise/depthwise_weights","StatefulPartitionedCall/center_net_mobile_net_v2fpn_feature_extractor/model_1/model/block_8_depthwise/depthwise_bn_offset"],"attr":{"num_args":{"i":"1"},"dilations":{"list":{"i":["1","1","1","1"]}},"data_format":{"s":"TkhXQw=="},"explicit_paddings":{"list":{}},"padding":{"s":"U0FNRQ=="},"T":{"type":"DT_FLOAT"},"strides":{"list":{"i":["1","1","1","1"]}},"fused_ops":{"list":{"s":["Qmlhc0FkZA==","UmVsdTY="]}}}},
          {"name":"StatefulPartitionedCall/center_net_mobile_net_v2fpn_feature_extractor/model_1/model/block_8_project_BN/FusedBatchNormV3","op":"_FusedConv2D","input":["StatefulPartitionedCall/center_net_mobile_net_v2fpn_feature_extractor/model_1/model/block_8_depthwise/depthwise","StatefulPartitionedCall/center_net_mobile_net_v2fpn_feature_extractor/model_1/model/block_8_project/Conv2D_weights","StatefulPartitionedCall/center_net_mobile_net_v2fpn_feature_extractor/model_1/model/block_8_project/Conv2D_bn_offset"],"device":"/device:CPU:0","attr":{"explicit_paddings":{"list":{}},"use_cudnn_on_gpu":{"b":true},"epsilon":{"f":0},"num_args":{"i":"1"},"fused_ops":{"list":{"s":["Qmlhc0FkZA=="]}},"padding":{"s":"U0FNRQ=="},"strides":{"list":{"i":["1","1","1","1"]}},"data_format":{"s":"TkhXQw=="},"T":{"type":"DT_FLOAT"},"dilations":{"list":{"i":["1","1","1","1"]}}}},
          {"name":"StatefulPartitionedCall/center_net_mobile_net_v2fpn_feature_extractor/model_1/model/block_8_add/add","op":"AddV2","input":["StatefulPartitionedCall/center_net_mobile_net_v2fpn_feature_extractor/model_1/model/block_7_add/add","StatefulPartitionedCall/center_net_mobile_net_v2fpn_feature_extractor/model_1/model/block_8_project_BN/FusedBatchNormV3"],"attr":{"T":{"type":"DT_FLOAT"}}},
          {"name":"StatefulPartitionedCall/center_net_mobile_net_v2fpn_feature_extractor/model_1/model/block_9_expand_relu/Relu6","op":"_FusedConv2D","input":["StatefulPartitionedCall/center_net_mobile_net_v2fpn_feature_extractor/model_1/model/block_8_add/add","StatefulPartitionedCall/center_net_mobile_net_v2fpn_feature_extractor/model_1/model/block_9_expand/Conv2D_weights","StatefulPartitionedCall/center_net_mobile_net_v2fpn_feature_extractor/model_1/model/block_9_expand/Conv2D_bn_offset"],"device":"/device:CPU:0","attr":{"fused_ops":{"list":{"s":["Qmlhc0FkZA==","UmVsdTY="]}},"data_format":{"s":"TkhXQw=="},"num_args":{"i":"1"},"epsilon":{"f":0},"explicit_paddings":{"list":{}},"strides":{"list":{"i":["1","1","1","1"]}},"dilations":{"list":{"i":["1","1","1","1"]}},"padding":{"s":"U0FNRQ=="},"T":{"type":"DT_FLOAT"},"use_cudnn_on_gpu":{"b":true}}},
          {"name":"StatefulPartitionedCall/center_net_mobile_net_v2fpn_feature_extractor/model_1/model/block_9_depthwise/depthwise","op":"FusedDepthwiseConv2dNative","input":["StatefulPartitionedCall/center_net_mobile_net_v2fpn_feature_extractor/model_1/model/block_9_expand_relu/Relu6","StatefulPartitionedCall/center_net_mobile_net_v2fpn_feature_extractor/model_1/model/block_9_depthwise/depthwise_weights","StatefulPartitionedCall/center_net_mobile_net_v2fpn_feature_extractor/model_1/model/block_9_depthwise/depthwise_bn_offset"],"attr":{"data_format":{"s":"TkhXQw=="},"num_args":{"i":"1"},"dilations":{"list":{"i":["1","1","1","1"]}},"padding":{"s":"U0FNRQ=="},"explicit_paddings":{"list":{}},"fused_ops":{"list":{"s":["Qmlhc0FkZA==","UmVsdTY="]}},"T":{"type":"DT_FLOAT"},"strides":{"list":{"i":["1","1","1","1"]}}}},
          {"name":"StatefulPartitionedCall/center_net_mobile_net_v2fpn_feature_extractor/model_1/model/block_9_project_BN/FusedBatchNormV3","op":"_FusedConv2D","input":["StatefulPartitionedCall/center_net_mobile_net_v2fpn_feature_extractor/model_1/model/block_9_depthwise/depthwise","StatefulPartitionedCall/center_net_mobile_net_v2fpn_feature_extractor/model_1/model/block_9_project/Conv2D_weights","StatefulPartitionedCall/center_net_mobile_net_v2fpn_feature_extractor/model_1/model/block_9_project/Conv2D_bn_offset"],"device":"/device:CPU:0","attr":{"epsilon":{"f":0},"strides":{"list":{"i":["1","1","1","1"]}},"explicit_paddings":{"list":{}},"use_cudnn_on_gpu":{"b":true},"T":{"type":"DT_FLOAT"},"padding":{"s":"U0FNRQ=="},"data_format":{"s":"TkhXQw=="},"fused_ops":{"list":{"s":["Qmlhc0FkZA=="]}},"num_args":{"i":"1"},"dilations":{"list":{"i":["1","1","1","1"]}}}},
          {"name":"StatefulPartitionedCall/center_net_mobile_net_v2fpn_feature_extractor/model_1/model/block_9_add/add","op":"AddV2","input":["StatefulPartitionedCall/center_net_mobile_net_v2fpn_feature_extractor/model_1/model/block_8_add/add","StatefulPartitionedCall/center_net_mobile_net_v2fpn_feature_extractor/model_1/model/block_9_project_BN/FusedBatchNormV3"],"attr":{"T":{"type":"DT_FLOAT"}}},
          {"name":"StatefulPartitionedCall/center_net_mobile_net_v2fpn_feature_extractor/model_1/conv2d_1/BiasAdd","op":"_FusedConv2D","input":["StatefulPartitionedCall/center_net_mobile_net_v2fpn_feature_extractor/model_1/model/block_9_add/add","StatefulPartitionedCall/center_net_mobile_net_v2fpn_feature_extractor/model_1/conv2d_1/Conv2D/ReadVariableOp","StatefulPartitionedCall/center_net_mobile_net_v2fpn_feature_extractor/model_1/conv2d_1/BiasAdd/ReadVariableOp"],"device":"/device:CPU:0","attr":{"epsilon":{"f":0},"dilations":{"list":{"i":["1","1","1","1"]}},"data_format":{"s":"TkhXQw=="},"T":{"type":"DT_FLOAT"},"use_cudnn_on_gpu":{"b":true},"padding":{"s":"U0FNRQ=="},"strides":{"list":{"i":["1","1","1","1"]}},"fused_ops":{"list":{"s":["Qmlhc0FkZA=="]}},"num_args":{"i":"1"},"explicit_paddings":{"list":{}}}},
          {"name":"StatefulPartitionedCall/center_net_mobile_net_v2fpn_feature_extractor/model_1/model/block_10_expand_relu/Relu6","op":"_FusedConv2D","input":["StatefulPartitionedCall/center_net_mobile_net_v2fpn_feature_extractor/model_1/model/block_9_add/add","StatefulPartitionedCall/center_net_mobile_net_v2fpn_feature_extractor/model_1/model/block_10_expand/Conv2D_weights","StatefulPartitionedCall/center_net_mobile_net_v2fpn_feature_extractor/model_1/model/block_10_expand/Conv2D_bn_offset"],"device":"/device:CPU:0","attr":{"fused_ops":{"list":{"s":["Qmlhc0FkZA==","UmVsdTY="]}},"use_cudnn_on_gpu":{"b":true},"dilations":{"list":{"i":["1","1","1","1"]}},"T":{"type":"DT_FLOAT"},"data_format":{"s":"TkhXQw=="},"num_args":{"i":"1"},"padding":{"s":"U0FNRQ=="},"strides":{"list":{"i":["1","1","1","1"]}},"explicit_paddings":{"list":{}},"epsilon":{"f":0}}},
          {"name":"StatefulPartitionedCall/center_net_mobile_net_v2fpn_feature_extractor/model_1/model/block_10_depthwise/depthwise","op":"FusedDepthwiseConv2dNative","input":["StatefulPartitionedCall/center_net_mobile_net_v2fpn_feature_extractor/model_1/model/block_10_expand_relu/Relu6","StatefulPartitionedCall/center_net_mobile_net_v2fpn_feature_extractor/model_1/model/block_10_depthwise/depthwise_weights","StatefulPartitionedCall/center_net_mobile_net_v2fpn_feature_extractor/model_1/model/block_10_depthwise/depthwise_bn_offset"],"attr":{"padding":{"s":"U0FNRQ=="},"strides":{"list":{"i":["1","1","1","1"]}},"explicit_paddings":{"list":{}},"num_args":{"i":"1"},"T":{"type":"DT_FLOAT"},"data_format":{"s":"TkhXQw=="},"fused_ops":{"list":{"s":["Qmlhc0FkZA==","UmVsdTY="]}},"dilations":{"list":{"i":["1","1","1","1"]}}}},
          {"name":"StatefulPartitionedCall/center_net_mobile_net_v2fpn_feature_extractor/model_1/model/block_10_project_BN/FusedBatchNormV3","op":"_FusedConv2D","input":["StatefulPartitionedCall/center_net_mobile_net_v2fpn_feature_extractor/model_1/model/block_10_depthwise/depthwise","StatefulPartitionedCall/center_net_mobile_net_v2fpn_feature_extractor/model_1/model/block_10_project/Conv2D_weights","StatefulPartitionedCall/center_net_mobile_net_v2fpn_feature_extractor/model_1/model/block_10_project/Conv2D_bn_offset"],"device":"/device:CPU:0","attr":{"T":{"type":"DT_FLOAT"},"epsilon":{"f":0},"padding":{"s":"U0FNRQ=="},"use_cudnn_on_gpu":{"b":true},"data_format":{"s":"TkhXQw=="},"dilations":{"list":{"i":["1","1","1","1"]}},"num_args":{"i":"1"},"strides":{"list":{"i":["1","1","1","1"]}},"explicit_paddings":{"list":{}},"fused_ops":{"list":{"s":["Qmlhc0FkZA=="]}}}},
          {"name":"StatefulPartitionedCall/center_net_mobile_net_v2fpn_feature_extractor/model_1/model/block_11_expand_relu/Relu6","op":"_FusedConv2D","input":["StatefulPartitionedCall/center_net_mobile_net_v2fpn_feature_extractor/model_1/model/block_10_project_BN/FusedBatchNormV3","StatefulPartitionedCall/center_net_mobile_net_v2fpn_feature_extractor/model_1/model/block_11_expand/Conv2D_weights","StatefulPartitionedCall/center_net_mobile_net_v2fpn_feature_extractor/model_1/model/block_11_expand/Conv2D_bn_offset"],"device":"/device:CPU:0","attr":{"data_format":{"s":"TkhXQw=="},"explicit_paddings":{"list":{}},"num_args":{"i":"1"},"padding":{"s":"U0FNRQ=="},"strides":{"list":{"i":["1","1","1","1"]}},"dilations":{"list":{"i":["1","1","1","1"]}},"T":{"type":"DT_FLOAT"},"use_cudnn_on_gpu":{"b":true},"epsilon":{"f":0},"fused_ops":{"list":{"s":["Qmlhc0FkZA==","UmVsdTY="]}}}},
          {"name":"StatefulPartitionedCall/center_net_mobile_net_v2fpn_feature_extractor/model_1/model/block_11_depthwise/depthwise","op":"FusedDepthwiseConv2dNative","input":["StatefulPartitionedCall/center_net_mobile_net_v2fpn_feature_extractor/model_1/model/block_11_expand_relu/Relu6","StatefulPartitionedCall/center_net_mobile_net_v2fpn_feature_extractor/model_1/model/block_11_depthwise/depthwise_weights","StatefulPartitionedCall/center_net_mobile_net_v2fpn_feature_extractor/model_1/model/block_11_depthwise/depthwise_bn_offset"],"attr":{"strides":{"list":{"i":["1","1","1","1"]}},"T":{"type":"DT_FLOAT"},"fused_ops":{"list":{"s":["Qmlhc0FkZA==","UmVsdTY="]}},"padding":{"s":"U0FNRQ=="},"explicit_paddings":{"list":{}},"dilations":{"list":{"i":["1","1","1","1"]}},"num_args":{"i":"1"},"data_format":{"s":"TkhXQw=="}}},
          {"name":"StatefulPartitionedCall/center_net_mobile_net_v2fpn_feature_extractor/model_1/model/block_11_project_BN/FusedBatchNormV3","op":"_FusedConv2D","input":["StatefulPartitionedCall/center_net_mobile_net_v2fpn_feature_extractor/model_1/model/block_11_depthwise/depthwise","StatefulPartitionedCall/center_net_mobile_net_v2fpn_feature_extractor/model_1/model/block_11_project/Conv2D_weights","StatefulPartitionedCall/center_net_mobile_net_v2fpn_feature_extractor/model_1/model/block_11_project/Conv2D_bn_offset"],"device":"/device:CPU:0","attr":{"fused_ops":{"list":{"s":["Qmlhc0FkZA=="]}},"dilations":{"list":{"i":["1","1","1","1"]}},"use_cudnn_on_gpu":{"b":true},"num_args":{"i":"1"},"strides":{"list":{"i":["1","1","1","1"]}},"T":{"type":"DT_FLOAT"},"explicit_paddings":{"list":{}},"epsilon":{"f":0},"data_format":{"s":"TkhXQw=="},"padding":{"s":"U0FNRQ=="}}},
          {"name":"StatefulPartitionedCall/center_net_mobile_net_v2fpn_feature_extractor/model_1/model/block_11_add/add","op":"AddV2","input":["StatefulPartitionedCall/center_net_mobile_net_v2fpn_feature_extractor/model_1/model/block_10_project_BN/FusedBatchNormV3","StatefulPartitionedCall/center_net_mobile_net_v2fpn_feature_extractor/model_1/model/block_11_project_BN/FusedBatchNormV3"],"attr":{"T":{"type":"DT_FLOAT"}}},
          {"name":"StatefulPartitionedCall/center_net_mobile_net_v2fpn_feature_extractor/model_1/model/block_12_expand_relu/Relu6","op":"_FusedConv2D","input":["StatefulPartitionedCall/center_net_mobile_net_v2fpn_feature_extractor/model_1/model/block_11_add/add","StatefulPartitionedCall/center_net_mobile_net_v2fpn_feature_extractor/model_1/model/block_12_expand/Conv2D_weights","StatefulPartitionedCall/center_net_mobile_net_v2fpn_feature_extractor/model_1/model/block_12_expand/Conv2D_bn_offset"],"device":"/device:CPU:0","attr":{"data_format":{"s":"TkhXQw=="},"T":{"type":"DT_FLOAT"},"strides":{"list":{"i":["1","1","1","1"]}},"explicit_paddings":{"list":{}},"use_cudnn_on_gpu":{"b":true},"fused_ops":{"list":{"s":["Qmlhc0FkZA==","UmVsdTY="]}},"num_args":{"i":"1"},"padding":{"s":"U0FNRQ=="},"epsilon":{"f":0},"dilations":{"list":{"i":["1","1","1","1"]}}}},
          {"name":"StatefulPartitionedCall/center_net_mobile_net_v2fpn_feature_extractor/model_1/model/block_12_depthwise/depthwise","op":"FusedDepthwiseConv2dNative","input":["StatefulPartitionedCall/center_net_mobile_net_v2fpn_feature_extractor/model_1/model/block_12_expand_relu/Relu6","StatefulPartitionedCall/center_net_mobile_net_v2fpn_feature_extractor/model_1/model/block_12_depthwise/depthwise_weights","StatefulPartitionedCall/center_net_mobile_net_v2fpn_feature_extractor/model_1/model/block_12_depthwise/depthwise_bn_offset"],"attr":{"fused_ops":{"list":{"s":["Qmlhc0FkZA==","UmVsdTY="]}},"explicit_paddings":{"list":{}},"T":{"type":"DT_FLOAT"},"strides":{"list":{"i":["1","1","1","1"]}},"padding":{"s":"U0FNRQ=="},"data_format":{"s":"TkhXQw=="},"num_args":{"i":"1"},"dilations":{"list":{"i":["1","1","1","1"]}}}},
          {"name":"StatefulPartitionedCall/center_net_mobile_net_v2fpn_feature_extractor/model_1/model/block_12_project_BN/FusedBatchNormV3","op":"_FusedConv2D","input":["StatefulPartitionedCall/center_net_mobile_net_v2fpn_feature_extractor/model_1/model/block_12_depthwise/depthwise","StatefulPartitionedCall/center_net_mobile_net_v2fpn_feature_extractor/model_1/model/block_12_project/Conv2D_weights","StatefulPartitionedCall/center_net_mobile_net_v2fpn_feature_extractor/model_1/model/block_12_project/Conv2D_bn_offset"],"device":"/device:CPU:0","attr":{"num_args":{"i":"1"},"epsilon":{"f":0},"T":{"type":"DT_FLOAT"},"explicit_paddings":{"list":{}},"strides":{"list":{"i":["1","1","1","1"]}},"data_format":{"s":"TkhXQw=="},"use_cudnn_on_gpu":{"b":true},"fused_ops":{"list":{"s":["Qmlhc0FkZA=="]}},"padding":{"s":"U0FNRQ=="},"dilations":{"list":{"i":["1","1","1","1"]}}}},
          {"name":"StatefulPartitionedCall/center_net_mobile_net_v2fpn_feature_extractor/model_1/model/block_12_add/add","op":"AddV2","input":["StatefulPartitionedCall/center_net_mobile_net_v2fpn_feature_extractor/model_1/model/block_11_add/add","StatefulPartitionedCall/center_net_mobile_net_v2fpn_feature_extractor/model_1/model/block_12_project_BN/FusedBatchNormV3"],"attr":{"T":{"type":"DT_FLOAT"}}},
          {"name":"StatefulPartitionedCall/center_net_mobile_net_v2fpn_feature_extractor/model_1/model/block_13_expand_relu/Relu6","op":"_FusedConv2D","input":["StatefulPartitionedCall/center_net_mobile_net_v2fpn_feature_extractor/model_1/model/block_12_add/add","StatefulPartitionedCall/center_net_mobile_net_v2fpn_feature_extractor/model_1/model/block_13_expand/Conv2D_weights","StatefulPartitionedCall/center_net_mobile_net_v2fpn_feature_extractor/model_1/model/block_13_expand/Conv2D_bn_offset"],"device":"/device:CPU:0","attr":{"dilations":{"list":{"i":["1","1","1","1"]}},"strides":{"list":{"i":["1","1","1","1"]}},"num_args":{"i":"1"},"T":{"type":"DT_FLOAT"},"padding":{"s":"U0FNRQ=="},"use_cudnn_on_gpu":{"b":true},"data_format":{"s":"TkhXQw=="},"fused_ops":{"list":{"s":["Qmlhc0FkZA==","UmVsdTY="]}},"epsilon":{"f":0},"explicit_paddings":{"list":{}}}},
          {"name":"StatefulPartitionedCall/center_net_mobile_net_v2fpn_feature_extractor/model_1/model/block_13_depthwise/depthwise","op":"FusedDepthwiseConv2dNative","input":["StatefulPartitionedCall/center_net_mobile_net_v2fpn_feature_extractor/model_1/model/block_13_expand_relu/Relu6","StatefulPartitionedCall/center_net_mobile_net_v2fpn_feature_extractor/model_1/model/block_13_depthwise/depthwise_weights","StatefulPartitionedCall/center_net_mobile_net_v2fpn_feature_extractor/model_1/model/block_13_depthwise/depthwise_bn_offset"],"attr":{"dilations":{"list":{"i":["1","1","1","1"]}},"T":{"type":"DT_FLOAT"},"explicit_paddings":{"list":{}},"strides":{"list":{"i":["1","2","2","1"]}},"padding":{"s":"U0FNRQ=="},"num_args":{"i":"1"},"fused_ops":{"list":{"s":["Qmlhc0FkZA==","UmVsdTY="]}},"data_format":{"s":"TkhXQw=="}}},
          {"name":"StatefulPartitionedCall/center_net_mobile_net_v2fpn_feature_extractor/model_1/model/block_13_project_BN/FusedBatchNormV3","op":"_FusedConv2D","input":["StatefulPartitionedCall/center_net_mobile_net_v2fpn_feature_extractor/model_1/model/block_13_depthwise/depthwise","StatefulPartitionedCall/center_net_mobile_net_v2fpn_feature_extractor/model_1/model/block_13_project/Conv2D_weights","StatefulPartitionedCall/center_net_mobile_net_v2fpn_feature_extractor/model_1/model/block_13_project/Conv2D_bn_offset"],"device":"/device:CPU:0","attr":{"T":{"type":"DT_FLOAT"},"data_format":{"s":"TkhXQw=="},"strides":{"list":{"i":["1","1","1","1"]}},"use_cudnn_on_gpu":{"b":true},"explicit_paddings":{"list":{}},"padding":{"s":"U0FNRQ=="},"num_args":{"i":"1"},"fused_ops":{"list":{"s":["Qmlhc0FkZA=="]}},"dilations":{"list":{"i":["1","1","1","1"]}},"epsilon":{"f":0}}},
          {"name":"StatefulPartitionedCall/center_net_mobile_net_v2fpn_feature_extractor/model_1/model/block_14_expand_relu/Relu6","op":"_FusedConv2D","input":["StatefulPartitionedCall/center_net_mobile_net_v2fpn_feature_extractor/model_1/model/block_13_project_BN/FusedBatchNormV3","StatefulPartitionedCall/center_net_mobile_net_v2fpn_feature_extractor/model_1/model/block_14_expand/Conv2D_weights","StatefulPartitionedCall/center_net_mobile_net_v2fpn_feature_extractor/model_1/model/block_14_expand/Conv2D_bn_offset"],"device":"/device:CPU:0","attr":{"use_cudnn_on_gpu":{"b":true},"num_args":{"i":"1"},"dilations":{"list":{"i":["1","1","1","1"]}},"fused_ops":{"list":{"s":["Qmlhc0FkZA==","UmVsdTY="]}},"padding":{"s":"U0FNRQ=="},"strides":{"list":{"i":["1","1","1","1"]}},"data_format":{"s":"TkhXQw=="},"T":{"type":"DT_FLOAT"},"epsilon":{"f":0},"explicit_paddings":{"list":{}}}},
          {"name":"StatefulPartitionedCall/center_net_mobile_net_v2fpn_feature_extractor/model_1/model/block_14_depthwise/depthwise","op":"FusedDepthwiseConv2dNative","input":["StatefulPartitionedCall/center_net_mobile_net_v2fpn_feature_extractor/model_1/model/block_14_expand_relu/Relu6","StatefulPartitionedCall/center_net_mobile_net_v2fpn_feature_extractor/model_1/model/block_14_depthwise/depthwise_weights","StatefulPartitionedCall/center_net_mobile_net_v2fpn_feature_extractor/model_1/model/block_14_depthwise/depthwise_bn_offset"],"attr":{"strides":{"list":{"i":["1","1","1","1"]}},"num_args":{"i":"1"},"fused_ops":{"list":{"s":["Qmlhc0FkZA==","UmVsdTY="]}},"dilations":{"list":{"i":["1","1","1","1"]}},"data_format":{"s":"TkhXQw=="},"padding":{"s":"U0FNRQ=="},"explicit_paddings":{"list":{}},"T":{"type":"DT_FLOAT"}}},
          {"name":"StatefulPartitionedCall/center_net_mobile_net_v2fpn_feature_extractor/model_1/model/block_14_project_BN/FusedBatchNormV3","op":"_FusedConv2D","input":["StatefulPartitionedCall/center_net_mobile_net_v2fpn_feature_extractor/model_1/model/block_14_depthwise/depthwise","StatefulPartitionedCall/center_net_mobile_net_v2fpn_feature_extractor/model_1/model/block_14_project/Conv2D_weights","StatefulPartitionedCall/center_net_mobile_net_v2fpn_feature_extractor/model_1/model/block_14_project/Conv2D_bn_offset"],"device":"/device:CPU:0","attr":{"data_format":{"s":"TkhXQw=="},"epsilon":{"f":0},"explicit_paddings":{"list":{}},"num_args":{"i":"1"},"strides":{"list":{"i":["1","1","1","1"]}},"T":{"type":"DT_FLOAT"},"use_cudnn_on_gpu":{"b":true},"fused_ops":{"list":{"s":["Qmlhc0FkZA=="]}},"padding":{"s":"U0FNRQ=="},"dilations":{"list":{"i":["1","1","1","1"]}}}},
          {"name":"StatefulPartitionedCall/center_net_mobile_net_v2fpn_feature_extractor/model_1/model/block_14_add/add","op":"AddV2","input":["StatefulPartitionedCall/center_net_mobile_net_v2fpn_feature_extractor/model_1/model/block_13_project_BN/FusedBatchNormV3","StatefulPartitionedCall/center_net_mobile_net_v2fpn_feature_extractor/model_1/model/block_14_project_BN/FusedBatchNormV3"],"attr":{"T":{"type":"DT_FLOAT"}}},
          {"name":"StatefulPartitionedCall/center_net_mobile_net_v2fpn_feature_extractor/model_1/model/block_15_expand_relu/Relu6","op":"_FusedConv2D","input":["StatefulPartitionedCall/center_net_mobile_net_v2fpn_feature_extractor/model_1/model/block_14_add/add","StatefulPartitionedCall/center_net_mobile_net_v2fpn_feature_extractor/model_1/model/block_15_expand/Conv2D_weights","StatefulPartitionedCall/center_net_mobile_net_v2fpn_feature_extractor/model_1/model/block_15_expand/Conv2D_bn_offset"],"device":"/device:CPU:0","attr":{"padding":{"s":"U0FNRQ=="},"use_cudnn_on_gpu":{"b":true},"explicit_paddings":{"list":{}},"strides":{"list":{"i":["1","1","1","1"]}},"num_args":{"i":"1"},"dilations":{"list":{"i":["1","1","1","1"]}},"epsilon":{"f":0},"fused_ops":{"list":{"s":["Qmlhc0FkZA==","UmVsdTY="]}},"data_format":{"s":"TkhXQw=="},"T":{"type":"DT_FLOAT"}}},
          {"name":"StatefulPartitionedCall/center_net_mobile_net_v2fpn_feature_extractor/model_1/model/block_15_depthwise/depthwise","op":"FusedDepthwiseConv2dNative","input":["StatefulPartitionedCall/center_net_mobile_net_v2fpn_feature_extractor/model_1/model/block_15_expand_relu/Relu6","StatefulPartitionedCall/center_net_mobile_net_v2fpn_feature_extractor/model_1/model/block_15_depthwise/depthwise_weights","StatefulPartitionedCall/center_net_mobile_net_v2fpn_feature_extractor/model_1/model/block_15_depthwise/depthwise_bn_offset"],"attr":{"data_format":{"s":"TkhXQw=="},"explicit_paddings":{"list":{}},"num_args":{"i":"1"},"T":{"type":"DT_FLOAT"},"padding":{"s":"U0FNRQ=="},"fused_ops":{"list":{"s":["Qmlhc0FkZA==","UmVsdTY="]}},"strides":{"list":{"i":["1","1","1","1"]}},"dilations":{"list":{"i":["1","1","1","1"]}}}},
          {"name":"StatefulPartitionedCall/center_net_mobile_net_v2fpn_feature_extractor/model_1/model/block_15_project_BN/FusedBatchNormV3","op":"_FusedConv2D","input":["StatefulPartitionedCall/center_net_mobile_net_v2fpn_feature_extractor/model_1/model/block_15_depthwise/depthwise","StatefulPartitionedCall/center_net_mobile_net_v2fpn_feature_extractor/model_1/model/block_15_project/Conv2D_weights","StatefulPartitionedCall/center_net_mobile_net_v2fpn_feature_extractor/model_1/model/block_15_project/Conv2D_bn_offset"],"device":"/device:CPU:0","attr":{"epsilon":{"f":0},"strides":{"list":{"i":["1","1","1","1"]}},"explicit_paddings":{"list":{}},"data_format":{"s":"TkhXQw=="},"use_cudnn_on_gpu":{"b":true},"T":{"type":"DT_FLOAT"},"padding":{"s":"U0FNRQ=="},"num_args":{"i":"1"},"fused_ops":{"list":{"s":["Qmlhc0FkZA=="]}},"dilations":{"list":{"i":["1","1","1","1"]}}}},
          {"name":"StatefulPartitionedCall/center_net_mobile_net_v2fpn_feature_extractor/model_1/model/block_15_add/add","op":"AddV2","input":["StatefulPartitionedCall/center_net_mobile_net_v2fpn_feature_extractor/model_1/model/block_14_add/add","StatefulPartitionedCall/center_net_mobile_net_v2fpn_feature_extractor/model_1/model/block_15_project_BN/FusedBatchNormV3"],"attr":{"T":{"type":"DT_FLOAT"}}},
          {"name":"StatefulPartitionedCall/center_net_mobile_net_v2fpn_feature_extractor/model_1/model/block_16_expand_relu/Relu6","op":"_FusedConv2D","input":["StatefulPartitionedCall/center_net_mobile_net_v2fpn_feature_extractor/model_1/model/block_15_add/add","StatefulPartitionedCall/center_net_mobile_net_v2fpn_feature_extractor/model_1/model/block_16_expand/Conv2D_weights","StatefulPartitionedCall/center_net_mobile_net_v2fpn_feature_extractor/model_1/model/block_16_expand/Conv2D_bn_offset"],"device":"/device:CPU:0","attr":{"fused_ops":{"list":{"s":["Qmlhc0FkZA==","UmVsdTY="]}},"dilations":{"list":{"i":["1","1","1","1"]}},"epsilon":{"f":0},"T":{"type":"DT_FLOAT"},"data_format":{"s":"TkhXQw=="},"num_args":{"i":"1"},"explicit_paddings":{"list":{}},"padding":{"s":"U0FNRQ=="},"strides":{"list":{"i":["1","1","1","1"]}},"use_cudnn_on_gpu":{"b":true}}},
          {"name":"StatefulPartitionedCall/center_net_mobile_net_v2fpn_feature_extractor/model_1/model/block_16_depthwise/depthwise","op":"FusedDepthwiseConv2dNative","input":["StatefulPartitionedCall/center_net_mobile_net_v2fpn_feature_extractor/model_1/model/block_16_expand_relu/Relu6","StatefulPartitionedCall/center_net_mobile_net_v2fpn_feature_extractor/model_1/model/block_16_depthwise/depthwise_weights","StatefulPartitionedCall/center_net_mobile_net_v2fpn_feature_extractor/model_1/model/block_16_depthwise/depthwise_bn_offset"],"attr":{"explicit_paddings":{"list":{}},"T":{"type":"DT_FLOAT"},"num_args":{"i":"1"},"padding":{"s":"U0FNRQ=="},"dilations":{"list":{"i":["1","1","1","1"]}},"fused_ops":{"list":{"s":["Qmlhc0FkZA==","UmVsdTY="]}},"data_format":{"s":"TkhXQw=="},"strides":{"list":{"i":["1","1","1","1"]}}}},
          {"name":"StatefulPartitionedCall/center_net_mobile_net_v2fpn_feature_extractor/model_1/model/block_16_project_BN/FusedBatchNormV3","op":"_FusedConv2D","input":["StatefulPartitionedCall/center_net_mobile_net_v2fpn_feature_extractor/model_1/model/block_16_depthwise/depthwise","StatefulPartitionedCall/center_net_mobile_net_v2fpn_feature_extractor/model_1/model/block_16_project/Conv2D_weights","StatefulPartitionedCall/center_net_mobile_net_v2fpn_feature_extractor/model_1/model/block_16_project/Conv2D_bn_offset"],"device":"/device:CPU:0","attr":{"strides":{"list":{"i":["1","1","1","1"]}},"use_cudnn_on_gpu":{"b":true},"explicit_paddings":{"list":{}},"dilations":{"list":{"i":["1","1","1","1"]}},"data_format":{"s":"TkhXQw=="},"fused_ops":{"list":{"s":["Qmlhc0FkZA=="]}},"epsilon":{"f":0},"padding":{"s":"U0FNRQ=="},"num_args":{"i":"1"},"T":{"type":"DT_FLOAT"}}},
          {"name":"StatefulPartitionedCall/center_net_mobile_net_v2fpn_feature_extractor/model_1/model/out_relu/Relu6","op":"_FusedConv2D","input":["StatefulPartitionedCall/center_net_mobile_net_v2fpn_feature_extractor/model_1/model/block_16_project_BN/FusedBatchNormV3","StatefulPartitionedCall/center_net_mobile_net_v2fpn_feature_extractor/model_1/model/Conv_1/Conv2D_weights","StatefulPartitionedCall/center_net_mobile_net_v2fpn_feature_extractor/model_1/model/Conv_1/Conv2D_bn_offset"],"device":"/device:CPU:0","attr":{"fused_ops":{"list":{"s":["Qmlhc0FkZA==","UmVsdTY="]}},"use_cudnn_on_gpu":{"b":true},"explicit_paddings":{"list":{}},"padding":{"s":"U0FNRQ=="},"strides":{"list":{"i":["1","1","1","1"]}},"T":{"type":"DT_FLOAT"},"data_format":{"s":"TkhXQw=="},"epsilon":{"f":0},"dilations":{"list":{"i":["1","1","1","1"]}},"num_args":{"i":"1"}}},
          {"name":"StatefulPartitionedCall/center_net_mobile_net_v2fpn_feature_extractor/model_1/conv2d/BiasAdd","op":"_FusedConv2D","input":["StatefulPartitionedCall/center_net_mobile_net_v2fpn_feature_extractor/model_1/model/out_relu/Relu6","StatefulPartitionedCall/center_net_mobile_net_v2fpn_feature_extractor/model_1/conv2d/Conv2D/ReadVariableOp","StatefulPartitionedCall/center_net_mobile_net_v2fpn_feature_extractor/model_1/conv2d/BiasAdd/ReadVariableOp"],"device":"/device:CPU:0","attr":{"strides":{"list":{"i":["1","1","1","1"]}},"num_args":{"i":"1"},"explicit_paddings":{"list":{}},"T":{"type":"DT_FLOAT"},"data_format":{"s":"TkhXQw=="},"padding":{"s":"U0FNRQ=="},"fused_ops":{"list":{"s":["Qmlhc0FkZA=="]}},"use_cudnn_on_gpu":{"b":true},"epsilon":{"f":0},"dilations":{"list":{"i":["1","1","1","1"]}}}},
          {"name":"StatefulPartitionedCall/center_net_mobile_net_v2fpn_feature_extractor/model_1/up_sampling2d/Shape","op":"Shape","input":["StatefulPartitionedCall/center_net_mobile_net_v2fpn_feature_extractor/model_1/conv2d/BiasAdd"],"attr":{"T":{"type":"DT_FLOAT"},"out_type":{"type":"DT_INT32"}}},
          {"name":"StatefulPartitionedCall/center_net_mobile_net_v2fpn_feature_extractor/model_1/up_sampling2d/strided_slice","op":"StridedSlice","input":["StatefulPartitionedCall/center_net_mobile_net_v2fpn_feature_extractor/model_1/up_sampling2d/Shape","StatefulPartitionedCall/center_net_mobile_net_v2fpn_feature_extractor/model_1/up_sampling2d/strided_slice/stack","StatefulPartitionedCall/center_net_mobile_net_v2fpn_feature_extractor/model_1/up_sampling2d/strided_slice/stack_1","StatefulPartitionedCall/center_net_mobile_net_v2fpn_feature_extractor/model_1/up_sampling2d/strided_slice/stack_2"],"attr":{"shrink_axis_mask":{"i":"0"},"new_axis_mask":{"i":"0"},"end_mask":{"i":"0"},"T":{"type":"DT_INT32"},"ellipsis_mask":{"i":"0"},"begin_mask":{"i":"0"},"Index":{"type":"DT_INT32"}}},
          {"name":"StatefulPartitionedCall/center_net_mobile_net_v2fpn_feature_extractor/model_1/up_sampling2d/mul","op":"Mul","input":["StatefulPartitionedCall/center_net_mobile_net_v2fpn_feature_extractor/model_1/up_sampling2d/strided_slice","StatefulPartitionedCall/center_net_mobile_net_v2fpn_feature_extractor/model_1/up_sampling2d/Const"],"attr":{"T":{"type":"DT_INT32"}}},
          {"name":"StatefulPartitionedCall/center_net_mobile_net_v2fpn_feature_extractor/model_1/up_sampling2d/resize/ResizeBilinear","op":"ResizeBilinear","input":["StatefulPartitionedCall/center_net_mobile_net_v2fpn_feature_extractor/model_1/conv2d/BiasAdd","StatefulPartitionedCall/center_net_mobile_net_v2fpn_feature_extractor/model_1/up_sampling2d/mul"],"attr":{"align_corners":{"b":false},"half_pixel_centers":{"b":true},"T":{"type":"DT_FLOAT"}}},
          {"name":"StatefulPartitionedCall/center_net_mobile_net_v2fpn_feature_extractor/model_1/tf.__operators__.add/AddV2","op":"AddV2","input":["StatefulPartitionedCall/center_net_mobile_net_v2fpn_feature_extractor/model_1/up_sampling2d/resize/ResizeBilinear","StatefulPartitionedCall/center_net_mobile_net_v2fpn_feature_extractor/model_1/conv2d_1/BiasAdd"],"attr":{"T":{"type":"DT_FLOAT"}}},
          {"name":"StatefulPartitionedCall/center_net_mobile_net_v2fpn_feature_extractor/model_1/separable_conv2d/separable_conv2d/depthwise","op":"DepthwiseConv2dNative","input":["StatefulPartitionedCall/center_net_mobile_net_v2fpn_feature_extractor/model_1/tf.__operators__.add/AddV2","StatefulPartitionedCall/center_net_mobile_net_v2fpn_feature_extractor/model_1/separable_conv2d/separable_conv2d/ReadVariableOp"],"attr":{"explicit_paddings":{"list":{}},"padding":{"s":"U0FNRQ=="},"data_format":{"s":"TkhXQw=="},"T":{"type":"DT_FLOAT"},"strides":{"list":{"i":["1","1","1","1"]}},"dilations":{"list":{"i":["1","1","1","1"]}}}},
          {"name":"StatefulPartitionedCall/center_net_mobile_net_v2fpn_feature_extractor/model_1/re_lu/Relu","op":"_FusedConv2D","input":["StatefulPartitionedCall/center_net_mobile_net_v2fpn_feature_extractor/model_1/separable_conv2d/separable_conv2d/depthwise","StatefulPartitionedCall/center_net_mobile_net_v2fpn_feature_extractor/model_1/separable_conv2d/separable_conv2d_weights","StatefulPartitionedCall/center_net_mobile_net_v2fpn_feature_extractor/model_1/separable_conv2d/separable_conv2d_bn_offset"],"device":"/device:CPU:0","attr":{"dilations":{"list":{"i":["1","1","1","1"]}},"use_cudnn_on_gpu":{"b":true},"explicit_paddings":{"list":{}},"num_args":{"i":"1"},"T":{"type":"DT_FLOAT"},"fused_ops":{"list":{"s":["Qmlhc0FkZA==","UmVsdQ=="]}},"strides":{"list":{"i":["1","1","1","1"]}},"data_format":{"s":"TkhXQw=="},"epsilon":{"f":0},"padding":{"s":"VkFMSUQ="}}},
          {"name":"StatefulPartitionedCall/center_net_mobile_net_v2fpn_feature_extractor/model_1/up_sampling2d_1/Shape","op":"Shape","input":["StatefulPartitionedCall/center_net_mobile_net_v2fpn_feature_extractor/model_1/re_lu/Relu"],"attr":{"out_type":{"type":"DT_INT32"},"T":{"type":"DT_FLOAT"}}},
          {"name":"StatefulPartitionedCall/center_net_mobile_net_v2fpn_feature_extractor/model_1/up_sampling2d_1/strided_slice","op":"StridedSlice","input":["StatefulPartitionedCall/center_net_mobile_net_v2fpn_feature_extractor/model_1/up_sampling2d_1/Shape","StatefulPartitionedCall/center_net_mobile_net_v2fpn_feature_extractor/model_1/up_sampling2d_1/strided_slice/stack","StatefulPartitionedCall/center_net_mobile_net_v2fpn_feature_extractor/model_1/up_sampling2d_1/strided_slice/stack_1","StatefulPartitionedCall/center_net_mobile_net_v2fpn_feature_extractor/model_1/up_sampling2d_1/strided_slice/stack_2"],"attr":{"T":{"type":"DT_INT32"},"ellipsis_mask":{"i":"0"},"Index":{"type":"DT_INT32"},"shrink_axis_mask":{"i":"0"},"new_axis_mask":{"i":"0"},"end_mask":{"i":"0"},"begin_mask":{"i":"0"}}},
          {"name":"StatefulPartitionedCall/center_net_mobile_net_v2fpn_feature_extractor/model_1/up_sampling2d_1/mul","op":"Mul","input":["StatefulPartitionedCall/center_net_mobile_net_v2fpn_feature_extractor/model_1/up_sampling2d_1/strided_slice","StatefulPartitionedCall/center_net_mobile_net_v2fpn_feature_extractor/model_1/up_sampling2d_1/Const"],"attr":{"T":{"type":"DT_INT32"}}},
          {"name":"StatefulPartitionedCall/center_net_mobile_net_v2fpn_feature_extractor/model_1/up_sampling2d_1/resize/ResizeBilinear","op":"ResizeBilinear","input":["StatefulPartitionedCall/center_net_mobile_net_v2fpn_feature_extractor/model_1/re_lu/Relu","StatefulPartitionedCall/center_net_mobile_net_v2fpn_feature_extractor/model_1/up_sampling2d_1/mul"],"attr":{"half_pixel_centers":{"b":true},"align_corners":{"b":false},"T":{"type":"DT_FLOAT"}}},
          {"name":"StatefulPartitionedCall/center_net_mobile_net_v2fpn_feature_extractor/model_1/tf.__operators__.add_1/AddV2","op":"AddV2","input":["StatefulPartitionedCall/center_net_mobile_net_v2fpn_feature_extractor/model_1/up_sampling2d_1/resize/ResizeBilinear","StatefulPartitionedCall/center_net_mobile_net_v2fpn_feature_extractor/model_1/conv2d_2/BiasAdd"],"attr":{"T":{"type":"DT_FLOAT"}}},
          {"name":"StatefulPartitionedCall/center_net_mobile_net_v2fpn_feature_extractor/model_1/separable_conv2d_1/separable_conv2d/depthwise","op":"DepthwiseConv2dNative","input":["StatefulPartitionedCall/center_net_mobile_net_v2fpn_feature_extractor/model_1/tf.__operators__.add_1/AddV2","StatefulPartitionedCall/center_net_mobile_net_v2fpn_feature_extractor/model_1/separable_conv2d_1/separable_conv2d/ReadVariableOp"],"attr":{"padding":{"s":"U0FNRQ=="},"strides":{"list":{"i":["1","1","1","1"]}},"explicit_paddings":{"list":{}},"dilations":{"list":{"i":["1","1","1","1"]}},"T":{"type":"DT_FLOAT"},"data_format":{"s":"TkhXQw=="}}},
          {"name":"StatefulPartitionedCall/center_net_mobile_net_v2fpn_feature_extractor/model_1/re_lu_1/Relu","op":"_FusedConv2D","input":["StatefulPartitionedCall/center_net_mobile_net_v2fpn_feature_extractor/model_1/separable_conv2d_1/separable_conv2d/depthwise","StatefulPartitionedCall/center_net_mobile_net_v2fpn_feature_extractor/model_1/separable_conv2d_1/separable_conv2d_weights","StatefulPartitionedCall/center_net_mobile_net_v2fpn_feature_extractor/model_1/separable_conv2d_1/separable_conv2d_bn_offset"],"device":"/device:CPU:0","attr":{"T":{"type":"DT_FLOAT"},"padding":{"s":"VkFMSUQ="},"use_cudnn_on_gpu":{"b":true},"strides":{"list":{"i":["1","1","1","1"]}},"fused_ops":{"list":{"s":["Qmlhc0FkZA==","UmVsdQ=="]}},"explicit_paddings":{"list":{}},"num_args":{"i":"1"},"dilations":{"list":{"i":["1","1","1","1"]}},"epsilon":{"f":0},"data_format":{"s":"TkhXQw=="}}},
          {"name":"StatefulPartitionedCall/center_net_mobile_net_v2fpn_feature_extractor/model_1/up_sampling2d_2/Shape","op":"Shape","input":["StatefulPartitionedCall/center_net_mobile_net_v2fpn_feature_extractor/model_1/re_lu_1/Relu"],"attr":{"T":{"type":"DT_FLOAT"},"out_type":{"type":"DT_INT32"}}},
          {"name":"StatefulPartitionedCall/center_net_mobile_net_v2fpn_feature_extractor/model_1/up_sampling2d_2/strided_slice","op":"StridedSlice","input":["StatefulPartitionedCall/center_net_mobile_net_v2fpn_feature_extractor/model_1/up_sampling2d_2/Shape","StatefulPartitionedCall/center_net_mobile_net_v2fpn_feature_extractor/model_1/up_sampling2d_2/strided_slice/stack","StatefulPartitionedCall/center_net_mobile_net_v2fpn_feature_extractor/model_1/up_sampling2d_2/strided_slice/stack_1","StatefulPartitionedCall/center_net_mobile_net_v2fpn_feature_extractor/model_1/up_sampling2d_2/strided_slice/stack_2"],"attr":{"shrink_axis_mask":{"i":"0"},"T":{"type":"DT_INT32"},"end_mask":{"i":"0"},"begin_mask":{"i":"0"},"ellipsis_mask":{"i":"0"},"Index":{"type":"DT_INT32"},"new_axis_mask":{"i":"0"}}},
          {"name":"StatefulPartitionedCall/center_net_mobile_net_v2fpn_feature_extractor/model_1/up_sampling2d_2/mul","op":"Mul","input":["StatefulPartitionedCall/center_net_mobile_net_v2fpn_feature_extractor/model_1/up_sampling2d_2/strided_slice","StatefulPartitionedCall/center_net_mobile_net_v2fpn_feature_extractor/model_1/up_sampling2d_2/Const"],"attr":{"T":{"type":"DT_INT32"}}},
          {"name":"StatefulPartitionedCall/center_net_mobile_net_v2fpn_feature_extractor/model_1/up_sampling2d_2/resize/ResizeBilinear","op":"ResizeBilinear","input":["StatefulPartitionedCall/center_net_mobile_net_v2fpn_feature_extractor/model_1/re_lu_1/Relu","StatefulPartitionedCall/center_net_mobile_net_v2fpn_feature_extractor/model_1/up_sampling2d_2/mul"],"attr":{"T":{"type":"DT_FLOAT"},"align_corners":{"b":false},"half_pixel_centers":{"b":true}}},
          {"name":"StatefulPartitionedCall/center_net_mobile_net_v2fpn_feature_extractor/model_1/tf.__operators__.add_2/AddV2","op":"AddV2","input":["StatefulPartitionedCall/center_net_mobile_net_v2fpn_feature_extractor/model_1/up_sampling2d_2/resize/ResizeBilinear","StatefulPartitionedCall/center_net_mobile_net_v2fpn_feature_extractor/model_1/conv2d_3/BiasAdd"],"attr":{"T":{"type":"DT_FLOAT"}}},
          {"name":"StatefulPartitionedCall/center_net_mobile_net_v2fpn_feature_extractor/model_1/separable_conv2d_2/separable_conv2d/depthwise","op":"DepthwiseConv2dNative","input":["StatefulPartitionedCall/center_net_mobile_net_v2fpn_feature_extractor/model_1/tf.__operators__.add_2/AddV2","StatefulPartitionedCall/center_net_mobile_net_v2fpn_feature_extractor/model_1/separable_conv2d_2/separable_conv2d/ReadVariableOp"],"attr":{"explicit_paddings":{"list":{}},"T":{"type":"DT_FLOAT"},"padding":{"s":"U0FNRQ=="},"data_format":{"s":"TkhXQw=="},"strides":{"list":{"i":["1","1","1","1"]}},"dilations":{"list":{"i":["1","1","1","1"]}}}},
          {"name":"StatefulPartitionedCall/center_net_mobile_net_v2fpn_feature_extractor/model_1/re_lu_2/Relu","op":"_FusedConv2D","input":["StatefulPartitionedCall/center_net_mobile_net_v2fpn_feature_extractor/model_1/separable_conv2d_2/separable_conv2d/depthwise","StatefulPartitionedCall/center_net_mobile_net_v2fpn_feature_extractor/model_1/separable_conv2d_2/separable_conv2d_weights","StatefulPartitionedCall/center_net_mobile_net_v2fpn_feature_extractor/model_1/separable_conv2d_2/separable_conv2d_bn_offset"],"device":"/device:CPU:0","attr":{"fused_ops":{"list":{"s":["Qmlhc0FkZA==","UmVsdQ=="]}},"padding":{"s":"VkFMSUQ="},"data_format":{"s":"TkhXQw=="},"T":{"type":"DT_FLOAT"},"epsilon":{"f":0},"explicit_paddings":{"list":{}},"strides":{"list":{"i":["1","1","1","1"]}},"dilations":{"list":{"i":["1","1","1","1"]}},"num_args":{"i":"1"},"use_cudnn_on_gpu":{"b":true}}},
          {"name":"StatefulPartitionedCall/kpt_offset_0/separable_conv2d_8/separable_conv2d/depthwise","op":"DepthwiseConv2dNative","input":["StatefulPartitionedCall/center_net_mobile_net_v2fpn_feature_extractor/model_1/re_lu_2/Relu","StatefulPartitionedCall/kpt_offset_0/separable_conv2d_8/separable_conv2d/ReadVariableOp"],"attr":{"explicit_paddings":{"list":{}},"data_format":{"s":"TkhXQw=="},"padding":{"s":"U0FNRQ=="},"dilations":{"list":{"i":["1","1","1","1"]}},"T":{"type":"DT_FLOAT"},"strides":{"list":{"i":["1","1","1","1"]}}}},
          {"name":"StatefulPartitionedCall/kpt_regress_0/separable_conv2d_7/separable_conv2d/depthwise","op":"DepthwiseConv2dNative","input":["StatefulPartitionedCall/center_net_mobile_net_v2fpn_feature_extractor/model_1/re_lu_2/Relu","StatefulPartitionedCall/kpt_regress_0/separable_conv2d_7/separable_conv2d/ReadVariableOp"],"attr":{"strides":{"list":{"i":["1","1","1","1"]}},"explicit_paddings":{"list":{}},"data_format":{"s":"TkhXQw=="},"dilations":{"list":{"i":["1","1","1","1"]}},"T":{"type":"DT_FLOAT"},"padding":{"s":"U0FNRQ=="}}},
          {"name":"StatefulPartitionedCall/kpt_heatmap_0/separable_conv2d_6/separable_conv2d/depthwise","op":"DepthwiseConv2dNative","input":["StatefulPartitionedCall/center_net_mobile_net_v2fpn_feature_extractor/model_1/re_lu_2/Relu","StatefulPartitionedCall/kpt_heatmap_0/separable_conv2d_6/separable_conv2d/ReadVariableOp"],"attr":{"explicit_paddings":{"list":{}},"data_format":{"s":"TkhXQw=="},"T":{"type":"DT_FLOAT"},"padding":{"s":"U0FNRQ=="},"dilations":{"list":{"i":["1","1","1","1"]}},"strides":{"list":{"i":["1","1","1","1"]}}}},
          {"name":"StatefulPartitionedCall/box_offset_0/separable_conv2d_5/separable_conv2d/depthwise","op":"DepthwiseConv2dNative","input":["StatefulPartitionedCall/center_net_mobile_net_v2fpn_feature_extractor/model_1/re_lu_2/Relu","StatefulPartitionedCall/box_offset_0/separable_conv2d_5/separable_conv2d/ReadVariableOp"],"attr":{"data_format":{"s":"TkhXQw=="},"dilations":{"list":{"i":["1","1","1","1"]}},"strides":{"list":{"i":["1","1","1","1"]}},"T":{"type":"DT_FLOAT"},"explicit_paddings":{"list":{}},"padding":{"s":"U0FNRQ=="}}},
          {"name":"StatefulPartitionedCall/box_scale_0/separable_conv2d_4/separable_conv2d/depthwise","op":"DepthwiseConv2dNative","input":["StatefulPartitionedCall/center_net_mobile_net_v2fpn_feature_extractor/model_1/re_lu_2/Relu","StatefulPartitionedCall/box_scale_0/separable_conv2d_4/separable_conv2d/ReadVariableOp"],"attr":{"padding":{"s":"U0FNRQ=="},"T":{"type":"DT_FLOAT"},"dilations":{"list":{"i":["1","1","1","1"]}},"explicit_paddings":{"list":{}},"data_format":{"s":"TkhXQw=="},"strides":{"list":{"i":["1","1","1","1"]}}}},
          {"name":"StatefulPartitionedCall/center_0/separable_conv2d_3/separable_conv2d/depthwise","op":"DepthwiseConv2dNative","input":["StatefulPartitionedCall/center_net_mobile_net_v2fpn_feature_extractor/model_1/re_lu_2/Relu","StatefulPartitionedCall/center_0/separable_conv2d_3/separable_conv2d/ReadVariableOp"],"attr":{"dilations":{"list":{"i":["1","1","1","1"]}},"padding":{"s":"U0FNRQ=="},"strides":{"list":{"i":["1","1","1","1"]}},"T":{"type":"DT_FLOAT"},"explicit_paddings":{"list":{}},"data_format":{"s":"TkhXQw=="}}},
          {"name":"StatefulPartitionedCall/kpt_offset_0/re_lu_8/Relu","op":"_FusedConv2D","input":["StatefulPartitionedCall/kpt_offset_0/separable_conv2d_8/separable_conv2d/depthwise","StatefulPartitionedCall/kpt_offset_0/separable_conv2d_8/separable_conv2d/ReadVariableOp_1","StatefulPartitionedCall/kpt_offset_0/separable_conv2d_8/BiasAdd/ReadVariableOp"],"device":"/device:CPU:0","attr":{"strides":{"list":{"i":["1","1","1","1"]}},"fused_ops":{"list":{"s":["Qmlhc0FkZA==","UmVsdQ=="]}},"data_format":{"s":"TkhXQw=="},"num_args":{"i":"1"},"epsilon":{"f":0},"dilations":{"list":{"i":["1","1","1","1"]}},"T":{"type":"DT_FLOAT"},"use_cudnn_on_gpu":{"b":true},"explicit_paddings":{"list":{}},"padding":{"s":"VkFMSUQ="}}},
          {"name":"StatefulPartitionedCall/kpt_regress_0/re_lu_7/Relu","op":"_FusedConv2D","input":["StatefulPartitionedCall/kpt_regress_0/separable_conv2d_7/separable_conv2d/depthwise","StatefulPartitionedCall/kpt_regress_0/separable_conv2d_7/separable_conv2d/ReadVariableOp_1","StatefulPartitionedCall/kpt_regress_0/separable_conv2d_7/BiasAdd/ReadVariableOp"],"device":"/device:CPU:0","attr":{"T":{"type":"DT_FLOAT"},"dilations":{"list":{"i":["1","1","1","1"]}},"fused_ops":{"list":{"s":["Qmlhc0FkZA==","UmVsdQ=="]}},"epsilon":{"f":0},"data_format":{"s":"TkhXQw=="},"explicit_paddings":{"list":{}},"use_cudnn_on_gpu":{"b":true},"num_args":{"i":"1"},"padding":{"s":"VkFMSUQ="},"strides":{"list":{"i":["1","1","1","1"]}}}},
          {"name":"StatefulPartitionedCall/kpt_heatmap_0/re_lu_6/Relu","op":"_FusedConv2D","input":["StatefulPartitionedCall/kpt_heatmap_0/separable_conv2d_6/separable_conv2d/depthwise","StatefulPartitionedCall/kpt_heatmap_0/separable_conv2d_6/separable_conv2d/ReadVariableOp_1","StatefulPartitionedCall/kpt_heatmap_0/separable_conv2d_6/BiasAdd/ReadVariableOp"],"device":"/device:CPU:0","attr":{"strides":{"list":{"i":["1","1","1","1"]}},"dilations":{"list":{"i":["1","1","1","1"]}},"T":{"type":"DT_FLOAT"},"fused_ops":{"list":{"s":["Qmlhc0FkZA==","UmVsdQ=="]}},"use_cudnn_on_gpu":{"b":true},"padding":{"s":"VkFMSUQ="},"epsilon":{"f":0},"explicit_paddings":{"list":{}},"num_args":{"i":"1"},"data_format":{"s":"TkhXQw=="}}},
          {"name":"StatefulPartitionedCall/box_offset_0/re_lu_5/Relu","op":"_FusedConv2D","input":["StatefulPartitionedCall/box_offset_0/separable_conv2d_5/separable_conv2d/depthwise","StatefulPartitionedCall/box_offset_0/separable_conv2d_5/separable_conv2d/ReadVariableOp_1","StatefulPartitionedCall/box_offset_0/separable_conv2d_5/BiasAdd/ReadVariableOp"],"device":"/device:CPU:0","attr":{"dilations":{"list":{"i":["1","1","1","1"]}},"padding":{"s":"VkFMSUQ="},"strides":{"list":{"i":["1","1","1","1"]}},"epsilon":{"f":0},"T":{"type":"DT_FLOAT"},"fused_ops":{"list":{"s":["Qmlhc0FkZA==","UmVsdQ=="]}},"explicit_paddings":{"list":{}},"use_cudnn_on_gpu":{"b":true},"data_format":{"s":"TkhXQw=="},"num_args":{"i":"1"}}},
          {"name":"StatefulPartitionedCall/box_scale_0/re_lu_4/Relu","op":"_FusedConv2D","input":["StatefulPartitionedCall/box_scale_0/separable_conv2d_4/separable_conv2d/depthwise","StatefulPartitionedCall/box_scale_0/separable_conv2d_4/separable_conv2d/ReadVariableOp_1","StatefulPartitionedCall/box_scale_0/separable_conv2d_4/BiasAdd/ReadVariableOp"],"device":"/device:CPU:0","attr":{"num_args":{"i":"1"},"data_format":{"s":"TkhXQw=="},"padding":{"s":"VkFMSUQ="},"strides":{"list":{"i":["1","1","1","1"]}},"fused_ops":{"list":{"s":["Qmlhc0FkZA==","UmVsdQ=="]}},"use_cudnn_on_gpu":{"b":true},"epsilon":{"f":0},"T":{"type":"DT_FLOAT"},"explicit_paddings":{"list":{}},"dilations":{"list":{"i":["1","1","1","1"]}}}},
          {"name":"StatefulPartitionedCall/center_0/re_lu_3/Relu","op":"_FusedConv2D","input":["StatefulPartitionedCall/center_0/separable_conv2d_3/separable_conv2d/depthwise","StatefulPartitionedCall/center_0/separable_conv2d_3/separable_conv2d/ReadVariableOp_1","StatefulPartitionedCall/center_0/separable_conv2d_3/BiasAdd/ReadVariableOp"],"device":"/device:CPU:0","attr":{"fused_ops":{"list":{"s":["Qmlhc0FkZA==","UmVsdQ=="]}},"strides":{"list":{"i":["1","1","1","1"]}},"dilations":{"list":{"i":["1","1","1","1"]}},"data_format":{"s":"TkhXQw=="},"num_args":{"i":"1"},"T":{"type":"DT_FLOAT"},"epsilon":{"f":0},"explicit_paddings":{"list":{}},"padding":{"s":"VkFMSUQ="},"use_cudnn_on_gpu":{"b":true}}},
          {"name":"StatefulPartitionedCall/kpt_offset_0/conv2d_9/BiasAdd","op":"_FusedConv2D","input":["StatefulPartitionedCall/kpt_offset_0/re_lu_8/Relu","StatefulPartitionedCall/kpt_offset_0/conv2d_9/Conv2D/ReadVariableOp","StatefulPartitionedCall/kpt_offset_0/conv2d_9/BiasAdd/ReadVariableOp"],"device":"/device:CPU:0","attr":{"dilations":{"list":{"i":["1","1","1","1"]}},"padding":{"s":"VkFMSUQ="},"strides":{"list":{"i":["1","1","1","1"]}},"data_format":{"s":"TkhXQw=="},"explicit_paddings":{"list":{}},"num_args":{"i":"1"},"use_cudnn_on_gpu":{"b":true},"fused_ops":{"list":{"s":["Qmlhc0FkZA=="]}},"epsilon":{"f":0},"T":{"type":"DT_FLOAT"}}},
          {"name":"StatefulPartitionedCall/kpt_regress_0/conv2d_8/BiasAdd","op":"_FusedConv2D","input":["StatefulPartitionedCall/kpt_regress_0/re_lu_7/Relu","StatefulPartitionedCall/kpt_regress_0/conv2d_8/Conv2D/ReadVariableOp","StatefulPartitionedCall/kpt_regress_0/conv2d_8/BiasAdd/ReadVariableOp"],"device":"/device:CPU:0","attr":{"use_cudnn_on_gpu":{"b":true},"explicit_paddings":{"list":{}},"dilations":{"list":{"i":["1","1","1","1"]}},"num_args":{"i":"1"},"fused_ops":{"list":{"s":["Qmlhc0FkZA=="]}},"epsilon":{"f":0},"T":{"type":"DT_FLOAT"},"strides":{"list":{"i":["1","1","1","1"]}},"padding":{"s":"VkFMSUQ="},"data_format":{"s":"TkhXQw=="}}},
          {"name":"StatefulPartitionedCall/kpt_heatmap_0/conv2d_7/BiasAdd","op":"_FusedConv2D","input":["StatefulPartitionedCall/kpt_heatmap_0/re_lu_6/Relu","StatefulPartitionedCall/kpt_heatmap_0/conv2d_7/Conv2D/ReadVariableOp","StatefulPartitionedCall/kpt_heatmap_0/conv2d_7/BiasAdd/ReadVariableOp"],"device":"/device:CPU:0","attr":{"data_format":{"s":"TkhXQw=="},"use_cudnn_on_gpu":{"b":true},"explicit_paddings":{"list":{}},"padding":{"s":"VkFMSUQ="},"dilations":{"list":{"i":["1","1","1","1"]}},"T":{"type":"DT_FLOAT"},"fused_ops":{"list":{"s":["Qmlhc0FkZA=="]}},"strides":{"list":{"i":["1","1","1","1"]}},"epsilon":{"f":0},"num_args":{"i":"1"}}},
          {"name":"StatefulPartitionedCall/box_offset_0/conv2d_6/BiasAdd","op":"_FusedConv2D","input":["StatefulPartitionedCall/box_offset_0/re_lu_5/Relu","StatefulPartitionedCall/box_offset_0/conv2d_6/Conv2D/ReadVariableOp","StatefulPartitionedCall/box_offset_0/conv2d_6/BiasAdd/ReadVariableOp"],"device":"/device:CPU:0","attr":{"dilations":{"list":{"i":["1","1","1","1"]}},"epsilon":{"f":0},"num_args":{"i":"1"},"T":{"type":"DT_FLOAT"},"data_format":{"s":"TkhXQw=="},"use_cudnn_on_gpu":{"b":true},"padding":{"s":"VkFMSUQ="},"explicit_paddings":{"list":{}},"strides":{"list":{"i":["1","1","1","1"]}},"fused_ops":{"list":{"s":["Qmlhc0FkZA=="]}}}},
          {"name":"StatefulPartitionedCall/box_scale_0/conv2d_5/BiasAdd","op":"_FusedConv2D","input":["StatefulPartitionedCall/box_scale_0/re_lu_4/Relu","StatefulPartitionedCall/box_scale_0/conv2d_5/Conv2D/ReadVariableOp","StatefulPartitionedCall/box_scale_0/conv2d_5/BiasAdd/ReadVariableOp"],"device":"/device:CPU:0","attr":{"strides":{"list":{"i":["1","1","1","1"]}},"data_format":{"s":"TkhXQw=="},"padding":{"s":"VkFMSUQ="},"use_cudnn_on_gpu":{"b":true},"explicit_paddings":{"list":{}},"fused_ops":{"list":{"s":["Qmlhc0FkZA=="]}},"num_args":{"i":"1"},"epsilon":{"f":0},"T":{"type":"DT_FLOAT"},"dilations":{"list":{"i":["1","1","1","1"]}}}},
          {"name":"StatefulPartitionedCall/center_0/conv2d_4/BiasAdd","op":"_FusedConv2D","input":["StatefulPartitionedCall/center_0/re_lu_3/Relu","StatefulPartitionedCall/center_0/conv2d_4/Conv2D/ReadVariableOp","StatefulPartitionedCall/center_0/conv2d_4/BiasAdd/ReadVariableOp"],"device":"/device:CPU:0","attr":{"dilations":{"list":{"i":["1","1","1","1"]}},"fused_ops":{"list":{"s":["Qmlhc0FkZA=="]}},"padding":{"s":"VkFMSUQ="},"num_args":{"i":"1"},"epsilon":{"f":0},"data_format":{"s":"TkhXQw=="},"strides":{"list":{"i":["1","1","1","1"]}},"explicit_paddings":{"list":{}},"T":{"type":"DT_FLOAT"},"use_cudnn_on_gpu":{"b":true}}},
          {"name":"StatefulPartitionedCall/Squeeze_3","op":"Squeeze","input":["StatefulPartitionedCall/kpt_regress_0/conv2d_8/BiasAdd"],"attr":{"T":{"type":"DT_FLOAT"},"squeeze_dims":{"list":{"i":["0"]}}}},
          {"name":"StatefulPartitionedCall/Sigmoid_1","op":"Sigmoid","input":["StatefulPartitionedCall/kpt_heatmap_0/conv2d_7/BiasAdd"],"attr":{"T":{"type":"DT_FLOAT"}}},
          {"name":"StatefulPartitionedCall/Shape_3","op":"Shape","input":["StatefulPartitionedCall/box_scale_0/conv2d_5/BiasAdd"],"attr":{"T":{"type":"DT_FLOAT"},"out_type":{"type":"DT_INT32"}}},
          {"name":"StatefulPartitionedCall/Sigmoid","op":"Sigmoid","input":["StatefulPartitionedCall/center_0/conv2d_4/BiasAdd"],"attr":{"T":{"type":"DT_FLOAT"}}},
          {"name":"StatefulPartitionedCall/Squeeze_2","op":"Squeeze","input":["StatefulPartitionedCall/Sigmoid_1"],"attr":{"T":{"type":"DT_FLOAT"},"squeeze_dims":{"list":{"i":["0"]}}}},
          {"name":"StatefulPartitionedCall/strided_slice_4","op":"StridedSlice","input":["StatefulPartitionedCall/Shape_3","StatefulPartitionedCall/strided_slice_4/stack","StatefulPartitionedCall/strided_slice_4/stack_1","StatefulPartitionedCall/strided_slice_4/stack_2"],"attr":{"shrink_axis_mask":{"i":"1"},"T":{"type":"DT_INT32"},"begin_mask":{"i":"0"},"end_mask":{"i":"0"},"new_axis_mask":{"i":"0"},"ellipsis_mask":{"i":"0"},"Index":{"type":"DT_INT32"}}},
          {"name":"StatefulPartitionedCall/strided_slice_5","op":"StridedSlice","input":["StatefulPartitionedCall/Shape_3","StatefulPartitionedCall/strided_slice_5/stack","StatefulPartitionedCall/strided_slice_5/stack_1","StatefulPartitionedCall/strided_slice_5/stack_2"],"attr":{"begin_mask":{"i":"0"},"end_mask":{"i":"0"},"ellipsis_mask":{"i":"0"},"Index":{"type":"DT_INT32"},"T":{"type":"DT_INT32"},"new_axis_mask":{"i":"0"},"shrink_axis_mask":{"i":"1"}}},
          {"name":"StatefulPartitionedCall/Shape","op":"Shape","input":["StatefulPartitionedCall/Sigmoid"],"attr":{"T":{"type":"DT_FLOAT"},"out_type":{"type":"DT_INT32"}}},
…
          {"name":"StatefulPartitionedCall/concat","op":"ConcatV2","input":["StatefulPartitionedCall/mul_11","StatefulPartitionedCall/ExpandDims_6","StatefulPartitionedCall/concat/axis"],"attr":{"T":{"type":"DT_FLOAT"},"N":{"i":"2"},"Tidx":{"type":"DT_INT32"}}},
          {"name":"StatefulPartitionedCall/truediv_10","op":"Reciprocal","input":["StatefulPartitionedCall/Maximum_1"],"attr":{"T":{"type":"DT_FLOAT"}}},
          {"name":"StatefulPartitionedCall/Reshape_22","op":"Reshape","input":["StatefulPartitionedCall/concat","StatefulPartitionedCall/Reshape_22/shape"],"attr":{"T":{"type":"DT_FLOAT"},"Tshape":{"type":"DT_INT32"}}},
          {"name":"StatefulPartitionedCall/mul_15","op":"Mul","input":["StatefulPartitionedCall/truediv_10","StatefulPartitionedCall/Sum_3"],"attr":{"T":{"type":"DT_FLOAT"}}},
          {"name":"StatefulPartitionedCall/Select_1","op":"Select","input":["StatefulPartitionedCall/Equal_2","StatefulPartitionedCall/mul_15","StatefulPartitionedCall/TopKV2"],"attr":{"T":{"type":"DT_FLOAT"}}},
          {"name":"StatefulPartitionedCall/strided_slice_24","op":"StridedSlice","input":["StatefulPartitionedCall/Select_1","StatefulPartitionedCall/strided_slice_24/stack","StatefulPartitionedCall/strided_slice_24/stack_1","StatefulPartitionedCall/strided_slice_24/stack_2"],"attr":{"Index":{"type":"DT_INT32"},"begin_mask":{"i":"3"},"end_mask":{"i":"3"},"T":{"type":"DT_FLOAT"},"shrink_axis_mask":{"i":"0"},"ellipsis_mask":{"i":"0"},"new_axis_mask":{"i":"4"}}},
          {"name":"StatefulPartitionedCall/concat_1","op":"ConcatV2","input":["StatefulPartitionedCall/Reshape_22","StatefulPartitionedCall/clip_by_value_4","StatefulPartitionedCall/strided_slice_24","StatefulPartitionedCall/concat_1/axis"],"attr":{"Tidx":{"type":"DT_INT32"},"T":{"type":"DT_FLOAT"},"N":{"i":"3"}}},
          {"name":"Identity","op":"Identity","input":["StatefulPartitionedCall/concat_1"],"attr":{"T":{"type":"DT_FLOAT"}}}
      ],
      "library": {},
      "versions":
      {
          "producer": 808
      }
  },
  "weightsManifest":
  [
      {
          "paths": ["movenet-multipose.bin"],
          "weights": [{"name":"StatefulPartitionedCall/ExpandDims_3/dim","shape":[],"dtype":"int32"},{"name":"StatefulPartitionedCall/kpt_offset_0/separable_conv2d_8/separable_conv2d/ReadVariableOp","shape":[3,3,24,1],"dtype":"float32","quantization":{"dtype":"float16","original_dtype":"float32"}},{"name":"StatefulPartitionedCall/kpt_offset_0/separable_conv2d_8/separable_conv2d/ReadVariableOp_1","shape":[1,1,24,96],"dtype":"float32","quantization":{"dtype":"float16","original_dtype":"float32"}},{"name":"StatefulPartitionedCall/kpt_offset_0/separable_conv2d_8/BiasAdd/ReadVariableOp","shape":[96],"dtype":"float32","quantization":{"dtype":"float16","original_dtype":"float32"}},{"name":"StatefulPartitionedCall/kpt_offset_0/conv2d_9/Conv2D/ReadVariableOp","shape":[1,1,96,34],"dtype":"float32","quantization":{"dtype":"float16","original_dtype":"float32"}},{"name":"StatefulPartitionedCall/kpt_offset_0/conv2d_9/BiasAdd/ReadVariableOp","shape":[34],"dtype":"float32","quantization":{"dtype":"float16","original_dtype":"float32"}},{"name":"StatefulPartitionedCall/Reshape_8/shape/2","shape":[],"dtype":"int32"},{"name":"StatefulPartitionedCall/Reshape_8/shape/3","shape":[],"dtype":"int32"},{"name":"StatefulPartitionedCall/Reshape_17","shape":[102],"dtype":"int32"},{"name":"StatefulPartitionedCall/ExpandDims_4/dim","shape":[],"dtype":"int32"},{"name":"StatefulPartitionedCall/Reshape_18/shape","shape":[4],"dtype":"int32"},{"name":"StatefulPartitionedCall/truediv_8/x","shape":[],"dtype":"float32","quantization":{"dtype":"float16","original_dtype":"float32"}},{"name":"StatefulPartitionedCall/truediv_9/x","shape":[],"dtype":"float32","quantization":{"dtype":"float16","original_dtype":"float32"}},{"name":"StatefulPartitionedCall/Reshape_21/shape","shape":[4],"dtype":"int32"},{"name":"StatefulPartitionedCall/ExpandDims_6/dim","shape":[],"dtype":"int32"},{"name":"StatefulPartitionedCall/concat/axis","shape":[],"dtype":"int32"},{"name":"StatefulPartitionedCall/Reshape_22/shape","shape":[3],"dtype":"int32"},{"name":"StatefulPartitionedCall/mul_5/y","shape":[],"dtype":"float32","quantization":{"dtype":"float16","original_dtype":"float32"}},{"name":"StatefulPartitionedCall/strided_slice/stack","shape":[1],"dtype":"int32"},{"name":"StatefulPartitionedCall/strided_slice/stack_1","shape":[1],"dtype":"int32"},{"name":"StatefulPartitionedCall/strided_slice/stack_2","shape":[1],"dtype":"int32"},{"name":"StatefulPartitionedCall/mul/y","shape":[],"dtype":"int32"},{"name":"StatefulPartitionedCall/strided_slice_1/stack","shape":[1],"dtype":"int32"},{"name":"StatefulPartitionedCall/strided_slice_1/stack_1","shape":[1],"dtype":"int32"},{"name":"StatefulPartitionedCall/strided_slice_1/stack_2","shape":[1],"dtype":"int32"},{"name":"StatefulPartitionedCall/mul_1/y","shape":[],"dtype":"int32"},{"name":"StatefulPartitionedCall/Const_2","shape":[],"dtype":"int32"},{"name":"StatefulPartitionedCall/ExpandDims/dim","shape":[],"dtype":"int32"},{"name":"StatefulPartitionedCall/strided_slice_6/stack","shape":[3],"dtype":"int32"},{"name":"StatefulPartitionedCall/strided_slice_6/stack_1","shape":[3],"dtype":"int32"},{"name":"StatefulPartitionedCall/strided_slice_6/stack_2","shape":[3],"dtype":"int32"},{"name":"StatefulPartitionedCall/Tile_1/multiples","shape":[3],"dtype":"int32"},{"name":"StatefulPartitionedCall/clip_by_value_4/Minimum/y","shape":[],"dtype":"float32","quantization":{"dtype":"float16","original_dtype":"float32"}},{"name":"StatefulPartitionedCall/clip_by_value_4/y","shape":[],"dtype":"float32","quantization":{"dtype":"float16","original_dtype":"float32"}},{"name":"StatefulPartitionedCall/x_2","shape":[],"dtype":"int32"},{"name":"StatefulPartitionedCall/Sum_2/reduction_indices","shape":[],"dtype":"int32"},{"name":"StatefulPartitionedCall/Maximum_1/y","shape":[],"dtype":"float32","quantization":{"dtype":"float16","original_dtype":"float32"}},{"name":"StatefulPartitionedCall/strided_slice_23/stack","shape":[3],"dtype":"int32"},{"name":"StatefulPartitionedCall/strided_slice_23/stack_1","shape":[3],"dtype":"int32"},{"name":"StatefulPartitionedCall/strided_slice_23/stack_2","shape":[3],"dtype":"int32"},{"name":"StatefulPartitionedCall/floordiv_3/y","shape":[],"dtype":"int32"},{"name":"StatefulPartitionedCall/strided_slice_21/stack","shape":[3],"dtype":"int32"},{"name":"StatefulPartitionedCall/strided_slice_21/stack_1","shape":[3],"dtype":"int32"},{"name":"StatefulPartitionedCall/strided_slice_21/stack_2","shape":[3],"dtype":"int32"},{"name":"StatefulPartitionedCall/Tile_4/multiples","shape":[3],"dtype":"int32"},{"name":"StatefulPartitionedCall/x","shape":[],"dtype":"int32"},{"name":"StatefulPartitionedCall/Greater_1/y","shape":[],"dtype":"float32","quantization":{"dtype":"float16","original_dtype":"float32"}},{"name":"StatefulPartitionedCall/Max/reduction_indices","shape":[],"dtype":"int32"},{"name":"StatefulPartitionedCall/Reshape_16/shape","shape":[2],"dtype":"int32"},{"name":"StatefulPartitionedCall/ArgMax/dimension","shape":[],"dtype":"int32"},{"name":"StatefulPartitionedCall/strided_slice_17/stack","shape":[4],"dtype":"int32"},{"name":"StatefulPartitionedCall/strided_slice_17/stack_1","shape":[4],"dtype":"int32"},{"name":"StatefulPartitionedCall/strided_slice_17/stack_2","shape":[4],"dtype":"int32"},{"name":"StatefulPartitionedCall/mul_7/x","shape":[],"dtype":"float32","quantization":{"dtype":"float16","original_dtype":"float32"}},{"name":"StatefulPartitionedCall/strided_slice_9/stack","shape":[4],"dtype":"int32"},{"name":"StatefulPartitionedCall/strided_slice_9/stack_1","shape":[4],"dtype":"int32"},{"name":"StatefulPartitionedCall/strided_slice_9/stack_2","shape":[4],"dtype":"int32"},{"name":"StatefulPartitionedCall/Reshape_10/shape","shape":[2],"dtype":"int32"},{"name":"StatefulPartitionedCall/strided_slice_10/stack","shape":[4],"dtype":"int32"},{"name":"StatefulPartitionedCall/strided_slice_10/stack_1","shape":[4],"dtype":"int32"},{"name":"StatefulPartitionedCall/strided_slice_10/stack_2","shape":[4],"dtype":"int32"},{"name":"StatefulPartitionedCall/strided_slice_11/stack","shape":[4],"dtype":"int32"},{"name":"StatefulPartitionedCall/strided_slice_11/stack_1","shape":[4],"dtype":"int32"},{"name":"StatefulPartitionedCall/strided_slice_11/stack_2","shape":[4],"dtype":"int32"},{"name":"StatefulPartitionedCall/Reshape_11/shape","shape":[2],"dtype":"int32"},{"name":"StatefulPartitionedCall/kpt_regress_0/separable_conv2d_7/separable_conv2d/ReadVariableOp","shape":[3,3,24,1],"dtype":"float32","quantization":{"dtype":"float16","original_dtype":"float32"}},{"name":"StatefulPartitionedCall/kpt_regress_0/separable_conv2d_7/separable_conv2d/ReadVariableOp_1","shape":[1,1,24,96],"dtype":"float32","quantization":{"dtype":"float16","original_dtype":"float32"}},{"name":"StatefulPartitionedCall/kpt_regress_0/separable_conv2d_7/BiasAdd/ReadVariableOp","shape":[96],"dtype":"float32","quantization":{"dtype":"float16","original_dtype":"float32"}},{"name":"StatefulPartitionedCall/kpt_regress_0/conv2d_8/Conv2D/ReadVariableOp","shape":[1,1,96,34],"dtype":"float32","quantization":{"dtype":"float16","original_dtype":"float32"}},{"name":"StatefulPartitionedCall/kpt_regress_0/conv2d_8/BiasAdd/ReadVariableOp","shape":[34],"dtype":"float32","quantization":{"dtype":"float16","original_dtype":"float32"}},{"name":"StatefulPartitionedCall/Reshape_9/shape","shape":[3],"dtype":"int32"},{"name":"StatefulPartitionedCall/strided_slice_12/stack","shape":[4],"dtype":"int32"},{"name":"StatefulPartitionedCall/strided_slice_12/stack_1","shape":[4],"dtype":"int32"},{"name":"StatefulPartitionedCall/strided_slice_12/stack_2","shape":[4],"dtype":"int32"},{"name":"StatefulPartitionedCall/mul_6/y","shape":[],"dtype":"float32","quantization":{"dtype":"float16","original_dtype":"float32"}},{"name":"StatefulPartitionedCall/strided_slice_13/stack","shape":[3],"dtype":"int32"},{"name":"StatefulPartitionedCall/strided_slice_13/stack_1","shape":[3],"dtype":"int32"},{"name":"StatefulPartitionedCall/strided_slice_13/stack_2","shape":[3],"dtype":"int32"},{"name":"StatefulPartitionedCall/Reshape_12/shape","shape":[3],"dtype":"int32"},{"name":"StatefulPartitionedCall/meshgrid/Reshape_3/shape","shape":[2],"dtype":"int32"},{"name":"StatefulPartitionedCall/strided_slice_14/stack","shape":[3],"dtype":"int32"},{"name":"StatefulPartitionedCall/strided_slice_14/stack_1","shape":[3],"dtype":"int32"},{"name":"StatefulPartitionedCall/strided_slice_14/stack_2","shape":[3],"dtype":"int32"},{"name":"StatefulPartitionedCall/Reshape_13/shape","shape":[3],"dtype":"int32"},{"name":"StatefulPartitionedCall/strided_slice_15/stack","shape":[3],"dtype":"int32"},{"name":"StatefulPartitionedCall/strided_slice_15/stack_1","shape":[3],"dtype":"int32"},{"name":"StatefulPartitionedCall/strided_slice_15/stack_2","shape":[3],"dtype":"int32"},{"name":"StatefulPartitionedCall/Reshape_14/shape","shape":[3],"dtype":"int32"},{"name":"StatefulPartitionedCall/meshgrid/Reshape_2/shape","shape":[2],"dtype":"int32"},{"name":"StatefulPartitionedCall/range_2/start","shape":[],"dtype":"float32","quantization":{"dtype":"float16","original_dtype":"float32"}},{"name":"StatefulPartitionedCall/strided_slice_7/stack","shape":[1],"dtype":"int32"},{"name":"StatefulPartitionedCall/strided_slice_7/stack_1","shape":[1],"dtype":"int32"},{"name":"StatefulPartitionedCall/strided_slice_7/stack_2","shape":[1],"dtype":"int32"},{"name":"StatefulPartitionedCall/range_2/delta","shape":[],"dtype":"float32","quantization":{"dtype":"float16","original_dtype":"float32"}},{"name":"StatefulPartitionedCall/range_1/start","shape":[],"dtype":"float32","quantization":{"dtype":"float16","original_dtype":"float32"}},{"name":"StatefulPartitionedCall/kpt_heatmap_0/separable_conv2d_6/separable_conv2d/ReadVariableOp","shape":[3,3,24,1],"dtype":"float32","quantization":{"dtype":"float16","original_dtype":"float32"}},{"name":"StatefulPartitionedCall/kpt_heatmap_0/separable_conv2d_6/separable_conv2d/ReadVariableOp_1","shape":[1,1,24,96],"dtype":"float32","quantization":{"dtype":"float16","original_dtype":"float32"}},{"name":"StatefulPartitionedCall/kpt_heatmap_0/separable_conv2d_6/BiasAdd/ReadVariableOp","shape":[96],"dtype":"float32","quantization":{"dtype":"float16","original_dtype":"float32"}},{"name":"StatefulPartitionedCall/kpt_heatmap_0/conv2d_7/Conv2D/ReadVariableOp","shape":[1,1,96,17],"dtype":"float32","quantization":{"dtype":"float16","original_dtype":"float32"}},{"name":"StatefulPartitionedCall/kpt_heatmap_0/conv2d_7/BiasAdd/ReadVariableOp","shape":[17],"dtype":"float32","quantization":{"dtype":"float16","original_dtype":"float32"}},{"name":"StatefulPartitionedCall/strided_slice_8/stack","shape":[1],"dtype":"int32"},{"name":"StatefulPartitionedCall/strided_slice_8/stack_1","shape":[1],"dtype":"int32"},{"name":"StatefulPartitionedCall/strided_slice_8/stack_2","shape":[1],"dtype":"int32"},{"name":"StatefulPartitionedCall/range_1/delta","shape":[],"dtype":"float32","quantization":{"dtype":"float16","original_dtype":"float32"}},{"name":"StatefulPartitionedCall/meshgrid/ones/Const","shape":[],"dtype":"float32","quantization":{"dtype":"float16","original_dtype":"float32"}},{"name":"StatefulPartitionedCall/strided_slice_16/stack","shape":[3],"dtype":"int32"},{"name":"StatefulPartitionedCall/strided_slice_16/stack_1","shape":[3],"dtype":"int32"},{"name":"StatefulPartitionedCall/strided_slice_16/stack_2","shape":[3],"dtype":"int32"},{"name":"StatefulPartitionedCall/split/split_dim","shape":[],"dtype":"int32"},{"name":"ConstantFolding/StatefulPartitionedCall/truediv_2_recip","shape":[],"dtype":"float32","quantization":{"dtype":"float16","original_dtype":"float32"}},{"name":"StatefulPartitionedCall/clip_by_value/y","shape":[],"dtype":"float32","quantization":{"dtype":"float16","original_dtype":"float32"}},{"name":"ConstantFolding/StatefulPartitionedCall/truediv_3_recip","shape":[],"dtype":"float32","quantization":{"dtype":"float16","original_dtype":"float32"}},{"name":"StatefulPartitionedCall/clip_by_value_1/y","shape":[],"dtype":"float32","quantization":{"dtype":"float16","original_dtype":"float32"}},{"name":"ConstantFolding/StatefulPartitionedCall/truediv_4_recip","shape":[],"dtype":"float32","quantization":{"dtype":"float16","original_dtype":"float32"}},{"name":"StatefulPartitionedCall/strided_slice_4/stack","shape":[1],"dtype":"int32"},{"name":"StatefulPartitionedCall/strided_slice_4/stack_1","shape":[1],"dtype":"int32"},{"name":"StatefulPartitionedCall/strided_slice_4/stack_2","shape":[1],"dtype":"int32"},{"name":"StatefulPartitionedCall/clip_by_value_2/y","shape":[],"dtype":"float32","quantization":{"dtype":"float16","original_dtype":"float32"}},{"name":"StatefulPartitionedCall/box_offset_0/separable_conv2d_5/separable_conv2d/ReadVariableOp","shape":[3,3,24,1],"dtype":"float32","quantization":{"dtype":"float16","original_dtype":"float32"}},{"name":"StatefulPartitionedCall/box_offset_0/separable_conv2d_5/separable_conv2d/ReadVariableOp_1","shape":[1,1,24,96],"dtype":"float32","quantization":{"dtype":"float16","original_dtype":"float32"}},{"name":"StatefulPartitionedCall/box_offset_0/separable_conv2d_5/BiasAdd/ReadVariableOp","shape":[96],"dtype":"float32","quantization":{"dtype":"float16","original_dtype":"float32"}},{"name":"StatefulPartitionedCall/box_offset_0/conv2d_6/Conv2D/ReadVariableOp","shape":[1,1,96,2],"dtype":"float32","quantization":{"dtype":"float16","original_dtype":"float32"}},{"name":"StatefulPartitionedCall/box_offset_0/conv2d_6/BiasAdd/ReadVariableOp","shape":[2],"dtype":"float32","quantization":{"dtype":"float16","original_dtype":"float32"}},{"name":"StatefulPartitionedCall/Reshape_7/shape","shape":[3],"dtype":"int32"},{"name":"StatefulPartitionedCall/Reshape_3","shape":[6],"dtype":"int32"},{"name":"StatefulPartitionedCall/Reshape_4/shape","shape":[1],"dtype":"int32"},{"name":"StatefulPartitionedCall/floordiv_2/y","shape":[],"dtype":"int32"},{"name":"StatefulPartitionedCall/floordiv/y","shape":[],"dtype":"int32"},{"name":"StatefulPartitionedCall/strided_slice_3/stack","shape":[1],"dtype":"int32"},{"name":"StatefulPartitionedCall/strided_slice_3/stack_1","shape":[1],"dtype":"int32"},{"name":"StatefulPartitionedCall/strided_slice_3/stack_2","shape":[1],"dtype":"int32"},{"name":"StatefulPartitionedCall/Reshape_5/shape","shape":[1],"dtype":"int32"},{"name":"StatefulPartitionedCall/Reshape_6/shape","shape":[3],"dtype":"int32"},{"name":"StatefulPartitionedCall/Maximum/y","shape":[],"dtype":"float32","quantization":{"dtype":"float16","original_dtype":"float32"}},{"name":"ConstantFolding/StatefulPartitionedCall/truediv_5_recip","shape":[],"dtype":"float32","quantization":{"dtype":"float16","original_dtype":"float32"}},{"name":"StatefulPartitionedCall/box_scale_0/separable_conv2d_4/separable_conv2d/ReadVariableOp","shape":[3,3,24,1],"dtype":"float32","quantization":{"dtype":"float16","original_dtype":"float32"}},{"name":"StatefulPartitionedCall/box_scale_0/separable_conv2d_4/separable_conv2d/ReadVariableOp_1","shape":[1,1,24,96],"dtype":"float32","quantization":{"dtype":"float16","original_dtype":"float32"}},{"name":"StatefulPartitionedCall/box_scale_0/separable_conv2d_4/BiasAdd/ReadVariableOp","shape":[96],"dtype":"float32","quantization":{"dtype":"float16","original_dtype":"float32"}},{"name":"StatefulPartitionedCall/box_scale_0/conv2d_5/Conv2D/ReadVariableOp","shape":[1,1,96,2],"dtype":"float32","quantization":{"dtype":"float16","original_dtype":"float32"}},{"name":"StatefulPartitionedCall/box_scale_0/conv2d_5/BiasAdd/ReadVariableOp","shape":[2],"dtype":"float32","quantization":{"dtype":"float16","original_dtype":"float32"}},{"name":"StatefulPartitionedCall/strided_slice_5/stack","shape":[1],"dtype":"int32"},{"name":"StatefulPartitionedCall/strided_slice_5/stack_1","shape":[1],"dtype":"int32"},{"name":"StatefulPartitionedCall/strided_slice_5/stack_2","shape":[1],"dtype":"int32"},{"name":"StatefulPartitionedCall/clip_by_value_3/y","shape":[],"dtype":"float32","quantization":{"dtype":"float16","original_dtype":"float32"}},{"name":"StatefulPartitionedCall/Reshape_15/shape","shape":[3],"dtype":"int32"},{"name":"StatefulPartitionedCall/strided_slice_18/stack","shape":[4],"dtype":"int32"},{"name":"StatefulPartitionedCall/strided_slice_18/stack_1","shape":[4],"dtype":"int32"},{"name":"StatefulPartitionedCall/strided_slice_18/stack_2","shape":[4],"dtype":"int32"},{"name":"StatefulPartitionedCall/strided_slice_20/stack","shape":[1],"dtype":"int32"},{"name":"StatefulPartitionedCall/strided_slice_20/stack_1","shape":[1],"dtype":"int32"},{"name":"StatefulPartitionedCall/strided_slice_20/stack_2","shape":[1],"dtype":"int32"},{"name":"StatefulPartitionedCall/Reshape_19","shape":[102],"dtype":"int32"},{"name":"StatefulPartitionedCall/Reshape_20/shape","shape":[3],"dtype":"int32"},{"name":"StatefulPartitionedCall/zeros_like","shape":[1,6,17],"dtype":"float32","quantization":{"dtype":"float16","original_dtype":"float32"}},{"name":"StatefulPartitionedCall/Sum_3/reduction_indices","shape":[],"dtype":"int32"},{"name":"StatefulPartitionedCall/center_net_mobile_net_v2fpn_feature_extractor/model_1/conv2d/Conv2D/ReadVariableOp","shape":[1,1,1280,64],"dtype":"float32","quantization":{"dtype":"float16","original_dtype":"float32"}},{"name":"StatefulPartitionedCall/center_net_mobile_net_v2fpn_feature_extractor/model_1/conv2d/BiasAdd/ReadVariableOp","shape":[64],"dtype":"float32","quantization":{"dtype":"float16","original_dtype":"float32"}},{"name":"StatefulPartitionedCall/center_net_mobile_net_v2fpn_feature_extractor/model_1/up_sampling2d/strided_slice/stack","shape":[1],"dtype":"int32"},{"name":"StatefulPartitionedCall/center_net_mobile_net_v2fpn_feature_extractor/model_1/up_sampling2d/strided_slice/stack_1","shape":[1],"dtype":"int32"},{"name":"StatefulPartitionedCall/center_net_mobile_net_v2fpn_feature_extractor/model_1/up_sampling2d/strided_slice/stack_2","shape":[1],"dtype":"int32"},{"name":"StatefulPartitionedCall/center_net_mobile_net_v2fpn_feature_extractor/model_1/up_sampling2d/Const","shape":[2],"dtype":"int32"},{"name":"StatefulPartitionedCall/center_net_mobile_net_v2fpn_feature_extractor/model_1/conv2d_1/Conv2D/ReadVariableOp","shape":[1,1,96,64],"dtype":"float32","quantization":{"dtype":"float16","original_dtype":"float32"}},{"name":"StatefulPartitionedCall/center_net_mobile_net_v2fpn_feature_extractor/model_1/conv2d_1/BiasAdd/ReadVariableOp","shape":[64],"dtype":"float32","quantization":{"dtype":"float16","original_dtype":"float32"}},{"name":"StatefulPartitionedCall/center_net_mobile_net_v2fpn_feature_extractor/model_1/separable_conv2d/separable_conv2d/ReadVariableOp","shape":[3,3,64,1],"dtype":"float32","quantization":{"dtype":"float16","original_dtype":"float32"}},{"name":"StatefulPartitionedCall/center_net_mobile_net_v2fpn_feature_extractor/model_1/up_sampling2d_1/strided_slice/stack","shape":[1],"dtype":"int32"},{"name":"StatefulPartitionedCall/center_net_mobile_net_v2fpn_feature_extractor/model_1/up_sampling2d_1/strided_slice/stack_1","shape":[1],"dtype":"int32"},{"name":"StatefulPartitionedCall/center_net_mobile_net_v2fpn_feature_extractor/model_1/up_sampling2d_1/strided_slice/stack_2","shape":[1],"dtype":"int32"},{"name":"StatefulPartitionedCall/center_net_mobile_net_v2fpn_feature_extractor/model_1/up_sampling2d_1/Const","shape":[2],"dtype":"int32"},{"name":"StatefulPartitionedCall/center_net_mobile_net_v2fpn_feature_extractor/model_1/conv2d_2/Conv2D/ReadVariableOp","shape":[1,1,48,32],"dtype":"float32","quantization":{"dtype":"float16","original_dtype":"float32"}},{"name":"StatefulPartitionedCall/center_net_mobile_net_v2fpn_feature_extractor/model_1/conv2d_2/BiasAdd/ReadVariableOp","shape":[32],"dtype":"float32","quantization":{"dtype":"float16","original_dtype":"float32"}},{"name":"StatefulPartitionedCall/center_net_mobile_net_v2fpn_feature_extractor/model_1/separable_conv2d_1/separable_conv2d/ReadVariableOp","shape":[3,3,32,1],"dtype":"float32","quantization":{"dtype":"float16","original_dtype":"float32"}},{"name":"StatefulPartitionedCall/center_net_mobile_net_v2fpn_feature_extractor/model_1/up_sampling2d_2/strided_slice/stack","shape":[1],"dtype":"int32"},{"name":"StatefulPartitionedCall/center_net_mobile_net_v2fpn_feature_extractor/model_1/up_sampling2d_2/strided_slice/stack_1","shape":[1],"dtype":"int32"},{"name":"StatefulPartitionedCall/center_net_mobile_net_v2fpn_feature_extractor/model_1/up_sampling2d_2/strided_slice/stack_2","shape":[1],"dtype":"int32"},{"name":"StatefulPartitionedCall/center_net_mobile_net_v2fpn_feature_extractor/model_1/up_sampling2d_2/Const","shape":[2],"dtype":"int32"},{"name":"StatefulPartitionedCall/Reshape","shape":[1,1,1,3],"dtype":"float32","quantization":{"dtype":"float16","original_dtype":"float32"}},{"name":"StatefulPartitionedCall/truediv","shape":[1,1,1,3],"dtype":"float32","quantization":{"dtype":"float16","original_dtype":"float32"}},{"name":"StatefulPartitionedCall/sub_1/y","shape":[],"dtype":"float32","quantization":{"dtype":"float16","original_dtype":"float32"}},{"name":"StatefulPartitionedCall/center_net_mobile_net_v2fpn_feature_extractor/model_1/conv2d_3/Conv2D/ReadVariableOp","shape":[1,1,40,24],"dtype":"float32","quantization":{"dtype":"float16","original_dtype":"float32"}},{"name":"StatefulPartitionedCall/center_net_mobile_net_v2fpn_feature_extractor/model_1/conv2d_3/BiasAdd/ReadVariableOp","shape":[24],"dtype":"float32","quantization":{"dtype":"float16","original_dtype":"float32"}},{"name":"StatefulPartitionedCall/center_net_mobile_net_v2fpn_feature_extractor/model_1/separable_conv2d_2/separable_conv2d/ReadVariableOp","shape":[3,3,24,1],"dtype":"float32","quantization":{"dtype":"float16","original_dtype":"float32"}},{"name":"StatefulPartitionedCall/center_0/separable_conv2d_3/separable_conv2d/ReadVariableOp","shape":[3,3,24,1],"dtype":"float32","quantization":{"dtype":"float16","original_dtype":"float32"}},{"name":"StatefulPartitionedCall/center_0/separable_conv2d_3/separable_conv2d/ReadVariableOp_1","shape":[1,1,24,96],"dtype":"float32","quantization":{"dtype":"float16","original_dtype":"float32"}},{"name":"StatefulPartitionedCall/center_0/separable_conv2d_3/BiasAdd/ReadVariableOp","shape":[96],"dtype":"float32","quantization":{"dtype":"float16","original_dtype":"float32"}},{"name":"StatefulPartitionedCall/center_0/conv2d_4/Conv2D/ReadVariableOp","shape":[1,1,96,1],"dtype":"float32","quantization":{"dtype":"float16","original_dtype":"float32"}},{"name":"StatefulPartitionedCall/center_0/conv2d_4/BiasAdd/ReadVariableOp","shape":[1],"dtype":"float32","quantization":{"dtype":"float16","original_dtype":"float32"}},{"name":"StatefulPartitionedCall/Less/y","shape":[],"dtype":"float32","quantization":{"dtype":"float16","original_dtype":"float32"}},{"name":"StatefulPartitionedCall/Reshape_2/shape","shape":[2],"dtype":"int32"},{"name":"StatefulPartitionedCall/TopKV2/k","shape":[],"dtype":"int32"},{"name":"StatefulPartitionedCall/strided_slice_24/stack","shape":[3],"dtype":"int32"},{"name":"StatefulPartitionedCall/strided_slice_24/stack_1","shape":[3],"dtype":"int32"},{"name":"StatefulPartitionedCall/strided_slice_24/stack_2","shape":[3],"dtype":"int32"},{"name":"StatefulPartitionedCall/concat_1/axis","shape":[],"dtype":"int32"},{"name":"StatefulPartitionedCall/center_net_mobile_net_v2fpn_feature_extractor/model_1/model/Conv1/Conv2D_weights","shape":[3,3,3,48],"dtype":"float32","quantization":{"dtype":"float16","original_dtype":"float32"}},{"name":"StatefulPartitionedCall/center_net_mobile_net_v2fpn_feature_extractor/model_1/model/Conv1/Conv2D_bn_offset","shape":[48],"dtype":"float32","quantization":{"dtype":"float16","original_dtype":"float32"}},{"name":"StatefulPartitionedCall/center_net_mobile_net_v2fpn_feature_extractor/model_1/model/expanded_conv_depthwise/depthwise_weights","shape":[3,3,48,1],"dtype":"float32","quantization":{"dtype":"float16","original_dtype":"float32"}},{"name":"StatefulPartitionedCall/center_net_mobile_net_v2fpn_feature_extractor/model_1/model/expanded_conv_depthwise/depthwise_bn_offset","shape":[48],"dtype":"float32","quantization":{"dtype":"float16","original_dtype":"float32"}},{"name":"StatefulPartitionedCall/center_net_mobile_net_v2fpn_feature_extractor/model_1/model/expanded_conv_project/Conv2D_weights","shape":[1,1,48,24],"dtype":"float32","quantization":{"dtype":"float16","original_dtype":"float32"}},{"name":"StatefulPartitionedCall/center_net_mobile_net_v2fpn_feature_extractor/model_1/model/expanded_conv_project/Conv2D_bn_offset","shape":[24],"dtype":"float32","quantization":{"dtype":"float16","original_dtype":"float32"}},{"name":"StatefulPartitionedCall/center_net_mobile_net_v2fpn_feature_extractor/model_1/model/block_1_expand/Conv2D_weights","shape":[1,1,24,144],"dtype":"float32","quantization":{"dtype":"float16","original_dtype":"float32"}},{"name":"StatefulPartitionedCall/center_net_mobile_net_v2fpn_feature_extractor/model_1/model/block_1_expand/Conv2D_bn_offset","shape":[144],"dtype":"float32","quantization":{"dtype":"float16","original_dtype":"float32"}},{"name":"StatefulPartitionedCall/center_net_mobile_net_v2fpn_feature_extractor/model_1/model/block_1_depthwise/depthwise_weights","shape":[3,3,144,1],"dtype":"float32","quantization":{"dtype":"float16","original_dtype":"float32"}},{"name":"StatefulPartitionedCall/center_net_mobile_net_v2fpn_feature_extractor/model_1/model/block_1_depthwise/depthwise_bn_offset","shape":[144],"dtype":"float32","quantization":{"dtype":"float16","original_dtype":"float32"}},{"name":"StatefulPartitionedCall/center_net_mobile_net_v2fpn_feature_extractor/model_1/model/block_1_project/Conv2D_weights","shape":[1,1,144,40],"dtype":"float32","quantization":{"dtype":"float16","original_dtype":"float32"}},{"name":"StatefulPartitionedCall/center_net_mobile_net_v2fpn_feature_extractor/model_1/model/block_1_project/Conv2D_bn_offset","shape":[40],"dtype":"float32","quantization":{"dtype":"float16","original_dtype":"float32"}},{"name":"StatefulPartitionedCall/center_net_mobile_net_v2fpn_feature_extractor/model_1/model/block_2_expand/Conv2D_weights","shape":[1,1,40,240],"dtype":"float32","quantization":{"dtype":"float16","original_dtype":"float32"}},{"name":"StatefulPartitionedCall/center_net_mobile_net_v2fpn_feature_extractor/model_1/model/block_2_expand/Conv2D_bn_offset","shape":[240],"dtype":"float32","quantization":{"dtype":"float16","original_dtype":"float32"}},{"name":"StatefulPartitionedCall/center_net_mobile_net_v2fpn_feature_extractor/model_1/model/block_2_depthwise/depthwise_weights","shape":[3,3,240,1],"dtype":"float32","quantization":{"dtype":"float16","original_dtype":"float32"}},{"name":"StatefulPartitionedCall/center_net_mobile_net_v2fpn_feature_extractor/model_1/model/block_2_depthwise/depthwise_bn_offset","shape":[240],"dtype":"float32","quantization":{"dtype":"float16","original_dtype":"float32"}},{"name":"StatefulPartitionedCall/center_net_mobile_net_v2fpn_feature_extractor/model_1/model/block_2_project/Conv2D_weights","shape":[1,1,240,40],"dtype":"float32","quantization":{"dtype":"float16","original_dtype":"float32"}},{"name":"StatefulPartitionedCall/center_net_mobile_net_v2fpn_feature_extractor/model_1/model/block_2_project/Conv2D_bn_offset","shape":[40],"dtype":"float32","quantization":{"dtype":"float16","original_dtype":"float32"}},{"name":"StatefulPartitionedCall/center_net_mobile_net_v2fpn_feature_extractor/model_1/model/block_3_expand/Conv2D_weights","shape":[1,1,40,240],"dtype":"float32","quantization":{"dtype":"float16","original_dtype":"float32"}},{"name":"StatefulPartitionedCall/center_net_mobile_net_v2fpn_feature_extractor/model_1/model/block_3_expand/Conv2D_bn_offset","shape":[240],"dtype":"float32","quantization":{"dtype":"float16","original_dtype":"float32"}},{"name":"StatefulPartitionedCall/center_net_mobile_net_v2fpn_feature_extractor/model_1/model/block_3_depthwise/depthwise_weights","shape":[3,3,240,1],"dtype":"float32","quantization":{"dtype":"float16","original_dtype":"float32"}},{"name":"StatefulPartitionedCall/center_net_mobile_net_v2fpn_feature_extractor/model_1/model/block_3_depthwise/depthwise_bn_offset","shape":[240],"dtype":"float32","quantization":{"dtype":"float16","original_dtype":"float32"}},{"name":"StatefulPartitionedCall/center_net_mobile_net_v2fpn_feature_extractor/model_1/model/block_3_project/Conv2D_weights","shape":[1,1,240,48],"dtype":"float32","quantization":{"dtype":"float16","original_dtype":"float32"}},{"name":"StatefulPartitionedCall/center_net_mobile_net_v2fpn_feature_extractor/model_1/model/block_3_project/Conv2D_bn_offset","shape":[48],"dtype":"float32","quantization":{"dtype":"float16","original_dtype":"float32"}},{"name":"StatefulPartitionedCall/center_net_mobile_net_v2fpn_feature_extractor/model_1/model/block_4_expand/Conv2D_weights","shape":[1,1,48,288],"dtype":"float32","quantization":{"dtype":"float16","original_dtype":"float32"}},{"name":"StatefulPartitionedCall/center_net_mobile_net_v2fpn_feature_extractor/model_1/model/block_4_expand/Conv2D_bn_offset","shape":[288],"dtype":"float32","quantization":{"dtype":"float16","original_dtype":"float32"}},{"name":"StatefulPartitionedCall/center_net_mobile_net_v2fpn_feature_extractor/model_1/model/block_4_depthwise/depthwise_weights","shape":[3,3,288,1],"dtype":"float32","quantization":{"dtype":"float16","original_dtype":"float32"}},{"name":"StatefulPartitionedCall/center_net_mobile_net_v2fpn_feature_extractor/model_1/model/block_4_depthwise/depthwise_bn_offset","shape":[288],"dtype":"float32","quantization":{"dtype":"float16","original_dtype":"float32"}},{"name":"StatefulPartitionedCall/center_net_mobile_net_v2fpn_feature_extractor/model_1/model/block_4_project/Conv2D_weights","shape":[1,1,288,48],"dtype":"float32","quantization":{"dtype":"float16","original_dtype":"float32"}},{"name":"StatefulPartitionedCall/center_net_mobile_net_v2fpn_feature_extractor/model_1/model/block_4_project/Conv2D_bn_offset","shape":[48],"dtype":"float32","quantization":{"dtype":"float16","original_dtype":"float32"}},{"name":"StatefulPartitionedCall/center_net_mobile_net_v2fpn_feature_extractor/model_1/model/block_5_expand/Conv2D_weights","shape":[1,1,48,288],"dtype":"float32","quantization":{"dtype":"float16","original_dtype":"float32"}},{"name":"StatefulPartitionedCall/center_net_mobile_net_v2fpn_feature_extractor/model_1/model/block_5_expand/Conv2D_bn_offset","shape":[288],"dtype":"float32","quantization":{"dtype":"float16","original_dtype":"float32"}},{"name":"StatefulPartitionedCall/center_net_mobile_net_v2fpn_feature_extractor/model_1/model/block_5_depthwise/depthwise_weights","shape":[3,3,288,1],"dtype":"float32","quantization":{"dtype":"float16","original_dtype":"float32"}},{"name":"StatefulPartitionedCall/center_net_mobile_net_v2fpn_feature_extractor/model_1/model/block_5_depthwise/depthwise_bn_offset","shape":[288],"dtype":"float32","quantization":{"dtype":"float16","original_dtype":"float32"}},{"name":"StatefulPartitionedCall/center_net_mobile_net_v2fpn_feature_extractor/model_1/model/block_5_project/Conv2D_weights","shape":[1,1,288,48],"dtype":"float32","quantization":{"dtype":"float16","original_dtype":"float32"}},{"name":"StatefulPartitionedCall/center_net_mobile_net_v2fpn_feature_extractor/model_1/model/block_5_project/Conv2D_bn_offset","shape":[48],"dtype":"float32","quantization":{"dtype":"float16","original_dtype":"float32"}},{"name":"StatefulPartitionedCall/center_net_mobile_net_v2fpn_feature_extractor/model_1/model/block_6_expand/Conv2D_weights","shape":[1,1,48,288],"dtype":"float32","quantization":{"dtype":"float16","original_dtype":"float32"}},{"name":"StatefulPartitionedCall/center_net_mobile_net_v2fpn_feature_extractor/model_1/model/block_6_expand/Conv2D_bn_offset","shape":[288],"dtype":"float32","quantization":{"dtype":"float16","original_dtype":"float32"}},{"name":"StatefulPartitionedCall/center_net_mobile_net_v2fpn_feature_extractor/model_1/model/block_6_depthwise/depthwise_weights","shape":[3,3,288,1],"dtype":"float32","quantization":{"dtype":"float16","original_dtype":"float32"}},{"name":"StatefulPartitionedCall/center_net_mobile_net_v2fpn_feature_extractor/model_1/model/block_6_depthwise/depthwise_bn_offset","shape":[288],"dtype":"float32","quantization":{"dtype":"float16","original_dtype":"float32"}},{"name":"StatefulPartitionedCall/center_net_mobile_net_v2fpn_feature_extractor/model_1/model/block_6_project/Conv2D_weights","shape":[1,1,288,96],"dtype":"float32","quantization":{"dtype":"float16","original_dtype":"float32"}},{"name":"StatefulPartitionedCall/center_net_mobile_net_v2fpn_feature_extractor/model_1/model/block_6_project/Conv2D_bn_offset","shape":[96],"dtype":"float32","quantization":{"dtype":"float16","original_dtype":"float32"}},{"name":"StatefulPartitionedCall/center_net_mobile_net_v2fpn_feature_extractor/model_1/model/block_7_expand/Conv2D_weights","shape":[1,1,96,576],"dtype":"float32","quantization":{"dtype":"float16","original_dtype":"float32"}},{"name":"StatefulPartitionedCall/center_net_mobile_net_v2fpn_feature_extractor/model_1/model/block_7_expand/Conv2D_bn_offset","shape":[576],"dtype":"float32","quantization":{"dtype":"float16","original_dtype":"float32"}},{"name":"StatefulPartitionedCall/center_net_mobile_net_v2fpn_feature_extractor/model_1/model/block_7_depthwise/depthwise_weights","shape":[3,3,576,1],"dtype":"float32","quantization":{"dtype":"float16","original_dtype":"float32"}},{"name":"StatefulPartitionedCall/center_net_mobile_net_v2fpn_feature_extractor/model_1/model/block_7_depthwise/depthwise_bn_offset","shape":[576],"dtype":"float32","quantization":{"dtype":"float16","original_dtype":"float32"}},{"name":"StatefulPartitionedCall/center_net_mobile_net_v2fpn_feature_extractor/model_1/model/block_7_project/Conv2D_weights","shape":[1,1,576,96],"dtype":"float32","quantization":{"dtype":"float16","original_dtype":"float32"}},{"name":"StatefulPartitionedCall/center_net_mobile_net_v2fpn_feature_extractor/model_1/model/block_7_project/Conv2D_bn_offset","shape":[96],"dtype":"float32","quantization":{"dtype":"float16","original_dtype":"float32"}},{"name":"StatefulPartitionedCall/center_net_mobile_net_v2fpn_feature_extractor/model_1/model/block_8_expand/Conv2D_weights","shape":[1,1,96,576],"dtype":"float32","quantization":{"dtype":"float16","original_dtype":"float32"}},{"name":"StatefulPartitionedCall/center_net_mobile_net_v2fpn_feature_extractor/model_1/model/block_8_expand/Conv2D_bn_offset","shape":[576],"dtype":"float32","quantization":{"dtype":"float16","original_dtype":"float32"}},{"name":"StatefulPartitionedCall/center_net_mobile_net_v2fpn_feature_extractor/model_1/model/block_8_depthwise/depthwise_weights","shape":[3,3,576,1],"dtype":"float32","quantization":{"dtype":"float16","original_dtype":"float32"}},{"name":"StatefulPartitionedCall/center_net_mobile_net_v2fpn_feature_extractor/model_1/model/block_8_depthwise/depthwise_bn_offset","shape":[576],"dtype":"float32","quantization":{"dtype":"float16","original_dtype":"float32"}},{"name":"StatefulPartitionedCall/center_net_mobile_net_v2fpn_feature_extractor/model_1/model/block_8_project/Conv2D_weights","shape":[1,1,576,96],"dtype":"float32","quantization":{"dtype":"float16","original_dtype":"float32"}},{"name":"StatefulPartitionedCall/center_net_mobile_net_v2fpn_feature_extractor/model_1/model/block_8_project/Conv2D_bn_offset","shape":[96],"dtype":"float32","quantization":{"dtype":"float16","original_dtype":"float32"}},{"name":"StatefulPartitionedCall/center_net_mobile_net_v2fpn_feature_extractor/model_1/model/block_9_expand/Conv2D_weights","shape":[1,1,96,576],"dtype":"float32","quantization":{"dtype":"float16","original_dtype":"float32"}},{"name":"StatefulPartitionedCall/center_net_mobile_net_v2fpn_feature_extractor/model_1/model/block_9_expand/Conv2D_bn_offset","shape":[576],"dtype":"float32","quantization":{"dtype":"float16","original_dtype":"float32"}},{"name":"StatefulPartitionedCall/center_net_mobile_net_v2fpn_feature_extractor/model_1/model/block_9_depthwise/depthwise_weights","shape":[3,3,576,1],"dtype":"float32","quantization":{"dtype":"float16","original_dtype":"float32"}},{"name":"StatefulPartitionedCall/center_net_mobile_net_v2fpn_feature_extractor/model_1/model/block_9_depthwise/depthwise_bn_offset","shape":[576],"dtype":"float32","quantization":{"dtype":"float16","original_dtype":"float32"}},{"name":"StatefulPartitionedCall/center_net_mobile_net_v2fpn_feature_extractor/model_1/model/block_9_project/Conv2D_weights","shape":[1,1,576,96],"dtype":"float32","quantization":{"dtype":"float16","original_dtype":"float32"}},{"name":"StatefulPartitionedCall/center_net_mobile_net_v2fpn_feature_extractor/model_1/model/block_9_project/Conv2D_bn_offset","shape":[96],"dtype":"float32","quantization":{"dtype":"float16","original_dtype":"float32"}},{"name":"StatefulPartitionedCall/center_net_mobile_net_v2fpn_feature_extractor/model_1/model/block_10_expand/Conv2D_weights","shape":[1,1,96,576],"dtype":"float32","quantization":{"dtype":"float16","original_dtype":"float32"}},{"name":"StatefulPartitionedCall/center_net_mobile_net_v2fpn_feature_extractor/model_1/model/block_10_expand/Conv2D_bn_offset","shape":[576],"dtype":"float32","quantization":{"dtype":"float16","original_dtype":"float32"}},{"name":"StatefulPartitionedCall/center_net_mobile_net_v2fpn_feature_extractor/model_1/model/block_10_depthwise/depthwise_weights","shape":[3,3,576,1],"dtype":"float32","quantization":{"dtype":"float16","original_dtype":"float32"}},{"name":"StatefulPartitionedCall/center_net_mobile_net_v2fpn_feature_extractor/model_1/model/block_10_depthwise/depthwise_bn_offset","shape":[576],"dtype":"float32","quantization":{"dtype":"float16","original_dtype":"float32"}},{"name":"StatefulPartitionedCall/center_net_mobile_net_v2fpn_feature_extractor/model_1/model/block_10_project/Conv2D_weights","shape":[1,1,576,144],"dtype":"float32","quantization":{"dtype":"float16","original_dtype":"float32"}},{"name":"StatefulPartitionedCall/center_net_mobile_net_v2fpn_feature_extractor/model_1/model/block_10_project/Conv2D_bn_offset","shape":[144],"dtype":"float32","quantization":{"dtype":"float16","original_dtype":"float32"}},{"name":"StatefulPartitionedCall/center_net_mobile_net_v2fpn_feature_extractor/model_1/model/block_11_expand/Conv2D_weights","shape":[1,1,144,864],"dtype":"float32","quantization":{"dtype":"float16","original_dtype":"float32"}},{"name":"StatefulPartitionedCall/center_net_mobile_net_v2fpn_feature_extractor/model_1/model/block_11_expand/Conv2D_bn_offset","shape":[864],"dtype":"float32","quantization":{"dtype":"float16","original_dtype":"float32"}},{"name":"StatefulPartitionedCall/center_net_mobile_net_v2fpn_feature_extractor/model_1/model/block_11_depthwise/depthwise_weights","shape":[3,3,864,1],"dtype":"float32","quantization":{"dtype":"float16","original_dtype":"float32"}},{"name":"StatefulPartitionedCall/center_net_mobile_net_v2fpn_feature_extractor/model_1/model/block_11_depthwise/depthwise_bn_offset","shape":[864],"dtype":"float32","quantization":{"dtype":"float16","original_dtype":"float32"}},{"name":"StatefulPartitionedCall/center_net_mobile_net_v2fpn_feature_extractor/model_1/model/block_11_project/Conv2D_weights","shape":[1,1,864,144],"dtype":"float32","quantization":{"dtype":"float16","original_dtype":"float32"}},{"name":"StatefulPartitionedCall/center_net_mobile_net_v2fpn_feature_extractor/model_1/model/block_11_project/Conv2D_bn_offset","shape":[144],"dtype":"float32","quantization":{"dtype":"float16","original_dtype":"float32"}},{"name":"StatefulPartitionedCall/center_net_mobile_net_v2fpn_feature_extractor/model_1/model/block_12_expand/Conv2D_weights","shape":[1,1,144,864],"dtype":"float32","quantization":{"dtype":"float16","original_dtype":"float32"}},{"name":"StatefulPartitionedCall/center_net_mobile_net_v2fpn_feature_extractor/model_1/model/block_12_expand/Conv2D_bn_offset","shape":[864],"dtype":"float32","quantization":{"dtype":"float16","original_dtype":"float32"}},{"name":"StatefulPartitionedCall/center_net_mobile_net_v2fpn_feature_extractor/model_1/model/block_12_depthwise/depthwise_weights","shape":[3,3,864,1],"dtype":"float32","quantization":{"dtype":"float16","original_dtype":"float32"}},{"name":"StatefulPartitionedCall/center_net_mobile_net_v2fpn_feature_extractor/model_1/model/block_12_depthwise/depthwise_bn_offset","shape":[864],"dtype":"float32","quantization":{"dtype":"float16","original_dtype":"float32"}},{"name":"StatefulPartitionedCall/center_net_mobile_net_v2fpn_feature_extractor/model_1/model/block_12_project/Conv2D_weights","shape":[1,1,864,144],"dtype":"float32","quantization":{"dtype":"float16","original_dtype":"float32"}},{"name":"StatefulPartitionedCall/center_net_mobile_net_v2fpn_feature_extractor/model_1/model/block_12_project/Conv2D_bn_offset","shape":[144],"dtype":"float32","quantization":{"dtype":"float16","original_dtype":"float32"}},{"name":"StatefulPartitionedCall/center_net_mobile_net_v2fpn_feature_extractor/model_1/model/block_13_expand/Conv2D_weights","shape":[1,1,144,864],"dtype":"float32","quantization":{"dtype":"float16","original_dtype":"float32"}},{"name":"StatefulPartitionedCall/center_net_mobile_net_v2fpn_feature_extractor/model_1/model/block_13_expand/Conv2D_bn_offset","shape":[864],"dtype":"float32","quantization":{"dtype":"float16","original_dtype":"float32"}},{"name":"StatefulPartitionedCall/center_net_mobile_net_v2fpn_feature_extractor/model_1/model/block_13_depthwise/depthwise_weights","shape":[3,3,864,1],"dtype":"float32","quantization":{"dtype":"float16","original_dtype":"float32"}},{"name":"StatefulPartitionedCall/center_net_mobile_net_v2fpn_feature_extractor/model_1/model/block_13_depthwise/depthwise_bn_offset","shape":[864],"dtype":"float32","quantization":{"dtype":"float16","original_dtype":"float32"}},{"name":"StatefulPartitionedCall/center_net_mobile_net_v2fpn_feature_extractor/model_1/model/block_13_project/Conv2D_weights","shape":[1,1,864,240],"dtype":"float32","quantization":{"dtype":"float16","original_dtype":"float32"}},{"name":"StatefulPartitionedCall/center_net_mobile_net_v2fpn_feature_extractor/model_1/model/block_13_project/Conv2D_bn_offset","shape":[240],"dtype":"float32","quantization":{"dtype":"float16","original_dtype":"float32"}},{"name":"StatefulPartitionedCall/center_net_mobile_net_v2fpn_feature_extractor/model_1/model/block_14_expand/Conv2D_weights","shape":[1,1,240,1440],"dtype":"float32","quantization":{"dtype":"float16","original_dtype":"float32"}},{"name":"StatefulPartitionedCall/center_net_mobile_net_v2fpn_feature_extractor/model_1/model/block_14_expand/Conv2D_bn_offset","shape":[1440],"dtype":"float32","quantization":{"dtype":"float16","original_dtype":"float32"}},{"name":"StatefulPartitionedCall/center_net_mobile_net_v2fpn_feature_extractor/model_1/model/block_14_depthwise/depthwise_weights","shape":[3,3,1440,1],"dtype":"float32","quantization":{"dtype":"float16","original_dtype":"float32"}},{"name":"StatefulPartitionedCall/center_net_mobile_net_v2fpn_feature_extractor/model_1/model/block_14_depthwise/depthwise_bn_offset","shape":[1440],"dtype":"float32","quantization":{"dtype":"float16","original_dtype":"float32"}},{"name":"StatefulPartitionedCall/center_net_mobile_net_v2fpn_feature_extractor/model_1/model/block_14_project/Conv2D_weights","shape":[1,1,1440,240],"dtype":"float32","quantization":{"dtype":"float16","original_dtype":"float32"}},{"name":"StatefulPartitionedCall/center_net_mobile_net_v2fpn_feature_extractor/model_1/model/block_14_project/Conv2D_bn_offset","shape":[240],"dtype":"float32","quantization":{"dtype":"float16","original_dtype":"float32"}},{"name":"StatefulPartitionedCall/center_net_mobile_net_v2fpn_feature_extractor/model_1/model/block_15_expand/Conv2D_weights","shape":[1,1,240,1440],"dtype":"float32","quantization":{"dtype":"float16","original_dtype":"float32"}},{"name":"StatefulPartitionedCall/center_net_mobile_net_v2fpn_feature_extractor/model_1/model/block_15_expand/Conv2D_bn_offset","shape":[1440],"dtype":"float32","quantization":{"dtype":"float16","original_dtype":"float32"}},{"name":"StatefulPartitionedCall/center_net_mobile_net_v2fpn_feature_extractor/model_1/model/block_15_depthwise/depthwise_weights","shape":[3,3,1440,1],"dtype":"float32","quantization":{"dtype":"float16","original_dtype":"float32"}},{"name":"StatefulPartitionedCall/center_net_mobile_net_v2fpn_feature_extractor/model_1/model/block_15_depthwise/depthwise_bn_offset","shape":[1440],"dtype":"float32","quantization":{"dtype":"float16","original_dtype":"float32"}},{"name":"StatefulPartitionedCall/center_net_mobile_net_v2fpn_feature_extractor/model_1/model/block_15_project/Conv2D_weights","shape":[1,1,1440,240],"dtype":"float32","quantization":{"dtype":"float16","original_dtype":"float32"}},{"name":"StatefulPartitionedCall/center_net_mobile_net_v2fpn_feature_extractor/model_1/model/block_15_project/Conv2D_bn_offset","shape":[240],"dtype":"float32","quantization":{"dtype":"float16","original_dtype":"float32"}},{"name":"StatefulPartitionedCall/center_net_mobile_net_v2fpn_feature_extractor/model_1/model/block_16_expand/Conv2D_weights","shape":[1,1,240,1440],"dtype":"float32","quantization":{"dtype":"float16","original_dtype":"float32"}},{"name":"StatefulPartitionedCall/center_net_mobile_net_v2fpn_feature_extractor/model_1/model/block_16_expand/Conv2D_bn_offset","shape":[1440],"dtype":"float32","quantization":{"dtype":"float16","original_dtype":"float32"}},{"name":"StatefulPartitionedCall/center_net_mobile_net_v2fpn_feature_extractor/model_1/model/block_16_depthwise/depthwise_weights","shape":[3,3,1440,1],"dtype":"float32","quantization":{"dtype":"float16","original_dtype":"float32"}},{"name":"StatefulPartitionedCall/center_net_mobile_net_v2fpn_feature_extractor/model_1/model/block_16_depthwise/depthwise_bn_offset","shape":[1440],"dtype":"float32","quantization":{"dtype":"float16","original_dtype":"float32"}},{"name":"StatefulPartitionedCall/center_net_mobile_net_v2fpn_feature_extractor/model_1/model/block_16_project/Conv2D_weights","shape":[1,1,1440,480],"dtype":"float32","quantization":{"dtype":"float16","original_dtype":"float32"}},{"name":"StatefulPartitionedCall/center_net_mobile_net_v2fpn_feature_extractor/model_1/model/block_16_project/Conv2D_bn_offset","shape":[480],"dtype":"float32","quantization":{"dtype":"float16","original_dtype":"float32"}},{"name":"StatefulPartitionedCall/center_net_mobile_net_v2fpn_feature_extractor/model_1/model/Conv_1/Conv2D_weights","shape":[1,1,480,1280],"dtype":"float32","quantization":{"dtype":"float16","original_dtype":"float32"}},{"name":"StatefulPartitionedCall/center_net_mobile_net_v2fpn_feature_extractor/model_1/model/Conv_1/Conv2D_bn_offset","shape":[1280],"dtype":"float32","quantization":{"dtype":"float16","original_dtype":"float32"}},{"name":"StatefulPartitionedCall/center_net_mobile_net_v2fpn_feature_extractor/model_1/separable_conv2d/separable_conv2d_weights","shape":[1,1,64,32],"dtype":"float32","quantization":{"dtype":"float16","original_dtype":"float32"}},{"name":"StatefulPartitionedCall/center_net_mobile_net_v2fpn_feature_extractor/model_1/separable_conv2d/separable_conv2d_bn_offset","shape":[32],"dtype":"float32","quantization":{"dtype":"float16","original_dtype":"float32"}},{"name":"StatefulPartitionedCall/center_net_mobile_net_v2fpn_feature_extractor/model_1/separable_conv2d_1/separable_conv2d_weights","shape":[1,1,32,24],"dtype":"float32","quantization":{"dtype":"float16","original_dtype":"float32"}},{"name":"StatefulPartitionedCall/center_net_mobile_net_v2fpn_feature_extractor/model_1/separable_conv2d_1/separable_conv2d_bn_offset","shape":[24],"dtype":"float32","quantization":{"dtype":"float16","original_dtype":"float32"}},{"name":"StatefulPartitionedCall/center_net_mobile_net_v2fpn_feature_extractor/model_1/separable_conv2d_2/separable_conv2d_weights","shape":[1,1,24,24],"dtype":"float32","quantization":{"dtype":"float16","original_dtype":"float32"}},{"name":"StatefulPartitionedCall/center_net_mobile_net_v2fpn_feature_extractor/model_1/separable_conv2d_2/separable_conv2d_bn_offset","shape":[24],"dtype":"float32","quantization":{"dtype":"float16","original_dtype":"float32"}}]
      }
  ]
}